…
      sampler {
        min_scale: 0.3
        max_scale: 1
        min_aspect_ratio: 0.5
        max_aspect_ratio: 2
      }
      sample_constraint {
        min_jaccard_overlap: 0.9
      }
      max_sample: 1
      max_trials: 50
    }
    batch_sampler {
      sampler {
        min_scale: 0.3
        max_scale: 1
        min_aspect_ratio: 0.5
        max_aspect_ratio: 2
      }
      sample_constraint {
        max_jaccard_overlap: 1
      }
      max_sample: 1
      max_trials: 50
    }
    label_map_file: "data/ascend/labelmap.prototxt"
  }
}
layer {
  name: "conv1_1"
  type: "Convolution"
  bottom: "data"
  top: "conv1_1"
  param {
    lr_mult: 1
    decay_mult: 1
  }
  param {
    lr_mult: 2
    decay_mult: 0
  }
  convolution_param {
    num_output: 64
    pad: 1
    kernel_size: 3
    weight_filler {
      type: "xavier"
    }
    bias_filler {
      type: "constant"
      value: 0
    }
  }
}
layer {
  name: "relu1_1"
  type: "ReLU"
  bottom: "conv1_1"
  top: "conv1_1"
}
layer {
  name: "conv1_2"
  type: "Convolution"
  bottom: "conv1_1"
  top: "conv1_2"
  param {
    lr_mult: 1
    decay_mult: 1
  }
  param {
    lr_mult: 2
    decay_mult: 0
  }
  convolution_param {
    num_output: 64
    pad: 1
    kernel_size: 3
    weight_filler {
      type: "xavier"
    }
    bias_filler {
      type: "constant"
      value: 0
    }
  }
}
layer {
  name: "relu1_2"
  type: "ReLU"
  bottom: "conv1_2"
  top: "conv1_2"
}
layer {
  name: "pool1"
  type: "Pooling"
  bottom: "conv1_2"
  top: "pool1"
  pooling_param {
    pool: MAX
    kernel_size: 2
    stride: 2
  }
}
layer {
  name: "conv2_1"
  type: "Convolution"
  bottom: "pool1"
  top: "conv2_1"
  param {
    lr_mult: 1
    decay_mult: 1
  }
  param {
    lr_mult: 2
    decay_mult: 0
  }
  convolution_param {
    num_output: 128
    pad: 1
    kernel_size: 3
    weight_filler {
      type: "xavier"
    }
    bias_filler {
      type: "constant"
      value: 0
    }
  }
}
layer {
  name: "relu2_1"
  type: "ReLU"
  bottom: "conv2_1"
  top: "conv2_1"
}
layer {
  name: "conv2_2"
  type: "Convolution"
  bottom: "conv2_1"
  top: "conv2_2"
  param {
    lr_mult: 1
    decay_mult: 1
  }
  param {
    lr_mult: 2
    decay_mult: 0
  }
  convolution_param {
    num_output: 128
    pad: 1
    kernel_size: 3
    weight_filler {
      type: "xavier"
    }
    bias_filler {
      type: "constant"
      value: 0
    }
  }
}
layer {
  name: "relu2_2"
  type: "ReLU"
  bottom: "conv2_2"
  top: "conv2_2"
}
layer {
  name: "pool2"
  type: "Pooling"
  bottom: "conv2_2"
  top: "pool2"
  pooling_param {
    pool: MAX
    kernel_size: 2
    stride: 2
  }
}
layer {
  name: "conv3_1"
  type: "Convolution"
  bottom: "pool2"
  top: "conv3_1"
  param {
    lr_mult: 1
    decay_mult: 1
  }
  param {
    lr_mult: 2
    decay_mult: 0
  }
  convolution_param {
    num_output: 256
    pad: 1
    kernel_size: 3
    weight_filler {
      type: "xavier"
    }
    bias_filler {
      type: "constant"
      value: 0
    }
  }
}
layer {
  name: "relu3_1"
  type: "ReLU"
  bottom: "conv3_1"
  top: "conv3_1"
}
layer {
  name: "conv3_2"
  type: "Convolution"
  bottom: "conv3_1"
  top: "conv3_2"
  param {
    lr_mult: 1
    decay_mult: 1
  }
  param {
    lr_mult: 2
    decay_mult: 0
  }
  convolution_param {
    num_output: 256
    pad: 1
    kernel_size: 3
    weight_filler {
      type: "xavier"
    }
    bias_filler {
      type: "constant"
      value: 0
    }
  }
}
layer {
  name: "relu3_2"
  type: "ReLU"
  bottom: "conv3_2"
  top: "conv3_2"
}
layer {
  name: "conv3_3"
  type: "Convolution"
  bottom: "conv3_2"
  top: "conv3_3"
  param {
    lr_mult: 1
    decay_mult: 1
  }
  param {
    lr_mult: 2
    decay_mult: 0
  }
  convolution_param {
    num_output: 256
    pad: 1
    kernel_size: 3
    weight_filler {
      type: "xavier"
    }
    bias_filler {
      type: "constant"
      value: 0
    }
  }
}
layer {
  name: "relu3_3"
  type: "ReLU"
  bottom: "conv3_3"
  top: "conv3_3"
}
layer {
  name: "pool3"
  type: "Pooling"
  bottom: "conv3_3"
  top: "pool3"
  pooling_param {
    pool: MAX
    kernel_size: 2
    stride: 2
  }
}
layer {
  name: "conv4_1"
  type: "Convolution"
  bottom: "pool3"
  top: "conv4_1"
  param {
    lr_mult: 1
    decay_mult: 1
  }
  param {
    lr_mult: 2
    decay_mult: 0
  }
  convolution_param {
    num_output: 512
    pad: 1
    kernel_size: 3
    weight_filler {
      type: "xavier"
    }
    bias_filler {
      type: "constant"
      value: 0
    }
  }
}
layer {
  name: "relu4_1"
  type: "ReLU"
  bottom: "conv4_1"
  top: "conv4_1"
}
layer {
  name: "conv4_2"
  type: "Convolution"
  bottom: "conv4_1"
  top: "conv4_2"
  param {
    lr_mult: 1
    decay_mult: 1
  }
  param {
    lr_mult: 2
    decay_mult: 0
  }
  convolution_param {
    num_output: 512
    pad: 1
    kernel_size: 3
    weight_filler {
      type: "xavier"
    }
    bias_filler {
      type: "constant"
      value: 0
    }
  }
}
layer {
  name: "relu4_2"
  type: "ReLU"
  bottom: "conv4_2"
  top: "conv4_2"
}
layer {
  name: "conv4_3"
  type: "Convolution"
  bottom: "conv4_2"
  top: "conv4_3"
  param {
    lr_mult: 1
    decay_mult: 1
  }
  param {
    lr_mult: 2
    decay_mult: 0
  }
  convolution_param {
    num_output: 512
    pad: 1
    kernel_size: 3
    weight_filler {
      type: "xavier"
    }
    bias_filler {
      type: "constant"
      value: 0
    }
  }
}
layer {
  name: "relu4_3"
  type: "ReLU"
  bottom: "conv4_3"
  top: "conv4_3"
}
layer {
  name: "pool4"
  type: "Pooling"
  bottom: "conv4_3"
  top: "pool4"
  pooling_param {
    pool: MAX
    kernel_size: 2
    stride: 2
  }
}
layer {
  name: "conv5_1"
  type: "Convolution"
  bottom: "pool4"
  top: "conv5_1"
  param {
    lr_mult: 1
    decay_mult: 1
  }
  param {
    lr_mult: 2
    decay_mult: 0
  }
  convolution_param {
    num_output: 512
    pad: 1
    kernel_size: 3
    weight_filler {
      type: "xavier"
    }
    bias_filler {
      type: "constant"
      value: 0
    }
    dilation: 1
  }
}
layer {
  name: "relu5_1"
  type: "ReLU"
  bottom: "conv5_1"
  top: "conv5_1"
}
layer {
  name: "conv5_2"
  type: "Convolution"
  bottom: "conv5_1"
  top: "conv5_2"
  param {
    lr_mult: 1
    decay_mult: 1
  }
  param {
    lr_mult: 2
    decay_mult: 0
  }
  convolution_param {
    num_output: 512
    pad: 1
    kernel_size: 3
    weight_filler {
      type: "xavier"
    }
    bias_filler {
      type: "constant"
      value: 0
    }
    dilation: 1
  }
}
layer {
  name: "relu5_2"
  type: "ReLU"
  bottom: "conv5_2"
  top: "conv5_2"
}
layer {
  name: "conv5_3"
  type: "Convolution"
  bottom: "conv5_2"
  top: "conv5_3"
  param {
    lr_mult: 1
    decay_mult: 1
  }
  param {
    lr_mult: 2
    decay_mult: 0
  }
  convolution_param {
    num_output: 512
    pad: 1
    kernel_size: 3
    weight_filler {
      type: "xavier"
    }
    bias_filler {
      type: "constant"
      value: 0
    }
    dilation: 1
  }
}
layer {
  name: "relu5_3"
  type: "ReLU"
  bottom: "conv5_3"
  top: "conv5_3"
}
layer {
  name: "pool5"
  type: "Pooling"
  bottom: "conv5_3"
  top: "pool5"
  pooling_param {
    pool: MAX
    kernel_size: 3
    stride: 1
    pad: 1
  }
}
layer {
  name: "fc6"
  type: "Convolution"
  bottom: "pool5"
  top: "fc6"
  param {
    lr_mult: 1
    decay_mult: 1
  }
  param {
    lr_mult: 2
    decay_mult: 0
  }
  convolution_param {
    num_output: 1024
    pad: 6
    kernel_size: 3
    weight_filler {
      type: "xavier"
    }
    bias_filler {
      type: "constant"
      value: 0
    }
    dilation: 6
  }
}
layer {
  name: "relu6"
  type: "ReLU"
  bottom: "fc6"
  top: "fc6"
}
layer {
  name: "fc7"
  type: "Convolution"
  bottom: "fc6"
  top: "fc7"
  param {
    lr_mult: 1
    decay_mult: 1
  }
  param {
    lr_mult: 2
    decay_mult: 0
  }
  convolution_param {
    num_output: 1024
    kernel_size: 1
    weight_filler {
      type: "xavier"
    }
    bias_filler {
      type: "constant"
      value: 0
    }
  }
}
layer {
  name: "relu7"
  type: "ReLU"
  bottom: "fc7"
  top: "fc7"
}
layer {
  name: "conv6_1"
  type: "Convolution"
  bottom: "fc7"
  top: "conv6_1"
  param {
    lr_mult: 1
    decay_mult: 1
  }
  param {
    lr_mult: 2
    decay_mult: 0
  }
  convolution_param {
    num_output: 256
    pad: 0
    kernel_size: 1
    stride: 1
    weight_filler {
      type: "xavier"
    }
    bias_filler {
      type: "constant"
      value: 0
    }
  }
}
layer {
  name: "conv6_1_relu"
  type: "ReLU"
  bottom: "conv6_1"
  top: "conv6_1"
}
layer {
  name: "conv6_2"
  type: "Convolution"
  bottom: "conv6_1"
  top: "conv6_2"
  param {
    lr_mult: 1
    decay_mult: 1
  }
  param {
    lr_mult: 2
    decay_mult: 0
  }
  convolution_param {
    num_output: 512
    pad: 1
    kernel_size: 3
    stride: 2
    weight_filler {
      type: "xavier"
    }
    bias_filler {
      type: "constant"
      value: 0
    }
  }
}
layer {
  name: "conv6_2_relu"
  type: "ReLU"
  bottom: "conv6_2"
  top: "conv6_2"
}
layer {
  name: "conv7_1"
  type: "Convolution"
  bottom: "conv6_2"
  top: "conv7_1"
  param {
    lr_mult: 1
    decay_mult: 1
  }
  param {
    lr_mult: 2
    decay_mult: 0
  }
  convolution_param {
    num_output: 128
    pad: 0
    kernel_size: 1
    stride: 1
    weight_filler {
      type: "xavier"
    }
    bias_filler {
      type: "constant"
      value: 0
    }
  }
}
layer {
  name: "conv7_1_relu"
  type: "ReLU"
  bottom: "conv7_1"
  top: "conv7_1"
}
layer {
  name: "conv7_2"
  type: "Convolution"
  bottom: "conv7_1"
  top: "conv7_2"
  param {
    lr_mult: 1
    decay_mult: 1
  }
  param {
    lr_mult: 2
    decay_mult: 0
  }
  convolution_param {
    num_output: 256
    pad: 1
    kernel_size: 3
    stride: 2
    weight_filler {
      type: "xavier"
    }
    bias_filler {
      type: "constant"
      value: 0
    }
  }
}
layer {
  name: "conv7_2_relu"
  type: "ReLU"
  bottom: "conv7_2"
  top: "conv7_2"
}
layer {
  name: "conv8_1"
  type: "Convolution"
  bottom: "conv7_2"
  top: "conv8_1"
  param {
    lr_mult: 1
    decay_mult: 1
  }
  param {
    lr_mult: 2
    decay_mult: 0
  }
  convolution_param {
    num_output: 128
    pad: 0
    kernel_size: 1
    stride: 1
    weight_filler {
      type: "xavier"
    }
    bias_filler {
      type: "constant"
      value: 0
    }
  }
}
layer {
  name: "conv8_1_relu"
  type: "ReLU"
  bottom: "conv8_1"
  top: "conv8_1"
}
layer {
  name: "conv8_2"
  type: "Convolution"
  bottom: "conv8_1"
  top: "conv8_2"
  param {
    lr_mult: 1
    decay_mult: 1
  }
  param {
    lr_mult: 2
    decay_mult: 0
  }
  convolution_param {
    num_output: 256
    pad: 0
    kernel_size: 3
    stride: 1
    weight_filler {
      type: "xavier"
    }
    bias_filler {
      type: "constant"
      value: 0
    }
  }
}
layer {
  name: "conv8_2_relu"
  type: "ReLU"
  bottom: "conv8_2"
  top: "conv8_2"
}
layer {
  name: "conv9_1"
  type: "Convolution"
  bottom: "conv8_2"
  top: "conv9_1"
  param {
    lr_mult: 1
    decay_mult: 1
  }
  param {
    lr_mult: 2
    decay_mult: 0
  }
  convolution_param {
    num_output: 128
    pad: 0
    kernel_size: 1
    stride: 1
    weight_filler {
      type: "xavier"
    }
    bias_filler {
      type: "constant"
      value: 0
    }
  }
}
layer {
  name: "conv9_1_relu"
  type: "ReLU"
  bottom: "conv9_1"
  top: "conv9_1"
}
layer {
  name: "conv9_2"
  type: "Convolution"
  bottom: "conv9_1"
  top: "conv9_2"
  param {
    lr_mult: 1
    decay_mult: 1
  }
  param {
    lr_mult: 2
    decay_mult: 0
  }
  convolution_param {
    num_output: 256
    pad: 0
    kernel_size: 3
    stride: 1
    weight_filler {
      type: "xavier"
    }
    bias_filler {
      type: "constant"
      value: 0
    }
  }
}
layer {
  name: "conv9_2_relu"
  type: "ReLU"
  bottom: "conv9_2"
  top: "conv9_2"
}
layer {
  name: "conv4_3_norm"
  type: "Normalize"
  bottom: "conv4_3"
  top: "conv4_3_norm"
  norm_param {
    across_spatial: false
    scale_filler {
      type: "constant"
      value: 20
    }
    channel_shared: false
  }
}
layer {
  name: "conv4_3_norm_mbox_loc"
  type: "Convolution"
  bottom: "conv4_3_norm"
  top: "conv4_3_norm_mbox_loc"
  param {
    lr_mult: 1
    decay_mult: 1
  }
  param {
    lr_mult: 2
    decay_mult: 0
  }
  convolution_param {
    num_output: 16
    pad: 1
    kernel_size: 3
    stride: 1
    weight_filler {
      type: "xavier"
    }
    bias_filler {
      type: "constant"
      value: 0
    }
  }
}
layer {
  name: "conv4_3_norm_mbox_loc_perm"
  type: "Permute"
  bottom: "conv4_3_norm_mbox_loc"
  top: "conv4_3_norm_mbox_loc_perm"
  permute_param {
    order: 0
    order: 2
    order: 3
    order: 1
  }
}
layer {
  name: "conv4_3_norm_mbox_loc_flat"
  type: "Flatten"
  bottom: "conv4_3_norm_mbox_loc_perm"
  top: "conv4_3_norm_mbox_loc_flat"
  flatten_param {
    axis: 1
  }
}
layer {
  name: "conv4_3_norm_mbox_conf"
  type: "Convolution"
  bottom: "conv4_3_norm"
  top: "conv4_3_norm_mbox_conf"
  param {
    lr_mult: 1
    decay_mult: 1
  }
  param {
    lr_mult: 2
    decay_mult: 0
  }
  convolution_param {
    num_output: 16
    pad: 1
    kernel_size: 3
    stride: 1
    weight_filler {
      type: "xavier"
    }
    bias_filler {
      type: "constant"
      value: 0
    }
  }
}
layer {
  name: "conv4_3_norm_mbox_conf_perm"
  type: "Permute"
  bottom: "conv4_3_norm_mbox_conf"
  top: "conv4_3_norm_mbox_conf_perm"
  permute_param {
    order: 0
    order: 2
    order: 3
    order: 1
  }
}
layer {
  name: "conv4_3_norm_mbox_conf_flat"
  type: "Flatten"
  bottom: "conv4_3_norm_mbox_conf_perm"
  top: "conv4_3_norm_mbox_conf_flat"
  flatten_param {
    axis: 1
  }
}
layer {
  name: "conv4_3_norm_mbox_priorbox"
  type: "PriorBox"
  bottom: "conv4_3_norm"
  bottom: "data"
  top: "conv4_3_norm_mbox_priorbox"
  prior_box_param {
    min_size: 30
    max_size: 60
    aspect_ratio: 2
    flip: true
    clip: false
    variance: 0.1
    variance: 0.1
    variance: 0.2
    variance: 0.2
    step: 8
    offset: 0.5
  }
}
layer {
  name: "fc7_mbox_loc"
  type: "Convolution"
  bottom: "fc7"
  top: "fc7_mbox_loc"
  param {
    lr_mult: 1
    decay_mult: 1
  }
  param {
    lr_mult: 2
    decay_mult: 0
  }
  convolution_param {
    num_output: 24
    pad: 1
    kernel_size: 3
    stride: 1
    weight_filler {
      type: "xavier"
    }
    bias_filler {
      type: "constant"
      value: 0
    }
  }
}
layer {
  name: "fc7_mbox_loc_perm"
  type: "Permute"
  bottom: "fc7_mbox_loc"
  top: "fc7_mbox_loc_perm"
  permute_param {
    order: 0
    order: 2
    order: 3
    order: 1
  }
}
layer {
  name: "fc7_mbox_loc_flat"
  type: "Flatten"
  bottom: "fc7_mbox_loc_perm"
  top: "fc7_mbox_loc_flat"
  flatten_param {
    axis: 1
  }
}
layer {
  name: "fc7_mbox_conf"
  type: "Convolution"
  bottom: "fc7"
  top: "fc7_mbox_conf"
  param {
    lr_mult: 1
    decay_mult: 1
  }
  param {
    lr_mult: 2
    decay_mult: 0
  }
  convolution_param {
    num_output: 24
    pad: 1
    kernel_size: 3
    stride: 1
    weight_filler {
      type: "xavier"
    }
    bias_filler {
      type: "constant"
      value: 0
    }
  }
}
layer {
  name: "fc7_mbox_conf_perm"
  type: "Permute"
  bottom: "fc7_mbox_conf"
  top: "fc7_mbox_conf_perm"
  permute_param {
    order: 0
    order: 2
    order: 3
    order: 1
  }
}
layer {
  name: "fc7_mbox_conf_flat"
  type: "Flatten"
  bottom: "fc7_mbox_conf_perm"
  top: "fc7_mbox_conf_flat"
  flatten_param {
    axis: 1
  }
}
layer {
  name: "fc7_mbox_priorbox"
  type: "PriorBox"
  bottom: "fc7"
  bottom: "data"
  top: "fc7_mbox_priorbox"
  prior_box_param {
    min_size: 60
    max_size: 111
    aspect_ratio: 2
    aspect_ratio: 3
    flip: true
    clip: false
    variance: 0.1
    variance: 0.1
    variance: 0.2
    variance: 0.2
    step: 16
    offset: 0.5
  }
}
layer {
  name: "conv6_2_mbox_loc"
  type: "Convolution"
  bottom: "conv6_2"
  top: "conv6_2_mbox_loc"
  param {
    lr_mult: 1
    decay_mult: 1
  }
  param {
    lr_mult: 2
    decay_mult: 0
  }
  convolution_param {
    num_output: 24
    pad: 1
    kernel_size: 3
    stride: 1
    weight_filler {
      type: "xavier"
    }
    bias_filler {
      type: "constant"
      value: 0
    }
  }
}
layer {
  name: "conv6_2_mbox_loc_perm"
  type: "Permute"
  bottom: "conv6_2_mbox_loc"
  top: "conv6_2_mbox_loc_perm"
  permute_param {
    order: 0
    order: 2
    order: 3
    order: 1
  }
}
layer {
  name: "conv6_2_mbox_loc_flat"
  type: "Flatten"
  bottom: "conv6_2_mbox_loc_perm"
  top: "conv6_2_mbox_loc_flat"
  flatten_param {
    axis: 1
  }
}
layer {
  name: "conv6_2_mbox_conf"
  type: "Convolution"
  bottom: "conv6_2"
  top: "conv6_2_mbox_conf"
  param {
    lr_mult: 1
    decay_mult: 1
  }
  param {
    lr_mult: 2
    decay_mult: 0
  }
  convolution_param {
    num_output: 24
    pad: 1
    kernel_size: 3
    stride: 1
    weight_filler {
      type: "xavier"
    }
    bias_filler {
      type: "constant"
      value: 0
    }
  }
}
layer {
  name: "conv6_2_mbox_conf_perm"
  type: "Permute"
  bottom: "conv6_2_mbox_conf"
  top: "conv6_2_mbox_conf_perm"
  permute_param {
    order: 0
    order: 2
    order: 3
    order: 1
  }
}
layer {
  name: "conv6_2_mbox_conf_flat"
  type: "Flatten"
  bottom: "conv6_2_mbox_conf_perm"
  top: "conv6_2_mbox_conf_flat"
  flatten_param {
    axis: 1
  }
}
layer {
  name: "conv6_2_mbox_priorbox"
  type: "PriorBox"
  bottom: "conv6_2"
  bottom: "data"
  top: "conv6_2_mbox_priorbox"
  prior_box_param {
    min_size: 111
    max_size: 162
    aspect_ratio: 2
    aspect_ratio: 3
    flip: true
    clip: false
    variance: 0.1
    variance: 0.1
    variance: 0.2
    variance: 0.2
    step: 32
    offset: 0.5
  }
}
layer {
  name: "conv7_2_mbox_loc"
  type: "Convolution"
  bottom: "conv7_2"
  top: "conv7_2_mbox_loc"
  param {
    lr_mult: 1
    decay_mult: 1
  }
  param {
    lr_mult: 2
    decay_mult: 0
  }
  convolution_param {
    num_output: 24
    pad: 1
    kernel_size: 3
    stride: 1
    weight_filler {
      type: "xavier"
    }
    bias_filler {
      type: "constant"
      value: 0
    }
  }
}
layer {
  name: "conv7_2_mbox_loc_perm"
  type: "Permute"
  bottom: "conv7_2_mbox_loc"
  top: "conv7_2_mbox_loc_perm"
  permute_param {
    order: 0
    order: 2
    order: 3
    order: 1
  }
}
layer {
  name: "conv7_2_mbox_loc_flat"
  type: "Flatten"
  bottom: "conv7_2_mbox_loc_perm"
  top: "conv7_2_mbox_loc_flat"
  flatten_param {
    axis: 1
  }
}
layer {
  name: "conv7_2_mbox_conf"
  type: "Convolution"
  bottom: "conv7_2"
  top: "conv7_2_mbox_conf"
  param {
    lr_mult: 1
    decay_mult: 1
  }
  param {
    lr_mult: 2
    decay_mult: 0
  }
  convolution_param {
    num_output: 24
    pad: 1
    kernel_size: 3
    stride: 1
    weight_filler {
      type: "xavier"
    }
    bias_filler {
      type: "constant"
      value: 0
    }
  }
}
layer {
  name: "conv7_2_mbox_conf_perm"
  type: "Permute"
  bottom: "conv7_2_mbox_conf"
  top: "conv7_2_mbox_conf_perm"
  permute_param {
    order: 0
    order: 2
    order: 3
    order: 1
  }
}
layer {
  name: "conv7_2_mbox_conf_flat"
  type: "Flatten"
  bottom: "conv7_2_mbox_conf_perm"
  top: "conv7_2_mbox_conf_flat"
  flatten_param {
    axis: 1
  }
}
layer {
  name: "conv7_2_mbox_priorbox"
  type: "PriorBox"
  bottom: "conv7_2"
  bottom: "data"
  top: "conv7_2_mbox_priorbox"
  prior_box_param {
    min_size: 162
    max_size: 213
    aspect_ratio: 2
    aspect_ratio: 3
    flip: true
    clip: false
    variance: 0.1
    variance: 0.1
    variance: 0.2
    variance: 0.2
    step: 64
    offset: 0.5
  }
}
layer {
  name: "conv8_2_mbox_loc"
  type: "Convolution"
  bottom: "conv8_2"
  top: "conv8_2_mbox_loc"
  param {
    lr_mult: 1
    decay_mult: 1
  }
  param {
    lr_mult: 2
    decay_mult: 0
  }
  convolution_param {
    num_output: 16
    pad: 1
    kernel_size: 3
    stride: 1
    weight_filler {
      type: "xavier"
    }
    bias_filler {
      type: "constant"
      value: 0
    }
  }
}
layer {
  name: "conv8_2_mbox_loc_perm"
  type: "Permute"
  bottom: "conv8_2_mbox_loc"
  top: "conv8_2_mbox_loc_perm"
  permute_param {
    order: 0
    order: 2
    order: 3
    order: 1
  }
}
layer {
  name: "conv8_2_mbox_loc_flat"
  type: "Flatten"
  bottom: "conv8_2_mbox_loc_perm"
  top: "conv8_2_mbox_loc_flat"
  flatten_param {
    axis: 1
  }
}
layer {
  name: "conv8_2_mbox_conf"
  type: "Convolution"
  bottom: "conv8_2"
  top: "conv8_2_mbox_conf"
  param {
    lr_mult: 1
    decay_mult: 1
  }
  param {
    lr_mult: 2
    decay_mult: 0
  }
  convolution_param {
    num_output: 16
    pad: 1
    kernel_size: 3
    stride: 1
    weight_filler {
      type: "xavier"
    }
    bias_filler {
      type: "constant"
      value: 0
    }
  }
}
layer {
  name: "conv8_2_mbox_conf_perm"
  type: "Permute"
  bottom: "conv8_2_mbox_conf"
  top: "conv8_2_mbox_conf_perm"
  permute_param {
    order: 0
    order: 2
    order: 3
    order: 1
  }
}
layer {
  name: "conv8_2_mbox_conf_flat"
  type: "Flatten"
  bottom: "conv8_2_mbox_conf_perm"
  top: "conv8_2_mbox_conf_flat"
  flatten_param {
    axis: 1
  }
}
layer {
  name: "conv8_2_mbox_priorbox"
  type: "PriorBox"
  bottom: "conv8_2"
  bottom: "data"
  top: "conv8_2_mbox_priorbox"
  prior_box_param {
    min_size: 213
    max_size: 264
    aspect_ratio: 2
    flip: true
    clip: false
    variance: 0.1
    variance: 0.1
    variance: 0.2
    variance: 0.2
    step: 100
    offset: 0.5
  }
}
layer {
  name: "conv9_2_mbox_loc"
  type: "Convolution"
  bottom: "conv9_2"
  top: "conv9_2_mbox_loc"
  param {
    lr_mult: 1
    decay_mult: 1
  }
  param {
    lr_mult: 2
    decay_mult: 0
  }
  convolution_param {
    num_output: 16
    pad: 1
    kernel_size: 3
    stride: 1
    weight_filler {
      type: "xavier"
    }
    bias_filler {
      type: "constant"
      value: 0
    }
  }
}
layer {
  name: "conv9_2_mbox_loc_perm"
  type: "Permute"
  bottom: "conv9_2_mbox_loc"
  top: "conv9_2_mbox_loc_perm"
  permute_param {
    order: 0
    order: 2
    order: 3
    order: 1
  }
}
layer {
  name: "conv9_2_mbox_loc_flat"
  type: "Flatten"
  bottom: "conv9_2_mbox_loc_perm"
  top: "conv9_2_mbox_loc_flat"
  flatten_param {
    axis: 1
  }
}
layer {
  name: "conv9_2_mbox_conf"
  type: "Convolution"
  bottom: "conv9_2"
  top: "conv9_2_mbox_conf"
  param {
    lr_mult: 1
    decay_mult: 1
  }
  param {
    lr_mult: 2
    decay_mult: 0
  }
  convolution_param {
    num_output: 16
    pad: 1
    kernel_size: 3
    stride: 1
    weight_filler {
      type: "xavier"
    }
    bias_filler {
      type: "constant"
      value: 0
    }
  }
}
layer {
  name: "conv9_2_mbox_conf_perm"
  type: "Permute"
  bottom: "conv9_2_mbox_conf"
  top: "conv9_2_mbox_conf_perm"
  permute_param {
    order: 0
    order: 2
    order: 3
    order: 1
  }
}
layer {
  name: "conv9_2_mbox_conf_flat"
  type: "Flatten"
  bottom: "conv9_2_mbox_conf_perm"
  top: "conv9_2_mbox_conf_flat"
  flatten_param {
    axis: 1
  }
}
layer {
  name: "conv9_2_mbox_priorbox"
  type: "PriorBox"
  bottom: "conv9_2"
  bottom: "data"
  top: "conv9_2_mbox_priorbox"
  prior_box_param {
    min_size: 264
    max_size: 315
    aspect_ratio: 2
    flip: true
    clip: false
    variance: 0.1
    variance: 0.1
    variance: 0.2
    variance: 0.2
    step: 300
    offset: 0.5
  }
}
layer {
  name: "mbox_loc"
  type: "Concat"
  bottom: "conv4_3_norm_mbox_loc_flat"
  bottom: "fc7_mbox_loc_flat"
  bottom: "conv6_2_mbox_loc_flat"
  bottom: "conv7_2_mbox_loc_flat"
  bottom: "conv8_2_mbox_loc_flat"
  bottom: "conv9_2_mbox_loc_flat"
  top: "mbox_loc"
  concat_param {
    axis: 1
  }
}
layer {
  name: "mbox_conf"
  type: "Concat"
  bottom: "conv4_3_norm_mbox_conf_flat"
  bottom: "fc7_mbox_conf_flat"
  bottom: "conv6_2_mbox_conf_flat"
  bottom: "conv7_2_mbox_conf_flat"
  bottom: "conv8_2_mbox_conf_flat"
  bottom: "conv9_2_mbox_conf_flat"
  top: "mbox_conf"
  concat_param {
    axis: 1
  }
}
layer {
  name: "mbox_priorbox"
  type: "Concat"
  bottom: "conv4_3_norm_mbox_priorbox"
  bottom: "fc7_mbox_priorbox"
  bottom: "conv6_2_mbox_priorbox"
  bottom: "conv7_2_mbox_priorbox"
  bottom: "conv8_2_mbox_priorbox"
  bottom: "conv9_2_mbox_priorbox"
  top: "mbox_priorbox"
  concat_param {
    axis: 2
  }
}
layer {
  name: "mbox_loss"
  type: "MultiBoxLoss"
  bottom: "mbox_loc"
  bottom: "mbox_conf"
  bottom: "mbox_priorbox"
  bottom: "label"
  top: "mbox_loss"
  include {
    phase: TRAIN
  }
  propagate_down: true
  propagate_down: true
  propagate_down: false
  propagate_down: false
  loss_param {
    normalization: VALID
  }
  multibox_loss_param {
    loc_loss_type: SMOOTH_L1
    conf_loss_type: SOFTMAX
    loc_weight: 1
    num_classes: 4
    share_location: true
    match_type: PER_PREDICTION
    overlap_threshold: 0.5
    use_prior_for_matching: true
    background_label_id: 0
    use_difficult_gt: true
    neg_pos_ratio: 3
    neg_overlap: 0.5
    code_type: CENTER_SIZE
    ignore_cross_boundary_bbox: false
    mining_type: MAX_NEGATIVE
  }
}
I0419 19:14:26.514008 31435 layer_factory.hpp:77] Creating layer data
I0419 19:14:26.514614 31435 net.cpp:100] Creating Layer data
I0419 19:14:26.514626 31435 net.cpp:408] data -> data
I0419 19:14:26.514655 31435 net.cpp:408] data -> label
I0419 19:14:26.515873 31454 db_lmdb.cpp:35] Opened lmdb /localdata/markustp/data/ascend/lmdb/ascend_trainval_lmdb
I0419 19:14:26.541175 31435 annotated_data_layer.cpp:62] output data size: 32,3,300,300
I0419 19:14:26.582993 31435 net.cpp:150] Setting up data
I0419 19:14:26.583014 31435 net.cpp:157] Top shape: 32 3 300 300 (8640000)
I0419 19:14:26.583019 31435 net.cpp:157] Top shape: 1 1 5 8 (40)
I0419 19:14:26.583037 31435 net.cpp:165] Memory required for data: 34560160
I0419 19:14:26.583046 31435 layer_factory.hpp:77] Creating layer data_data_0_split
I0419 19:14:26.583058 31435 net.cpp:100] Creating Layer data_data_0_split
I0419 19:14:26.583065 31435 net.cpp:434] data_data_0_split <- data
I0419 19:14:26.583076 31435 net.cpp:408] data_data_0_split -> data_data_0_split_0
I0419 19:14:26.583086 31435 net.cpp:408] data_data_0_split -> data_data_0_split_1
I0419 19:14:26.583091 31435 net.cpp:408] data_data_0_split -> data_data_0_split_2
I0419 19:14:26.583097 31435 net.cpp:408] data_data_0_split -> data_data_0_split_3
I0419 19:14:26.583102 31435 net.cpp:408] data_data_0_split -> data_data_0_split_4
I0419 19:14:26.583106 31435 net.cpp:408] data_data_0_split -> data_data_0_split_5
I0419 19:14:26.583111 31435 net.cpp:408] data_data_0_split -> data_data_0_split_6
I0419 19:14:26.583204 31435 net.cpp:150] Setting up data_data_0_split
I0419 19:14:26.583210 31435 net.cpp:157] Top shape: 32 3 300 300 (8640000)
I0419 19:14:26.583214 31435 net.cpp:157] Top shape: 32 3 300 300 (8640000)
I0419 19:14:26.583215 31435 net.cpp:157] Top shape: 32 3 300 300 (8640000)
I0419 19:14:26.583219 31435 net.cpp:157] Top shape: 32 3 300 300 (8640000)
I0419 19:14:26.583221 31435 net.cpp:157] Top shape: 32 3 300 300 (8640000)
I0419 19:14:26.583223 31435 net.cpp:157] Top shape: 32 3 300 300 (8640000)
I0419 19:14:26.583226 31435 net.cpp:157] Top shape: 32 3 300 300 (8640000)
I0419 19:14:26.583228 31435 net.cpp:165] Memory required for data: 276480160
I0419 19:14:26.583231 31435 layer_factory.hpp:77] Creating layer conv1_1
I0419 19:14:26.583245 31435 net.cpp:100] Creating Layer conv1_1
I0419 19:14:26.583247 31435 net.cpp:434] conv1_1 <- data_data_0_split_0
I0419 19:14:26.583252 31435 net.cpp:408] conv1_1 -> conv1_1
I0419 19:14:26.584765 31435 net.cpp:150] Setting up conv1_1
I0419 19:14:26.584775 31435 net.cpp:157] Top shape: 32 64 300 300 (184320000)
I0419 19:14:26.584779 31435 net.cpp:165] Memory required for data: 1013760160
I0419 19:14:26.584790 31435 layer_factory.hpp:77] Creating layer relu1_1
I0419 19:14:26.584799 31435 net.cpp:100] Creating Layer relu1_1
I0419 19:14:26.584800 31435 net.cpp:434] relu1_1 <- conv1_1
I0419 19:14:26.584805 31435 net.cpp:395] relu1_1 -> conv1_1 (in-place)
I0419 19:14:26.584810 31435 net.cpp:150] Setting up relu1_1
I0419 19:14:26.584812 31435 net.cpp:157] Top shape: 32 64 300 300 (184320000)
I0419 19:14:26.584815 31435 net.cpp:165] Memory required for data: 1751040160
I0419 19:14:26.584816 31435 layer_factory.hpp:77] Creating layer conv1_2
I0419 19:14:26.584823 31435 net.cpp:100] Creating Layer conv1_2
I0419 19:14:26.584825 31435 net.cpp:434] conv1_2 <- conv1_1
I0419 19:14:26.584830 31435 net.cpp:408] conv1_2 -> conv1_2
I0419 19:14:26.585798 31435 net.cpp:150] Setting up conv1_2
I0419 19:14:26.585809 31435 net.cpp:157] Top shape: 32 64 300 300 (184320000)
I0419 19:14:26.585811 31435 net.cpp:165] Memory required for data: 2488320160
I0419 19:14:26.585817 31435 layer_factory.hpp:77] Creating layer relu1_2
I0419 19:14:26.585821 31435 net.cpp:100] Creating Layer relu1_2
I0419 19:14:26.585824 31435 net.cpp:434] relu1_2 <- conv1_2
I0419 19:14:26.585827 31435 net.cpp:395] relu1_2 -> conv1_2 (in-place)
I0419 19:14:26.585831 31435 net.cpp:150] Setting up relu1_2
I0419 19:14:26.585834 31435 net.cpp:157] Top shape: 32 64 300 300 (184320000)
I0419 19:14:26.585836 31435 net.cpp:165] Memory required for data: 3225600160
I0419 19:14:26.585839 31435 layer_factory.hpp:77] Creating layer pool1
I0419 19:14:26.585842 31435 net.cpp:100] Creating Layer pool1
I0419 19:14:26.585844 31435 net.cpp:434] pool1 <- conv1_2
I0419 19:14:26.585847 31435 net.cpp:408] pool1 -> pool1
I0419 19:14:26.585880 31435 net.cpp:150] Setting up pool1
I0419 19:14:26.585885 31435 net.cpp:157] Top shape: 32 64 150 150 (46080000)
I0419 19:14:26.585886 31435 net.cpp:165] Memory required for data: 3409920160
I0419 19:14:26.585888 31435 layer_factory.hpp:77] Creating layer conv2_1
I0419 19:14:26.585893 31435 net.cpp:100] Creating Layer conv2_1
I0419 19:14:26.585896 31435 net.cpp:434] conv2_1 <- pool1
I0419 19:14:26.585909 31435 net.cpp:408] conv2_1 -> conv2_1
I0419 19:14:26.586365 31435 net.cpp:150] Setting up conv2_1
I0419 19:14:26.586372 31435 net.cpp:157] Top shape: 32 128 150 150 (92160000)
I0419 19:14:26.586374 31435 net.cpp:165] Memory required for data: 3778560160
I0419 19:14:26.586380 31435 layer_factory.hpp:77] Creating layer relu2_1
I0419 19:14:26.586383 31435 net.cpp:100] Creating Layer relu2_1
I0419 19:14:26.586386 31435 net.cpp:434] relu2_1 <- conv2_1
I0419 19:14:26.586388 31435 net.cpp:395] relu2_1 -> conv2_1 (in-place)
I0419 19:14:26.586392 31435 net.cpp:150] Setting up relu2_1
I0419 19:14:26.586395 31435 net.cpp:157] Top shape: 32 128 150 150 (92160000)
I0419 19:14:26.586397 31435 net.cpp:165] Memory required for data: 4147200160
I0419 19:14:26.586400 31435 layer_factory.hpp:77] Creating layer conv2_2
I0419 19:14:26.586405 31435 net.cpp:100] Creating Layer conv2_2
I0419 19:14:26.586406 31435 net.cpp:434] conv2_2 <- conv2_1
I0419 19:14:26.586410 31435 net.cpp:408] conv2_2 -> conv2_2
I0419 19:14:26.587173 31435 net.cpp:150] Setting up conv2_2
I0419 19:14:26.587180 31435 net.cpp:157] Top shape: 32 128 150 150 (92160000)
I0419 19:14:26.587182 31435 net.cpp:165] Memory required for data: 4515840160
I0419 19:14:26.587186 31435 layer_factory.hpp:77] Creating layer relu2_2
I0419 19:14:26.587189 31435 net.cpp:100] Creating Layer relu2_2
I0419 19:14:26.587191 31435 net.cpp:434] relu2_2 <- conv2_2
I0419 19:14:26.587195 31435 net.cpp:395] relu2_2 -> conv2_2 (in-place)
I0419 19:14:26.587198 31435 net.cpp:150] Setting up relu2_2
I0419 19:14:26.587201 31435 net.cpp:157] Top shape: 32 128 150 150 (92160000)
I0419 19:14:26.587203 31435 net.cpp:165] Memory required for data: 4884480160
I0419 19:14:26.587205 31435 layer_factory.hpp:77] Creating layer pool2
I0419 19:14:26.587208 31435 net.cpp:100] Creating Layer pool2
I0419 19:14:26.587209 31435 net.cpp:434] pool2 <- conv2_2
I0419 19:14:26.587213 31435 net.cpp:408] pool2 -> pool2
I0419 19:14:26.587236 31435 net.cpp:150] Setting up pool2
I0419 19:14:26.587240 31435 net.cpp:157] Top shape: 32 128 75 75 (23040000)
I0419 19:14:26.587241 31435 net.cpp:165] Memory required for data: 4976640160
I0419 19:14:26.587244 31435 layer_factory.hpp:77] Creating layer conv3_1
I0419 19:14:26.587249 31435 net.cpp:100] Creating Layer conv3_1
I0419 19:14:26.587250 31435 net.cpp:434] conv3_1 <- pool2
I0419 19:14:26.587254 31435 net.cpp:408] conv3_1 -> conv3_1
I0419 19:14:26.589876 31435 net.cpp:150] Setting up conv3_1
I0419 19:14:26.589890 31435 net.cpp:157] Top shape: 32 256 75 75 (46080000)
I0419 19:14:26.589891 31435 net.cpp:165] Memory required for data: 5160960160
I0419 19:14:26.589900 31435 layer_factory.hpp:77] Creating layer relu3_1
I0419 19:14:26.589903 31435 net.cpp:100] Creating Layer relu3_1
I0419 19:14:26.589906 31435 net.cpp:434] relu3_1 <- conv3_1
I0419 19:14:26.589910 31435 net.cpp:395] relu3_1 -> conv3_1 (in-place)
I0419 19:14:26.589915 31435 net.cpp:150] Setting up relu3_1
I0419 19:14:26.589917 31435 net.cpp:157] Top shape: 32 256 75 75 (46080000)
I0419 19:14:26.589920 31435 net.cpp:165] Memory required for data: 5345280160
I0419 19:14:26.589921 31435 layer_factory.hpp:77] Creating layer conv3_2
I0419 19:14:26.589926 31435 net.cpp:100] Creating Layer conv3_2
I0419 19:14:26.589928 31435 net.cpp:434] conv3_2 <- conv3_1
I0419 19:14:26.589932 31435 net.cpp:408] conv3_2 -> conv3_2
I0419 19:14:26.593215 31435 net.cpp:150] Setting up conv3_2
I0419 19:14:26.593226 31435 net.cpp:157] Top shape: 32 256 75 75 (46080000)
I0419 19:14:26.593228 31435 net.cpp:165] Memory required for data: 5529600160
I0419 19:14:26.593233 31435 layer_factory.hpp:77] Creating layer relu3_2
I0419 19:14:26.593238 31435 net.cpp:100] Creating Layer relu3_2
I0419 19:14:26.593240 31435 net.cpp:434] relu3_2 <- conv3_2
I0419 19:14:26.593243 31435 net.cpp:395] relu3_2 -> conv3_2 (in-place)
I0419 19:14:26.593248 31435 net.cpp:150] Setting up relu3_2
I0419 19:14:26.593251 31435 net.cpp:157] Top shape: 32 256 75 75 (46080000)
I0419 19:14:26.593253 31435 net.cpp:165] Memory required for data: 5713920160
I0419 19:14:26.593267 31435 layer_factory.hpp:77] Creating layer conv3_3
I0419 19:14:26.593276 31435 net.cpp:100] Creating Layer conv3_3
I0419 19:14:26.593277 31435 net.cpp:434] conv3_3 <- conv3_2
I0419 19:14:26.593281 31435 net.cpp:408] conv3_3 -> conv3_3
I0419 19:14:26.596557 31435 net.cpp:150] Setting up conv3_3
I0419 19:14:26.596567 31435 net.cpp:157] Top shape: 32 256 75 75 (46080000)
I0419 19:14:26.596570 31435 net.cpp:165] Memory required for data: 5898240160
I0419 19:14:26.596573 31435 layer_factory.hpp:77] Creating layer relu3_3
I0419 19:14:26.596577 31435 net.cpp:100] Creating Layer relu3_3
I0419 19:14:26.596580 31435 net.cpp:434] relu3_3 <- conv3_3
I0419 19:14:26.596583 31435 net.cpp:395] relu3_3 -> conv3_3 (in-place)
I0419 19:14:26.596588 31435 net.cpp:150] Setting up relu3_3
I0419 19:14:26.596591 31435 net.cpp:157] Top shape: 32 256 75 75 (46080000)
I0419 19:14:26.596593 31435 net.cpp:165] Memory required for data: 6082560160
I0419 19:14:26.596596 31435 layer_factory.hpp:77] Creating layer pool3
I0419 19:14:26.596599 31435 net.cpp:100] Creating Layer pool3
I0419 19:14:26.596601 31435 net.cpp:434] pool3 <- conv3_3
I0419 19:14:26.596606 31435 net.cpp:408] pool3 -> pool3
I0419 19:14:26.596631 31435 net.cpp:150] Setting up pool3
I0419 19:14:26.596635 31435 net.cpp:157] Top shape: 32 256 38 38 (11829248)
I0419 19:14:26.596637 31435 net.cpp:165] Memory required for data: 6129877152
I0419 19:14:26.596639 31435 layer_factory.hpp:77] Creating layer conv4_1
I0419 19:14:26.596645 31435 net.cpp:100] Creating Layer conv4_1
I0419 19:14:26.596647 31435 net.cpp:434] conv4_1 <- pool3
I0419 19:14:26.596650 31435 net.cpp:408] conv4_1 -> conv4_1
I0419 19:14:26.603430 31435 net.cpp:150] Setting up conv4_1
I0419 19:14:26.603443 31435 net.cpp:157] Top shape: 32 512 38 38 (23658496)
I0419 19:14:26.603446 31435 net.cpp:165] Memory required for data: 6224511136
I0419 19:14:26.603451 31435 layer_factory.hpp:77] Creating layer relu4_1
I0419 19:14:26.603456 31435 net.cpp:100] Creating Layer relu4_1
I0419 19:14:26.603458 31435 net.cpp:434] relu4_1 <- conv4_1
I0419 19:14:26.603463 31435 net.cpp:395] relu4_1 -> conv4_1 (in-place)
I0419 19:14:26.603468 31435 net.cpp:150] Setting up relu4_1
I0419 19:14:26.603471 31435 net.cpp:157] Top shape: 32 512 38 38 (23658496)
I0419 19:14:26.603473 31435 net.cpp:165] Memory required for data: 6319145120
I0419 19:14:26.603474 31435 layer_factory.hpp:77] Creating layer conv4_2
I0419 19:14:26.603480 31435 net.cpp:100] Creating Layer conv4_2
I0419 19:14:26.603483 31435 net.cpp:434] conv4_2 <- conv4_1
I0419 19:14:26.603487 31435 net.cpp:408] conv4_2 -> conv4_2
I0419 19:14:26.615586 31435 net.cpp:150] Setting up conv4_2
I0419 19:14:26.615620 31435 net.cpp:157] Top shape: 32 512 38 38 (23658496)
I0419 19:14:26.615622 31435 net.cpp:165] Memory required for data: 6413779104
I0419 19:14:26.615634 31435 layer_factory.hpp:77] Creating layer relu4_2
I0419 19:14:26.615643 31435 net.cpp:100] Creating Layer relu4_2
I0419 19:14:26.615645 31435 net.cpp:434] relu4_2 <- conv4_2
I0419 19:14:26.615650 31435 net.cpp:395] relu4_2 -> conv4_2 (in-place)
I0419 19:14:26.615656 31435 net.cpp:150] Setting up relu4_2
I0419 19:14:26.615661 31435 net.cpp:157] Top shape: 32 512 38 38 (23658496)
I0419 19:14:26.615664 31435 net.cpp:165] Memory required for data: 6508413088
I0419 19:14:26.615665 31435 layer_factory.hpp:77] Creating layer conv4_3
I0419 19:14:26.615672 31435 net.cpp:100] Creating Layer conv4_3
I0419 19:14:26.615675 31435 net.cpp:434] conv4_3 <- conv4_2
I0419 19:14:26.615679 31435 net.cpp:408] conv4_3 -> conv4_3
I0419 19:14:26.628814 31435 net.cpp:150] Setting up conv4_3
I0419 19:14:26.628849 31435 net.cpp:157] Top shape: 32 512 38 38 (23658496)
I0419 19:14:26.628850 31435 net.cpp:165] Memory required for data: 6603047072
I0419 19:14:26.628870 31435 layer_factory.hpp:77] Creating layer relu4_3
I0419 19:14:26.628877 31435 net.cpp:100] Creating Layer relu4_3
I0419 19:14:26.628880 31435 net.cpp:434] relu4_3 <- conv4_3
I0419 19:14:26.628885 31435 net.cpp:395] relu4_3 -> conv4_3 (in-place)
I0419 19:14:26.628892 31435 net.cpp:150] Setting up relu4_3
I0419 19:14:26.628908 31435 net.cpp:157] Top shape: 32 512 38 38 (23658496)
I0419 19:14:26.628911 31435 net.cpp:165] Memory required for data: 6697681056
I0419 19:14:26.628912 31435 layer_factory.hpp:77] Creating layer conv4_3_relu4_3_0_split
I0419 19:14:26.628916 31435 net.cpp:100] Creating Layer conv4_3_relu4_3_0_split
I0419 19:14:26.628918 31435 net.cpp:434] conv4_3_relu4_3_0_split <- conv4_3
I0419 19:14:26.628922 31435 net.cpp:408] conv4_3_relu4_3_0_split -> conv4_3_relu4_3_0_split_0
I0419 19:14:26.628927 31435 net.cpp:408] conv4_3_relu4_3_0_split -> conv4_3_relu4_3_0_split_1
I0419 19:14:26.628953 31435 net.cpp:150] Setting up conv4_3_relu4_3_0_split
I0419 19:14:26.628958 31435 net.cpp:157] Top shape: 32 512 38 38 (23658496)
I0419 19:14:26.628962 31435 net.cpp:157] Top shape: 32 512 38 38 (23658496)
I0419 19:14:26.628962 31435 net.cpp:165] Memory required for data: 6886949024
I0419 19:14:26.628965 31435 layer_factory.hpp:77] Creating layer pool4
I0419 19:14:26.628969 31435 net.cpp:100] Creating Layer pool4
I0419 19:14:26.628973 31435 net.cpp:434] pool4 <- conv4_3_relu4_3_0_split_0
I0419 19:14:26.628975 31435 net.cpp:408] pool4 -> pool4
I0419 19:14:26.628998 31435 net.cpp:150] Setting up pool4
I0419 19:14:26.629003 31435 net.cpp:157] Top shape: 32 512 19 19 (5914624)
I0419 19:14:26.629004 31435 net.cpp:165] Memory required for data: 6910607520
I0419 19:14:26.629006 31435 layer_factory.hpp:77] Creating layer conv5_1
I0419 19:14:26.629012 31435 net.cpp:100] Creating Layer conv5_1
I0419 19:14:26.629015 31435 net.cpp:434] conv5_1 <- pool4
I0419 19:14:26.629019 31435 net.cpp:408] conv5_1 -> conv5_1
I0419 19:14:26.641111 31435 net.cpp:150] Setting up conv5_1
I0419 19:14:26.641129 31435 net.cpp:157] Top shape: 32 512 19 19 (5914624)
I0419 19:14:26.641131 31435 net.cpp:165] Memory required for data: 6934266016
I0419 19:14:26.641137 31435 layer_factory.hpp:77] Creating layer relu5_1
I0419 19:14:26.641144 31435 net.cpp:100] Creating Layer relu5_1
I0419 19:14:26.641147 31435 net.cpp:434] relu5_1 <- conv5_1
I0419 19:14:26.641152 31435 net.cpp:395] relu5_1 -> conv5_1 (in-place)
I0419 19:14:26.641158 31435 net.cpp:150] Setting up relu5_1
I0419 19:14:26.641161 31435 net.cpp:157] Top shape: 32 512 19 19 (5914624)
I0419 19:14:26.641163 31435 net.cpp:165] Memory required for data: 6957924512
I0419 19:14:26.641165 31435 layer_factory.hpp:77] Creating layer conv5_2
I0419 19:14:26.641171 31435 net.cpp:100] Creating Layer conv5_2
I0419 19:14:26.641173 31435 net.cpp:434] conv5_2 <- conv5_1
I0419 19:14:26.641176 31435 net.cpp:408] conv5_2 -> conv5_2
I0419 19:14:26.653393 31435 net.cpp:150] Setting up conv5_2
I0419 19:14:26.653426 31435 net.cpp:157] Top shape: 32 512 19 19 (5914624)
I0419 19:14:26.653429 31435 net.cpp:165] Memory required for data: 6981583008
I0419 19:14:26.653435 31435 layer_factory.hpp:77] Creating layer relu5_2
I0419 19:14:26.653443 31435 net.cpp:100] Creating Layer relu5_2
I0419 19:14:26.653446 31435 net.cpp:434] relu5_2 <- conv5_2
I0419 19:14:26.653450 31435 net.cpp:395] relu5_2 -> conv5_2 (in-place)
I0419 19:14:26.653456 31435 net.cpp:150] Setting up relu5_2
I0419 19:14:26.653460 31435 net.cpp:157] Top shape: 32 512 19 19 (5914624)
I0419 19:14:26.653461 31435 net.cpp:165] Memory required for data: 7005241504
I0419 19:14:26.653463 31435 layer_factory.hpp:77] Creating layer conv5_3
I0419 19:14:26.653470 31435 net.cpp:100] Creating Layer conv5_3
I0419 19:14:26.653472 31435 net.cpp:434] conv5_3 <- conv5_2
I0419 19:14:26.653476 31435 net.cpp:408] conv5_3 -> conv5_3
I0419 19:14:26.665666 31435 net.cpp:150] Setting up conv5_3
I0419 19:14:26.665688 31435 net.cpp:157] Top shape: 32 512 19 19 (5914624)
I0419 19:14:26.665691 31435 net.cpp:165] Memory required for data: 7028900000
I0419 19:14:26.665701 31435 layer_factory.hpp:77] Creating layer relu5_3
I0419 19:14:26.665715 31435 net.cpp:100] Creating Layer relu5_3
I0419 19:14:26.665721 31435 net.cpp:434] relu5_3 <- conv5_3
I0419 19:14:26.665729 31435 net.cpp:395] relu5_3 -> conv5_3 (in-place)
I0419 19:14:26.665738 31435 net.cpp:150] Setting up relu5_3
I0419 19:14:26.665760 31435 net.cpp:157] Top shape: 32 512 19 19 (5914624)
I0419 19:14:26.665763 31435 net.cpp:165] Memory required for data: 7052558496
I0419 19:14:26.665767 31435 layer_factory.hpp:77] Creating layer pool5
I0419 19:14:26.665774 31435 net.cpp:100] Creating Layer pool5
I0419 19:14:26.665777 31435 net.cpp:434] pool5 <- conv5_3
I0419 19:14:26.665783 31435 net.cpp:408] pool5 -> pool5
I0419 19:14:26.665827 31435 net.cpp:150] Setting up pool5
I0419 19:14:26.665833 31435 net.cpp:157] Top shape: 32 512 19 19 (5914624)
I0419 19:14:26.665837 31435 net.cpp:165] Memory required for data: 7076216992
I0419 19:14:26.665839 31435 layer_factory.hpp:77] Creating layer fc6
I0419 19:14:26.665850 31435 net.cpp:100] Creating Layer fc6
I0419 19:14:26.665854 31435 net.cpp:434] fc6 <- pool5
I0419 19:14:26.665860 31435 net.cpp:408] fc6 -> fc6
I0419 19:14:26.690469 31435 net.cpp:150] Setting up fc6
I0419 19:14:26.690495 31435 net.cpp:157] Top shape: 32 1024 19 19 (11829248)
I0419 19:14:26.690497 31435 net.cpp:165] Memory required for data: 7123533984
I0419 19:14:26.690507 31435 layer_factory.hpp:77] Creating layer relu6
I0419 19:14:26.690517 31435 net.cpp:100] Creating Layer relu6
I0419 19:14:26.690523 31435 net.cpp:434] relu6 <- fc6
I0419 19:14:26.690531 31435 net.cpp:395] relu6 -> fc6 (in-place)
I0419 19:14:26.690539 31435 net.cpp:150] Setting up relu6
I0419 19:14:26.690544 31435 net.cpp:157] Top shape: 32 1024 19 19 (11829248)
I0419 19:14:26.690546 31435 net.cpp:165] Memory required for data: 7170850976
I0419 19:14:26.690549 31435 layer_factory.hpp:77] Creating layer fc7
I0419 19:14:26.690559 31435 net.cpp:100] Creating Layer fc7
I0419 19:14:26.690562 31435 net.cpp:434] fc7 <- fc6
I0419 19:14:26.690569 31435 net.cpp:408] fc7 -> fc7
I0419 19:14:26.696296 31435 net.cpp:150] Setting up fc7
I0419 19:14:26.696310 31435 net.cpp:157] Top shape: 32 1024 19 19 (11829248)
I0419 19:14:26.696313 31435 net.cpp:165] Memory required for data: 7218167968
I0419 19:14:26.696321 31435 layer_factory.hpp:77] Creating layer relu7
I0419 19:14:26.696328 31435 net.cpp:100] Creating Layer relu7
I0419 19:14:26.696333 31435 net.cpp:434] relu7 <- fc7
I0419 19:14:26.696339 31435 net.cpp:395] relu7 -> fc7 (in-place)
I0419 19:14:26.696348 31435 net.cpp:150] Setting up relu7
I0419 19:14:26.696354 31435 net.cpp:157] Top shape: 32 1024 19 19 (11829248)
I0419 19:14:26.696358 31435 net.cpp:165] Memory required for data: 7265484960
I0419 19:14:26.696360 31435 layer_factory.hpp:77] Creating layer fc7_relu7_0_split
I0419 19:14:26.696367 31435 net.cpp:100] Creating Layer fc7_relu7_0_split
I0419 19:14:26.696372 31435 net.cpp:434] fc7_relu7_0_split <- fc7
I0419 19:14:26.696377 31435 net.cpp:408] fc7_relu7_0_split -> fc7_relu7_0_split_0
I0419 19:14:26.696385 31435 net.cpp:408] fc7_relu7_0_split -> fc7_relu7_0_split_1
I0419 19:14:26.696398 31435 net.cpp:408] fc7_relu7_0_split -> fc7_relu7_0_split_2
I0419 19:14:26.696406 31435 net.cpp:408] fc7_relu7_0_split -> fc7_relu7_0_split_3
I0419 19:14:26.696451 31435 net.cpp:150] Setting up fc7_relu7_0_split
I0419 19:14:26.696457 31435 net.cpp:157] Top shape: 32 1024 19 19 (11829248)
I0419 19:14:26.696463 31435 net.cpp:157] Top shape: 32 1024 19 19 (11829248)
I0419 19:14:26.696467 31435 net.cpp:157] Top shape: 32 1024 19 19 (11829248)
I0419 19:14:26.696471 31435 net.cpp:157] Top shape: 32 1024 19 19 (11829248)
I0419 19:14:26.696475 31435 net.cpp:165] Memory required for data: 7454752928
I0419 19:14:26.696478 31435 layer_factory.hpp:77] Creating layer conv6_1
I0419 19:14:26.696487 31435 net.cpp:100] Creating Layer conv6_1
I0419 19:14:26.696492 31435 net.cpp:434] conv6_1 <- fc7_relu7_0_split_0
I0419 19:14:26.696499 31435 net.cpp:408] conv6_1 -> conv6_1
I0419 19:14:26.698388 31435 net.cpp:150] Setting up conv6_1
I0419 19:14:26.698400 31435 net.cpp:157] Top shape: 32 256 19 19 (2957312)
I0419 19:14:26.698402 31435 net.cpp:165] Memory required for data: 7466582176
I0419 19:14:26.698410 31435 layer_factory.hpp:77] Creating layer conv6_1_relu
I0419 19:14:26.698416 31435 net.cpp:100] Creating Layer conv6_1_relu
I0419 19:14:26.698421 31435 net.cpp:434] conv6_1_relu <- conv6_1
I0419 19:14:26.698438 31435 net.cpp:395] conv6_1_relu -> conv6_1 (in-place)
I0419 19:14:26.698447 31435 net.cpp:150] Setting up conv6_1_relu
I0419 19:14:26.698453 31435 net.cpp:157] Top shape: 32 256 19 19 (2957312)
I0419 19:14:26.698457 31435 net.cpp:165] Memory required for data: 7478411424
I0419 19:14:26.698459 31435 layer_factory.hpp:77] Creating layer conv6_2
I0419 19:14:26.698468 31435 net.cpp:100] Creating Layer conv6_2
I0419 19:14:26.698472 31435 net.cpp:434] conv6_2 <- conv6_1
I0419 19:14:26.698478 31435 net.cpp:408] conv6_2 -> conv6_2
I0419 19:14:26.704741 31435 net.cpp:150] Setting up conv6_2
I0419 19:14:26.704757 31435 net.cpp:157] Top shape: 32 512 10 10 (1638400)
I0419 19:14:26.704761 31435 net.cpp:165] Memory required for data: 7484965024
I0419 19:14:26.704776 31435 layer_factory.hpp:77] Creating layer conv6_2_relu
I0419 19:14:26.704783 31435 net.cpp:100] Creating Layer conv6_2_relu
I0419 19:14:26.704788 31435 net.cpp:434] conv6_2_relu <- conv6_2
I0419 19:14:26.704795 31435 net.cpp:395] conv6_2_relu -> conv6_2 (in-place)
I0419 19:14:26.704804 31435 net.cpp:150] Setting up conv6_2_relu
I0419 19:14:26.704810 31435 net.cpp:157] Top shape: 32 512 10 10 (1638400)
I0419 19:14:26.704813 31435 net.cpp:165] Memory required for data: 7491518624
I0419 19:14:26.704816 31435 layer_factory.hpp:77] Creating layer conv6_2_conv6_2_relu_0_split
I0419 19:14:26.704823 31435 net.cpp:100] Creating Layer conv6_2_conv6_2_relu_0_split
I0419 19:14:26.704826 31435 net.cpp:434] conv6_2_conv6_2_relu_0_split <- conv6_2
I0419 19:14:26.704833 31435 net.cpp:408] conv6_2_conv6_2_relu_0_split -> conv6_2_conv6_2_relu_0_split_0
I0419 19:14:26.704841 31435 net.cpp:408] conv6_2_conv6_2_relu_0_split -> conv6_2_conv6_2_relu_0_split_1
I0419 19:14:26.704849 31435 net.cpp:408] conv6_2_conv6_2_relu_0_split -> conv6_2_conv6_2_relu_0_split_2
I0419 19:14:26.704861 31435 net.cpp:408] conv6_2_conv6_2_relu_0_split -> conv6_2_conv6_2_relu_0_split_3
I0419 19:14:26.704907 31435 net.cpp:150] Setting up conv6_2_conv6_2_relu_0_split
I0419 19:14:26.704915 31435 net.cpp:157] Top shape: 32 512 10 10 (1638400)
I0419 19:14:26.704918 31435 net.cpp:157] Top shape: 32 512 10 10 (1638400)
I0419 19:14:26.704922 31435 net.cpp:157] Top shape: 32 512 10 10 (1638400)
I0419 19:14:26.704926 31435 net.cpp:157] Top shape: 32 512 10 10 (1638400)
I0419 19:14:26.704929 31435 net.cpp:165] Memory required for data: 7517733024
I0419 19:14:26.704933 31435 layer_factory.hpp:77] Creating layer conv7_1
I0419 19:14:26.704942 31435 net.cpp:100] Creating Layer conv7_1
I0419 19:14:26.704946 31435 net.cpp:434] conv7_1 <- conv6_2_conv6_2_relu_0_split_0
I0419 19:14:26.704953 31435 net.cpp:408] conv7_1 -> conv7_1
I0419 19:14:26.705409 31435 net.cpp:150] Setting up conv7_1
I0419 19:14:26.705415 31435 net.cpp:157] Top shape: 32 128 10 10 (409600)
I0419 19:14:26.705418 31435 net.cpp:165] Memory required for data: 7519371424
I0419 19:14:26.705425 31435 layer_factory.hpp:77] Creating layer conv7_1_relu
I0419 19:14:26.705431 31435 net.cpp:100] Creating Layer conv7_1_relu
I0419 19:14:26.705435 31435 net.cpp:434] conv7_1_relu <- conv7_1
I0419 19:14:26.705440 31435 net.cpp:395] conv7_1_relu -> conv7_1 (in-place)
I0419 19:14:26.705448 31435 net.cpp:150] Setting up conv7_1_relu
I0419 19:14:26.705453 31435 net.cpp:157] Top shape: 32 128 10 10 (409600)
I0419 19:14:26.705456 31435 net.cpp:165] Memory required for data: 7521009824
I0419 19:14:26.705459 31435 layer_factory.hpp:77] Creating layer conv7_2
I0419 19:14:26.705467 31435 net.cpp:100] Creating Layer conv7_2
I0419 19:14:26.705471 31435 net.cpp:434] conv7_2 <- conv7_1
I0419 19:14:26.705477 31435 net.cpp:408] conv7_2 -> conv7_2
I0419 19:14:26.707548 31435 net.cpp:150] Setting up conv7_2
I0419 19:14:26.707561 31435 net.cpp:157] Top shape: 32 256 5 5 (204800)
I0419 19:14:26.707564 31435 net.cpp:165] Memory required for data: 7521829024
I0419 19:14:26.707571 31435 layer_factory.hpp:77] Creating layer conv7_2_relu
I0419 19:14:26.707577 31435 net.cpp:100] Creating Layer conv7_2_relu
I0419 19:14:26.707582 31435 net.cpp:434] conv7_2_relu <- conv7_2
I0419 19:14:26.707600 31435 net.cpp:395] conv7_2_relu -> conv7_2 (in-place)
I0419 19:14:26.707608 31435 net.cpp:150] Setting up conv7_2_relu
I0419 19:14:26.707614 31435 net.cpp:157] Top shape: 32 256 5 5 (204800)
I0419 19:14:26.707619 31435 net.cpp:165] Memory required for data: 7522648224
I0419 19:14:26.707623 31435 layer_factory.hpp:77] Creating layer conv7_2_conv7_2_relu_0_split
I0419 19:14:26.707628 31435 net.cpp:100] Creating Layer conv7_2_conv7_2_relu_0_split
I0419 19:14:26.707631 31435 net.cpp:434] conv7_2_conv7_2_relu_0_split <- conv7_2
I0419 19:14:26.707638 31435 net.cpp:408] conv7_2_conv7_2_relu_0_split -> conv7_2_conv7_2_relu_0_split_0
I0419 19:14:26.707646 31435 net.cpp:408] conv7_2_conv7_2_relu_0_split -> conv7_2_conv7_2_relu_0_split_1
I0419 19:14:26.707654 31435 net.cpp:408] conv7_2_conv7_2_relu_0_split -> conv7_2_conv7_2_relu_0_split_2
I0419 19:14:26.707662 31435 net.cpp:408] conv7_2_conv7_2_relu_0_split -> conv7_2_conv7_2_relu_0_split_3
I0419 19:14:26.707708 31435 net.cpp:150] Setting up conv7_2_conv7_2_relu_0_split
I0419 19:14:26.707715 31435 net.cpp:157] Top shape: 32 256 5 5 (204800)
I0419 19:14:26.707718 31435 net.cpp:157] Top shape: 32 256 5 5 (204800)
I0419 19:14:26.707722 31435 net.cpp:157] Top shape: 32 256 5 5 (204800)
I0419 19:14:26.707727 31435 net.cpp:157] Top shape: 32 256 5 5 (204800)
I0419 19:14:26.707729 31435 net.cpp:165] Memory required for data: 7525925024
I0419 19:14:26.707732 31435 layer_factory.hpp:77] Creating layer conv8_1
I0419 19:14:26.707742 31435 net.cpp:100] Creating Layer conv8_1
I0419 19:14:26.707746 31435 net.cpp:434] conv8_1 <- conv7_2_conv7_2_relu_0_split_0
I0419 19:14:26.707753 31435 net.cpp:408] conv8_1 -> conv8_1
I0419 19:14:26.708055 31435 net.cpp:150] Setting up conv8_1
I0419 19:14:26.708061 31435 net.cpp:157] Top shape: 32 128 5 5 (102400)
I0419 19:14:26.708065 31435 net.cpp:165] Memory required for data: 7526334624
I0419 19:14:26.708071 31435 layer_factory.hpp:77] Creating layer conv8_1_relu
I0419 19:14:26.708076 31435 net.cpp:100] Creating Layer conv8_1_relu
I0419 19:14:26.708081 31435 net.cpp:434] conv8_1_relu <- conv8_1
I0419 19:14:26.708086 31435 net.cpp:395] conv8_1_relu -> conv8_1 (in-place)
I0419 19:14:26.708093 31435 net.cpp:150] Setting up conv8_1_relu
I0419 19:14:26.708099 31435 net.cpp:157] Top shape: 32 128 5 5 (102400)
I0419 19:14:26.708101 31435 net.cpp:165] Memory required for data: 7526744224
I0419 19:14:26.708106 31435 layer_factory.hpp:77] Creating layer conv8_2
I0419 19:14:26.708112 31435 net.cpp:100] Creating Layer conv8_2
I0419 19:14:26.708117 31435 net.cpp:434] conv8_2 <- conv8_1
I0419 19:14:26.708122 31435 net.cpp:408] conv8_2 -> conv8_2
I0419 19:14:26.710186 31435 net.cpp:150] Setting up conv8_2
I0419 19:14:26.710198 31435 net.cpp:157] Top shape: 32 256 3 3 (73728)
I0419 19:14:26.710201 31435 net.cpp:165] Memory required for data: 7527039136
I0419 19:14:26.710207 31435 layer_factory.hpp:77] Creating layer conv8_2_relu
I0419 19:14:26.710214 31435 net.cpp:100] Creating Layer conv8_2_relu
I0419 19:14:26.710218 31435 net.cpp:434] conv8_2_relu <- conv8_2
I0419 19:14:26.710223 31435 net.cpp:395] conv8_2_relu -> conv8_2 (in-place)
I0419 19:14:26.710230 31435 net.cpp:150] Setting up conv8_2_relu
I0419 19:14:26.710237 31435 net.cpp:157] Top shape: 32 256 3 3 (73728)
I0419 19:14:26.710239 31435 net.cpp:165] Memory required for data: 7527334048
I0419 19:14:26.710242 31435 layer_factory.hpp:77] Creating layer conv8_2_conv8_2_relu_0_split
I0419 19:14:26.710247 31435 net.cpp:100] Creating Layer conv8_2_conv8_2_relu_0_split
I0419 19:14:26.710252 31435 net.cpp:434] conv8_2_conv8_2_relu_0_split <- conv8_2
I0419 19:14:26.710258 31435 net.cpp:408] conv8_2_conv8_2_relu_0_split -> conv8_2_conv8_2_relu_0_split_0
I0419 19:14:26.710265 31435 net.cpp:408] conv8_2_conv8_2_relu_0_split -> conv8_2_conv8_2_relu_0_split_1
I0419 19:14:26.710273 31435 net.cpp:408] conv8_2_conv8_2_relu_0_split -> conv8_2_conv8_2_relu_0_split_2
I0419 19:14:26.710281 31435 net.cpp:408] conv8_2_conv8_2_relu_0_split -> conv8_2_conv8_2_relu_0_split_3
I0419 19:14:26.710357 31435 net.cpp:150] Setting up conv8_2_conv8_2_relu_0_split
I0419 19:14:26.710366 31435 net.cpp:157] Top shape: 32 256 3 3 (73728)
I0419 19:14:26.710369 31435 net.cpp:157] Top shape: 32 256 3 3 (73728)
I0419 19:14:26.710376 31435 net.cpp:157] Top shape: 32 256 3 3 (73728)
I0419 19:14:26.710379 31435 net.cpp:157] Top shape: 32 256 3 3 (73728)
I0419 19:14:26.710382 31435 net.cpp:165] Memory required for data: 7528513696
I0419 19:14:26.710386 31435 layer_factory.hpp:77] Creating layer conv9_1
I0419 19:14:26.710396 31435 net.cpp:100] Creating Layer conv9_1
I0419 19:14:26.710399 31435 net.cpp:434] conv9_1 <- conv8_2_conv8_2_relu_0_split_0
I0419 19:14:26.710407 31435 net.cpp:408] conv9_1 -> conv9_1
I0419 19:14:26.710925 31435 net.cpp:150] Setting up conv9_1
I0419 19:14:26.710934 31435 net.cpp:157] Top shape: 32 128 3 3 (36864)
I0419 19:14:26.710937 31435 net.cpp:165] Memory required for data: 7528661152
I0419 19:14:26.710944 31435 layer_factory.hpp:77] Creating layer conv9_1_relu
I0419 19:14:26.710950 31435 net.cpp:100] Creating Layer conv9_1_relu
I0419 19:14:26.710954 31435 net.cpp:434] conv9_1_relu <- conv9_1
I0419 19:14:26.710959 31435 net.cpp:395] conv9_1_relu -> conv9_1 (in-place)
I0419 19:14:26.710965 31435 net.cpp:150] Setting up conv9_1_relu
I0419 19:14:26.710970 31435 net.cpp:157] Top shape: 32 128 3 3 (36864)
I0419 19:14:26.710973 31435 net.cpp:165] Memory required for data: 7528808608
I0419 19:14:26.710976 31435 layer_factory.hpp:77] Creating layer conv9_2
I0419 19:14:26.710985 31435 net.cpp:100] Creating Layer conv9_2
I0419 19:14:26.710988 31435 net.cpp:434] conv9_2 <- conv9_1
I0419 19:14:26.710995 31435 net.cpp:408] conv9_2 -> conv9_2
I0419 19:14:26.713161 31435 net.cpp:150] Setting up conv9_2
I0419 19:14:26.713172 31435 net.cpp:157] Top shape: 32 256 1 1 (8192)
I0419 19:14:26.713176 31435 net.cpp:165] Memory required for data: 7528841376
I0419 19:14:26.713183 31435 layer_factory.hpp:77] Creating layer conv9_2_relu
I0419 19:14:26.713189 31435 net.cpp:100] Creating Layer conv9_2_relu
I0419 19:14:26.713193 31435 net.cpp:434] conv9_2_relu <- conv9_2
I0419 19:14:26.713198 31435 net.cpp:395] conv9_2_relu -> conv9_2 (in-place)
I0419 19:14:26.713207 31435 net.cpp:150] Setting up conv9_2_relu
I0419 19:14:26.713212 31435 net.cpp:157] Top shape: 32 256 1 1 (8192)
I0419 19:14:26.713214 31435 net.cpp:165] Memory required for data: 7528874144
I0419 19:14:26.713217 31435 layer_factory.hpp:77] Creating layer conv9_2_conv9_2_relu_0_split
I0419 19:14:26.713223 31435 net.cpp:100] Creating Layer conv9_2_conv9_2_relu_0_split
I0419 19:14:26.713227 31435 net.cpp:434] conv9_2_conv9_2_relu_0_split <- conv9_2
I0419 19:14:26.713232 31435 net.cpp:408] conv9_2_conv9_2_relu_0_split -> conv9_2_conv9_2_relu_0_split_0
I0419 19:14:26.713240 31435 net.cpp:408] conv9_2_conv9_2_relu_0_split -> conv9_2_conv9_2_relu_0_split_1
I0419 19:14:26.713249 31435 net.cpp:408] conv9_2_conv9_2_relu_0_split -> conv9_2_conv9_2_relu_0_split_2
I0419 19:14:26.713299 31435 net.cpp:150] Setting up conv9_2_conv9_2_relu_0_split
I0419 19:14:26.713306 31435 net.cpp:157] Top shape: 32 256 1 1 (8192)
I0419 19:14:26.713310 31435 net.cpp:157] Top shape: 32 256 1 1 (8192)
I0419 19:14:26.713315 31435 net.cpp:157] Top shape: 32 256 1 1 (8192)
I0419 19:14:26.713318 31435 net.cpp:165] Memory required for data: 7528972448
I0419 19:14:26.713321 31435 layer_factory.hpp:77] Creating layer conv4_3_norm
I0419 19:14:26.713328 31435 net.cpp:100] Creating Layer conv4_3_norm
I0419 19:14:26.713335 31435 net.cpp:434] conv4_3_norm <- conv4_3_relu4_3_0_split_1
I0419 19:14:26.713340 31435 net.cpp:408] conv4_3_norm -> conv4_3_norm
I0419 19:14:26.713500 31435 net.cpp:150] Setting up conv4_3_norm
I0419 19:14:26.713507 31435 net.cpp:157] Top shape: 32 512 38 38 (23658496)
I0419 19:14:26.713511 31435 net.cpp:165] Memory required for data: 7623606432
I0419 19:14:26.713516 31435 layer_factory.hpp:77] Creating layer conv4_3_norm_conv4_3_norm_0_split
I0419 19:14:26.713522 31435 net.cpp:100] Creating Layer conv4_3_norm_conv4_3_norm_0_split
I0419 19:14:26.713526 31435 net.cpp:434] conv4_3_norm_conv4_3_norm_0_split <- conv4_3_norm
I0419 19:14:26.713543 31435 net.cpp:408] conv4_3_norm_conv4_3_norm_0_split -> conv4_3_norm_conv4_3_norm_0_split_0
I0419 19:14:26.713552 31435 net.cpp:408] conv4_3_norm_conv4_3_norm_0_split -> conv4_3_norm_conv4_3_norm_0_split_1
I0419 19:14:26.713559 31435 net.cpp:408] conv4_3_norm_conv4_3_norm_0_split -> conv4_3_norm_conv4_3_norm_0_split_2
I0419 19:14:26.713608 31435 net.cpp:150] Setting up conv4_3_norm_conv4_3_norm_0_split
I0419 19:14:26.713615 31435 net.cpp:157] Top shape: 32 512 38 38 (23658496)
I0419 19:14:26.713619 31435 net.cpp:157] Top shape: 32 512 38 38 (23658496)
I0419 19:14:26.713624 31435 net.cpp:157] Top shape: 32 512 38 38 (23658496)
I0419 19:14:26.713627 31435 net.cpp:165] Memory required for data: 7907508384
I0419 19:14:26.713630 31435 layer_factory.hpp:77] Creating layer conv4_3_norm_mbox_loc
I0419 19:14:26.713640 31435 net.cpp:100] Creating Layer conv4_3_norm_mbox_loc
I0419 19:14:26.713644 31435 net.cpp:434] conv4_3_norm_mbox_loc <- conv4_3_norm_conv4_3_norm_0_split_0
I0419 19:14:26.713651 31435 net.cpp:408] conv4_3_norm_mbox_loc -> conv4_3_norm_mbox_loc
I0419 19:14:26.714460 31435 net.cpp:150] Setting up conv4_3_norm_mbox_loc
I0419 19:14:26.714469 31435 net.cpp:157] Top shape: 32 16 38 38 (739328)
I0419 19:14:26.714473 31435 net.cpp:165] Memory required for data: 7910465696
I0419 19:14:26.714479 31435 layer_factory.hpp:77] Creating layer conv4_3_norm_mbox_loc_perm
I0419 19:14:26.714488 31435 net.cpp:100] Creating Layer conv4_3_norm_mbox_loc_perm
I0419 19:14:26.714493 31435 net.cpp:434] conv4_3_norm_mbox_loc_perm <- conv4_3_norm_mbox_loc
I0419 19:14:26.714498 31435 net.cpp:408] conv4_3_norm_mbox_loc_perm -> conv4_3_norm_mbox_loc_perm
I0419 19:14:26.714581 31435 net.cpp:150] Setting up conv4_3_norm_mbox_loc_perm
I0419 19:14:26.714588 31435 net.cpp:157] Top shape: 32 38 38 16 (739328)
I0419 19:14:26.714591 31435 net.cpp:165] Memory required for data: 7913423008
I0419 19:14:26.714593 31435 layer_factory.hpp:77] Creating layer conv4_3_norm_mbox_loc_flat
I0419 19:14:26.714602 31435 net.cpp:100] Creating Layer conv4_3_norm_mbox_loc_flat
I0419 19:14:26.714607 31435 net.cpp:434] conv4_3_norm_mbox_loc_flat <- conv4_3_norm_mbox_loc_perm
I0419 19:14:26.714612 31435 net.cpp:408] conv4_3_norm_mbox_loc_flat -> conv4_3_norm_mbox_loc_flat
I0419 19:14:26.714648 31435 net.cpp:150] Setting up conv4_3_norm_mbox_loc_flat
I0419 19:14:26.714654 31435 net.cpp:157] Top shape: 32 23104 (739328)
I0419 19:14:26.714658 31435 net.cpp:165] Memory required for data: 7916380320
I0419 19:14:26.714661 31435 layer_factory.hpp:77] Creating layer conv4_3_norm_mbox_conf
I0419 19:14:26.714676 31435 net.cpp:100] Creating Layer conv4_3_norm_mbox_conf
I0419 19:14:26.714680 31435 net.cpp:434] conv4_3_norm_mbox_conf <- conv4_3_norm_conv4_3_norm_0_split_1
I0419 19:14:26.714687 31435 net.cpp:408] conv4_3_norm_mbox_conf -> conv4_3_norm_mbox_conf
I0419 19:14:26.715159 31435 net.cpp:150] Setting up conv4_3_norm_mbox_conf
I0419 19:14:26.715167 31435 net.cpp:157] Top shape: 32 16 38 38 (739328)
I0419 19:14:26.715170 31435 net.cpp:165] Memory required for data: 7919337632
I0419 19:14:26.715178 31435 layer_factory.hpp:77] Creating layer conv4_3_norm_mbox_conf_perm
I0419 19:14:26.715186 31435 net.cpp:100] Creating Layer conv4_3_norm_mbox_conf_perm
I0419 19:14:26.715191 31435 net.cpp:434] conv4_3_norm_mbox_conf_perm <- conv4_3_norm_mbox_conf
I0419 19:14:26.715198 31435 net.cpp:408] conv4_3_norm_mbox_conf_perm -> conv4_3_norm_mbox_conf_perm
I0419 19:14:26.715268 31435 net.cpp:150] Setting up conv4_3_norm_mbox_conf_perm
I0419 19:14:26.715275 31435 net.cpp:157] Top shape: 32 38 38 16 (739328)
I0419 19:14:26.715277 31435 net.cpp:165] Memory required for data: 7922294944
I0419 19:14:26.715281 31435 layer_factory.hpp:77] Creating layer conv4_3_norm_mbox_conf_flat
I0419 19:14:26.715286 31435 net.cpp:100] Creating Layer conv4_3_norm_mbox_conf_flat
I0419 19:14:26.715291 31435 net.cpp:434] conv4_3_norm_mbox_conf_flat <- conv4_3_norm_mbox_conf_perm
I0419 19:14:26.715297 31435 net.cpp:408] conv4_3_norm_mbox_conf_flat -> conv4_3_norm_mbox_conf_flat
I0419 19:14:26.715328 31435 net.cpp:150] Setting up conv4_3_norm_mbox_conf_flat
I0419 19:14:26.715335 31435 net.cpp:157] Top shape: 32 23104 (739328)
I0419 19:14:26.715338 31435 net.cpp:165] Memory required for data: 7925252256
I0419 19:14:26.715342 31435 layer_factory.hpp:77] Creating layer conv4_3_norm_mbox_priorbox
I0419 19:14:26.715348 31435 net.cpp:100] Creating Layer conv4_3_norm_mbox_priorbox
I0419 19:14:26.715353 31435 net.cpp:434] conv4_3_norm_mbox_priorbox <- conv4_3_norm_conv4_3_norm_0_split_2
I0419 19:14:26.715358 31435 net.cpp:434] conv4_3_norm_mbox_priorbox <- data_data_0_split_1
I0419 19:14:26.715365 31435 net.cpp:408] conv4_3_norm_mbox_priorbox -> conv4_3_norm_mbox_priorbox
I0419 19:14:26.715391 31435 net.cpp:150] Setting up conv4_3_norm_mbox_priorbox
I0419 19:14:26.715397 31435 net.cpp:157] Top shape: 1 2 23104 (46208)
I0419 19:14:26.715400 31435 net.cpp:165] Memory required for data: 7925437088
I0419 19:14:26.715404 31435 layer_factory.hpp:77] Creating layer fc7_mbox_loc
I0419 19:14:26.715415 31435 net.cpp:100] Creating Layer fc7_mbox_loc
I0419 19:14:26.715420 31435 net.cpp:434] fc7_mbox_loc <- fc7_relu7_0_split_1
I0419 19:14:26.715430 31435 net.cpp:408] fc7_mbox_loc -> fc7_mbox_loc
I0419 19:14:26.716522 31435 net.cpp:150] Setting up fc7_mbox_loc
I0419 19:14:26.716531 31435 net.cpp:157] Top shape: 32 24 19 19 (277248)
I0419 19:14:26.716533 31435 net.cpp:165] Memory required for data: 7926546080
I0419 19:14:26.716539 31435 layer_factory.hpp:77] Creating layer fc7_mbox_loc_perm
I0419 19:14:26.716547 31435 net.cpp:100] Creating Layer fc7_mbox_loc_perm
I0419 19:14:26.716552 31435 net.cpp:434] fc7_mbox_loc_perm <- fc7_mbox_loc
I0419 19:14:26.716557 31435 net.cpp:408] fc7_mbox_loc_perm -> fc7_mbox_loc_perm
I0419 19:14:26.716627 31435 net.cpp:150] Setting up fc7_mbox_loc_perm
I0419 19:14:26.716634 31435 net.cpp:157] Top shape: 32 19 19 24 (277248)
I0419 19:14:26.716637 31435 net.cpp:165] Memory required for data: 7927655072
I0419 19:14:26.716640 31435 layer_factory.hpp:77] Creating layer fc7_mbox_loc_flat
I0419 19:14:26.716646 31435 net.cpp:100] Creating Layer fc7_mbox_loc_flat
I0419 19:14:26.716650 31435 net.cpp:434] fc7_mbox_loc_flat <- fc7_mbox_loc_perm
I0419 19:14:26.716657 31435 net.cpp:408] fc7_mbox_loc_flat -> fc7_mbox_loc_flat
I0419 19:14:26.716680 31435 net.cpp:150] Setting up fc7_mbox_loc_flat
I0419 19:14:26.716686 31435 net.cpp:157] Top shape: 32 8664 (277248)
I0419 19:14:26.716688 31435 net.cpp:165] Memory required for data: 7928764064
I0419 19:14:26.716691 31435 layer_factory.hpp:77] Creating layer fc7_mbox_conf
I0419 19:14:26.716701 31435 net.cpp:100] Creating Layer fc7_mbox_conf
I0419 19:14:26.716706 31435 net.cpp:434] fc7_mbox_conf <- fc7_relu7_0_split_2
I0419 19:14:26.716713 31435 net.cpp:408] fc7_mbox_conf -> fc7_mbox_conf
I0419 19:14:26.717829 31435 net.cpp:150] Setting up fc7_mbox_conf
I0419 19:14:26.717838 31435 net.cpp:157] Top shape: 32 24 19 19 (277248)
I0419 19:14:26.717840 31435 net.cpp:165] Memory required for data: 7929873056
I0419 19:14:26.717846 31435 layer_factory.hpp:77] Creating layer fc7_mbox_conf_perm
I0419 19:14:26.717855 31435 net.cpp:100] Creating Layer fc7_mbox_conf_perm
I0419 19:14:26.717860 31435 net.cpp:434] fc7_mbox_conf_perm <- fc7_mbox_conf
I0419 19:14:26.717866 31435 net.cpp:408] fc7_mbox_conf_perm -> fc7_mbox_conf_perm
I0419 19:14:26.717936 31435 net.cpp:150] Setting up fc7_mbox_conf_perm
I0419 19:14:26.717941 31435 net.cpp:157] Top shape: 32 19 19 24 (277248)
I0419 19:14:26.717945 31435 net.cpp:165] Memory required for data: 7930982048
I0419 19:14:26.717948 31435 layer_factory.hpp:77] Creating layer fc7_mbox_conf_flat
I0419 19:14:26.717954 31435 net.cpp:100] Creating Layer fc7_mbox_conf_flat
I0419 19:14:26.717958 31435 net.cpp:434] fc7_mbox_conf_flat <- fc7_mbox_conf_perm
I0419 19:14:26.717964 31435 net.cpp:408] fc7_mbox_conf_flat -> fc7_mbox_conf_flat
I0419 19:14:26.717986 31435 net.cpp:150] Setting up fc7_mbox_conf_flat
I0419 19:14:26.717993 31435 net.cpp:157] Top shape: 32 8664 (277248)
I0419 19:14:26.717995 31435 net.cpp:165] Memory required for data: 7932091040
I0419 19:14:26.718008 31435 layer_factory.hpp:77] Creating layer fc7_mbox_priorbox
I0419 19:14:26.718015 31435 net.cpp:100] Creating Layer fc7_mbox_priorbox
I0419 19:14:26.718020 31435 net.cpp:434] fc7_mbox_priorbox <- fc7_relu7_0_split_3
I0419 19:14:26.718024 31435 net.cpp:434] fc7_mbox_priorbox <- data_data_0_split_2
I0419 19:14:26.718031 31435 net.cpp:408] fc7_mbox_priorbox -> fc7_mbox_priorbox
I0419 19:14:26.718055 31435 net.cpp:150] Setting up fc7_mbox_priorbox
I0419 19:14:26.718061 31435 net.cpp:157] Top shape: 1 2 8664 (17328)
I0419 19:14:26.718065 31435 net.cpp:165] Memory required for data: 7932160352
I0419 19:14:26.718067 31435 layer_factory.hpp:77] Creating layer conv6_2_mbox_loc
I0419 19:14:26.718077 31435 net.cpp:100] Creating Layer conv6_2_mbox_loc
I0419 19:14:26.718082 31435 net.cpp:434] conv6_2_mbox_loc <- conv6_2_conv6_2_relu_0_split_1
I0419 19:14:26.718089 31435 net.cpp:408] conv6_2_mbox_loc -> conv6_2_mbox_loc
I0419 19:14:26.718725 31435 net.cpp:150] Setting up conv6_2_mbox_loc
I0419 19:14:26.718734 31435 net.cpp:157] Top shape: 32 24 10 10 (76800)
I0419 19:14:26.718735 31435 net.cpp:165] Memory required for data: 7932467552
I0419 19:14:26.718741 31435 layer_factory.hpp:77] Creating layer conv6_2_mbox_loc_perm
I0419 19:14:26.718750 31435 net.cpp:100] Creating Layer conv6_2_mbox_loc_perm
I0419 19:14:26.718755 31435 net.cpp:434] conv6_2_mbox_loc_perm <- conv6_2_mbox_loc
I0419 19:14:26.718761 31435 net.cpp:408] conv6_2_mbox_loc_perm -> conv6_2_mbox_loc_perm
I0419 19:14:26.718832 31435 net.cpp:150] Setting up conv6_2_mbox_loc_perm
I0419 19:14:26.718840 31435 net.cpp:157] Top shape: 32 10 10 24 (76800)
I0419 19:14:26.718843 31435 net.cpp:165] Memory required for data: 7932774752
I0419 19:14:26.718847 31435 layer_factory.hpp:77] Creating layer conv6_2_mbox_loc_flat
I0419 19:14:26.718852 31435 net.cpp:100] Creating Layer conv6_2_mbox_loc_flat
I0419 19:14:26.718857 31435 net.cpp:434] conv6_2_mbox_loc_flat <- conv6_2_mbox_loc_perm
I0419 19:14:26.718863 31435 net.cpp:408] conv6_2_mbox_loc_flat -> conv6_2_mbox_loc_flat
I0419 19:14:26.718883 31435 net.cpp:150] Setting up conv6_2_mbox_loc_flat
I0419 19:14:26.718888 31435 net.cpp:157] Top shape: 32 2400 (76800)
I0419 19:14:26.718890 31435 net.cpp:165] Memory required for data: 7933081952
I0419 19:14:26.718894 31435 layer_factory.hpp:77] Creating layer conv6_2_mbox_conf
I0419 19:14:26.718904 31435 net.cpp:100] Creating Layer conv6_2_mbox_conf
I0419 19:14:26.718909 31435 net.cpp:434] conv6_2_mbox_conf <- conv6_2_conv6_2_relu_0_split_2
I0419 19:14:26.718916 31435 net.cpp:408] conv6_2_mbox_conf -> conv6_2_mbox_conf
I0419 19:14:26.719552 31435 net.cpp:150] Setting up conv6_2_mbox_conf
I0419 19:14:26.719558 31435 net.cpp:157] Top shape: 32 24 10 10 (76800)
I0419 19:14:26.719561 31435 net.cpp:165] Memory required for data: 7933389152
I0419 19:14:26.719568 31435 layer_factory.hpp:77] Creating layer conv6_2_mbox_conf_perm
I0419 19:14:26.719576 31435 net.cpp:100] Creating Layer conv6_2_mbox_conf_perm
I0419 19:14:26.719580 31435 net.cpp:434] conv6_2_mbox_conf_perm <- conv6_2_mbox_conf
I0419 19:14:26.719586 31435 net.cpp:408] conv6_2_mbox_conf_perm -> conv6_2_mbox_conf_perm
I0419 19:14:26.719656 31435 net.cpp:150] Setting up conv6_2_mbox_conf_perm
I0419 19:14:26.719662 31435 net.cpp:157] Top shape: 32 10 10 24 (76800)
I0419 19:14:26.719666 31435 net.cpp:165] Memory required for data: 7933696352
I0419 19:14:26.719668 31435 layer_factory.hpp:77] Creating layer conv6_2_mbox_conf_flat
I0419 19:14:26.719674 31435 net.cpp:100] Creating Layer conv6_2_mbox_conf_flat
I0419 19:14:26.719678 31435 net.cpp:434] conv6_2_mbox_conf_flat <- conv6_2_mbox_conf_perm
I0419 19:14:26.719684 31435 net.cpp:408] conv6_2_mbox_conf_flat -> conv6_2_mbox_conf_flat
I0419 19:14:26.719707 31435 net.cpp:150] Setting up conv6_2_mbox_conf_flat
I0419 19:14:26.719712 31435 net.cpp:157] Top shape: 32 2400 (76800)
I0419 19:14:26.719714 31435 net.cpp:165] Memory required for data: 7934003552
I0419 19:14:26.719717 31435 layer_factory.hpp:77] Creating layer conv6_2_mbox_priorbox
I0419 19:14:26.719723 31435 net.cpp:100] Creating Layer conv6_2_mbox_priorbox
I0419 19:14:26.719734 31435 net.cpp:434] conv6_2_mbox_priorbox <- conv6_2_conv6_2_relu_0_split_3
I0419 19:14:26.719739 31435 net.cpp:434] conv6_2_mbox_priorbox <- data_data_0_split_3
I0419 19:14:26.719746 31435 net.cpp:408] conv6_2_mbox_priorbox -> conv6_2_mbox_priorbox
I0419 19:14:26.719771 31435 net.cpp:150] Setting up conv6_2_mbox_priorbox
I0419 19:14:26.719777 31435 net.cpp:157] Top shape: 1 2 2400 (4800)
I0419 19:14:26.719779 31435 net.cpp:165] Memory required for data: 7934022752
I0419 19:14:26.719782 31435 layer_factory.hpp:77] Creating layer conv7_2_mbox_loc
I0419 19:14:26.719792 31435 net.cpp:100] Creating Layer conv7_2_mbox_loc
I0419 19:14:26.719797 31435 net.cpp:434] conv7_2_mbox_loc <- conv7_2_conv7_2_relu_0_split_1
I0419 19:14:26.719805 31435 net.cpp:408] conv7_2_mbox_loc -> conv7_2_mbox_loc
I0419 19:14:26.720206 31435 net.cpp:150] Setting up conv7_2_mbox_loc
I0419 19:14:26.720213 31435 net.cpp:157] Top shape: 32 24 5 5 (19200)
I0419 19:14:26.720217 31435 net.cpp:165] Memory required for data: 7934099552
I0419 19:14:26.720223 31435 layer_factory.hpp:77] Creating layer conv7_2_mbox_loc_perm
I0419 19:14:26.720230 31435 net.cpp:100] Creating Layer conv7_2_mbox_loc_perm
I0419 19:14:26.720235 31435 net.cpp:434] conv7_2_mbox_loc_perm <- conv7_2_mbox_loc
I0419 19:14:26.720242 31435 net.cpp:408] conv7_2_mbox_loc_perm -> conv7_2_mbox_loc_perm
I0419 19:14:26.720310 31435 net.cpp:150] Setting up conv7_2_mbox_loc_perm
I0419 19:14:26.720317 31435 net.cpp:157] Top shape: 32 5 5 24 (19200)
I0419 19:14:26.720319 31435 net.cpp:165] Memory required for data: 7934176352
I0419 19:14:26.720324 31435 layer_factory.hpp:77] Creating layer conv7_2_mbox_loc_flat
I0419 19:14:26.720332 31435 net.cpp:100] Creating Layer conv7_2_mbox_loc_flat
I0419 19:14:26.720336 31435 net.cpp:434] conv7_2_mbox_loc_flat <- conv7_2_mbox_loc_perm
I0419 19:14:26.720341 31435 net.cpp:408] conv7_2_mbox_loc_flat -> conv7_2_mbox_loc_flat
I0419 19:14:26.720363 31435 net.cpp:150] Setting up conv7_2_mbox_loc_flat
I0419 19:14:26.720369 31435 net.cpp:157] Top shape: 32 600 (19200)
I0419 19:14:26.720371 31435 net.cpp:165] Memory required for data: 7934253152
I0419 19:14:26.720374 31435 layer_factory.hpp:77] Creating layer conv7_2_mbox_conf
I0419 19:14:26.720386 31435 net.cpp:100] Creating Layer conv7_2_mbox_conf
I0419 19:14:26.720388 31435 net.cpp:434] conv7_2_mbox_conf <- conv7_2_conv7_2_relu_0_split_2
I0419 19:14:26.720396 31435 net.cpp:408] conv7_2_mbox_conf -> conv7_2_mbox_conf
I0419 19:14:26.720793 31435 net.cpp:150] Setting up conv7_2_mbox_conf
I0419 19:14:26.720800 31435 net.cpp:157] Top shape: 32 24 5 5 (19200)
I0419 19:14:26.720803 31435 net.cpp:165] Memory required for data: 7934329952
I0419 19:14:26.720808 31435 layer_factory.hpp:77] Creating layer conv7_2_mbox_conf_perm
I0419 19:14:26.720815 31435 net.cpp:100] Creating Layer conv7_2_mbox_conf_perm
I0419 19:14:26.720820 31435 net.cpp:434] conv7_2_mbox_conf_perm <- conv7_2_mbox_conf
I0419 19:14:26.720829 31435 net.cpp:408] conv7_2_mbox_conf_perm -> conv7_2_mbox_conf_perm
I0419 19:14:26.720904 31435 net.cpp:150] Setting up conv7_2_mbox_conf_perm
I0419 19:14:26.720911 31435 net.cpp:157] Top shape: 32 5 5 24 (19200)
I0419 19:14:26.720914 31435 net.cpp:165] Memory required for data: 7934406752
I0419 19:14:26.720917 31435 layer_factory.hpp:77] Creating layer conv7_2_mbox_conf_flat
I0419 19:14:26.720924 31435 net.cpp:100] Creating Layer conv7_2_mbox_conf_flat
I0419 19:14:26.720928 31435 net.cpp:434] conv7_2_mbox_conf_flat <- conv7_2_mbox_conf_perm
I0419 19:14:26.720937 31435 net.cpp:408] conv7_2_mbox_conf_flat -> conv7_2_mbox_conf_flat
I0419 19:14:26.720957 31435 net.cpp:150] Setting up conv7_2_mbox_conf_flat
I0419 19:14:26.720963 31435 net.cpp:157] Top shape: 32 600 (19200)
I0419 19:14:26.720964 31435 net.cpp:165] Memory required for data: 7934483552
I0419 19:14:26.720968 31435 layer_factory.hpp:77] Creating layer conv7_2_mbox_priorbox
I0419 19:14:26.720976 31435 net.cpp:100] Creating Layer conv7_2_mbox_priorbox
I0419 19:14:26.720981 31435 net.cpp:434] conv7_2_mbox_priorbox <- conv7_2_conv7_2_relu_0_split_3
I0419 19:14:26.720993 31435 net.cpp:434] conv7_2_mbox_priorbox <- data_data_0_split_4
I0419 19:14:26.721004 31435 net.cpp:408] conv7_2_mbox_priorbox -> conv7_2_mbox_priorbox
I0419 19:14:26.721025 31435 net.cpp:150] Setting up conv7_2_mbox_priorbox
I0419 19:14:26.721031 31435 net.cpp:157] Top shape: 1 2 600 (1200)
I0419 19:14:26.721035 31435 net.cpp:165] Memory required for data: 7934488352
I0419 19:14:26.721037 31435 layer_factory.hpp:77] Creating layer conv8_2_mbox_loc
I0419 19:14:26.721050 31435 net.cpp:100] Creating Layer conv8_2_mbox_loc
I0419 19:14:26.721053 31435 net.cpp:434] conv8_2_mbox_loc <- conv8_2_conv8_2_relu_0_split_1
I0419 19:14:26.721060 31435 net.cpp:408] conv8_2_mbox_loc -> conv8_2_mbox_loc
I0419 19:14:26.721379 31435 net.cpp:150] Setting up conv8_2_mbox_loc
I0419 19:14:26.721387 31435 net.cpp:157] Top shape: 32 16 3 3 (4608)
I0419 19:14:26.721390 31435 net.cpp:165] Memory required for data: 7934506784
I0419 19:14:26.721405 31435 layer_factory.hpp:77] Creating layer conv8_2_mbox_loc_perm
I0419 19:14:26.721411 31435 net.cpp:100] Creating Layer conv8_2_mbox_loc_perm
I0419 19:14:26.721416 31435 net.cpp:434] conv8_2_mbox_loc_perm <- conv8_2_mbox_loc
I0419 19:14:26.721424 31435 net.cpp:408] conv8_2_mbox_loc_perm -> conv8_2_mbox_loc_perm
I0419 19:14:26.721494 31435 net.cpp:150] Setting up conv8_2_mbox_loc_perm
I0419 19:14:26.721501 31435 net.cpp:157] Top shape: 32 3 3 16 (4608)
I0419 19:14:26.721504 31435 net.cpp:165] Memory required for data: 7934525216
I0419 19:14:26.721508 31435 layer_factory.hpp:77] Creating layer conv8_2_mbox_loc_flat
I0419 19:14:26.721514 31435 net.cpp:100] Creating Layer conv8_2_mbox_loc_flat
I0419 19:14:26.721518 31435 net.cpp:434] conv8_2_mbox_loc_flat <- conv8_2_mbox_loc_perm
I0419 19:14:26.721524 31435 net.cpp:408] conv8_2_mbox_loc_flat -> conv8_2_mbox_loc_flat
I0419 19:14:26.721546 31435 net.cpp:150] Setting up conv8_2_mbox_loc_flat
I0419 19:14:26.721551 31435 net.cpp:157] Top shape: 32 144 (4608)
I0419 19:14:26.721555 31435 net.cpp:165] Memory required for data: 7934543648
I0419 19:14:26.721557 31435 layer_factory.hpp:77] Creating layer conv8_2_mbox_conf
I0419 19:14:26.721568 31435 net.cpp:100] Creating Layer conv8_2_mbox_conf
I0419 19:14:26.721572 31435 net.cpp:434] conv8_2_mbox_conf <- conv8_2_conv8_2_relu_0_split_2
I0419 19:14:26.721581 31435 net.cpp:408] conv8_2_mbox_conf -> conv8_2_mbox_conf
I0419 19:14:26.721897 31435 net.cpp:150] Setting up conv8_2_mbox_conf
I0419 19:14:26.721904 31435 net.cpp:157] Top shape: 32 16 3 3 (4608)
I0419 19:14:26.721907 31435 net.cpp:165] Memory required for data: 7934562080
I0419 19:14:26.721915 31435 layer_factory.hpp:77] Creating layer conv8_2_mbox_conf_perm
I0419 19:14:26.721920 31435 net.cpp:100] Creating Layer conv8_2_mbox_conf_perm
I0419 19:14:26.721925 31435 net.cpp:434] conv8_2_mbox_conf_perm <- conv8_2_mbox_conf
I0419 19:14:26.721932 31435 net.cpp:408] conv8_2_mbox_conf_perm -> conv8_2_mbox_conf_perm
I0419 19:14:26.722000 31435 net.cpp:150] Setting up conv8_2_mbox_conf_perm
I0419 19:14:26.722008 31435 net.cpp:157] Top shape: 32 3 3 16 (4608)
I0419 19:14:26.722012 31435 net.cpp:165] Memory required for data: 7934580512
I0419 19:14:26.722013 31435 layer_factory.hpp:77] Creating layer conv8_2_mbox_conf_flat
I0419 19:14:26.722020 31435 net.cpp:100] Creating Layer conv8_2_mbox_conf_flat
I0419 19:14:26.722023 31435 net.cpp:434] conv8_2_mbox_conf_flat <- conv8_2_mbox_conf_perm
I0419 19:14:26.722030 31435 net.cpp:408] conv8_2_mbox_conf_flat -> conv8_2_mbox_conf_flat
I0419 19:14:26.722051 31435 net.cpp:150] Setting up conv8_2_mbox_conf_flat
I0419 19:14:26.722059 31435 net.cpp:157] Top shape: 32 144 (4608)
I0419 19:14:26.722061 31435 net.cpp:165] Memory required for data: 7934598944
I0419 19:14:26.722064 31435 layer_factory.hpp:77] Creating layer conv8_2_mbox_priorbox
I0419 19:14:26.722070 31435 net.cpp:100] Creating Layer conv8_2_mbox_priorbox
I0419 19:14:26.722074 31435 net.cpp:434] conv8_2_mbox_priorbox <- conv8_2_conv8_2_relu_0_split_3
I0419 19:14:26.722079 31435 net.cpp:434] conv8_2_mbox_priorbox <- data_data_0_split_5
I0419 19:14:26.722093 31435 net.cpp:408] conv8_2_mbox_priorbox -> conv8_2_mbox_priorbox
I0419 19:14:26.722116 31435 net.cpp:150] Setting up conv8_2_mbox_priorbox
I0419 19:14:26.722123 31435 net.cpp:157] Top shape: 1 2 144 (288)
I0419 19:14:26.722126 31435 net.cpp:165] Memory required for data: 7934600096
I0419 19:14:26.722129 31435 layer_factory.hpp:77] Creating layer conv9_2_mbox_loc
I0419 19:14:26.722138 31435 net.cpp:100] Creating Layer conv9_2_mbox_loc
I0419 19:14:26.722143 31435 net.cpp:434] conv9_2_mbox_loc <- conv9_2_conv9_2_relu_0_split_0
I0419 19:14:26.722149 31435 net.cpp:408] conv9_2_mbox_loc -> conv9_2_mbox_loc
I0419 19:14:26.722468 31435 net.cpp:150] Setting up conv9_2_mbox_loc
I0419 19:14:26.722476 31435 net.cpp:157] Top shape: 32 16 1 1 (512)
I0419 19:14:26.722478 31435 net.cpp:165] Memory required for data: 7934602144
I0419 19:14:26.722484 31435 layer_factory.hpp:77] Creating layer conv9_2_mbox_loc_perm
I0419 19:14:26.722493 31435 net.cpp:100] Creating Layer conv9_2_mbox_loc_perm
I0419 19:14:26.722497 31435 net.cpp:434] conv9_2_mbox_loc_perm <- conv9_2_mbox_loc
I0419 19:14:26.722504 31435 net.cpp:408] conv9_2_mbox_loc_perm -> conv9_2_mbox_loc_perm
I0419 19:14:26.722574 31435 net.cpp:150] Setting up conv9_2_mbox_loc_perm
I0419 19:14:26.722580 31435 net.cpp:157] Top shape: 32 1 1 16 (512)
I0419 19:14:26.722584 31435 net.cpp:165] Memory required for data: 7934604192
I0419 19:14:26.722586 31435 layer_factory.hpp:77] Creating layer conv9_2_mbox_loc_flat
I0419 19:14:26.722592 31435 net.cpp:100] Creating Layer conv9_2_mbox_loc_flat
I0419 19:14:26.722596 31435 net.cpp:434] conv9_2_mbox_loc_flat <- conv9_2_mbox_loc_perm
I0419 19:14:26.722604 31435 net.cpp:408] conv9_2_mbox_loc_flat -> conv9_2_mbox_loc_flat
I0419 19:14:26.722625 31435 net.cpp:150] Setting up conv9_2_mbox_loc_flat
I0419 19:14:26.722630 31435 net.cpp:157] Top shape: 32 16 (512)
I0419 19:14:26.722633 31435 net.cpp:165] Memory required for data: 7934606240
I0419 19:14:26.722636 31435 layer_factory.hpp:77] Creating layer conv9_2_mbox_conf
I0419 19:14:26.722647 31435 net.cpp:100] Creating Layer conv9_2_mbox_conf
I0419 19:14:26.722651 31435 net.cpp:434] conv9_2_mbox_conf <- conv9_2_conv9_2_relu_0_split_1
I0419 19:14:26.722661 31435 net.cpp:408] conv9_2_mbox_conf -> conv9_2_mbox_conf
I0419 19:14:26.722980 31435 net.cpp:150] Setting up conv9_2_mbox_conf
I0419 19:14:26.722987 31435 net.cpp:157] Top shape: 32 16 1 1 (512)
I0419 19:14:26.722990 31435 net.cpp:165] Memory required for data: 7934608288
I0419 19:14:26.722995 31435 layer_factory.hpp:77] Creating layer conv9_2_mbox_conf_perm
I0419 19:14:26.723002 31435 net.cpp:100] Creating Layer conv9_2_mbox_conf_perm
I0419 19:14:26.723007 31435 net.cpp:434] conv9_2_mbox_conf_perm <- conv9_2_mbox_conf
I0419 19:14:26.723013 31435 net.cpp:408] conv9_2_mbox_conf_perm -> conv9_2_mbox_conf_perm
I0419 19:14:26.723081 31435 net.cpp:150] Setting up conv9_2_mbox_conf_perm
I0419 19:14:26.723088 31435 net.cpp:157] Top shape: 32 1 1 16 (512)
I0419 19:14:26.723090 31435 net.cpp:165] Memory required for data: 7934610336
I0419 19:14:26.723093 31435 layer_factory.hpp:77] Creating layer conv9_2_mbox_conf_flat
I0419 19:14:26.723099 31435 net.cpp:100] Creating Layer conv9_2_mbox_conf_flat
I0419 19:14:26.723104 31435 net.cpp:434] conv9_2_mbox_conf_flat <- conv9_2_mbox_conf_perm
I0419 19:14:26.723110 31435 net.cpp:408] conv9_2_mbox_conf_flat -> conv9_2_mbox_conf_flat
I0419 19:14:26.723131 31435 net.cpp:150] Setting up conv9_2_mbox_conf_flat
I0419 19:14:26.723137 31435 net.cpp:157] Top shape: 32 16 (512)
I0419 19:14:26.723140 31435 net.cpp:165] Memory required for data: 7934612384
I0419 19:14:26.723143 31435 layer_factory.hpp:77] Creating layer conv9_2_mbox_priorbox
I0419 19:14:26.723151 31435 net.cpp:100] Creating Layer conv9_2_mbox_priorbox
I0419 19:14:26.723155 31435 net.cpp:434] conv9_2_mbox_priorbox <- conv9_2_conv9_2_relu_0_split_2
I0419 19:14:26.723160 31435 net.cpp:434] conv9_2_mbox_priorbox <- data_data_0_split_6
I0419 19:14:26.723166 31435 net.cpp:408] conv9_2_mbox_priorbox -> conv9_2_mbox_priorbox
I0419 19:14:26.723196 31435 net.cpp:150] Setting up conv9_2_mbox_priorbox
I0419 19:14:26.723202 31435 net.cpp:157] Top shape: 1 2 16 (32)
I0419 19:14:26.723206 31435 net.cpp:165] Memory required for data: 7934612512
I0419 19:14:26.723208 31435 layer_factory.hpp:77] Creating layer mbox_loc
I0419 19:14:26.723217 31435 net.cpp:100] Creating Layer mbox_loc
I0419 19:14:26.723222 31435 net.cpp:434] mbox_loc <- conv4_3_norm_mbox_loc_flat
I0419 19:14:26.723227 31435 net.cpp:434] mbox_loc <- fc7_mbox_loc_flat
I0419 19:14:26.723232 31435 net.cpp:434] mbox_loc <- conv6_2_mbox_loc_flat
I0419 19:14:26.723237 31435 net.cpp:434] mbox_loc <- conv7_2_mbox_loc_flat
I0419 19:14:26.723239 31435 net.cpp:434] mbox_loc <- conv8_2_mbox_loc_flat
I0419 19:14:26.723243 31435 net.cpp:434] mbox_loc <- conv9_2_mbox_loc_flat
I0419 19:14:26.723249 31435 net.cpp:408] mbox_loc -> mbox_loc
I0419 19:14:26.723274 31435 net.cpp:150] Setting up mbox_loc
I0419 19:14:26.723280 31435 net.cpp:157] Top shape: 32 34928 (1117696)
I0419 19:14:26.723284 31435 net.cpp:165] Memory required for data: 7939083296
I0419 19:14:26.723287 31435 layer_factory.hpp:77] Creating layer mbox_conf
I0419 19:14:26.723294 31435 net.cpp:100] Creating Layer mbox_conf
I0419 19:14:26.723299 31435 net.cpp:434] mbox_conf <- conv4_3_norm_mbox_conf_flat
I0419 19:14:26.723304 31435 net.cpp:434] mbox_conf <- fc7_mbox_conf_flat
I0419 19:14:26.723307 31435 net.cpp:434] mbox_conf <- conv6_2_mbox_conf_flat
I0419 19:14:26.723312 31435 net.cpp:434] mbox_conf <- conv7_2_mbox_conf_flat
I0419 19:14:26.723316 31435 net.cpp:434] mbox_conf <- conv8_2_mbox_conf_flat
I0419 19:14:26.723320 31435 net.cpp:434] mbox_conf <- conv9_2_mbox_conf_flat
I0419 19:14:26.723327 31435 net.cpp:408] mbox_conf -> mbox_conf
I0419 19:14:26.723350 31435 net.cpp:150] Setting up mbox_conf
I0419 19:14:26.723356 31435 net.cpp:157] Top shape: 32 34928 (1117696)
I0419 19:14:26.723357 31435 net.cpp:165] Memory required for data: 7943554080
I0419 19:14:26.723361 31435 layer_factory.hpp:77] Creating layer mbox_priorbox
I0419 19:14:26.723367 31435 net.cpp:100] Creating Layer mbox_priorbox
I0419 19:14:26.723371 31435 net.cpp:434] mbox_priorbox <- conv4_3_norm_mbox_priorbox
I0419 19:14:26.723376 31435 net.cpp:434] mbox_priorbox <- fc7_mbox_priorbox
I0419 19:14:26.723381 31435 net.cpp:434] mbox_priorbox <- conv6_2_mbox_priorbox
I0419 19:14:26.723383 31435 net.cpp:434] mbox_priorbox <- conv7_2_mbox_priorbox
I0419 19:14:26.723387 31435 net.cpp:434] mbox_priorbox <- conv8_2_mbox_priorbox
I0419 19:14:26.723390 31435 net.cpp:434] mbox_priorbox <- conv9_2_mbox_priorbox
I0419 19:14:26.723398 31435 net.cpp:408] mbox_priorbox -> mbox_priorbox
I0419 19:14:26.723419 31435 net.cpp:150] Setting up mbox_priorbox
I0419 19:14:26.723426 31435 net.cpp:157] Top shape: 1 2 34928 (69856)
I0419 19:14:26.723429 31435 net.cpp:165] Memory required for data: 7943833504
I0419 19:14:26.723433 31435 layer_factory.hpp:77] Creating layer mbox_loss
I0419 19:14:26.723443 31435 net.cpp:100] Creating Layer mbox_loss
I0419 19:14:26.723446 31435 net.cpp:434] mbox_loss <- mbox_loc
I0419 19:14:26.723451 31435 net.cpp:434] mbox_loss <- mbox_conf
I0419 19:14:26.723455 31435 net.cpp:434] mbox_loss <- mbox_priorbox
…
  phase: TEST
}
layer {
  name: "data"
  type: "AnnotatedData"
  top: "data"
  top: "label"
  include {
    phase: TEST
  }
  transform_param {
    mean_value: 104
    mean_value: 117
    mean_value: 123
    resize_param {
      prob: 1
      resize_mode: WARP
      height: 300
      width: 300
      interp_mode: LINEAR
    }
  }
  data_param {
    source: "/localdata/markustp/data/ascend/lmdb/ascend_test_lmdb"
    batch_size: 2
    backend: LMDB
  }
  annotated_data_param {
    batch_sampler {
    }
    label_map_file: "data/ascend/labelmap.prototxt"
  }
}
layer {
  name: "conv1_1"
  type: "Convolution"
  bottom: "data"
  top: "conv1_1"
  param {
    lr_mult: 1
    decay_mult: 1
  }
  param {
    lr_mult: 2
    decay_mult: 0
  }
  convolution_param {
    num_output: 64
    pad: 1
    kernel_size: 3
    weight_filler {
      type: "xavier"
    }
    bias_filler {
      type: "constant"
      value: 0
    }
  }
}
layer {
  name: "relu1_1"
  type: "ReLU"
  bottom: "conv1_1"
  top: "conv1_1"
}
layer {
  name: "conv1_2"
  type: "Convolution"
  bottom: "conv1_1"
  top: "conv1_2"
  param {
    lr_mult: 1
    decay_mult: 1
  }
  param {
    lr_mult: 2
    decay_mult: 0
  }
  convolution_param {
    num_output: 64
    pad: 1
    kernel_size: 3
    weight_filler {
      type: "xavier"
    }
    bias_filler {
      type: "constant"
      value: 0
    }
  }
}
layer {
  name: "relu1_2"
  type: "ReLU"
  bottom: "conv1_2"
  top: "conv1_2"
}
layer {
  name: "pool1"
  type: "Pooling"
  bottom: "conv1_2"
  top: "pool1"
  pooling_param {
    pool: MAX
    kernel_size: 2
    stride: 2
  }
}
layer {
  name: "conv2_1"
  type: "Convolution"
  bottom: "pool1"
  top: "conv2_1"
  param {
    lr_mult: 1
    decay_mult: 1
  }
  param {
    lr_mult: 2
    decay_mult: 0
  }
  convolution_param {
    num_output: 128
    pad: 1
    kernel_size: 3
    weight_filler {
      type: "xavier"
    }
    bias_filler {
      type: "constant"
      value: 0
    }
  }
}
layer {
  name: "relu2_1"
  type: "ReLU"
  bottom: "conv2_1"
  top: "conv2_1"
}
layer {
  name: "conv2_2"
  type: "Convolution"
  bottom: "conv2_1"
  top: "conv2_2"
  param {
    lr_mult: 1
    decay_mult: 1
  }
  param {
    lr_mult: 2
    decay_mult: 0
  }
  convolution_param {
    num_output: 128
    pad: 1
    kernel_size: 3
    weight_filler {
      type: "xavier"
    }
    bias_filler {
      type: "constant"
      value: 0
    }
  }
}
layer {
  name: "relu2_2"
  type: "ReLU"
  bottom: "conv2_2"
  top: "conv2_2"
}
layer {
  name: "pool2"
  type: "Pooling"
  bottom: "conv2_2"
  top: "pool2"
  pooling_param {
    pool: MAX
    kernel_size: 2
    stride: 2
  }
}
layer {
  name: "conv3_1"
  type: "Convolution"
  bottom: "pool2"
  top: "conv3_1"
  param {
    lr_mult: 1
    decay_mult: 1
  }
  param {
    lr_mult: 2
    decay_mult: 0
  }
  convolution_param {
    num_output: 256
    pad: 1
    kernel_size: 3
    weight_filler {
      type: "xavier"
    }
    bias_filler {
      type: "constant"
      value: 0
    }
  }
}
layer {
  name: "relu3_1"
  type: "ReLU"
  bottom: "conv3_1"
  top: "conv3_1"
}
layer {
  name: "conv3_2"
  type: "Convolution"
  bottom: "conv3_1"
  top: "conv3_2"
  param {
    lr_mult: 1
    decay_mult: 1
  }
  param {
    lr_mult: 2
    decay_mult: 0
  }
  convolution_param {
    num_output: 256
    pad: 1
    kernel_size: 3
    weight_filler {
      type: "xavier"
    }
    bias_filler {
      type: "constant"
      value: 0
    }
  }
}
layer {
  name: "relu3_2"
  type: "ReLU"
  bottom: "conv3_2"
  top: "conv3_2"
}
layer {
  name: "conv3_3"
  type: "Convolution"
  bottom: "conv3_2"
  top: "conv3_3"
  param {
    lr_mult: 1
    decay_mult: 1
  }
  param {
    lr_mult: 2
    decay_mult: 0
  }
  convolution_param {
    num_output: 256
    pad: 1
    kernel_size: 3
    weight_filler {
      type: "xavier"
    }
    bias_filler {
      type: "constant"
      value: 0
    }
  }
}
layer {
  name: "relu3_3"
  type: "ReLU"
  bottom: "conv3_3"
  top: "conv3_3"
}
layer {
  name: "pool3"
  type: "Pooling"
  bottom: "conv3_3"
  top: "pool3"
  pooling_param {
    pool: MAX
    kernel_size: 2
    stride: 2
  }
}
layer {
  name: "conv4_1"
  type: "Convolution"
  bottom: "pool3"
  top: "conv4_1"
  param {
    lr_mult: 1
    decay_mult: 1
  }
  param {
    lr_mult: 2
    decay_mult: 0
  }
  convolution_param {
    num_output: 512
    pad: 1
    kernel_size: 3
    weight_filler {
      type: "xavier"
    }
    bias_filler {
      type: "constant"
      value: 0
    }
  }
}
layer {
  name: "relu4_1"
  type: "ReLU"
  bottom: "conv4_1"
  top: "conv4_1"
}
layer {
  name: "conv4_2"
  type: "Convolution"
  bottom: "conv4_1"
  top: "conv4_2"
  param {
    lr_mult: 1
    decay_mult: 1
  }
  param {
    lr_mult: 2
    decay_mult: 0
  }
  convolution_param {
    num_output: 512
    pad: 1
    kernel_size: 3
    weight_filler {
      type: "xavier"
    }
    bias_filler {
      type: "constant"
      value: 0
    }
  }
}
layer {
  name: "relu4_2"
  type: "ReLU"
  bottom: "conv4_2"
  top: "conv4_2"
}
layer {
  name: "conv4_3"
  type: "Convolution"
  bottom: "conv4_2"
  top: "conv4_3"
  param {
    lr_mult: 1
    decay_mult: 1
  }
  param {
    lr_mult: 2
    decay_mult: 0
  }
  convolution_param {
    num_output: 512
    pad: 1
    kernel_size: 3
    weight_filler {
      type: "xavier"
    }
    bias_filler {
      type: "constant"
      value: 0
    }
  }
}
layer {
  name: "relu4_3"
  type: "ReLU"
  bottom: "conv4_3"
  top: "conv4_3"
}
layer {
  name: "pool4"
  type: "Pooling"
  bottom: "conv4_3"
  top: "pool4"
  pooling_param {
    pool: MAX
    kernel_size: 2
    stride: 2
  }
}
layer {
  name: "conv5_1"
  type: "Convolution"
  bottom: "pool4"
  top: "conv5_1"
  param {
    lr_mult: 1
    decay_mult: 1
  }
  param {
    lr_mult: 2
    decay_mult: 0
  }
  convolution_param {
    num_output: 512
    pad: 1
    kernel_size: 3
    weight_filler {
      type: "xavier"
    }
    bias_filler {
      type: "constant"
      value: 0
    }
    dilation: 1
  }
}
layer {
  name: "relu5_1"
  type: "ReLU"
  bottom: "conv5_1"
  top: "conv5_1"
}
layer {
  name: "conv5_2"
  type: "Convolution"
  bottom: "conv5_1"
  top: "conv5_2"
  param {
    lr_mult: 1
    decay_mult: 1
  }
  param {
    lr_mult: 2
    decay_mult: 0
  }
  convolution_param {
    num_output: 512
    pad: 1
    kernel_size: 3
    weight_filler {
      type: "xavier"
    }
    bias_filler {
      type: "constant"
      value: 0
    }
    dilation: 1
  }
}
layer {
  name: "relu5_2"
  type: "ReLU"
  bottom: "conv5_2"
  top: "conv5_2"
}
layer {
  name: "conv5_3"
  type: "Convolution"
  bottom: "conv5_2"
  top: "conv5_3"
  param {
    lr_mult: 1
    decay_mult: 1
  }
  param {
    lr_mult: 2
    decay_mult: 0
  }
  convolution_param {
    num_output: 512
    pad: 1
    kernel_size: 3
    weight_filler {
      type: "xavier"
    }
    bias_filler {
      type: "constant"
      value: 0
    }
    dilation: 1
  }
}
layer {
  name: "relu5_3"
  type: "ReLU"
  bottom: "conv5_3"
  top: "conv5_3"
}
layer {
  name: "pool5"
  type: "Pooling"
  bottom: "conv5_3"
  top: "pool5"
  pooling_param {
    pool: MAX
    kernel_size: 3
    stride: 1
    pad: 1
  }
}
layer {
  name: "fc6"
  type: "Convolution"
  bottom: "pool5"
  top: "fc6"
  param {
    lr_mult: 1
    decay_mult: 1
  }
  param {
    lr_mult: 2
    decay_mult: 0
  }
  convolution_param {
    num_output: 1024
    pad: 6
    kernel_size: 3
    weight_filler {
      type: "xavier"
    }
    bias_filler {
      type: "constant"
      value: 0
    }
    dilation: 6
  }
}
layer {
  name: "relu6"
  type: "ReLU"
  bottom: "fc6"
  top: "fc6"
}
layer {
  name: "fc7"
  type: "Convolution"
  bottom: "fc6"
  top: "fc7"
  param {
    lr_mult: 1
    decay_mult: 1
  }
  param {
    lr_mult: 2
    decay_mult: 0
  }
  convolution_param {
    num_output: 1024
    kernel_size: 1
    weight_filler {
      type: "xavier"
    }
    bias_filler {
      type: "constant"
      value: 0
    }
  }
}
layer {
  name: "relu7"
  type: "ReLU"
  bottom: "fc7"
  top: "fc7"
}
layer {
  name: "conv6_1"
  type: "Convolution"
  bottom: "fc7"
  top: "conv6_1"
  param {
    lr_mult: 1
    decay_mult: 1
  }
  param {
    lr_mult: 2
    decay_mult: 0
  }
  convolution_param {
    num_output: 256
    pad: 0
    kernel_size: 1
    stride: 1
    weight_filler {
      type: "xavier"
    }
    bias_filler {
      type: "constant"
      value: 0
    }
  }
}
layer {
  name: "conv6_1_relu"
  type: "ReLU"
  bottom: "conv6_1"
  top: "conv6_1"
}
layer {
  name: "conv6_2"
  type: "Convolution"
  bottom: "conv6_1"
  top: "conv6_2"
  param {
    lr_mult: 1
    decay_mult: 1
  }
  param {
    lr_mult: 2
    decay_mult: 0
  }
  convolution_param {
    num_output: 512
    pad: 1
    kernel_size: 3
    stride: 2
    weight_filler {
      type: "xavier"
    }
    bias_filler {
      type: "constant"
      value: 0
    }
  }
}
layer {
  name: "conv6_2_relu"
  type: "ReLU"
  bottom: "conv6_2"
  top: "conv6_2"
}
layer {
  name: "conv7_1"
  type: "Convolution"
  bottom: "conv6_2"
  top: "conv7_1"
  param {
    lr_mult: 1
    decay_mult: 1
  }
  param {
    lr_mult: 2
    decay_mult: 0
  }
  convolution_param {
    num_output: 128
    pad: 0
    kernel_size: 1
    stride: 1
    weight_filler {
      type: "xavier"
    }
    bias_filler {
      type: "constant"
      value: 0
    }
  }
}
layer {
  name: "conv7_1_relu"
  type: "ReLU"
  bottom: "conv7_1"
  top: "conv7_1"
}
layer {
  name: "conv7_2"
  type: "Convolution"
  bottom: "conv7_1"
  top: "conv7_2"
  param {
    lr_mult: 1
    decay_mult: 1
  }
  param {
    lr_mult: 2
    decay_mult: 0
  }
  convolution_param {
    num_output: 256
    pad: 1
    kernel_size: 3
    stride: 2
    weight_filler {
      type: "xavier"
    }
    bias_filler {
      type: "constant"
      value: 0
    }
  }
}
layer {
  name: "conv7_2_relu"
  type: "ReLU"
  bottom: "conv7_2"
  top: "conv7_2"
}
layer {
  name: "conv8_1"
  type: "Convolution"
  bottom: "conv7_2"
  top: "conv8_1"
  param {
    lr_mult: 1
    decay_mult: 1
  }
  param {
    lr_mult: 2
    decay_mult: 0
  }
  convolution_param {
    num_output: 128
    pad: 0
    kernel_size: 1
    stride: 1
    weight_filler {
      type: "xavier"
    }
    bias_filler {
      type: "constant"
      value: 0
    }
  }
}
layer {
  name: "conv8_1_relu"
  type: "ReLU"
  bottom: "conv8_1"
  top: "conv8_1"
}
layer {
  name: "conv8_2"
  type: "Convolution"
  bottom: "conv8_1"
  top: "conv8_2"
  param {
    lr_mult: 1
    decay_mult: 1
  }
  param {
    lr_mult: 2
    decay_mult: 0
  }
  convolution_param {
    num_output: 256
    pad: 0
    kernel_size: 3
    stride: 1
    weight_filler {
      type: "xavier"
    }
    bias_filler {
      type: "constant"
      value: 0
    }
  }
}
layer {
  name: "conv8_2_relu"
  type: "ReLU"
  bottom: "conv8_2"
  top: "conv8_2"
}
layer {
  name: "conv9_1"
  type: "Convolution"
  bottom: "conv8_2"
  top: "conv9_1"
  param {
    lr_mult: 1
    decay_mult: 1
  }
  param {
    lr_mult: 2
    decay_mult: 0
  }
  convolution_param {
    num_output: 128
    pad: 0
    kernel_size: 1
    stride: 1
    weight_filler {
      type: "xavier"
    }
    bias_filler {
      type: "constant"
      value: 0
    }
  }
}
layer {
  name: "conv9_1_relu"
  type: "ReLU"
  bottom: "conv9_1"
  top: "conv9_1"
}
layer {
  name: "conv9_2"
  type: "Convolution"
  bottom: "conv9_1"
  top: "conv9_2"
  param {
    lr_mult: 1
    decay_mult: 1
  }
  param {
    lr_mult: 2
    decay_mult: 0
  }
  convolution_param {
    num_output: 256
    pad: 0
    kernel_size: 3
    stride: 1
    weight_filler {
      type: "xavier"
    }
    bias_filler {
      type: "constant"
      value: 0
    }
  }
}
layer {
  name: "conv9_2_relu"
  type: "ReLU"
  bottom: "conv9_2"
  top: "conv9_2"
}
layer {
  name: "conv4_3_norm"
  type: "Normalize"
  bottom: "conv4_3"
  top: "conv4_3_norm"
  norm_param {
    across_spatial: false
    scale_filler {
      type: "constant"
      value: 20
    }
    channel_shared: false
  }
}
layer {
  name: "conv4_3_norm_mbox_loc"
  type: "Convolution"
  bottom: "conv4_3_norm"
  top: "conv4_3_norm_mbox_loc"
  param {
    lr_mult: 1
    decay_mult: 1
  }
  param {
    lr_mult: 2
    decay_mult: 0
  }
  convolution_param {
    num_output: 16
    pad: 1
    kernel_size: 3
    stride: 1
    weight_filler {
      type: "xavier"
    }
    bias_filler {
      type: "constant"
      value: 0
    }
  }
}
layer {
  name: "conv4_3_norm_mbox_loc_perm"
  type: "Permute"
  bottom: "conv4_3_norm_mbox_loc"
  top: "conv4_3_norm_mbox_loc_perm"
  permute_param {
    order: 0
    order: 2
    order: 3
    order: 1
  }
}
layer {
  name: "conv4_3_norm_mbox_loc_flat"
  type: "Flatten"
  bottom: "conv4_3_norm_mbox_loc_perm"
  top: "conv4_3_norm_mbox_loc_flat"
  flatten_param {
    axis: 1
  }
}
layer {
  name: "conv4_3_norm_mbox_conf"
  type: "Convolution"
  bottom: "conv4_3_norm"
  top: "conv4_3_norm_mbox_conf"
  param {
    lr_mult: 1
    decay_mult: 1
  }
  param {
    lr_mult: 2
    decay_mult: 0
  }
  convolution_param {
    num_output: 16
    pad: 1
    kernel_size: 3
    stride: 1
    weight_filler {
      type: "xavier"
    }
    bias_filler {
      type: "constant"
      value: 0
    }
  }
}
layer {
  name: "conv4_3_norm_mbox_conf_perm"
  type: "Permute"
  bottom: "conv4_3_norm_mbox_conf"
  top: "conv4_3_norm_mbox_conf_perm"
  permute_param {
    order: 0
    order: 2
    order: 3
    order: 1
  }
}
layer {
  name: "conv4_3_norm_mbox_conf_flat"
  type: "Flatten"
  bottom: "conv4_3_norm_mbox_conf_perm"
  top: "conv4_3_norm_mbox_conf_flat"
  flatten_param {
    axis: 1
  }
}
layer {
  name: "conv4_3_norm_mbox_priorbox"
  type: "PriorBox"
  bottom: "conv4_3_norm"
  bottom: "data"
  top: "conv4_3_norm_mbox_priorbox"
  prior_box_param {
    min_size: 30
    max_size: 60
    aspect_ratio: 2
    flip: true
    clip: false
    variance: 0.1
    variance: 0.1
    variance: 0.2
    variance: 0.2
    step: 8
    offset: 0.5
  }
}
layer {
  name: "fc7_mbox_loc"
  type: "Convolution"
  bottom: "fc7"
  top: "fc7_mbox_loc"
  param {
    lr_mult: 1
    decay_mult: 1
  }
  param {
    lr_mult: 2
    decay_mult: 0
  }
  convolution_param {
    num_output: 24
    pad: 1
    kernel_size: 3
    stride: 1
    weight_filler {
      type: "xavier"
    }
    bias_filler {
      type: "constant"
      value: 0
    }
  }
}
layer {
  name: "fc7_mbox_loc_perm"
  type: "Permute"
  bottom: "fc7_mbox_loc"
  top: "fc7_mbox_loc_perm"
  permute_param {
    order: 0
    order: 2
    order: 3
    order: 1
  }
}
layer {
  name: "fc7_mbox_loc_flat"
  type: "Flatten"
  bottom: "fc7_mbox_loc_perm"
  top: "fc7_mbox_loc_flat"
  flatten_param {
    axis: 1
  }
}
layer {
  name: "fc7_mbox_conf"
  type: "Convolution"
  bottom: "fc7"
  top: "fc7_mbox_conf"
  param {
    lr_mult: 1
    decay_mult: 1
  }
  param {
    lr_mult: 2
    decay_mult: 0
  }
  convolution_param {
    num_output: 24
    pad: 1
    kernel_size: 3
    stride: 1
    weight_filler {
      type: "xavier"
    }
    bias_filler {
      type: "constant"
      value: 0
    }
  }
}
layer {
  name: "fc7_mbox_conf_perm"
  type: "Permute"
  bottom: "fc7_mbox_conf"
  top: "fc7_mbox_conf_perm"
  permute_param {
    order: 0
    order: 2
    order: 3
    order: 1
  }
}
layer {
  name: "fc7_mbox_conf_flat"
  type: "Flatten"
  bottom: "fc7_mbox_conf_perm"
  top: "fc7_mbox_conf_flat"
  flatten_param {
    axis: 1
  }
}
layer {
  name: "fc7_mbox_priorbox"
  type: "PriorBox"
  bottom: "fc7"
  bottom: "data"
  top: "fc7_mbox_priorbox"
  prior_box_param {
    min_size: 60
    max_size: 111
    aspect_ratio: 2
    aspect_ratio: 3
    flip: true
    clip: false
    variance: 0.1
    variance: 0.1
    variance: 0.2
    variance: 0.2
    step: 16
    offset: 0.5
  }
}
layer {
  name: "conv6_2_mbox_loc"
  type: "Convolution"
  bottom: "conv6_2"
  top: "conv6_2_mbox_loc"
  param {
    lr_mult: 1
    decay_mult: 1
  }
  param {
    lr_mult: 2
    decay_mult: 0
  }
  convolution_param {
    num_output: 24
    pad: 1
    kernel_size: 3
    stride: 1
    weight_filler {
      type: "xavier"
    }
    bias_filler {
      type: "constant"
      value: 0
    }
  }
}
layer {
  name: "conv6_2_mbox_loc_perm"
  type: "Permute"
  bottom: "conv6_2_mbox_loc"
  top: "conv6_2_mbox_loc_perm"
  permute_param {
    order: 0
    order: 2
    order: 3
    order: 1
  }
}
layer {
  name: "conv6_2_mbox_loc_flat"
  type: "Flatten"
  bottom: "conv6_2_mbox_loc_perm"
  top: "conv6_2_mbox_loc_flat"
  flatten_param {
    axis: 1
  }
}
layer {
  name: "conv6_2_mbox_conf"
  type: "Convolution"
  bottom: "conv6_2"
  top: "conv6_2_mbox_conf"
  param {
    lr_mult: 1
    decay_mult: 1
  }
  param {
    lr_mult: 2
    decay_mult: 0
  }
  convolution_param {
    num_output: 24
    pad: 1
    kernel_size: 3
    stride: 1
    weight_filler {
      type: "xavier"
    }
    bias_filler {
      type: "constant"
      value: 0
    }
  }
}
layer {
  name: "conv6_2_mbox_conf_perm"
  type: "Permute"
  bottom: "conv6_2_mbox_conf"
  top: "conv6_2_mbox_conf_perm"
  permute_param {
    order: 0
    order: 2
    order: 3
    order: 1
  }
}
layer {
  name: "conv6_2_mbox_conf_flat"
  type: "Flatten"
  bottom: "conv6_2_mbox_conf_perm"
  top: "conv6_2_mbox_conf_flat"
  flatten_param {
    axis: 1
  }
}
layer {
  name: "conv6_2_mbox_priorbox"
  type: "PriorBox"
  bottom: "conv6_2"
  bottom: "data"
  top: "conv6_2_mbox_priorbox"
  prior_box_param {
    min_size: 111
    max_size: 162
    aspect_ratio: 2
    aspect_ratio: 3
    flip: true
    clip: false
    variance: 0.1
    variance: 0.1
    variance: 0.2
    variance: 0.2
    step: 32
    offset: 0.5
  }
}
layer {
  name: "conv7_2_mbox_loc"
  type: "Convolution"
  bottom: "conv7_2"
  top: "conv7_2_mbox_loc"
  param {
    lr_mult: 1
    decay_mult: 1
  }
  param {
    lr_mult: 2
    decay_mult: 0
  }
  convolution_param {
    num_output: 24
    pad: 1
    kernel_size: 3
    stride: 1
    weight_filler {
      type: "xavier"
    }
    bias_filler {
      type: "constant"
      value: 0
    }
  }
}
layer {
  name: "conv7_2_mbox_loc_perm"
  type: "Permute"
  bottom: "conv7_2_mbox_loc"
  top: "conv7_2_mbox_loc_perm"
  permute_param {
    order: 0
    order: 2
    order: 3
    order: 1
  }
}
layer {
  name: "conv7_2_mbox_loc_flat"
  type: "Flatten"
  bottom: "conv7_2_mbox_loc_perm"
  top: "conv7_2_mbox_loc_flat"
  flatten_param {
    axis: 1
  }
}
layer {
  name: "conv7_2_mbox_conf"
  type: "Convolution"
  bottom: "conv7_2"
  top: "conv7_2_mbox_conf"
  param {
    lr_mult: 1
    decay_mult: 1
  }
  param {
    lr_mult: 2
    decay_mult: 0
  }
  convolution_param {
    num_output: 24
    pad: 1
    kernel_size: 3
    stride: 1
    weight_filler {
      type: "xavier"
    }
    bias_filler {
      type: "constant"
      value: 0
    }
  }
}
layer {
  name: "conv7_2_mbox_conf_perm"
  type: "Permute"
  bottom: "conv7_2_mbox_conf"
  top: "conv7_2_mbox_conf_perm"
  permute_param {
    order: 0
    order: 2
    order: 3
    order: 1
  }
}
layer {
  name: "conv7_2_mbox_conf_flat"
  type: "Flatten"
  bottom: "conv7_2_mbox_conf_perm"
  top: "conv7_2_mbox_conf_flat"
  flatten_param {
    axis: 1
  }
}
layer {
  name: "conv7_2_mbox_priorbox"
  type: "PriorBox"
  bottom: "conv7_2"
  bottom: "data"
  top: "conv7_2_mbox_priorbox"
  prior_box_param {
    min_size: 162
    max_size: 213
    aspect_ratio: 2
    aspect_ratio: 3
    flip: true
    clip: false
    variance: 0.1
    variance: 0.1
    variance: 0.2
    variance: 0.2
    step: 64
    offset: 0.5
  }
}
layer {
  name: "conv8_2_mbox_loc"
  type: "Convolution"
  bottom: "conv8_2"
  top: "conv8_2_mbox_loc"
  param {
    lr_mult: 1
    decay_mult: 1
  }
  param {
    lr_mult: 2
    decay_mult: 0
  }
  convolution_param {
    num_output: 16
    pad: 1
    kernel_size: 3
    stride: 1
    weight_filler {
      type: "xavier"
    }
    bias_filler {
      type: "constant"
      value: 0
    }
  }
}
layer {
  name: "conv8_2_mbox_loc_perm"
  type: "Permute"
  bottom: "conv8_2_mbox_loc"
  top: "conv8_2_mbox_loc_perm"
  permute_param {
    order: 0
    order: 2
    order: 3
    order: 1
  }
}
layer {
  name: "conv8_2_mbox_loc_flat"
  type: "Flatten"
  bottom: "conv8_2_mbox_loc_perm"
  top: "conv8_2_mbox_loc_flat"
  flatten_param {
    axis: 1
  }
}
layer {
  name: "conv8_2_mbox_conf"
  type: "Convolution"
  bottom: "conv8_2"
  top: "conv8_2_mbox_conf"
  param {
    lr_mult: 1
    decay_mult: 1
  }
  param {
    lr_mult: 2
    decay_mult: 0
  }
  convolution_param {
    num_output: 16
    pad: 1
    kernel_size: 3
    stride: 1
    weight_filler {
      type: "xavier"
    }
    bias_filler {
      type: "constant"
      value: 0
    }
  }
}
layer {
  name: "conv8_2_mbox_conf_perm"
  type: "Permute"
  bottom: "conv8_2_mbox_conf"
  top: "conv8_2_mbox_conf_perm"
  permute_param {
    order: 0
    order: 2
    order: 3
    order: 1
  }
}
layer {
  name: "conv8_2_mbox_conf_flat"
  type: "Flatten"
  bottom: "conv8_2_mbox_conf_perm"
  top: "conv8_2_mbox_conf_flat"
  flatten_param {
    axis: 1
  }
}
layer {
  name: "conv8_2_mbox_priorbox"
  type: "PriorBox"
  bottom: "conv8_2"
  bottom: "data"
  top: "conv8_2_mbox_priorbox"
  prior_box_param {
    min_size: 213
    max_size: 264
    aspect_ratio: 2
    flip: true
    clip: false
    variance: 0.1
    variance: 0.1
    variance: 0.2
    variance: 0.2
    step: 100
    offset: 0.5
  }
}
layer {
  name: "conv9_2_mbox_loc"
  type: "Convolution"
  bottom: "conv9_2"
  top: "conv9_2_mbox_loc"
  param {
    lr_mult: 1
    decay_mult: 1
  }
  param {
    lr_mult: 2
    decay_mult: 0
  }
  convolution_param {
    num_output: 16
    pad: 1
    kernel_size: 3
    stride: 1
    weight_filler {
      type: "xavier"
    }
    bias_filler {
      type: "constant"
      value: 0
    }
  }
}
layer {
  name: "conv9_2_mbox_loc_perm"
  type: "Permute"
  bottom: "conv9_2_mbox_loc"
  top: "conv9_2_mbox_loc_perm"
  permute_param {
    order: 0
    order: 2
    order: 3
    order: 1
  }
}
layer {
  name: "conv9_2_mbox_loc_flat"
  type: "Flatten"
  bottom: "conv9_2_mbox_loc_perm"
  top: "conv9_2_mbox_loc_flat"
  flatten_param {
    axis: 1
  }
}
layer {
  name: "conv9_2_mbox_conf"
  type: "Convolution"
  bottom: "conv9_2"
  top: "conv9_2_mbox_conf"
  param {
    lr_mult: 1
    decay_mult: 1
  }
  param {
    lr_mult: 2
    decay_mult: 0
  }
  convolution_param {
    num_output: 16
    pad: 1
    kernel_size: 3
    stride: 1
    weight_filler {
      type: "xavier"
    }
    bias_filler {
      type: "constant"
      value: 0
    }
  }
}
layer {
  name: "conv9_2_mbox_conf_perm"
  type: "Permute"
  bottom: "conv9_2_mbox_conf"
  top: "conv9_2_mbox_conf_perm"
  permute_param {
    order: 0
    order: 2
    order: 3
    order: 1
  }
}
layer {
  name: "conv9_2_mbox_conf_flat"
  type: "Flatten"
  bottom: "conv9_2_mbox_conf_perm"
  top: "conv9_2_mbox_conf_flat"
  flatten_param {
    axis: 1
  }
}
layer {
  name: "conv9_2_mbox_priorbox"
  type: "PriorBox"
  bottom: "conv9_2"
  bottom: "data"
  top: "conv9_2_mbox_priorbox"
  prior_box_param {
    min_size: 264
    max_size: 315
    aspect_ratio: 2
    flip: true
    clip: false
    variance: 0.1
    variance: 0.1
    variance: 0.2
    variance: 0.2
    step: 300
    offset: 0.5
  }
}
layer {
  name: "mbox_loc"
  type: "Concat"
  bottom: "conv4_3_norm_mbox_loc_flat"
  bottom: "fc7_mbox_loc_flat"
  bottom: "conv6_2_mbox_loc_flat"
  bottom: "conv7_2_mbox_loc_flat"
  bottom: "conv8_2_mbox_loc_flat"
  bottom: "conv9_2_mbox_loc_flat"
  top: "mbox_loc"
  concat_param {
    axis: 1
  }
}
layer {
  name: "mbox_conf"
  type: "Concat"
  bottom: "conv4_3_norm_mbox_conf_flat"
  bottom: "fc7_mbox_conf_flat"
  bottom: "conv6_2_mbox_conf_flat"
  bottom: "conv7_2_mbox_conf_flat"
  bottom: "conv8_2_mbox_conf_flat"
  bottom: "conv9_2_mbox_conf_flat"
  top: "mbox_conf"
  concat_param {
    axis: 1
  }
}
layer {
  name: "mbox_priorbox"
  type: "Concat"
  bottom: "conv4_3_norm_mbox_priorbox"
  bottom: "fc7_mbox_priorbox"
  bottom: "conv6_2_mbox_priorbox"
  bottom: "conv7_2_mbox_priorbox"
  bottom: "conv8_2_mbox_priorbox"
  bottom: "conv9_2_mbox_priorbox"
  top: "mbox_priorbox"
  concat_param {
    axis: 2
  }
}
layer {
  name: "mbox_conf_reshape"
  type: "Reshape"
  bottom: "mbox_conf"
  top: "mbox_conf_reshape"
  reshape_param {
    shape {
      dim: 0
      dim: -1
      dim: 4
    }
  }
}
layer {
  name: "mbox_conf_softmax"
  type: "Softmax"
  bottom: "mbox_conf_reshape"
  top: "mbox_conf_softmax"
  softmax_param {
    axis: 2
  }
}
layer {
  name: "mbox_conf_flatten"
  type: "Flatten"
  bottom: "mbox_conf_softmax"
  top: "mbox_conf_flatten"
  flatten_param {
    axis: 1
  }
}
layer {
  name: "detection_out"
  type: "DetectionOutput"
  bottom: "mbox_loc"
  bottom: "mbox_conf_flatten"
  bottom: "mbox_priorbox"
  top: "detection_out"
  include {
    phase: TEST
  }
  detection_output_param {
    num_classes: 4
    share_location: true
    background_label_id: 0
    nms_param {
      nms_threshold: 0.45
      top_k: 400
    }
    save_output_param {
      output_directory: "/home/shomeb/m/markustp/data/VOCdevkit/results/VOC2007/SSD_Color_300x300/Main"
      output_name_prefix: "comp4_det_test_"
      output_format: "VOC"
      label_map_file: "data/ascend/labelmap.prototxt"
      name_size_file: "data/ascend/test_name_size.txt"
      num_test_image: 901
    }
    code_type: CENTER_SIZE
    keep_top_k: 200
    confidence_threshold: 0.01
  }
}
layer {
  name: "detection_eval"
  type: "DetectionEvaluate"
  bottom: "detection_out"
  bottom: "label"
  top: "detection_eval"
  include {
    phase: TEST
  }
  detection_evaluate_param {
    num_classes: 4
    background_label_id: 0
    overlap_threshold: 0.5
    evaluate_difficult_gt: false
    name_size_file: "data/ascend/test_name_size.txt"
  }
}
I0419 19:14:26.725992 31435 layer_factory.hpp:77] Creating layer data
I0419 19:14:26.726213 31435 net.cpp:100] Creating Layer data
I0419 19:14:26.726225 31435 net.cpp:408] data -> data
I0419 19:14:26.726236 31435 net.cpp:408] data -> label
I0419 19:14:26.726794 31468 db_lmdb.cpp:35] Opened lmdb /localdata/markustp/data/ascend/lmdb/ascend_test_lmdb
I0419 19:14:26.739329 31435 annotated_data_layer.cpp:62] output data size: 2,3,300,300
I0419 19:14:26.743681 31435 net.cpp:150] Setting up data
I0419 19:14:26.743697 31435 net.cpp:157] Top shape: 2 3 300 300 (540000)
I0419 19:14:26.743702 31435 net.cpp:157] Top shape: 1 1 2 8 (16)
I0419 19:14:26.743705 31435 net.cpp:165] Memory required for data: 2160064
I0419 19:14:26.743710 31435 layer_factory.hpp:77] Creating layer data_data_0_split
I0419 19:14:26.743724 31435 net.cpp:100] Creating Layer data_data_0_split
I0419 19:14:26.743729 31435 net.cpp:434] data_data_0_split <- data
I0419 19:14:26.743737 31435 net.cpp:408] data_data_0_split -> data_data_0_split_0
I0419 19:14:26.743751 31435 net.cpp:408] data_data_0_split -> data_data_0_split_1
I0419 19:14:26.743758 31435 net.cpp:408] data_data_0_split -> data_data_0_split_2
I0419 19:14:26.743767 31435 net.cpp:408] data_data_0_split -> data_data_0_split_3
I0419 19:14:26.743775 31435 net.cpp:408] data_data_0_split -> data_data_0_split_4
I0419 19:14:26.743784 31435 net.cpp:408] data_data_0_split -> data_data_0_split_5
I0419 19:14:26.743793 31435 net.cpp:408] data_data_0_split -> data_data_0_split_6
I0419 19:14:26.743870 31435 net.cpp:150] Setting up data_data_0_split
I0419 19:14:26.743877 31435 net.cpp:157] Top shape: 2 3 300 300 (540000)
I0419 19:14:26.743881 31435 net.cpp:157] Top shape: 2 3 300 300 (540000)
I0419 19:14:26.743886 31435 net.cpp:157] Top shape: 2 3 300 300 (540000)
I0419 19:14:26.743891 31435 net.cpp:157] Top shape: 2 3 300 300 (540000)
I0419 19:14:26.743894 31435 net.cpp:157] Top shape: 2 3 300 300 (540000)
I0419 19:14:26.743898 31435 net.cpp:157] Top shape: 2 3 300 300 (540000)
I0419 19:14:26.743916 31435 net.cpp:157] Top shape: 2 3 300 300 (540000)
I0419 19:14:26.743918 31435 net.cpp:165] Memory required for data: 17280064
I0419 19:14:26.743921 31435 layer_factory.hpp:77] Creating layer conv1_1
I0419 19:14:26.743933 31435 net.cpp:100] Creating Layer conv1_1
I0419 19:14:26.743937 31435 net.cpp:434] conv1_1 <- data_data_0_split_0
I0419 19:14:26.743943 31435 net.cpp:408] conv1_1 -> conv1_1
I0419 19:14:26.744191 31435 net.cpp:150] Setting up conv1_1
I0419 19:14:26.744199 31435 net.cpp:157] Top shape: 2 64 300 300 (11520000)
I0419 19:14:26.744202 31435 net.cpp:165] Memory required for data: 63360064
I0419 19:14:26.744213 31435 layer_factory.hpp:77] Creating layer relu1_1
I0419 19:14:26.744220 31435 net.cpp:100] Creating Layer relu1_1
I0419 19:14:26.744225 31435 net.cpp:434] relu1_1 <- conv1_1
I0419 19:14:26.744230 31435 net.cpp:395] relu1_1 -> conv1_1 (in-place)
I0419 19:14:26.744237 31435 net.cpp:150] Setting up relu1_1
I0419 19:14:26.744243 31435 net.cpp:157] Top shape: 2 64 300 300 (11520000)
I0419 19:14:26.744246 31435 net.cpp:165] Memory required for data: 109440064
I0419 19:14:26.744251 31435 layer_factory.hpp:77] Creating layer conv1_2
I0419 19:14:26.744258 31435 net.cpp:100] Creating Layer conv1_2
I0419 19:14:26.744262 31435 net.cpp:434] conv1_2 <- conv1_1
I0419 19:14:26.744268 31435 net.cpp:408] conv1_2 -> conv1_2
I0419 19:14:26.744670 31435 net.cpp:150] Setting up conv1_2
I0419 19:14:26.744678 31435 net.cpp:157] Top shape: 2 64 300 300 (11520000)
I0419 19:14:26.744680 31435 net.cpp:165] Memory required for data: 155520064
I0419 19:14:26.744688 31435 layer_factory.hpp:77] Creating layer relu1_2
I0419 19:14:26.744695 31435 net.cpp:100] Creating Layer relu1_2
I0419 19:14:26.744699 31435 net.cpp:434] relu1_2 <- conv1_2
I0419 19:14:26.744704 31435 net.cpp:395] relu1_2 -> conv1_2 (in-place)
I0419 19:14:26.744710 31435 net.cpp:150] Setting up relu1_2
I0419 19:14:26.744717 31435 net.cpp:157] Top shape: 2 64 300 300 (11520000)
I0419 19:14:26.744720 31435 net.cpp:165] Memory required for data: 201600064
I0419 19:14:26.744722 31435 layer_factory.hpp:77] Creating layer pool1
I0419 19:14:26.744729 31435 net.cpp:100] Creating Layer pool1
I0419 19:14:26.744734 31435 net.cpp:434] pool1 <- conv1_2
I0419 19:14:26.744737 31435 net.cpp:408] pool1 -> pool1
I0419 19:14:26.744770 31435 net.cpp:150] Setting up pool1
I0419 19:14:26.744776 31435 net.cpp:157] Top shape: 2 64 150 150 (2880000)
I0419 19:14:26.744779 31435 net.cpp:165] Memory required for data: 213120064
I0419 19:14:26.744782 31435 layer_factory.hpp:77] Creating layer conv2_1
I0419 19:14:26.744791 31435 net.cpp:100] Creating Layer conv2_1
I0419 19:14:26.744796 31435 net.cpp:434] conv2_1 <- pool1
I0419 19:14:26.744801 31435 net.cpp:408] conv2_1 -> conv2_1
I0419 19:14:26.745944 31435 net.cpp:150] Setting up conv2_1
I0419 19:14:26.745954 31435 net.cpp:157] Top shape: 2 128 150 150 (5760000)
I0419 19:14:26.745959 31435 net.cpp:165] Memory required for data: 236160064
I0419 19:14:26.745968 31435 layer_factory.hpp:77] Creating layer relu2_1
I0419 19:14:26.745977 31435 net.cpp:100] Creating Layer relu2_1
I0419 19:14:26.745981 31435 net.cpp:434] relu2_1 <- conv2_1
I0419 19:14:26.745986 31435 net.cpp:395] relu2_1 -> conv2_1 (in-place)
I0419 19:14:26.745995 31435 net.cpp:150] Setting up relu2_1
I0419 19:14:26.746001 31435 net.cpp:157] Top shape: 2 128 150 150 (5760000)
I0419 19:14:26.746004 31435 net.cpp:165] Memory required for data: 259200064
I0419 19:14:26.746006 31435 layer_factory.hpp:77] Creating layer conv2_2
I0419 19:14:26.746016 31435 net.cpp:100] Creating Layer conv2_2
I0419 19:14:26.746019 31435 net.cpp:434] conv2_2 <- conv2_1
I0419 19:14:26.746026 31435 net.cpp:408] conv2_2 -> conv2_2
I0419 19:14:26.747450 31435 net.cpp:150] Setting up conv2_2
I0419 19:14:26.747462 31435 net.cpp:157] Top shape: 2 128 150 150 (5760000)
I0419 19:14:26.747464 31435 net.cpp:165] Memory required for data: 282240064
I0419 19:14:26.747470 31435 layer_factory.hpp:77] Creating layer relu2_2
I0419 19:14:26.747476 31435 net.cpp:100] Creating Layer relu2_2
I0419 19:14:26.747490 31435 net.cpp:434] relu2_2 <- conv2_2
I0419 19:14:26.747495 31435 net.cpp:395] relu2_2 -> conv2_2 (in-place)
I0419 19:14:26.747503 31435 net.cpp:150] Setting up relu2_2
I0419 19:14:26.747509 31435 net.cpp:157] Top shape: 2 128 150 150 (5760000)
I0419 19:14:26.747514 31435 net.cpp:165] Memory required for data: 305280064
I0419 19:14:26.747517 31435 layer_factory.hpp:77] Creating layer pool2
I0419 19:14:26.747522 31435 net.cpp:100] Creating Layer pool2
I0419 19:14:26.747525 31435 net.cpp:434] pool2 <- conv2_2
I0419 19:14:26.747531 31435 net.cpp:408] pool2 -> pool2
I0419 19:14:26.747563 31435 net.cpp:150] Setting up pool2
I0419 19:14:26.747570 31435 net.cpp:157] Top shape: 2 128 75 75 (1440000)
I0419 19:14:26.747572 31435 net.cpp:165] Memory required for data: 311040064
I0419 19:14:26.747576 31435 layer_factory.hpp:77] Creating layer conv3_1
I0419 19:14:26.747586 31435 net.cpp:100] Creating Layer conv3_1
I0419 19:14:26.747589 31435 net.cpp:434] conv3_1 <- pool2
I0419 19:14:26.747596 31435 net.cpp:408] conv3_1 -> conv3_1
I0419 19:14:26.749001 31435 net.cpp:150] Setting up conv3_1
I0419 19:14:26.749009 31435 net.cpp:157] Top shape: 2 256 75 75 (2880000)
I0419 19:14:26.749012 31435 net.cpp:165] Memory required for data: 322560064
I0419 19:14:26.749022 31435 layer_factory.hpp:77] Creating layer relu3_1
I0419 19:14:26.749028 31435 net.cpp:100] Creating Layer relu3_1
I0419 19:14:26.749032 31435 net.cpp:434] relu3_1 <- conv3_1
I0419 19:14:26.749037 31435 net.cpp:395] relu3_1 -> conv3_1 (in-place)
I0419 19:14:26.749043 31435 net.cpp:150] Setting up relu3_1
I0419 19:14:26.749049 31435 net.cpp:157] Top shape: 2 256 75 75 (2880000)
I0419 19:14:26.749053 31435 net.cpp:165] Memory required for data: 334080064
I0419 19:14:26.749055 31435 layer_factory.hpp:77] Creating layer conv3_2
I0419 19:14:26.749063 31435 net.cpp:100] Creating Layer conv3_2
I0419 19:14:26.749068 31435 net.cpp:434] conv3_2 <- conv3_1
I0419 19:14:26.749073 31435 net.cpp:408] conv3_2 -> conv3_2
I0419 19:14:26.752388 31435 net.cpp:150] Setting up conv3_2
I0419 19:14:26.752400 31435 net.cpp:157] Top shape: 2 256 75 75 (2880000)
I0419 19:14:26.752404 31435 net.cpp:165] Memory required for data: 345600064
I0419 19:14:26.752410 31435 layer_factory.hpp:77] Creating layer relu3_2
I0419 19:14:26.752418 31435 net.cpp:100] Creating Layer relu3_2
I0419 19:14:26.752421 31435 net.cpp:434] relu3_2 <- conv3_2
I0419 19:14:26.752427 31435 net.cpp:395] relu3_2 -> conv3_2 (in-place)
I0419 19:14:26.752434 31435 net.cpp:150] Setting up relu3_2
I0419 19:14:26.752440 31435 net.cpp:157] Top shape: 2 256 75 75 (2880000)
I0419 19:14:26.752444 31435 net.cpp:165] Memory required for data: 357120064
I0419 19:14:26.752447 31435 layer_factory.hpp:77] Creating layer conv3_3
I0419 19:14:26.752457 31435 net.cpp:100] Creating Layer conv3_3
I0419 19:14:26.752461 31435 net.cpp:434] conv3_3 <- conv3_2
I0419 19:14:26.752467 31435 net.cpp:408] conv3_3 -> conv3_3
I0419 19:14:26.755784 31435 net.cpp:150] Setting up conv3_3
I0419 19:14:26.755794 31435 net.cpp:157] Top shape: 2 256 75 75 (2880000)
I0419 19:14:26.755796 31435 net.cpp:165] Memory required for data: 368640064
I0419 19:14:26.755803 31435 layer_factory.hpp:77] Creating layer relu3_3
I0419 19:14:26.755810 31435 net.cpp:100] Creating Layer relu3_3
I0419 19:14:26.755813 31435 net.cpp:434] relu3_3 <- conv3_3
I0419 19:14:26.755820 31435 net.cpp:395] relu3_3 -> conv3_3 (in-place)
I0419 19:14:26.755826 31435 net.cpp:150] Setting up relu3_3
I0419 19:14:26.755832 31435 net.cpp:157] Top shape: 2 256 75 75 (2880000)
I0419 19:14:26.755836 31435 net.cpp:165] Memory required for data: 380160064
I0419 19:14:26.755838 31435 layer_factory.hpp:77] Creating layer pool3
I0419 19:14:26.755844 31435 net.cpp:100] Creating Layer pool3
I0419 19:14:26.755848 31435 net.cpp:434] pool3 <- conv3_3
I0419 19:14:26.755853 31435 net.cpp:408] pool3 -> pool3
I0419 19:14:26.755887 31435 net.cpp:150] Setting up pool3
I0419 19:14:26.755893 31435 net.cpp:157] Top shape: 2 256 38 38 (739328)
I0419 19:14:26.755897 31435 net.cpp:165] Memory required for data: 383117376
I0419 19:14:26.755909 31435 layer_factory.hpp:77] Creating layer conv4_1
I0419 19:14:26.755918 31435 net.cpp:100] Creating Layer conv4_1
I0419 19:14:26.755923 31435 net.cpp:434] conv4_1 <- pool3
I0419 19:14:26.755929 31435 net.cpp:408] conv4_1 -> conv4_1
I0419 19:14:26.762244 31435 net.cpp:150] Setting up conv4_1
I0419 19:14:26.762264 31435 net.cpp:157] Top shape: 2 512 38 38 (1478656)
I0419 19:14:26.762267 31435 net.cpp:165] Memory required for data: 389032000
I0419 19:14:26.762276 31435 layer_factory.hpp:77] Creating layer relu4_1
I0419 19:14:26.762286 31435 net.cpp:100] Creating Layer relu4_1
I0419 19:14:26.762291 31435 net.cpp:434] relu4_1 <- conv4_1
I0419 19:14:26.762298 31435 net.cpp:395] relu4_1 -> conv4_1 (in-place)
I0419 19:14:26.762308 31435 net.cpp:150] Setting up relu4_1
I0419 19:14:26.762313 31435 net.cpp:157] Top shape: 2 512 38 38 (1478656)
I0419 19:14:26.762316 31435 net.cpp:165] Memory required for data: 394946624
I0419 19:14:26.762320 31435 layer_factory.hpp:77] Creating layer conv4_2
I0419 19:14:26.762331 31435 net.cpp:100] Creating Layer conv4_2
I0419 19:14:26.762333 31435 net.cpp:434] conv4_2 <- conv4_1
I0419 19:14:26.762339 31435 net.cpp:408] conv4_2 -> conv4_2
I0419 19:14:26.774734 31435 net.cpp:150] Setting up conv4_2
I0419 19:14:26.774758 31435 net.cpp:157] Top shape: 2 512 38 38 (1478656)
I0419 19:14:26.774761 31435 net.cpp:165] Memory required for data: 400861248
I0419 19:14:26.774775 31435 layer_factory.hpp:77] Creating layer relu4_2
I0419 19:14:26.774785 31435 net.cpp:100] Creating Layer relu4_2
I0419 19:14:26.774791 31435 net.cpp:434] relu4_2 <- conv4_2
I0419 19:14:26.774798 31435 net.cpp:395] relu4_2 -> conv4_2 (in-place)
I0419 19:14:26.774809 31435 net.cpp:150] Setting up relu4_2
I0419 19:14:26.774814 31435 net.cpp:157] Top shape: 2 512 38 38 (1478656)
I0419 19:14:26.774817 31435 net.cpp:165] Memory required for data: 406775872
I0419 19:14:26.774821 31435 layer_factory.hpp:77] Creating layer conv4_3
I0419 19:14:26.774832 31435 net.cpp:100] Creating Layer conv4_3
I0419 19:14:26.774834 31435 net.cpp:434] conv4_3 <- conv4_2
I0419 19:14:26.774840 31435 net.cpp:408] conv4_3 -> conv4_3
I0419 19:14:26.787196 31435 net.cpp:150] Setting up conv4_3
I0419 19:14:26.787220 31435 net.cpp:157] Top shape: 2 512 38 38 (1478656)
I0419 19:14:26.787221 31435 net.cpp:165] Memory required for data: 412690496
I0419 19:14:26.787231 31435 layer_factory.hpp:77] Creating layer relu4_3
I0419 19:14:26.787240 31435 net.cpp:100] Creating Layer relu4_3
I0419 19:14:26.787245 31435 net.cpp:434] relu4_3 <- conv4_3
I0419 19:14:26.787251 31435 net.cpp:395] relu4_3 -> conv4_3 (in-place)
I0419 19:14:26.787263 31435 net.cpp:150] Setting up relu4_3
I0419 19:14:26.787269 31435 net.cpp:157] Top shape: 2 512 38 38 (1478656)
I0419 19:14:26.787272 31435 net.cpp:165] Memory required for data: 418605120
I0419 19:14:26.787274 31435 layer_factory.hpp:77] Creating layer conv4_3_relu4_3_0_split
I0419 19:14:26.787281 31435 net.cpp:100] Creating Layer conv4_3_relu4_3_0_split
I0419 19:14:26.787286 31435 net.cpp:434] conv4_3_relu4_3_0_split <- conv4_3
I0419 19:14:26.787292 31435 net.cpp:408] conv4_3_relu4_3_0_split -> conv4_3_relu4_3_0_split_0
I0419 19:14:26.787300 31435 net.cpp:408] conv4_3_relu4_3_0_split -> conv4_3_relu4_3_0_split_1
I0419 19:14:26.787334 31435 net.cpp:150] Setting up conv4_3_relu4_3_0_split
I0419 19:14:26.787341 31435 net.cpp:157] Top shape: 2 512 38 38 (1478656)
I0419 19:14:26.787345 31435 net.cpp:157] Top shape: 2 512 38 38 (1478656)
I0419 19:14:26.787348 31435 net.cpp:165] Memory required for data: 430434368
I0419 19:14:26.787351 31435 layer_factory.hpp:77] Creating layer pool4
I0419 19:14:26.787358 31435 net.cpp:100] Creating Layer pool4
I0419 19:14:26.787361 31435 net.cpp:434] pool4 <- conv4_3_relu4_3_0_split_0
I0419 19:14:26.787367 31435 net.cpp:408] pool4 -> pool4
I0419 19:14:26.787400 31435 net.cpp:150] Setting up pool4
I0419 19:14:26.787405 31435 net.cpp:157] Top shape: 2 512 19 19 (369664)
I0419 19:14:26.787408 31435 net.cpp:165] Memory required for data: 431913024
I0419 19:14:26.787411 31435 layer_factory.hpp:77] Creating layer conv5_1
I0419 19:14:26.787436 31435 net.cpp:100] Creating Layer conv5_1
I0419 19:14:26.787439 31435 net.cpp:434] conv5_1 <- pool4
I0419 19:14:26.787446 31435 net.cpp:408] conv5_1 -> conv5_1
I0419 19:14:26.799724 31435 net.cpp:150] Setting up conv5_1
I0419 19:14:26.799747 31435 net.cpp:157] Top shape: 2 512 19 19 (369664)
I0419 19:14:26.799751 31435 net.cpp:165] Memory required for data: 433391680
I0419 19:14:26.799759 31435 layer_factory.hpp:77] Creating layer relu5_1
I0419 19:14:26.799768 31435 net.cpp:100] Creating Layer relu5_1
I0419 19:14:26.799774 31435 net.cpp:434] relu5_1 <- conv5_1
I0419 19:14:26.799782 31435 net.cpp:395] relu5_1 -> conv5_1 (in-place)
I0419 19:14:26.799793 31435 net.cpp:150] Setting up relu5_1
I0419 19:14:26.799798 31435 net.cpp:157] Top shape: 2 512 19 19 (369664)
I0419 19:14:26.799803 31435 net.cpp:165] Memory required for data: 434870336
I0419 19:14:26.799805 31435 layer_factory.hpp:77] Creating layer conv5_2
I0419 19:14:26.799816 31435 net.cpp:100] Creating Layer conv5_2
I0419 19:14:26.799829 31435 net.cpp:434] conv5_2 <- conv5_1
I0419 19:14:26.799836 31435 net.cpp:408] conv5_2 -> conv5_2
I0419 19:14:26.812131 31435 net.cpp:150] Setting up conv5_2
I0419 19:14:26.812155 31435 net.cpp:157] Top shape: 2 512 19 19 (369664)
I0419 19:14:26.812156 31435 net.cpp:165] Memory required for data: 436348992
I0419 19:14:26.812166 31435 layer_factory.hpp:77] Creating layer relu5_2
I0419 19:14:26.812175 31435 net.cpp:100] Creating Layer relu5_2
I0419 19:14:26.812180 31435 net.cpp:434] relu5_2 <- conv5_2
I0419 19:14:26.812186 31435 net.cpp:395] relu5_2 -> conv5_2 (in-place)
I0419 19:14:26.812197 31435 net.cpp:150] Setting up relu5_2
I0419 19:14:26.812203 31435 net.cpp:157] Top shape: 2 512 19 19 (369664)
I0419 19:14:26.812206 31435 net.cpp:165] Memory required for data: 437827648
I0419 19:14:26.812208 31435 layer_factory.hpp:77] Creating layer conv5_3
I0419 19:14:26.812219 31435 net.cpp:100] Creating Layer conv5_3
I0419 19:14:26.812223 31435 net.cpp:434] conv5_3 <- conv5_2
I0419 19:14:26.812229 31435 net.cpp:408] conv5_3 -> conv5_3
I0419 19:14:26.824496 31435 net.cpp:150] Setting up conv5_3
I0419 19:14:26.824522 31435 net.cpp:157] Top shape: 2 512 19 19 (369664)
I0419 19:14:26.824524 31435 net.cpp:165] Memory required for data: 439306304
I0419 19:14:26.824533 31435 layer_factory.hpp:77] Creating layer relu5_3
I0419 19:14:26.824548 31435 net.cpp:100] Creating Layer relu5_3
I0419 19:14:26.824553 31435 net.cpp:434] relu5_3 <- conv5_3
I0419 19:14:26.824561 31435 net.cpp:395] relu5_3 -> conv5_3 (in-place)
I0419 19:14:26.824571 31435 net.cpp:150] Setting up relu5_3
I0419 19:14:26.824578 31435 net.cpp:157] Top shape: 2 512 19 19 (369664)
I0419 19:14:26.824580 31435 net.cpp:165] Memory required for data: 440784960
I0419 19:14:26.824584 31435 layer_factory.hpp:77] Creating layer pool5
I0419 19:14:26.824589 31435 net.cpp:100] Creating Layer pool5
I0419 19:14:26.824594 31435 net.cpp:434] pool5 <- conv5_3
I0419 19:14:26.824599 31435 net.cpp:408] pool5 -> pool5
I0419 19:14:26.824633 31435 net.cpp:150] Setting up pool5
I0419 19:14:26.824640 31435 net.cpp:157] Top shape: 2 512 19 19 (369664)
I0419 19:14:26.824643 31435 net.cpp:165] Memory required for data: 442263616
I0419 19:14:26.824646 31435 layer_factory.hpp:77] Creating layer fc6
I0419 19:14:26.824656 31435 net.cpp:100] Creating Layer fc6
I0419 19:14:26.824661 31435 net.cpp:434] fc6 <- pool5
I0419 19:14:26.824666 31435 net.cpp:408] fc6 -> fc6
I0419 19:14:26.849329 31435 net.cpp:150] Setting up fc6
I0419 19:14:26.849354 31435 net.cpp:157] Top shape: 2 1024 19 19 (739328)
I0419 19:14:26.849356 31435 net.cpp:165] Memory required for data: 445220928
I0419 19:14:26.849365 31435 layer_factory.hpp:77] Creating layer relu6
I0419 19:14:26.849375 31435 net.cpp:100] Creating Layer relu6
I0419 19:14:26.849380 31435 net.cpp:434] relu6 <- fc6
I0419 19:14:26.849386 31435 net.cpp:395] relu6 -> fc6 (in-place)
I0419 19:14:26.849397 31435 net.cpp:150] Setting up relu6
I0419 19:14:26.849403 31435 net.cpp:157] Top shape: 2 1024 19 19 (739328)
I0419 19:14:26.849406 31435 net.cpp:165] Memory required for data: 448178240
I0419 19:14:26.849423 31435 layer_factory.hpp:77] Creating layer fc7
I0419 19:14:26.849434 31435 net.cpp:100] Creating Layer fc7
I0419 19:14:26.849438 31435 net.cpp:434] fc7 <- fc6
I0419 19:14:26.849444 31435 net.cpp:408] fc7 -> fc7
I0419 19:14:26.855172 31435 net.cpp:150] Setting up fc7
I0419 19:14:26.855188 31435 net.cpp:157] Top shape: 2 1024 19 19 (739328)
I0419 19:14:26.855192 31435 net.cpp:165] Memory required for data: 451135552
I0419 19:14:26.855199 31435 layer_factory.hpp:77] Creating layer relu7
I0419 19:14:26.855206 31435 net.cpp:100] Creating Layer relu7
I0419 19:14:26.855211 31435 net.cpp:434] relu7 <- fc7
I0419 19:14:26.855221 31435 net.cpp:395] relu7 -> fc7 (in-place)
I0419 19:14:26.855229 31435 net.cpp:150] Setting up relu7
I0419 19:14:26.855235 31435 net.cpp:157] Top shape: 2 1024 19 19 (739328)
I0419 19:14:26.855238 31435 net.cpp:165] Memory required for data: 454092864
I0419 19:14:26.855242 31435 layer_factory.hpp:77] Creating layer fc7_relu7_0_split
I0419 19:14:26.855248 31435 net.cpp:100] Creating Layer fc7_relu7_0_split
I0419 19:14:26.855252 31435 net.cpp:434] fc7_relu7_0_split <- fc7
I0419 19:14:26.855257 31435 net.cpp:408] fc7_relu7_0_split -> fc7_relu7_0_split_0
I0419 19:14:26.855265 31435 net.cpp:408] fc7_relu7_0_split -> fc7_relu7_0_split_1
I0419 19:14:26.855278 31435 net.cpp:408] fc7_relu7_0_split -> fc7_relu7_0_split_2
I0419 19:14:26.855285 31435 net.cpp:408] fc7_relu7_0_split -> fc7_relu7_0_split_3
I0419 19:14:26.855335 31435 net.cpp:150] Setting up fc7_relu7_0_split
I0419 19:14:26.855342 31435 net.cpp:157] Top shape: 2 1024 19 19 (739328)
I0419 19:14:26.855347 31435 net.cpp:157] Top shape: 2 1024 19 19 (739328)
I0419 19:14:26.855351 31435 net.cpp:157] Top shape: 2 1024 19 19 (739328)
I0419 19:14:26.855356 31435 net.cpp:157] Top shape: 2 1024 19 19 (739328)
I0419 19:14:26.855360 31435 net.cpp:165] Memory required for data: 465922112
I0419 19:14:26.855362 31435 layer_factory.hpp:77] Creating layer conv6_1
I0419 19:14:26.855372 31435 net.cpp:100] Creating Layer conv6_1
I0419 19:14:26.855376 31435 net.cpp:434] conv6_1 <- fc7_relu7_0_split_0
I0419 19:14:26.855383 31435 net.cpp:408] conv6_1 -> conv6_1
I0419 19:14:26.857352 31435 net.cpp:150] Setting up conv6_1
I0419 19:14:26.857363 31435 net.cpp:157] Top shape: 2 256 19 19 (184832)
I0419 19:14:26.857367 31435 net.cpp:165] Memory required for data: 466661440
I0419 19:14:26.857373 31435 layer_factory.hpp:77] Creating layer conv6_1_relu
I0419 19:14:26.857379 31435 net.cpp:100] Creating Layer conv6_1_relu
I0419 19:14:26.857384 31435 net.cpp:434] conv6_1_relu <- conv6_1
I0419 19:14:26.857390 31435 net.cpp:395] conv6_1_relu -> conv6_1 (in-place)
I0419 19:14:26.857398 31435 net.cpp:150] Setting up conv6_1_relu
I0419 19:14:26.857404 31435 net.cpp:157] Top shape: 2 256 19 19 (184832)
I0419 19:14:26.857408 31435 net.cpp:165] Memory required for data: 467400768
I0419 19:14:26.857410 31435 layer_factory.hpp:77] Creating layer conv6_2
I0419 19:14:26.857420 31435 net.cpp:100] Creating Layer conv6_2
I0419 19:14:26.857424 31435 net.cpp:434] conv6_2 <- conv6_1
I0419 19:14:26.857429 31435 net.cpp:408] conv6_2 -> conv6_2
I0419 19:14:26.863745 31435 net.cpp:150] Setting up conv6_2
I0419 19:14:26.863762 31435 net.cpp:157] Top shape: 2 512 10 10 (102400)
I0419 19:14:26.863765 31435 net.cpp:165] Memory required for data: 467810368
I0419 19:14:26.863778 31435 layer_factory.hpp:77] Creating layer conv6_2_relu
I0419 19:14:26.863787 31435 net.cpp:100] Creating Layer conv6_2_relu
I0419 19:14:26.863792 31435 net.cpp:434] conv6_2_relu <- conv6_2
I0419 19:14:26.863798 31435 net.cpp:395] conv6_2_relu -> conv6_2 (in-place)
I0419 19:14:26.863807 31435 net.cpp:150] Setting up conv6_2_relu
I0419 19:14:26.863812 31435 net.cpp:157] Top shape: 2 512 10 10 (102400)
I0419 19:14:26.863817 31435 net.cpp:165] Memory required for data: 468219968
I0419 19:14:26.863821 31435 layer_factory.hpp:77] Creating layer conv6_2_conv6_2_relu_0_split
I0419 19:14:26.863826 31435 net.cpp:100] Creating Layer conv6_2_conv6_2_relu_0_split
I0419 19:14:26.863829 31435 net.cpp:434] conv6_2_conv6_2_relu_0_split <- conv6_2
I0419 19:14:26.863849 31435 net.cpp:408] conv6_2_conv6_2_relu_0_split -> conv6_2_conv6_2_relu_0_split_0
I0419 19:14:26.863858 31435 net.cpp:408] conv6_2_conv6_2_relu_0_split -> conv6_2_conv6_2_relu_0_split_1
I0419 19:14:26.863867 31435 net.cpp:408] conv6_2_conv6_2_relu_0_split -> conv6_2_conv6_2_relu_0_split_2
I0419 19:14:26.863874 31435 net.cpp:408] conv6_2_conv6_2_relu_0_split -> conv6_2_conv6_2_relu_0_split_3
I0419 19:14:26.863929 31435 net.cpp:150] Setting up conv6_2_conv6_2_relu_0_split
I0419 19:14:26.863934 31435 net.cpp:157] Top shape: 2 512 10 10 (102400)
I0419 19:14:26.863940 31435 net.cpp:157] Top shape: 2 512 10 10 (102400)
I0419 19:14:26.863943 31435 net.cpp:157] Top shape: 2 512 10 10 (102400)
I0419 19:14:26.863947 31435 net.cpp:157] Top shape: 2 512 10 10 (102400)
I0419 19:14:26.863950 31435 net.cpp:165] Memory required for data: 469858368
I0419 19:14:26.863953 31435 layer_factory.hpp:77] Creating layer conv7_1
I0419 19:14:26.863963 31435 net.cpp:100] Creating Layer conv7_1
I0419 19:14:26.863967 31435 net.cpp:434] conv7_1 <- conv6_2_conv6_2_relu_0_split_0
I0419 19:14:26.863975 31435 net.cpp:408] conv7_1 -> conv7_1
I0419 19:14:26.864437 31435 net.cpp:150] Setting up conv7_1
I0419 19:14:26.864444 31435 net.cpp:157] Top shape: 2 128 10 10 (25600)
I0419 19:14:26.864447 31435 net.cpp:165] Memory required for data: 469960768
I0419 19:14:26.864464 31435 layer_factory.hpp:77] Creating layer conv7_1_relu
I0419 19:14:26.864470 31435 net.cpp:100] Creating Layer conv7_1_relu
I0419 19:14:26.864475 31435 net.cpp:434] conv7_1_relu <- conv7_1
I0419 19:14:26.864480 31435 net.cpp:395] conv7_1_relu -> conv7_1 (in-place)
I0419 19:14:26.864485 31435 net.cpp:150] Setting up conv7_1_relu
I0419 19:14:26.864490 31435 net.cpp:157] Top shape: 2 128 10 10 (25600)
I0419 19:14:26.864493 31435 net.cpp:165] Memory required for data: 470063168
I0419 19:14:26.864497 31435 layer_factory.hpp:77] Creating layer conv7_2
I0419 19:14:26.864504 31435 net.cpp:100] Creating Layer conv7_2
I0419 19:14:26.864507 31435 net.cpp:434] conv7_2 <- conv7_1
I0419 19:14:26.864513 31435 net.cpp:408] conv7_2 -> conv7_2
I0419 19:14:26.866652 31435 net.cpp:150] Setting up conv7_2
I0419 19:14:26.866663 31435 net.cpp:157] Top shape: 2 256 5 5 (12800)
I0419 19:14:26.866667 31435 net.cpp:165] Memory required for data: 470114368
I0419 19:14:26.866673 31435 layer_factory.hpp:77] Creating layer conv7_2_relu
I0419 19:14:26.866680 31435 net.cpp:100] Creating Layer conv7_2_relu
I0419 19:14:26.866685 31435 net.cpp:434] conv7_2_relu <- conv7_2
I0419 19:14:26.866691 31435 net.cpp:395] conv7_2_relu -> conv7_2 (in-place)
I0419 19:14:26.866698 31435 net.cpp:150] Setting up conv7_2_relu
I0419 19:14:26.866705 31435 net.cpp:157] Top shape: 2 256 5 5 (12800)
I0419 19:14:26.866708 31435 net.cpp:165] Memory required for data: 470165568
I0419 19:14:26.866711 31435 layer_factory.hpp:77] Creating layer conv7_2_conv7_2_relu_0_split
I0419 19:14:26.866717 31435 net.cpp:100] Creating Layer conv7_2_conv7_2_relu_0_split
I0419 19:14:26.866720 31435 net.cpp:434] conv7_2_conv7_2_relu_0_split <- conv7_2
I0419 19:14:26.866726 31435 net.cpp:408] conv7_2_conv7_2_relu_0_split -> conv7_2_conv7_2_relu_0_split_0
I0419 19:14:26.866734 31435 net.cpp:408] conv7_2_conv7_2_relu_0_split -> conv7_2_conv7_2_relu_0_split_1
I0419 19:14:26.866740 31435 net.cpp:408] conv7_2_conv7_2_relu_0_split -> conv7_2_conv7_2_relu_0_split_2
I0419 19:14:26.866750 31435 net.cpp:408] conv7_2_conv7_2_relu_0_split -> conv7_2_conv7_2_relu_0_split_3
I0419 19:14:26.866803 31435 net.cpp:150] Setting up conv7_2_conv7_2_relu_0_split
I0419 19:14:26.866809 31435 net.cpp:157] Top shape: 2 256 5 5 (12800)
I0419 19:14:26.866813 31435 net.cpp:157] Top shape: 2 256 5 5 (12800)
I0419 19:14:26.866818 31435 net.cpp:157] Top shape: 2 256 5 5 (12800)
I0419 19:14:26.866822 31435 net.cpp:157] Top shape: 2 256 5 5 (12800)
I0419 19:14:26.866824 31435 net.cpp:165] Memory required for data: 470370368
I0419 19:14:26.866828 31435 layer_factory.hpp:77] Creating layer conv8_1
I0419 19:14:26.866837 31435 net.cpp:100] Creating Layer conv8_1
I0419 19:14:26.866852 31435 net.cpp:434] conv8_1 <- conv7_2_conv7_2_relu_0_split_0
I0419 19:14:26.866859 31435 net.cpp:408] conv8_1 -> conv8_1
I0419 19:14:26.867177 31435 net.cpp:150] Setting up conv8_1
I0419 19:14:26.867185 31435 net.cpp:157] Top shape: 2 128 5 5 (6400)
I0419 19:14:26.867188 31435 net.cpp:165] Memory required for data: 470395968
I0419 19:14:26.867194 31435 layer_factory.hpp:77] Creating layer conv8_1_relu
I0419 19:14:26.867200 31435 net.cpp:100] Creating Layer conv8_1_relu
I0419 19:14:26.867205 31435 net.cpp:434] conv8_1_relu <- conv8_1
I0419 19:14:26.867210 31435 net.cpp:395] conv8_1_relu -> conv8_1 (in-place)
I0419 19:14:26.867216 31435 net.cpp:150] Setting up conv8_1_relu
I0419 19:14:26.867221 31435 net.cpp:157] Top shape: 2 128 5 5 (6400)
I0419 19:14:26.867225 31435 net.cpp:165] Memory required for data: 470421568
I0419 19:14:26.867228 31435 layer_factory.hpp:77] Creating layer conv8_2
I0419 19:14:26.867235 31435 net.cpp:100] Creating Layer conv8_2
I0419 19:14:26.867239 31435 net.cpp:434] conv8_2 <- conv8_1
I0419 19:14:26.867246 31435 net.cpp:408] conv8_2 -> conv8_2
I0419 19:14:26.869356 31435 net.cpp:150] Setting up conv8_2
I0419 19:14:26.869367 31435 net.cpp:157] Top shape: 2 256 3 3 (4608)
I0419 19:14:26.869374 31435 net.cpp:165] Memory required for data: 470440000
I0419 19:14:26.869382 31435 layer_factory.hpp:77] Creating layer conv8_2_relu
I0419 19:14:26.869388 31435 net.cpp:100] Creating Layer conv8_2_relu
I0419 19:14:26.869391 31435 net.cpp:434] conv8_2_relu <- conv8_2
I0419 19:14:26.869396 31435 net.cpp:395] conv8_2_relu -> conv8_2 (in-place)
I0419 19:14:26.869405 31435 net.cpp:150] Setting up conv8_2_relu
I0419 19:14:26.869412 31435 net.cpp:157] Top shape: 2 256 3 3 (4608)
I0419 19:14:26.869415 31435 net.cpp:165] Memory required for data: 470458432
I0419 19:14:26.869418 31435 layer_factory.hpp:77] Creating layer conv8_2_conv8_2_relu_0_split
I0419 19:14:26.869424 31435 net.cpp:100] Creating Layer conv8_2_conv8_2_relu_0_split
I0419 19:14:26.869428 31435 net.cpp:434] conv8_2_conv8_2_relu_0_split <- conv8_2
I0419 19:14:26.869434 31435 net.cpp:408] conv8_2_conv8_2_relu_0_split -> conv8_2_conv8_2_relu_0_split_0
I0419 19:14:26.869442 31435 net.cpp:408] conv8_2_conv8_2_relu_0_split -> conv8_2_conv8_2_relu_0_split_1
I0419 19:14:26.869451 31435 net.cpp:408] conv8_2_conv8_2_relu_0_split -> conv8_2_conv8_2_relu_0_split_2
I0419 19:14:26.869459 31435 net.cpp:408] conv8_2_conv8_2_relu_0_split -> conv8_2_conv8_2_relu_0_split_3
I0419 19:14:26.869510 31435 net.cpp:150] Setting up conv8_2_conv8_2_relu_0_split
I0419 19:14:26.869516 31435 net.cpp:157] Top shape: 2 256 3 3 (4608)
I0419 19:14:26.869521 31435 net.cpp:157] Top shape: 2 256 3 3 (4608)
I0419 19:14:26.869525 31435 net.cpp:157] Top shape: 2 256 3 3 (4608)
I0419 19:14:26.869529 31435 net.cpp:157] Top shape: 2 256 3 3 (4608)
I0419 19:14:26.869531 31435 net.cpp:165] Memory required for data: 470532160
I0419 19:14:26.869535 31435 layer_factory.hpp:77] Creating layer conv9_1
I0419 19:14:26.869544 31435 net.cpp:100] Creating Layer conv9_1
I0419 19:14:26.869549 31435 net.cpp:434] conv9_1 <- conv8_2_conv8_2_relu_0_split_0
I0419 19:14:26.869555 31435 net.cpp:408] conv9_1 -> conv9_1
I0419 19:14:26.869866 31435 net.cpp:150] Setting up conv9_1
I0419 19:14:26.869874 31435 net.cpp:157] Top shape: 2 128 3 3 (2304)
I0419 19:14:26.869877 31435 net.cpp:165] Memory required for data: 470541376
I0419 19:14:26.869884 31435 layer_factory.hpp:77] Creating layer conv9_1_relu
I0419 19:14:26.869889 31435 net.cpp:100] Creating Layer conv9_1_relu
I0419 19:14:26.869894 31435 net.cpp:434] conv9_1_relu <- conv9_1
I0419 19:14:26.869899 31435 net.cpp:395] conv9_1_relu -> conv9_1 (in-place)
I0419 19:14:26.869904 31435 net.cpp:150] Setting up conv9_1_relu
I0419 19:14:26.869910 31435 net.cpp:157] Top shape: 2 128 3 3 (2304)
I0419 19:14:26.869913 31435 net.cpp:165] Memory required for data: 470550592
I0419 19:14:26.869916 31435 layer_factory.hpp:77] Creating layer conv9_2
I0419 19:14:26.869923 31435 net.cpp:100] Creating Layer conv9_2
I0419 19:14:26.869938 31435 net.cpp:434] conv9_2 <- conv9_1
I0419 19:14:26.869945 31435 net.cpp:408] conv9_2 -> conv9_2
I0419 19:14:26.871995 31435 net.cpp:150] Setting up conv9_2
I0419 19:14:26.872006 31435 net.cpp:157] Top shape: 2 256 1 1 (512)
I0419 19:14:26.872009 31435 net.cpp:165] Memory required for data: 470552640
I0419 19:14:26.872016 31435 layer_factory.hpp:77] Creating layer conv9_2_relu
I0419 19:14:26.872022 31435 net.cpp:100] Creating Layer conv9_2_relu
I0419 19:14:26.872027 31435 net.cpp:434] conv9_2_relu <- conv9_2
I0419 19:14:26.872033 31435 net.cpp:395] conv9_2_relu -> conv9_2 (in-place)
I0419 19:14:26.872040 31435 net.cpp:150] Setting up conv9_2_relu
I0419 19:14:26.872045 31435 net.cpp:157] Top shape: 2 256 1 1 (512)
I0419 19:14:26.872047 31435 net.cpp:165] Memory required for data: 470554688
I0419 19:14:26.872051 31435 layer_factory.hpp:77] Creating layer conv9_2_conv9_2_relu_0_split
I0419 19:14:26.872056 31435 net.cpp:100] Creating Layer conv9_2_conv9_2_relu_0_split
I0419 19:14:26.872061 31435 net.cpp:434] conv9_2_conv9_2_relu_0_split <- conv9_2
I0419 19:14:26.872066 31435 net.cpp:408] conv9_2_conv9_2_relu_0_split -> conv9_2_conv9_2_relu_0_split_0
I0419 19:14:26.872076 31435 net.cpp:408] conv9_2_conv9_2_relu_0_split -> conv9_2_conv9_2_relu_0_split_1
I0419 19:14:26.872082 31435 net.cpp:408] conv9_2_conv9_2_relu_0_split -> conv9_2_conv9_2_relu_0_split_2
I0419 19:14:26.872124 31435 net.cpp:150] Setting up conv9_2_conv9_2_relu_0_split
I0419 19:14:26.872129 31435 net.cpp:157] Top shape: 2 256 1 1 (512)
I0419 19:14:26.872134 31435 net.cpp:157] Top shape: 2 256 1 1 (512)
I0419 19:14:26.872138 31435 net.cpp:157] Top shape: 2 256 1 1 (512)
I0419 19:14:26.872140 31435 net.cpp:165] Memory required for data: 470560832
I0419 19:14:26.872143 31435 layer_factory.hpp:77] Creating layer conv4_3_norm
I0419 19:14:26.872151 31435 net.cpp:100] Creating Layer conv4_3_norm
I0419 19:14:26.872155 31435 net.cpp:434] conv4_3_norm <- conv4_3_relu4_3_0_split_1
I0419 19:14:26.872161 31435 net.cpp:408] conv4_3_norm -> conv4_3_norm
I0419 19:14:26.872277 31435 net.cpp:150] Setting up conv4_3_norm
I0419 19:14:26.872285 31435 net.cpp:157] Top shape: 2 512 38 38 (1478656)
I0419 19:14:26.872287 31435 net.cpp:165] Memory required for data: 476475456
I0419 19:14:26.872292 31435 layer_factory.hpp:77] Creating layer conv4_3_norm_conv4_3_norm_0_split
I0419 19:14:26.872299 31435 net.cpp:100] Creating Layer conv4_3_norm_conv4_3_norm_0_split
I0419 19:14:26.872304 31435 net.cpp:434] conv4_3_norm_conv4_3_norm_0_split <- conv4_3_norm
I0419 19:14:26.872309 31435 net.cpp:408] conv4_3_norm_conv4_3_norm_0_split -> conv4_3_norm_conv4_3_norm_0_split_0
I0419 19:14:26.872318 31435 net.cpp:408] conv4_3_norm_conv4_3_norm_0_split -> conv4_3_norm_conv4_3_norm_0_split_1
I0419 19:14:26.872325 31435 net.cpp:408] conv4_3_norm_conv4_3_norm_0_split -> conv4_3_norm_conv4_3_norm_0_split_2
I0419 19:14:26.872364 31435 net.cpp:150] Setting up conv4_3_norm_conv4_3_norm_0_split
I0419 19:14:26.872370 31435 net.cpp:157] Top shape: 2 512 38 38 (1478656)
I0419 19:14:26.872375 31435 net.cpp:157] Top shape: 2 512 38 38 (1478656)
I0419 19:14:26.872378 31435 net.cpp:157] Top shape: 2 512 38 38 (1478656)
I0419 19:14:26.872382 31435 net.cpp:165] Memory required for data: 494219328
I0419 19:14:26.872385 31435 layer_factory.hpp:77] Creating layer conv4_3_norm_mbox_loc
I0419 19:14:26.872393 31435 net.cpp:100] Creating Layer conv4_3_norm_mbox_loc
I0419 19:14:26.872397 31435 net.cpp:434] conv4_3_norm_mbox_loc <- conv4_3_norm_conv4_3_norm_0_split_0
I0419 19:14:26.872406 31435 net.cpp:408] conv4_3_norm_mbox_loc -> conv4_3_norm_mbox_loc
I0419 19:14:26.872901 31435 net.cpp:150] Setting up conv4_3_norm_mbox_loc
I0419 19:14:26.872910 31435 net.cpp:157] Top shape: 2 16 38 38 (46208)
I0419 19:14:26.872912 31435 net.cpp:165] Memory required for data: 494404160
I0419 19:14:26.872918 31435 layer_factory.hpp:77] Creating layer conv4_3_norm_mbox_loc_perm
I0419 19:14:26.872927 31435 net.cpp:100] Creating Layer conv4_3_norm_mbox_loc_perm
I0419 19:14:26.872931 31435 net.cpp:434] conv4_3_norm_mbox_loc_perm <- conv4_3_norm_mbox_loc
I0419 19:14:26.872946 31435 net.cpp:408] conv4_3_norm_mbox_loc_perm -> conv4_3_norm_mbox_loc_perm
I0419 19:14:26.873023 31435 net.cpp:150] Setting up conv4_3_norm_mbox_loc_perm
I0419 19:14:26.873029 31435 net.cpp:157] Top shape: 2 38 38 16 (46208)
I0419 19:14:26.873031 31435 net.cpp:165] Memory required for data: 494588992
I0419 19:14:26.873034 31435 layer_factory.hpp:77] Creating layer conv4_3_norm_mbox_loc_flat
I0419 19:14:26.873041 31435 net.cpp:100] Creating Layer conv4_3_norm_mbox_loc_flat
I0419 19:14:26.873046 31435 net.cpp:434] conv4_3_norm_mbox_loc_flat <- conv4_3_norm_mbox_loc_perm
I0419 19:14:26.873051 31435 net.cpp:408] conv4_3_norm_mbox_loc_flat -> conv4_3_norm_mbox_loc_flat
I0419 19:14:26.873080 31435 net.cpp:150] Setting up conv4_3_norm_mbox_loc_flat
I0419 19:14:26.873087 31435 net.cpp:157] Top shape: 2 23104 (46208)
I0419 19:14:26.873090 31435 net.cpp:165] Memory required for data: 494773824
I0419 19:14:26.873093 31435 layer_factory.hpp:77] Creating layer conv4_3_norm_mbox_conf
I0419 19:14:26.873107 31435 net.cpp:100] Creating Layer conv4_3_norm_mbox_conf
I0419 19:14:26.873111 31435 net.cpp:434] conv4_3_norm_mbox_conf <- conv4_3_norm_conv4_3_norm_0_split_1
I0419 19:14:26.873117 31435 net.cpp:408] conv4_3_norm_mbox_conf -> conv4_3_norm_mbox_conf
I0419 19:14:26.873603 31435 net.cpp:150] Setting up conv4_3_norm_mbox_conf
I0419 19:14:26.873610 31435 net.cpp:157] Top shape: 2 16 38 38 (46208)
I0419 19:14:26.873615 31435 net.cpp:165] Memory required for data: 494958656
I0419 19:14:26.873620 31435 layer_factory.hpp:77] Creating layer conv4_3_norm_mbox_conf_perm
I0419 19:14:26.873627 31435 net.cpp:100] Creating Layer conv4_3_norm_mbox_conf_perm
I0419 19:14:26.873631 31435 net.cpp:434] conv4_3_norm_mbox_conf_perm <- conv4_3_norm_mbox_conf
I0419 19:14:26.873637 31435 net.cpp:408] conv4_3_norm_mbox_conf_perm -> conv4_3_norm_mbox_conf_perm
I0419 19:14:26.873710 31435 net.cpp:150] Setting up conv4_3_norm_mbox_conf_perm
I0419 19:14:26.873716 31435 net.cpp:157] Top shape: 2 38 38 16 (46208)
I0419 19:14:26.873719 31435 net.cpp:165] Memory required for data: 495143488
I0419 19:14:26.873723 31435 layer_factory.hpp:77] Creating layer conv4_3_norm_mbox_conf_flat
I0419 19:14:26.873728 31435 net.cpp:100] Creating Layer conv4_3_norm_mbox_conf_flat
I0419 19:14:26.873733 31435 net.cpp:434] conv4_3_norm_mbox_conf_flat <- conv4_3_norm_mbox_conf_perm
I0419 19:14:26.873739 31435 net.cpp:408] conv4_3_norm_mbox_conf_flat -> conv4_3_norm_mbox_conf_flat
I0419 19:14:26.873760 31435 net.cpp:150] Setting up conv4_3_norm_mbox_conf_flat
I0419 19:14:26.873766 31435 net.cpp:157] Top shape: 2 23104 (46208)
I0419 19:14:26.873769 31435 net.cpp:165] Memory required for data: 495328320
I0419 19:14:26.873771 31435 layer_factory.hpp:77] Creating layer conv4_3_norm_mbox_priorbox
I0419 19:14:26.873780 31435 net.cpp:100] Creating Layer conv4_3_norm_mbox_priorbox
I0419 19:14:26.873783 31435 net.cpp:434] conv4_3_norm_mbox_priorbox <- conv4_3_norm_conv4_3_norm_0_split_2
I0419 19:14:26.873788 31435 net.cpp:434] conv4_3_norm_mbox_priorbox <- data_data_0_split_1
I0419 19:14:26.873795 31435 net.cpp:408] conv4_3_norm_mbox_priorbox -> conv4_3_norm_mbox_priorbox
I0419 19:14:26.873819 31435 net.cpp:150] Setting up conv4_3_norm_mbox_priorbox
I0419 19:14:26.873826 31435 net.cpp:157] Top shape: 1 2 23104 (46208)
I0419 19:14:26.873828 31435 net.cpp:165] Memory required for data: 495513152
I0419 19:14:26.873831 31435 layer_factory.hpp:77] Creating layer fc7_mbox_loc
I0419 19:14:26.873842 31435 net.cpp:100] Creating Layer fc7_mbox_loc
I0419 19:14:26.873847 31435 net.cpp:434] fc7_mbox_loc <- fc7_relu7_0_split_1
I0419 19:14:26.873852 31435 net.cpp:408] fc7_mbox_loc -> fc7_mbox_loc
I0419 19:14:26.874954 31435 net.cpp:150] Setting up fc7_mbox_loc
I0419 19:14:26.874963 31435 net.cpp:157] Top shape: 2 24 19 19 (17328)
I0419 19:14:26.874965 31435 net.cpp:165] Memory required for data: 495582464
I0419 19:14:26.874971 31435 layer_factory.hpp:77] Creating layer fc7_mbox_loc_perm
I0419 19:14:26.874979 31435 net.cpp:100] Creating Layer fc7_mbox_loc_perm
I0419 19:14:26.874989 31435 net.cpp:434] fc7_mbox_loc_perm <- fc7_mbox_loc
I0419 19:14:26.874995 31435 net.cpp:408] fc7_mbox_loc_perm -> fc7_mbox_loc_perm
I0419 19:14:26.875068 31435 net.cpp:150] Setting up fc7_mbox_loc_perm
I0419 19:14:26.875074 31435 net.cpp:157] Top shape: 2 19 19 24 (17328)
I0419 19:14:26.875078 31435 net.cpp:165] Memory required for data: 495651776
I0419 19:14:26.875082 31435 layer_factory.hpp:77] Creating layer fc7_mbox_loc_flat
I0419 19:14:26.875087 31435 net.cpp:100] Creating Layer fc7_mbox_loc_flat
I0419 19:14:26.875089 31435 net.cpp:434] fc7_mbox_loc_flat <- fc7_mbox_loc_perm
I0419 19:14:26.875095 31435 net.cpp:408] fc7_mbox_loc_flat -> fc7_mbox_loc_flat
I0419 19:14:26.875118 31435 net.cpp:150] Setting up fc7_mbox_loc_flat
I0419 19:14:26.875123 31435 net.cpp:157] Top shape: 2 8664 (17328)
I0419 19:14:26.875125 31435 net.cpp:165] Memory required for data: 495721088
I0419 19:14:26.875129 31435 layer_factory.hpp:77] Creating layer fc7_mbox_conf
I0419 19:14:26.875138 31435 net.cpp:100] Creating Layer fc7_mbox_conf
I0419 19:14:26.875143 31435 net.cpp:434] fc7_mbox_conf <- fc7_relu7_0_split_2
I0419 19:14:26.875149 31435 net.cpp:408] fc7_mbox_conf -> fc7_mbox_conf
I0419 19:14:26.876268 31435 net.cpp:150] Setting up fc7_mbox_conf
I0419 19:14:26.876276 31435 net.cpp:157] Top shape: 2 24 19 19 (17328)
I0419 19:14:26.876278 31435 net.cpp:165] Memory required for data: 495790400
I0419 19:14:26.876284 31435 layer_factory.hpp:77] Creating layer fc7_mbox_conf_perm
I0419 19:14:26.876292 31435 net.cpp:100] Creating Layer fc7_mbox_conf_perm
I0419 19:14:26.876296 31435 net.cpp:434] fc7_mbox_conf_perm <- fc7_mbox_conf
I0419 19:14:26.876302 31435 net.cpp:408] fc7_mbox_conf_perm -> fc7_mbox_conf_perm
I0419 19:14:26.876374 31435 net.cpp:150] Setting up fc7_mbox_conf_perm
I0419 19:14:26.876380 31435 net.cpp:157] Top shape: 2 19 19 24 (17328)
I0419 19:14:26.876384 31435 net.cpp:165] Memory required for data: 495859712
I0419 19:14:26.876386 31435 layer_factory.hpp:77] Creating layer fc7_mbox_conf_flat
I0419 19:14:26.876391 31435 net.cpp:100] Creating Layer fc7_mbox_conf_flat
I0419 19:14:26.876395 31435 net.cpp:434] fc7_mbox_conf_flat <- fc7_mbox_conf_perm
I0419 19:14:26.876400 31435 net.cpp:408] fc7_mbox_conf_flat -> fc7_mbox_conf_flat
I0419 19:14:26.876423 31435 net.cpp:150] Setting up fc7_mbox_conf_flat
I0419 19:14:26.876428 31435 net.cpp:157] Top shape: 2 8664 (17328)
I0419 19:14:26.876431 31435 net.cpp:165] Memory required for data: 495929024
I0419 19:14:26.876435 31435 layer_factory.hpp:77] Creating layer fc7_mbox_priorbox
I0419 19:14:26.876441 31435 net.cpp:100] Creating Layer fc7_mbox_priorbox
I0419 19:14:26.876444 31435 net.cpp:434] fc7_mbox_priorbox <- fc7_relu7_0_split_3
I0419 19:14:26.876449 31435 net.cpp:434] fc7_mbox_priorbox <- data_data_0_split_2
I0419 19:14:26.876456 31435 net.cpp:408] fc7_mbox_priorbox -> fc7_mbox_priorbox
I0419 19:14:26.876478 31435 net.cpp:150] Setting up fc7_mbox_priorbox
I0419 19:14:26.876483 31435 net.cpp:157] Top shape: 1 2 8664 (17328)
I0419 19:14:26.876487 31435 net.cpp:165] Memory required for data: 495998336
I0419 19:14:26.876490 31435 layer_factory.hpp:77] Creating layer conv6_2_mbox_loc
I0419 19:14:26.876499 31435 net.cpp:100] Creating Layer conv6_2_mbox_loc
I0419 19:14:26.876503 31435 net.cpp:434] conv6_2_mbox_loc <- conv6_2_conv6_2_relu_0_split_1
I0419 19:14:26.876512 31435 net.cpp:408] conv6_2_mbox_loc -> conv6_2_mbox_loc
I0419 19:14:26.877374 31435 net.cpp:150] Setting up conv6_2_mbox_loc
I0419 19:14:26.877383 31435 net.cpp:157] Top shape: 2 24 10 10 (4800)
I0419 19:14:26.877387 31435 net.cpp:165] Memory required for data: 496017536
I0419 19:14:26.877393 31435 layer_factory.hpp:77] Creating layer conv6_2_mbox_loc_perm
I0419 19:14:26.877400 31435 net.cpp:100] Creating Layer conv6_2_mbox_loc_perm
I0419 19:14:26.877404 31435 net.cpp:434] conv6_2_mbox_loc_perm <- conv6_2_mbox_loc
I0419 19:14:26.877410 31435 net.cpp:408] conv6_2_mbox_loc_perm -> conv6_2_mbox_loc_perm
I0419 19:14:26.877485 31435 net.cpp:150] Setting up conv6_2_mbox_loc_perm
I0419 19:14:26.877490 31435 net.cpp:157] Top shape: 2 10 10 24 (4800)
I0419 19:14:26.877501 31435 net.cpp:165] Memory required for data: 496036736
I0419 19:14:26.877503 31435 layer_factory.hpp:77] Creating layer conv6_2_mbox_loc_flat
I0419 19:14:26.877509 31435 net.cpp:100] Creating Layer conv6_2_mbox_loc_flat
I0419 19:14:26.877514 31435 net.cpp:434] conv6_2_mbox_loc_flat <- conv6_2_mbox_loc_perm
I0419 19:14:26.877519 31435 net.cpp:408] conv6_2_mbox_loc_flat -> conv6_2_mbox_loc_flat
I0419 19:14:26.877542 31435 net.cpp:150] Setting up conv6_2_mbox_loc_flat
I0419 19:14:26.877547 31435 net.cpp:157] Top shape: 2 2400 (4800)
I0419 19:14:26.877549 31435 net.cpp:165] Memory required for data: 496055936
I0419 19:14:26.877552 31435 layer_factory.hpp:77] Creating layer conv6_2_mbox_conf
I0419 19:14:26.877562 31435 net.cpp:100] Creating Layer conv6_2_mbox_conf
I0419 19:14:26.877565 31435 net.cpp:434] conv6_2_mbox_conf <- conv6_2_conv6_2_relu_0_split_2
I0419 19:14:26.877573 31435 net.cpp:408] conv6_2_mbox_conf -> conv6_2_mbox_conf
I0419 19:14:26.878214 31435 net.cpp:150] Setting up conv6_2_mbox_conf
I0419 19:14:26.878222 31435 net.cpp:157] Top shape: 2 24 10 10 (4800)
I0419 19:14:26.878226 31435 net.cpp:165] Memory required for data: 496075136
I0419 19:14:26.878232 31435 layer_factory.hpp:77] Creating layer conv6_2_mbox_conf_perm
I0419 19:14:26.878237 31435 net.cpp:100] Creating Layer conv6_2_mbox_conf_perm
I0419 19:14:26.878242 31435 net.cpp:434] conv6_2_mbox_conf_perm <- conv6_2_mbox_conf
I0419 19:14:26.878247 31435 net.cpp:408] conv6_2_mbox_conf_perm -> conv6_2_mbox_conf_perm
I0419 19:14:26.878317 31435 net.cpp:150] Setting up conv6_2_mbox_conf_perm
I0419 19:14:26.878324 31435 net.cpp:157] Top shape: 2 10 10 24 (4800)
I0419 19:14:26.878326 31435 net.cpp:165] Memory required for data: 496094336
I0419 19:14:26.878329 31435 layer_factory.hpp:77] Creating layer conv6_2_mbox_conf_flat
I0419 19:14:26.878335 31435 net.cpp:100] Creating Layer conv6_2_mbox_conf_flat
I0419 19:14:26.878340 31435 net.cpp:434] conv6_2_mbox_conf_flat <- conv6_2_mbox_conf_perm
I0419 19:14:26.878345 31435 net.cpp:408] conv6_2_mbox_conf_flat -> conv6_2_mbox_conf_flat
I0419 19:14:26.878367 31435 net.cpp:150] Setting up conv6_2_mbox_conf_flat
I0419 19:14:26.878372 31435 net.cpp:157] Top shape: 2 2400 (4800)
I0419 19:14:26.878376 31435 net.cpp:165] Memory required for data: 496113536
I0419 19:14:26.878378 31435 layer_factory.hpp:77] Creating layer conv6_2_mbox_priorbox
I0419 19:14:26.878386 31435 net.cpp:100] Creating Layer conv6_2_mbox_priorbox
I0419 19:14:26.878389 31435 net.cpp:434] conv6_2_mbox_priorbox <- conv6_2_conv6_2_relu_0_split_3
I0419 19:14:26.878394 31435 net.cpp:434] conv6_2_mbox_priorbox <- data_data_0_split_3
I0419 19:14:26.878401 31435 net.cpp:408] conv6_2_mbox_priorbox -> conv6_2_mbox_priorbox
I0419 19:14:26.878424 31435 net.cpp:150] Setting up conv6_2_mbox_priorbox
I0419 19:14:26.878430 31435 net.cpp:157] Top shape: 1 2 2400 (4800)
I0419 19:14:26.878432 31435 net.cpp:165] Memory required for data: 496132736
I0419 19:14:26.878435 31435 layer_factory.hpp:77] Creating layer conv7_2_mbox_loc
I0419 19:14:26.878445 31435 net.cpp:100] Creating Layer conv7_2_mbox_loc
I0419 19:14:26.878449 31435 net.cpp:434] conv7_2_mbox_loc <- conv7_2_conv7_2_relu_0_split_1
I0419 19:14:26.878455 31435 net.cpp:408] conv7_2_mbox_loc -> conv7_2_mbox_loc
I0419 19:14:26.878867 31435 net.cpp:150] Setting up conv7_2_mbox_loc
I0419 19:14:26.878875 31435 net.cpp:157] Top shape: 2 24 5 5 (1200)
I0419 19:14:26.878877 31435 net.cpp:165] Memory required for data: 496137536
I0419 19:14:26.878883 31435 layer_factory.hpp:77] Creating layer conv7_2_mbox_loc_perm
I0419 19:14:26.878890 31435 net.cpp:100] Creating Layer conv7_2_mbox_loc_perm
I0419 19:14:26.878895 31435 net.cpp:434] conv7_2_mbox_loc_perm <- conv7_2_mbox_loc
I0419 19:14:26.878901 31435 net.cpp:408] conv7_2_mbox_loc_perm -> conv7_2_mbox_loc_perm
I0419 19:14:26.878973 31435 net.cpp:150] Setting up conv7_2_mbox_loc_perm
I0419 19:14:26.878978 31435 net.cpp:157] Top shape: 2 5 5 24 (1200)
I0419 19:14:26.878981 31435 net.cpp:165] Memory required for data: 496142336
I0419 19:14:26.878984 31435 layer_factory.hpp:77] Creating layer conv7_2_mbox_loc_flat
I0419 19:14:26.878996 31435 net.cpp:100] Creating Layer conv7_2_mbox_loc_flat
I0419 19:14:26.879003 31435 net.cpp:434] conv7_2_mbox_loc_flat <- conv7_2_mbox_loc_perm
I0419 19:14:26.879009 31435 net.cpp:408] conv7_2_mbox_loc_flat -> conv7_2_mbox_loc_flat
I0419 19:14:26.879030 31435 net.cpp:150] Setting up conv7_2_mbox_loc_flat
I0419 19:14:26.879036 31435 net.cpp:157] Top shape: 2 600 (1200)
I0419 19:14:26.879039 31435 net.cpp:165] Memory required for data: 496147136
I0419 19:14:26.879042 31435 layer_factory.hpp:77] Creating layer conv7_2_mbox_conf
I0419 19:14:26.879050 31435 net.cpp:100] Creating Layer conv7_2_mbox_conf
I0419 19:14:26.879055 31435 net.cpp:434] conv7_2_mbox_conf <- conv7_2_conv7_2_relu_0_split_2
I0419 19:14:26.879060 31435 net.cpp:408] conv7_2_mbox_conf -> conv7_2_mbox_conf
I0419 19:14:26.879469 31435 net.cpp:150] Setting up conv7_2_mbox_conf
I0419 19:14:26.879477 31435 net.cpp:157] Top shape: 2 24 5 5 (1200)
I0419 19:14:26.879479 31435 net.cpp:165] Memory required for data: 496151936
I0419 19:14:26.879484 31435 layer_factory.hpp:77] Creating layer conv7_2_mbox_conf_perm
I0419 19:14:26.879492 31435 net.cpp:100] Creating Layer conv7_2_mbox_conf_perm
I0419 19:14:26.879497 31435 net.cpp:434] conv7_2_mbox_conf_perm <- conv7_2_mbox_conf
I0419 19:14:26.879503 31435 net.cpp:408] conv7_2_mbox_conf_perm -> conv7_2_mbox_conf_perm
I0419 19:14:26.879572 31435 net.cpp:150] Setting up conv7_2_mbox_conf_perm
I0419 19:14:26.879578 31435 net.cpp:157] Top shape: 2 5 5 24 (1200)
I0419 19:14:26.879581 31435 net.cpp:165] Memory required for data: 496156736
I0419 19:14:26.879585 31435 layer_factory.hpp:77] Creating layer conv7_2_mbox_conf_flat
I0419 19:14:26.879590 31435 net.cpp:100] Creating Layer conv7_2_mbox_conf_flat
I0419 19:14:26.879593 31435 net.cpp:434] conv7_2_mbox_conf_flat <- conv7_2_mbox_conf_perm
I0419 19:14:26.879598 31435 net.cpp:408] conv7_2_mbox_conf_flat -> conv7_2_mbox_conf_flat
I0419 19:14:26.879619 31435 net.cpp:150] Setting up conv7_2_mbox_conf_flat
I0419 19:14:26.879624 31435 net.cpp:157] Top shape: 2 600 (1200)
I0419 19:14:26.879627 31435 net.cpp:165] Memory required for data: 496161536
I0419 19:14:26.879631 31435 layer_factory.hpp:77] Creating layer conv7_2_mbox_priorbox
I0419 19:14:26.879637 31435 net.cpp:100] Creating Layer conv7_2_mbox_priorbox
I0419 19:14:26.879640 31435 net.cpp:434] conv7_2_mbox_priorbox <- conv7_2_conv7_2_relu_0_split_3
I0419 19:14:26.879647 31435 net.cpp:434] conv7_2_mbox_priorbox <- data_data_0_split_4
I0419 19:14:26.879652 31435 net.cpp:408] conv7_2_mbox_priorbox -> conv7_2_mbox_priorbox
I0419 19:14:26.879675 31435 net.cpp:150] Setting up conv7_2_mbox_priorbox
I0419 19:14:26.879681 31435 net.cpp:157] Top shape: 1 2 600 (1200)
I0419 19:14:26.879684 31435 net.cpp:165] Memory required for data: 496166336
I0419 19:14:26.879688 31435 layer_factory.hpp:77] Creating layer conv8_2_mbox_loc
I0419 19:14:26.879695 31435 net.cpp:100] Creating Layer conv8_2_mbox_loc
I0419 19:14:26.879699 31435 net.cpp:434] conv8_2_mbox_loc <- conv8_2_conv8_2_relu_0_split_1
I0419 19:14:26.879707 31435 net.cpp:408] conv8_2_mbox_loc -> conv8_2_mbox_loc
I0419 19:14:26.880038 31435 net.cpp:150] Setting up conv8_2_mbox_loc
I0419 19:14:26.880044 31435 net.cpp:157] Top shape: 2 16 3 3 (288)
I0419 19:14:26.880048 31435 net.cpp:165] Memory required for data: 496167488
I0419 19:14:26.880061 31435 layer_factory.hpp:77] Creating layer conv8_2_mbox_loc_perm
I0419 19:14:26.880067 31435 net.cpp:100] Creating Layer conv8_2_mbox_loc_perm
I0419 19:14:26.880072 31435 net.cpp:434] conv8_2_mbox_loc_perm <- conv8_2_mbox_loc
I0419 19:14:26.880079 31435 net.cpp:408] conv8_2_mbox_loc_perm -> conv8_2_mbox_loc_perm
I0419 19:14:26.880153 31435 net.cpp:150] Setting up conv8_2_mbox_loc_perm
I0419 19:14:26.880159 31435 net.cpp:157] Top shape: 2 3 3 16 (288)
I0419 19:14:26.880162 31435 net.cpp:165] Memory required for data: 496168640
I0419 19:14:26.880164 31435 layer_factory.hpp:77] Creating layer conv8_2_mbox_loc_flat
I0419 19:14:26.880170 31435 net.cpp:100] Creating Layer conv8_2_mbox_loc_flat
I0419 19:14:26.880182 31435 net.cpp:434] conv8_2_mbox_loc_flat <- conv8_2_mbox_loc_perm
I0419 19:14:26.880187 31435 net.cpp:408] conv8_2_mbox_loc_flat -> conv8_2_mbox_loc_flat
I0419 19:14:26.880210 31435 net.cpp:150] Setting up conv8_2_mbox_loc_flat
I0419 19:14:26.880216 31435 net.cpp:157] Top shape: 2 144 (288)
I0419 19:14:26.880218 31435 net.cpp:165] Memory required for data: 496169792
I0419 19:14:26.880221 31435 layer_factory.hpp:77] Creating layer conv8_2_mbox_conf
I0419 19:14:26.880229 31435 net.cpp:100] Creating Layer conv8_2_mbox_conf
I0419 19:14:26.880234 31435 net.cpp:434] conv8_2_mbox_conf <- conv8_2_conv8_2_relu_0_split_2
I0419 19:14:26.880241 31435 net.cpp:408] conv8_2_mbox_conf -> conv8_2_mbox_conf
I0419 19:14:26.880568 31435 net.cpp:150] Setting up conv8_2_mbox_conf
I0419 19:14:26.880574 31435 net.cpp:157] Top shape: 2 16 3 3 (288)
I0419 19:14:26.880578 31435 net.cpp:165] Memory required for data: 496170944
I0419 19:14:26.880584 31435 layer_factory.hpp:77] Creating layer conv8_2_mbox_conf_perm
I0419 19:14:26.880591 31435 net.cpp:100] Creating Layer conv8_2_mbox_conf_perm
I0419 19:14:26.880595 31435 net.cpp:434] conv8_2_mbox_conf_perm <- conv8_2_mbox_conf
I0419 19:14:26.880602 31435 net.cpp:408] conv8_2_mbox_conf_perm -> conv8_2_mbox_conf_perm
I0419 19:14:26.880676 31435 net.cpp:150] Setting up conv8_2_mbox_conf_perm
I0419 19:14:26.880681 31435 net.cpp:157] Top shape: 2 3 3 16 (288)
I0419 19:14:26.880683 31435 net.cpp:165] Memory required for data: 496172096
I0419 19:14:26.880687 31435 layer_factory.hpp:77] Creating layer conv8_2_mbox_conf_flat
I0419 19:14:26.880692 31435 net.cpp:100] Creating Layer conv8_2_mbox_conf_flat
I0419 19:14:26.880697 31435 net.cpp:434] conv8_2_mbox_conf_flat <- conv8_2_mbox_conf_perm
I0419 19:14:26.880702 31435 net.cpp:408] conv8_2_mbox_conf_flat -> conv8_2_mbox_conf_flat
I0419 19:14:26.880723 31435 net.cpp:150] Setting up conv8_2_mbox_conf_flat
I0419 19:14:26.880728 31435 net.cpp:157] Top shape: 2 144 (288)
I0419 19:14:26.880731 31435 net.cpp:165] Memory required for data: 496173248
I0419 19:14:26.880734 31435 layer_factory.hpp:77] Creating layer conv8_2_mbox_priorbox
I0419 19:14:26.880741 31435 net.cpp:100] Creating Layer conv8_2_mbox_priorbox
I0419 19:14:26.880745 31435 net.cpp:434] conv8_2_mbox_priorbox <- conv8_2_conv8_2_relu_0_split_3
I0419 19:14:26.880749 31435 net.cpp:434] conv8_2_mbox_priorbox <- data_data_0_split_5
I0419 19:14:26.880755 31435 net.cpp:408] conv8_2_mbox_priorbox -> conv8_2_mbox_priorbox
I0419 19:14:26.880780 31435 net.cpp:150] Setting up conv8_2_mbox_priorbox
I0419 19:14:26.880785 31435 net.cpp:157] Top shape: 1 2 144 (288)
I0419 19:14:26.880789 31435 net.cpp:165] Memory required for data: 496174400
I0419 19:14:26.880790 31435 layer_factory.hpp:77] Creating layer conv9_2_mbox_loc
I0419 19:14:26.880800 31435 net.cpp:100] Creating Layer conv9_2_mbox_loc
I0419 19:14:26.880805 31435 net.cpp:434] conv9_2_mbox_loc <- conv9_2_conv9_2_relu_0_split_0
I0419 19:14:26.880810 31435 net.cpp:408] conv9_2_mbox_loc -> conv9_2_mbox_loc
I0419 19:14:26.881144 31435 net.cpp:150] Setting up conv9_2_mbox_loc
I0419 19:14:26.881151 31435 net.cpp:157] Top shape: 2 16 1 1 (32)
I0419 19:14:26.881160 31435 net.cpp:165] Memory required for data: 496174528
I0419 19:14:26.881165 31435 layer_factory.hpp:77] Creating layer conv9_2_mbox_loc_perm
I0419 19:14:26.881172 31435 net.cpp:100] Creating Layer conv9_2_mbox_loc_perm
I0419 19:14:26.881177 31435 net.cpp:434] conv9_2_mbox_loc_perm <- conv9_2_mbox_loc
I0419 19:14:26.881182 31435 net.cpp:408] conv9_2_mbox_loc_perm -> conv9_2_mbox_loc_perm
I0419 19:14:26.881253 31435 net.cpp:150] Setting up conv9_2_mbox_loc_perm
I0419 19:14:26.881258 31435 net.cpp:157] Top shape: 2 1 1 16 (32)
I0419 19:14:26.881261 31435 net.cpp:165] Memory required for data: 496174656
I0419 19:14:26.881264 31435 layer_factory.hpp:77] Creating layer conv9_2_mbox_loc_flat
I0419 19:14:26.881269 31435 net.cpp:100] Creating Layer conv9_2_mbox_loc_flat
I0419 19:14:26.881274 31435 net.cpp:434] conv9_2_mbox_loc_flat <- conv9_2_mbox_loc_perm
I0419 19:14:26.881288 31435 net.cpp:408] conv9_2_mbox_loc_flat -> conv9_2_mbox_loc_flat
I0419 19:14:26.881310 31435 net.cpp:150] Setting up conv9_2_mbox_loc_flat
I0419 19:14:26.881315 31435 net.cpp:157] Top shape: 2 16 (32)
I0419 19:14:26.881319 31435 net.cpp:165] Memory required for data: 496174784
I0419 19:14:26.881321 31435 layer_factory.hpp:77] Creating layer conv9_2_mbox_conf
I0419 19:14:26.881330 31435 net.cpp:100] Creating Layer conv9_2_mbox_conf
I0419 19:14:26.881335 31435 net.cpp:434] conv9_2_mbox_conf <- conv9_2_conv9_2_relu_0_split_1
I0419 19:14:26.881340 31435 net.cpp:408] conv9_2_mbox_conf -> conv9_2_mbox_conf
I0419 19:14:26.881669 31435 net.cpp:150] Setting up conv9_2_mbox_conf
I0419 19:14:26.881675 31435 net.cpp:157] Top shape: 2 16 1 1 (32)
I0419 19:14:26.881677 31435 net.cpp:165] Memory required for data: 496174912
I0419 19:14:26.881683 31435 layer_factory.hpp:77] Creating layer conv9_2_mbox_conf_perm
I0419 19:14:26.881690 31435 net.cpp:100] Creating Layer conv9_2_mbox_conf_perm
I0419 19:14:26.881695 31435 net.cpp:434] conv9_2_mbox_conf_perm <- conv9_2_mbox_conf
I0419 19:14:26.881701 31435 net.cpp:408] conv9_2_mbox_conf_perm -> conv9_2_mbox_conf_perm
I0419 19:14:26.881770 31435 net.cpp:150] Setting up conv9_2_mbox_conf_perm
I0419 19:14:26.881778 31435 net.cpp:157] Top shape: 2 1 1 16 (32)
I0419 19:14:26.881779 31435 net.cpp:165] Memory required for data: 496175040
I0419 19:14:26.881783 31435 layer_factory.hpp:77] Creating layer conv9_2_mbox_conf_flat
I0419 19:14:26.881788 31435 net.cpp:100] Creating Layer conv9_2_mbox_conf_flat
I0419 19:14:26.881793 31435 net.cpp:434] conv9_2_mbox_conf_flat <- conv9_2_mbox_conf_perm
I0419 19:14:26.881798 31435 net.cpp:408] conv9_2_mbox_conf_flat -> conv9_2_mbox_conf_flat
I0419 19:14:26.881819 31435 net.cpp:150] Setting up conv9_2_mbox_conf_flat
I0419 19:14:26.881824 31435 net.cpp:157] Top shape: 2 16 (32)
I0419 19:14:26.881829 31435 net.cpp:165] Memory required for data: 496175168
I0419 19:14:26.881830 31435 layer_factory.hpp:77] Creating layer conv9_2_mbox_priorbox
I0419 19:14:26.881836 31435 net.cpp:100] Creating Layer conv9_2_mbox_priorbox
I0419 19:14:26.881840 31435 net.cpp:434] conv9_2_mbox_priorbox <- conv9_2_conv9_2_relu_0_split_2
I0419 19:14:26.881845 31435 net.cpp:434] conv9_2_mbox_priorbox <- data_data_0_split_6
I0419 19:14:26.881851 31435 net.cpp:408] conv9_2_mbox_priorbox -> conv9_2_mbox_priorbox
I0419 19:14:26.881873 31435 net.cpp:150] Setting up conv9_2_mbox_priorbox
I0419 19:14:26.881880 31435 net.cpp:157] Top shape: 1 2 16 (32)
I0419 19:14:26.881882 31435 net.cpp:165] Memory required for data: 496175296
I0419 19:14:26.881886 31435 layer_factory.hpp:77] Creating layer mbox_loc
I0419 19:14:26.881892 31435 net.cpp:100] Creating Layer mbox_loc
I0419 19:14:26.881896 31435 net.cpp:434] mbox_loc <- conv4_3_norm_mbox_loc_flat
I0419 19:14:26.881902 31435 net.cpp:434] mbox_loc <- fc7_mbox_loc_flat
I0419 19:14:26.881906 31435 net.cpp:434] mbox_loc <- conv6_2_mbox_loc_flat
I0419 19:14:26.881911 31435 net.cpp:434] mbox_loc <- conv7_2_mbox_loc_flat
I0419 19:14:26.881916 31435 net.cpp:434] mbox_loc <- conv8_2_mbox_loc_flat
I0419 19:14:26.881919 31435 net.cpp:434] mbox_loc <- conv9_2_mbox_loc_flat
I0419 19:14:26.881925 31435 net.cpp:408] mbox_loc -> mbox_loc
I0419 19:14:26.881948 31435 net.cpp:150] Setting up mbox_loc
I0419 19:14:26.881954 31435 net.cpp:157] Top shape: 2 34928 (69856)
I0419 19:14:26.881958 31435 net.cpp:165] Memory required for data: 496454720
I0419 19:14:26.881960 31435 layer_factory.hpp:77] Creating layer mbox_conf
I0419 19:14:26.881965 31435 net.cpp:100] Creating Layer mbox_conf
I0419 19:14:26.881970 31435 net.cpp:434] mbox_conf <- conv4_3_norm_mbox_conf_flat
I0419 19:14:26.881975 31435 net.cpp:434] mbox_conf <- fc7_mbox_conf_flat
I0419 19:14:26.881979 31435 net.cpp:434] mbox_conf <- conv6_2_mbox_conf_flat
I0419 19:14:26.881983 31435 net.cpp:434] mbox_conf <- conv7_2_mbox_conf_flat
I0419 19:14:26.881988 31435 net.cpp:434] mbox_conf <- conv8_2_mbox_conf_flat
I0419 19:14:26.881992 31435 net.cpp:434] mbox_conf <- conv9_2_mbox_conf_flat
I0419 19:14:26.881997 31435 net.cpp:408] mbox_conf -> mbox_conf
I0419 19:14:26.882027 31435 net.cpp:150] Setting up mbox_conf
I0419 19:14:26.882033 31435 net.cpp:157] Top shape: 2 34928 (69856)
I0419 19:14:26.882036 31435 net.cpp:165] Memory required for data: 496734144
I0419 19:14:26.882040 31435 layer_factory.hpp:77] Creating layer mbox_priorbox
I0419 19:14:26.882045 31435 net.cpp:100] Creating Layer mbox_priorbox
I0419 19:14:26.882050 31435 net.cpp:434] mbox_priorbox <- conv4_3_norm_mbox_priorbox
I0419 19:14:26.882055 31435 net.cpp:434] mbox_priorbox <- fc7_mbox_priorbox
I0419 19:14:26.882058 31435 net.cpp:434] mbox_priorbox <- conv6_2_mbox_priorbox
I0419 19:14:26.882061 31435 net.cpp:434] mbox_priorbox <- conv7_2_mbox_priorbox
I0419 19:14:26.882066 31435 net.cpp:434] mbox_priorbox <- conv8_2_mbox_priorbox
I0419 19:14:26.882069 31435 net.cpp:434] mbox_priorbox <- conv9_2_mbox_priorbox
I0419 19:14:26.882074 31435 net.cpp:408] mbox_priorbox -> mbox_priorbox
I0419 19:14:26.882097 31435 net.cpp:150] Setting up mbox_priorbox
I0419 19:14:26.882102 31435 net.cpp:157] Top shape: 1 2 34928 (69856)
I0419 19:14:26.882105 31435 net.cpp:165] Memory required for data: 497013568
I0419 19:14:26.882108 31435 layer_factory.hpp:77] Creating layer mbox_conf_reshape
I0419 19:14:26.882117 31435 net.cpp:100] Creating Layer mbox_conf_reshape
I0419 19:14:26.882120 31435 net.cpp:434] mbox_conf_reshape <- mbox_conf
I0419 19:14:26.882127 31435 net.cpp:408] mbox_conf_reshape -> mbox_conf_reshape
I0419 19:14:26.882156 31435 net.cpp:150] Setting up mbox_conf_reshape
I0419 19:14:26.882163 31435 net.cpp:157] Top shape: 2 8732 4 (69856)
I0419 19:14:26.882165 31435 net.cpp:165] Memory required for data: 497292992
I0419 19:14:26.882169 31435 layer_factory.hpp:77] Creating layer mbox_conf_softmax
I0419 19:14:26.882175 31435 net.cpp:100] Creating Layer mbox_conf_softmax
I0419 19:14:26.882179 31435 net.cpp:434] mbox_conf_softmax <- mbox_conf_reshape
I0419 19:14:26.882184 31435 net.cpp:408] mbox_conf_softmax -> mbox_conf_softmax
I0419 19:14:26.882232 31435 net.cpp:150] Setting up mbox_conf_softmax
I0419 19:14:26.882238 31435 net.cpp:157] Top shape: 2 8732 4 (69856)
I0419 19:14:26.882241 31435 net.cpp:165] Memory required for data: 497572416
I0419 19:14:26.882244 31435 layer_factory.hpp:77] Creating layer mbox_conf_flatten
I0419 19:14:26.882251 31435 net.cpp:100] Creating Layer mbox_conf_flatten
I0419 19:14:26.882253 31435 net.cpp:434] mbox_conf_flatten <- mbox_conf_softmax
I0419 19:14:26.882258 31435 net.cpp:408] mbox_conf_flatten -> mbox_conf_flatten
I0419 19:14:26.882279 31435 net.cpp:150] Setting up mbox_conf_flatten
I0419 19:14:26.882285 31435 net.cpp:157] Top shape: 2 34928 (69856)
I0419 19:14:26.882288 31435 net.cpp:165] Memory required for data: 497851840
I0419 19:14:26.882292 31435 layer_factory.hpp:77] Creating layer detection_out
I0419 19:14:26.882302 31435 net.cpp:100] Creating Layer detection_out
I0419 19:14:26.882306 31435 net.cpp:434] detection_out <- mbox_loc
I0419 19:14:26.882311 31435 net.cpp:434] detection_out <- mbox_conf_flatten
I0419 19:14:26.882314 31435 net.cpp:434] detection_out <- mbox_priorbox
I0419 19:14:26.882321 31435 net.cpp:408] detection_out -> detection_out
I0419 19:14:26.896836 31435 net.cpp:150] Setting up detection_out
I0419 19:14:26.896860 31435 net.cpp:157] Top shape: 1 1 1 7 (7)
I0419 19:14:26.896864 31435 net.cpp:165] Memory required for data: 497851868
I0419 19:14:26.896869 31435 layer_factory.hpp:77] Creating layer detection_eval
I0419 19:14:26.896881 31435 net.cpp:100] Creating Layer detection_eval
I0419 19:14:26.896886 31435 net.cpp:434] detection_eval <- detection_out
I0419 19:14:26.896893 31435 net.cpp:434] detection_eval <- label
I0419 19:14:26.896899 31435 net.cpp:408] detection_eval -> detection_eval
I0419 19:14:26.897166 31435 net.cpp:150] Setting up detection_eval
I0419 19:14:26.897173 31435 net.cpp:157] Top shape: 1 1 4 5 (20)
I0419 19:14:26.897176 31435 net.cpp:165] Memory required for data: 497851948
I0419 19:14:26.897179 31435 net.cpp:228] detection_eval does not need backward computation.
I0419 19:14:26.897186 31435 net.cpp:228] detection_out does not need backward computation.
I0419 19:14:26.897200 31435 net.cpp:228] mbox_conf_flatten does not need backward computation.
I0419 19:14:26.897205 31435 net.cpp:228] mbox_conf_softmax does not need backward computation.
…
