…
      sampler {
        min_scale: 0.3
        max_scale: 1
        min_aspect_ratio: 0.5
        max_aspect_ratio: 2
      }
      sample_constraint {
        min_jaccard_overlap: 0.9
      }
      max_sample: 1
      max_trials: 50
    }
    batch_sampler {
      sampler {
        min_scale: 0.3
        max_scale: 1
        min_aspect_ratio: 0.5
        max_aspect_ratio: 2
      }
      sample_constraint {
        max_jaccard_overlap: 1
      }
      max_sample: 1
      max_trials: 50
    }
    label_map_file: "data/ascend/labelmap.prototxt"
  }
}
layer {
  name: "conv1_1"
  type: "Convolution"
  bottom: "data"
  top: "conv1_1"
  param {
    lr_mult: 1
    decay_mult: 1
  }
  param {
    lr_mult: 2
    decay_mult: 0
  }
  convolution_param {
    num_output: 64
    pad: 1
    kernel_size: 3
    weight_filler {
      type: "xavier"
    }
    bias_filler {
      type: "constant"
      value: 0
    }
  }
}
layer {
  name: "relu1_1"
  type: "ReLU"
  bottom: "conv1_1"
  top: "conv1_1"
}
layer {
  name: "conv1_2"
  type: "Convolution"
  bottom: "conv1_1"
  top: "conv1_2"
  param {
    lr_mult: 1
    decay_mult: 1
  }
  param {
    lr_mult: 2
    decay_mult: 0
  }
  convolution_param {
    num_output: 64
    pad: 1
    kernel_size: 3
    weight_filler {
      type: "xavier"
    }
    bias_filler {
      type: "constant"
      value: 0
    }
  }
}
layer {
  name: "relu1_2"
  type: "ReLU"
  bottom: "conv1_2"
  top: "conv1_2"
}
layer {
  name: "pool1"
  type: "Pooling"
  bottom: "conv1_2"
  top: "pool1"
  pooling_param {
    pool: MAX
    kernel_size: 2
    stride: 2
  }
}
layer {
  name: "conv2_1"
  type: "Convolution"
  bottom: "pool1"
  top: "conv2_1"
  param {
    lr_mult: 1
    decay_mult: 1
  }
  param {
    lr_mult: 2
    decay_mult: 0
  }
  convolution_param {
    num_output: 128
    pad: 1
    kernel_size: 3
    weight_filler {
      type: "xavier"
    }
    bias_filler {
      type: "constant"
      value: 0
    }
  }
}
layer {
  name: "relu2_1"
  type: "ReLU"
  bottom: "conv2_1"
  top: "conv2_1"
}
layer {
  name: "conv2_2"
  type: "Convolution"
  bottom: "conv2_1"
  top: "conv2_2"
  param {
    lr_mult: 1
    decay_mult: 1
  }
  param {
    lr_mult: 2
    decay_mult: 0
  }
  convolution_param {
    num_output: 128
    pad: 1
    kernel_size: 3
    weight_filler {
      type: "xavier"
    }
    bias_filler {
      type: "constant"
      value: 0
    }
  }
}
layer {
  name: "relu2_2"
  type: "ReLU"
  bottom: "conv2_2"
  top: "conv2_2"
}
layer {
  name: "pool2"
  type: "Pooling"
  bottom: "conv2_2"
  top: "pool2"
  pooling_param {
    pool: MAX
    kernel_size: 2
    stride: 2
  }
}
layer {
  name: "conv3_1"
  type: "Convolution"
  bottom: "pool2"
  top: "conv3_1"
  param {
    lr_mult: 1
    decay_mult: 1
  }
  param {
    lr_mult: 2
    decay_mult: 0
  }
  convolution_param {
    num_output: 256
    pad: 1
    kernel_size: 3
    weight_filler {
      type: "xavier"
    }
    bias_filler {
      type: "constant"
      value: 0
    }
  }
}
layer {
  name: "relu3_1"
  type: "ReLU"
  bottom: "conv3_1"
  top: "conv3_1"
}
layer {
  name: "conv3_2"
  type: "Convolution"
  bottom: "conv3_1"
  top: "conv3_2"
  param {
    lr_mult: 1
    decay_mult: 1
  }
  param {
    lr_mult: 2
    decay_mult: 0
  }
  convolution_param {
    num_output: 256
    pad: 1
    kernel_size: 3
    weight_filler {
      type: "xavier"
    }
    bias_filler {
      type: "constant"
      value: 0
    }
  }
}
layer {
  name: "relu3_2"
  type: "ReLU"
  bottom: "conv3_2"
  top: "conv3_2"
}
layer {
  name: "conv3_3"
  type: "Convolution"
  bottom: "conv3_2"
  top: "conv3_3"
  param {
    lr_mult: 1
    decay_mult: 1
  }
  param {
    lr_mult: 2
    decay_mult: 0
  }
  convolution_param {
    num_output: 256
    pad: 1
    kernel_size: 3
    weight_filler {
      type: "xavier"
    }
    bias_filler {
      type: "constant"
      value: 0
    }
  }
}
layer {
  name: "relu3_3"
  type: "ReLU"
  bottom: "conv3_3"
  top: "conv3_3"
}
layer {
  name: "pool3"
  type: "Pooling"
  bottom: "conv3_3"
  top: "pool3"
  pooling_param {
    pool: MAX
    kernel_size: 2
    stride: 2
  }
}
layer {
  name: "conv4_1"
  type: "Convolution"
  bottom: "pool3"
  top: "conv4_1"
  param {
    lr_mult: 1
    decay_mult: 1
  }
  param {
    lr_mult: 2
    decay_mult: 0
  }
  convolution_param {
    num_output: 512
    pad: 1
    kernel_size: 3
    weight_filler {
      type: "xavier"
    }
    bias_filler {
      type: "constant"
      value: 0
    }
  }
}
layer {
  name: "relu4_1"
  type: "ReLU"
  bottom: "conv4_1"
  top: "conv4_1"
}
layer {
  name: "conv4_2"
  type: "Convolution"
  bottom: "conv4_1"
  top: "conv4_2"
  param {
    lr_mult: 1
    decay_mult: 1
  }
  param {
    lr_mult: 2
    decay_mult: 0
  }
  convolution_param {
    num_output: 512
    pad: 1
    kernel_size: 3
    weight_filler {
      type: "xavier"
    }
    bias_filler {
      type: "constant"
      value: 0
    }
  }
}
layer {
  name: "relu4_2"
  type: "ReLU"
  bottom: "conv4_2"
  top: "conv4_2"
}
layer {
  name: "conv4_3"
  type: "Convolution"
  bottom: "conv4_2"
  top: "conv4_3"
  param {
    lr_mult: 1
    decay_mult: 1
  }
  param {
    lr_mult: 2
    decay_mult: 0
  }
  convolution_param {
    num_output: 512
    pad: 1
    kernel_size: 3
    weight_filler {
      type: "xavier"
    }
    bias_filler {
      type: "constant"
      value: 0
    }
  }
}
layer {
  name: "relu4_3"
  type: "ReLU"
  bottom: "conv4_3"
  top: "conv4_3"
}
layer {
  name: "pool4"
  type: "Pooling"
  bottom: "conv4_3"
  top: "pool4"
  pooling_param {
    pool: MAX
    kernel_size: 2
    stride: 2
  }
}
layer {
  name: "conv5_1"
  type: "Convolution"
  bottom: "pool4"
  top: "conv5_1"
  param {
    lr_mult: 1
    decay_mult: 1
  }
  param {
    lr_mult: 2
    decay_mult: 0
  }
  convolution_param {
    num_output: 512
    pad: 1
    kernel_size: 3
    weight_filler {
      type: "xavier"
    }
    bias_filler {
      type: "constant"
      value: 0
    }
    dilation: 1
  }
}
layer {
  name: "relu5_1"
  type: "ReLU"
  bottom: "conv5_1"
  top: "conv5_1"
}
layer {
  name: "conv5_2"
  type: "Convolution"
  bottom: "conv5_1"
  top: "conv5_2"
  param {
    lr_mult: 1
    decay_mult: 1
  }
  param {
    lr_mult: 2
    decay_mult: 0
  }
  convolution_param {
    num_output: 512
    pad: 1
    kernel_size: 3
    weight_filler {
      type: "xavier"
    }
    bias_filler {
      type: "constant"
      value: 0
    }
    dilation: 1
  }
}
layer {
  name: "relu5_2"
  type: "ReLU"
  bottom: "conv5_2"
  top: "conv5_2"
}
layer {
  name: "conv5_3"
  type: "Convolution"
  bottom: "conv5_2"
  top: "conv5_3"
  param {
    lr_mult: 1
    decay_mult: 1
  }
  param {
    lr_mult: 2
    decay_mult: 0
  }
  convolution_param {
    num_output: 512
    pad: 1
    kernel_size: 3
    weight_filler {
      type: "xavier"
    }
    bias_filler {
      type: "constant"
      value: 0
    }
    dilation: 1
  }
}
layer {
  name: "relu5_3"
  type: "ReLU"
  bottom: "conv5_3"
  top: "conv5_3"
}
layer {
  name: "pool5"
  type: "Pooling"
  bottom: "conv5_3"
  top: "pool5"
  pooling_param {
    pool: MAX
    kernel_size: 3
    stride: 1
    pad: 1
  }
}
layer {
  name: "fc6"
  type: "Convolution"
  bottom: "pool5"
  top: "fc6"
  param {
    lr_mult: 1
    decay_mult: 1
  }
  param {
    lr_mult: 2
    decay_mult: 0
  }
  convolution_param {
    num_output: 1024
    pad: 6
    kernel_size: 3
    weight_filler {
      type: "xavier"
    }
    bias_filler {
      type: "constant"
      value: 0
    }
    dilation: 6
  }
}
layer {
  name: "relu6"
  type: "ReLU"
  bottom: "fc6"
  top: "fc6"
}
layer {
  name: "fc7"
  type: "Convolution"
  bottom: "fc6"
  top: "fc7"
  param {
    lr_mult: 1
    decay_mult: 1
  }
  param {
    lr_mult: 2
    decay_mult: 0
  }
  convolution_param {
    num_output: 1024
    kernel_size: 1
    weight_filler {
      type: "xavier"
    }
    bias_filler {
      type: "constant"
      value: 0
    }
  }
}
layer {
  name: "relu7"
  type: "ReLU"
  bottom: "fc7"
  top: "fc7"
}
layer {
  name: "conv6_1"
  type: "Convolution"
  bottom: "fc7"
  top: "conv6_1"
  param {
    lr_mult: 1
    decay_mult: 1
  }
  param {
    lr_mult: 2
    decay_mult: 0
  }
  convolution_param {
    num_output: 256
    pad: 0
    kernel_size: 1
    stride: 1
    weight_filler {
      type: "xavier"
    }
    bias_filler {
      type: "constant"
      value: 0
    }
  }
}
layer {
  name: "conv6_1_relu"
  type: "ReLU"
  bottom: "conv6_1"
  top: "conv6_1"
}
layer {
  name: "conv6_2"
  type: "Convolution"
  bottom: "conv6_1"
  top: "conv6_2"
  param {
    lr_mult: 1
    decay_mult: 1
  }
  param {
    lr_mult: 2
    decay_mult: 0
  }
  convolution_param {
    num_output: 512
    pad: 1
    kernel_size: 3
    stride: 2
    weight_filler {
      type: "xavier"
    }
    bias_filler {
      type: "constant"
      value: 0
    }
  }
}
layer {
  name: "conv6_2_relu"
  type: "ReLU"
  bottom: "conv6_2"
  top: "conv6_2"
}
layer {
  name: "conv7_1"
  type: "Convolution"
  bottom: "conv6_2"
  top: "conv7_1"
  param {
    lr_mult: 1
    decay_mult: 1
  }
  param {
    lr_mult: 2
    decay_mult: 0
  }
  convolution_param {
    num_output: 128
    pad: 0
    kernel_size: 1
    stride: 1
    weight_filler {
      type: "xavier"
    }
    bias_filler {
      type: "constant"
      value: 0
    }
  }
}
layer {
  name: "conv7_1_relu"
  type: "ReLU"
  bottom: "conv7_1"
  top: "conv7_1"
}
layer {
  name: "conv7_2"
  type: "Convolution"
  bottom: "conv7_1"
  top: "conv7_2"
  param {
    lr_mult: 1
    decay_mult: 1
  }
  param {
    lr_mult: 2
    decay_mult: 0
  }
  convolution_param {
    num_output: 256
    pad: 1
    kernel_size: 3
    stride: 2
    weight_filler {
      type: "xavier"
    }
    bias_filler {
      type: "constant"
      value: 0
    }
  }
}
layer {
  name: "conv7_2_relu"
  type: "ReLU"
  bottom: "conv7_2"
  top: "conv7_2"
}
layer {
  name: "conv8_1"
  type: "Convolution"
  bottom: "conv7_2"
  top: "conv8_1"
  param {
    lr_mult: 1
    decay_mult: 1
  }
  param {
    lr_mult: 2
    decay_mult: 0
  }
  convolution_param {
    num_output: 128
    pad: 0
    kernel_size: 1
    stride: 1
    weight_filler {
      type: "xavier"
    }
    bias_filler {
      type: "constant"
      value: 0
    }
  }
}
layer {
  name: "conv8_1_relu"
  type: "ReLU"
  bottom: "conv8_1"
  top: "conv8_1"
}
layer {
  name: "conv8_2"
  type: "Convolution"
  bottom: "conv8_1"
  top: "conv8_2"
  param {
    lr_mult: 1
    decay_mult: 1
  }
  param {
    lr_mult: 2
    decay_mult: 0
  }
  convolution_param {
    num_output: 256
    pad: 0
    kernel_size: 3
    stride: 1
    weight_filler {
      type: "xavier"
    }
    bias_filler {
      type: "constant"
      value: 0
    }
  }
}
layer {
  name: "conv8_2_relu"
  type: "ReLU"
  bottom: "conv8_2"
  top: "conv8_2"
}
layer {
  name: "conv9_1"
  type: "Convolution"
  bottom: "conv8_2"
  top: "conv9_1"
  param {
    lr_mult: 1
    decay_mult: 1
  }
  param {
    lr_mult: 2
    decay_mult: 0
  }
  convolution_param {
    num_output: 128
    pad: 0
    kernel_size: 1
    stride: 1
    weight_filler {
      type: "xavier"
    }
    bias_filler {
      type: "constant"
      value: 0
    }
  }
}
layer {
  name: "conv9_1_relu"
  type: "ReLU"
  bottom: "conv9_1"
  top: "conv9_1"
}
layer {
  name: "conv9_2"
  type: "Convolution"
  bottom: "conv9_1"
  top: "conv9_2"
  param {
    lr_mult: 1
    decay_mult: 1
  }
  param {
    lr_mult: 2
    decay_mult: 0
  }
  convolution_param {
    num_output: 256
    pad: 0
    kernel_size: 3
    stride: 1
    weight_filler {
      type: "xavier"
    }
    bias_filler {
      type: "constant"
      value: 0
    }
  }
}
layer {
  name: "conv9_2_relu"
  type: "ReLU"
  bottom: "conv9_2"
  top: "conv9_2"
}
layer {
  name: "conv4_3_norm"
  type: "Normalize"
  bottom: "conv4_3"
  top: "conv4_3_norm"
  norm_param {
    across_spatial: false
    scale_filler {
      type: "constant"
      value: 20
    }
    channel_shared: false
  }
}
layer {
  name: "conv4_3_norm_mbox_loc"
  type: "Convolution"
  bottom: "conv4_3_norm"
  top: "conv4_3_norm_mbox_loc"
  param {
    lr_mult: 1
    decay_mult: 1
  }
  param {
    lr_mult: 2
    decay_mult: 0
  }
  convolution_param {
    num_output: 16
    pad: 1
    kernel_size: 3
    stride: 1
    weight_filler {
      type: "xavier"
    }
    bias_filler {
      type: "constant"
      value: 0
    }
  }
}
layer {
  name: "conv4_3_norm_mbox_loc_perm"
  type: "Permute"
  bottom: "conv4_3_norm_mbox_loc"
  top: "conv4_3_norm_mbox_loc_perm"
  permute_param {
    order: 0
    order: 2
    order: 3
    order: 1
  }
}
layer {
  name: "conv4_3_norm_mbox_loc_flat"
  type: "Flatten"
  bottom: "conv4_3_norm_mbox_loc_perm"
  top: "conv4_3_norm_mbox_loc_flat"
  flatten_param {
    axis: 1
  }
}
layer {
  name: "conv4_3_norm_mbox_conf"
  type: "Convolution"
  bottom: "conv4_3_norm"
  top: "conv4_3_norm_mbox_conf"
  param {
    lr_mult: 1
    decay_mult: 1
  }
  param {
    lr_mult: 2
    decay_mult: 0
  }
  convolution_param {
    num_output: 16
    pad: 1
    kernel_size: 3
    stride: 1
    weight_filler {
      type: "xavier"
    }
    bias_filler {
      type: "constant"
      value: 0
    }
  }
}
layer {
  name: "conv4_3_norm_mbox_conf_perm"
  type: "Permute"
  bottom: "conv4_3_norm_mbox_conf"
  top: "conv4_3_norm_mbox_conf_perm"
  permute_param {
    order: 0
    order: 2
    order: 3
    order: 1
  }
}
layer {
  name: "conv4_3_norm_mbox_conf_flat"
  type: "Flatten"
  bottom: "conv4_3_norm_mbox_conf_perm"
  top: "conv4_3_norm_mbox_conf_flat"
  flatten_param {
    axis: 1
  }
}
layer {
  name: "conv4_3_norm_mbox_priorbox"
  type: "PriorBox"
  bottom: "conv4_3_norm"
  bottom: "data"
  top: "conv4_3_norm_mbox_priorbox"
  prior_box_param {
    min_size: 30
    max_size: 60
    aspect_ratio: 2
    flip: true
    clip: false
    variance: 0.1
    variance: 0.1
    variance: 0.2
    variance: 0.2
    step: 8
    offset: 0.5
  }
}
layer {
  name: "fc7_mbox_loc"
  type: "Convolution"
  bottom: "fc7"
  top: "fc7_mbox_loc"
  param {
    lr_mult: 1
    decay_mult: 1
  }
  param {
    lr_mult: 2
    decay_mult: 0
  }
  convolution_param {
    num_output: 24
    pad: 1
    kernel_size: 3
    stride: 1
    weight_filler {
      type: "xavier"
    }
    bias_filler {
      type: "constant"
      value: 0
    }
  }
}
layer {
  name: "fc7_mbox_loc_perm"
  type: "Permute"
  bottom: "fc7_mbox_loc"
  top: "fc7_mbox_loc_perm"
  permute_param {
    order: 0
    order: 2
    order: 3
    order: 1
  }
}
layer {
  name: "fc7_mbox_loc_flat"
  type: "Flatten"
  bottom: "fc7_mbox_loc_perm"
  top: "fc7_mbox_loc_flat"
  flatten_param {
    axis: 1
  }
}
layer {
  name: "fc7_mbox_conf"
  type: "Convolution"
  bottom: "fc7"
  top: "fc7_mbox_conf"
  param {
    lr_mult: 1
    decay_mult: 1
  }
  param {
    lr_mult: 2
    decay_mult: 0
  }
  convolution_param {
    num_output: 24
    pad: 1
    kernel_size: 3
    stride: 1
    weight_filler {
      type: "xavier"
    }
    bias_filler {
      type: "constant"
      value: 0
    }
  }
}
layer {
  name: "fc7_mbox_conf_perm"
  type: "Permute"
  bottom: "fc7_mbox_conf"
  top: "fc7_mbox_conf_perm"
  permute_param {
    order: 0
    order: 2
    order: 3
    order: 1
  }
}
layer {
  name: "fc7_mbox_conf_flat"
  type: "Flatten"
  bottom: "fc7_mbox_conf_perm"
  top: "fc7_mbox_conf_flat"
  flatten_param {
    axis: 1
  }
}
layer {
  name: "fc7_mbox_priorbox"
  type: "PriorBox"
  bottom: "fc7"
  bottom: "data"
  top: "fc7_mbox_priorbox"
  prior_box_param {
    min_size: 60
    max_size: 111
    aspect_ratio: 2
    aspect_ratio: 3
    flip: true
    clip: false
    variance: 0.1
    variance: 0.1
    variance: 0.2
    variance: 0.2
    step: 16
    offset: 0.5
  }
}
layer {
  name: "conv6_2_mbox_loc"
  type: "Convolution"
  bottom: "conv6_2"
  top: "conv6_2_mbox_loc"
  param {
    lr_mult: 1
    decay_mult: 1
  }
  param {
    lr_mult: 2
    decay_mult: 0
  }
  convolution_param {
    num_output: 24
    pad: 1
    kernel_size: 3
    stride: 1
    weight_filler {
      type: "xavier"
    }
    bias_filler {
      type: "constant"
      value: 0
    }
  }
}
layer {
  name: "conv6_2_mbox_loc_perm"
  type: "Permute"
  bottom: "conv6_2_mbox_loc"
  top: "conv6_2_mbox_loc_perm"
  permute_param {
    order: 0
    order: 2
    order: 3
    order: 1
  }
}
layer {
  name: "conv6_2_mbox_loc_flat"
  type: "Flatten"
  bottom: "conv6_2_mbox_loc_perm"
  top: "conv6_2_mbox_loc_flat"
  flatten_param {
    axis: 1
  }
}
layer {
  name: "conv6_2_mbox_conf"
  type: "Convolution"
  bottom: "conv6_2"
  top: "conv6_2_mbox_conf"
  param {
    lr_mult: 1
    decay_mult: 1
  }
  param {
    lr_mult: 2
    decay_mult: 0
  }
  convolution_param {
    num_output: 24
    pad: 1
    kernel_size: 3
    stride: 1
    weight_filler {
      type: "xavier"
    }
    bias_filler {
      type: "constant"
      value: 0
    }
  }
}
layer {
  name: "conv6_2_mbox_conf_perm"
  type: "Permute"
  bottom: "conv6_2_mbox_conf"
  top: "conv6_2_mbox_conf_perm"
  permute_param {
    order: 0
    order: 2
    order: 3
    order: 1
  }
}
layer {
  name: "conv6_2_mbox_conf_flat"
  type: "Flatten"
  bottom: "conv6_2_mbox_conf_perm"
  top: "conv6_2_mbox_conf_flat"
  flatten_param {
    axis: 1
  }
}
layer {
  name: "conv6_2_mbox_priorbox"
  type: "PriorBox"
  bottom: "conv6_2"
  bottom: "data"
  top: "conv6_2_mbox_priorbox"
  prior_box_param {
    min_size: 111
    max_size: 162
    aspect_ratio: 2
    aspect_ratio: 3
    flip: true
    clip: false
    variance: 0.1
    variance: 0.1
    variance: 0.2
    variance: 0.2
    step: 32
    offset: 0.5
  }
}
layer {
  name: "conv7_2_mbox_loc"
  type: "Convolution"
  bottom: "conv7_2"
  top: "conv7_2_mbox_loc"
  param {
    lr_mult: 1
    decay_mult: 1
  }
  param {
    lr_mult: 2
    decay_mult: 0
  }
  convolution_param {
    num_output: 24
    pad: 1
    kernel_size: 3
    stride: 1
    weight_filler {
      type: "xavier"
    }
    bias_filler {
      type: "constant"
      value: 0
    }
  }
}
layer {
  name: "conv7_2_mbox_loc_perm"
  type: "Permute"
  bottom: "conv7_2_mbox_loc"
  top: "conv7_2_mbox_loc_perm"
  permute_param {
    order: 0
    order: 2
    order: 3
    order: 1
  }
}
layer {
  name: "conv7_2_mbox_loc_flat"
  type: "Flatten"
  bottom: "conv7_2_mbox_loc_perm"
  top: "conv7_2_mbox_loc_flat"
  flatten_param {
    axis: 1
  }
}
layer {
  name: "conv7_2_mbox_conf"
  type: "Convolution"
  bottom: "conv7_2"
  top: "conv7_2_mbox_conf"
  param {
    lr_mult: 1
    decay_mult: 1
  }
  param {
    lr_mult: 2
    decay_mult: 0
  }
  convolution_param {
    num_output: 24
    pad: 1
    kernel_size: 3
    stride: 1
    weight_filler {
      type: "xavier"
    }
    bias_filler {
      type: "constant"
      value: 0
    }
  }
}
layer {
  name: "conv7_2_mbox_conf_perm"
  type: "Permute"
  bottom: "conv7_2_mbox_conf"
  top: "conv7_2_mbox_conf_perm"
  permute_param {
    order: 0
    order: 2
    order: 3
    order: 1
  }
}
layer {
  name: "conv7_2_mbox_conf_flat"
  type: "Flatten"
  bottom: "conv7_2_mbox_conf_perm"
  top: "conv7_2_mbox_conf_flat"
  flatten_param {
    axis: 1
  }
}
layer {
  name: "conv7_2_mbox_priorbox"
  type: "PriorBox"
  bottom: "conv7_2"
  bottom: "data"
  top: "conv7_2_mbox_priorbox"
  prior_box_param {
    min_size: 162
    max_size: 213
    aspect_ratio: 2
    aspect_ratio: 3
    flip: true
    clip: false
    variance: 0.1
    variance: 0.1
    variance: 0.2
    variance: 0.2
    step: 64
    offset: 0.5
  }
}
layer {
  name: "conv8_2_mbox_loc"
  type: "Convolution"
  bottom: "conv8_2"
  top: "conv8_2_mbox_loc"
  param {
    lr_mult: 1
    decay_mult: 1
  }
  param {
    lr_mult: 2
    decay_mult: 0
  }
  convolution_param {
    num_output: 16
    pad: 1
    kernel_size: 3
    stride: 1
    weight_filler {
      type: "xavier"
    }
    bias_filler {
      type: "constant"
      value: 0
    }
  }
}
layer {
  name: "conv8_2_mbox_loc_perm"
  type: "Permute"
  bottom: "conv8_2_mbox_loc"
  top: "conv8_2_mbox_loc_perm"
  permute_param {
    order: 0
    order: 2
    order: 3
    order: 1
  }
}
layer {
  name: "conv8_2_mbox_loc_flat"
  type: "Flatten"
  bottom: "conv8_2_mbox_loc_perm"
  top: "conv8_2_mbox_loc_flat"
  flatten_param {
    axis: 1
  }
}
layer {
  name: "conv8_2_mbox_conf"
  type: "Convolution"
  bottom: "conv8_2"
  top: "conv8_2_mbox_conf"
  param {
    lr_mult: 1
    decay_mult: 1
  }
  param {
    lr_mult: 2
    decay_mult: 0
  }
  convolution_param {
    num_output: 16
    pad: 1
    kernel_size: 3
    stride: 1
    weight_filler {
      type: "xavier"
    }
    bias_filler {
      type: "constant"
      value: 0
    }
  }
}
layer {
  name: "conv8_2_mbox_conf_perm"
  type: "Permute"
  bottom: "conv8_2_mbox_conf"
  top: "conv8_2_mbox_conf_perm"
  permute_param {
    order: 0
    order: 2
    order: 3
    order: 1
  }
}
layer {
  name: "conv8_2_mbox_conf_flat"
  type: "Flatten"
  bottom: "conv8_2_mbox_conf_perm"
  top: "conv8_2_mbox_conf_flat"
  flatten_param {
    axis: 1
  }
}
layer {
  name: "conv8_2_mbox_priorbox"
  type: "PriorBox"
  bottom: "conv8_2"
  bottom: "data"
  top: "conv8_2_mbox_priorbox"
  prior_box_param {
    min_size: 213
    max_size: 264
    aspect_ratio: 2
    flip: true
    clip: false
    variance: 0.1
    variance: 0.1
    variance: 0.2
    variance: 0.2
    step: 100
    offset: 0.5
  }
}
layer {
  name: "conv9_2_mbox_loc"
  type: "Convolution"
  bottom: "conv9_2"
  top: "conv9_2_mbox_loc"
  param {
    lr_mult: 1
    decay_mult: 1
  }
  param {
    lr_mult: 2
    decay_mult: 0
  }
  convolution_param {
    num_output: 16
    pad: 1
    kernel_size: 3
    stride: 1
    weight_filler {
      type: "xavier"
    }
    bias_filler {
      type: "constant"
      value: 0
    }
  }
}
layer {
  name: "conv9_2_mbox_loc_perm"
  type: "Permute"
  bottom: "conv9_2_mbox_loc"
  top: "conv9_2_mbox_loc_perm"
  permute_param {
    order: 0
    order: 2
    order: 3
    order: 1
  }
}
layer {
  name: "conv9_2_mbox_loc_flat"
  type: "Flatten"
  bottom: "conv9_2_mbox_loc_perm"
  top: "conv9_2_mbox_loc_flat"
  flatten_param {
    axis: 1
  }
}
layer {
  name: "conv9_2_mbox_conf"
  type: "Convolution"
  bottom: "conv9_2"
  top: "conv9_2_mbox_conf"
  param {
    lr_mult: 1
    decay_mult: 1
  }
  param {
    lr_mult: 2
    decay_mult: 0
  }
  convolution_param {
    num_output: 16
    pad: 1
    kernel_size: 3
    stride: 1
    weight_filler {
      type: "xavier"
    }
    bias_filler {
      type: "constant"
      value: 0
    }
  }
}
layer {
  name: "conv9_2_mbox_conf_perm"
  type: "Permute"
  bottom: "conv9_2_mbox_conf"
  top: "conv9_2_mbox_conf_perm"
  permute_param {
    order: 0
    order: 2
    order: 3
    order: 1
  }
}
layer {
  name: "conv9_2_mbox_conf_flat"
  type: "Flatten"
  bottom: "conv9_2_mbox_conf_perm"
  top: "conv9_2_mbox_conf_flat"
  flatten_param {
    axis: 1
  }
}
layer {
  name: "conv9_2_mbox_priorbox"
  type: "PriorBox"
  bottom: "conv9_2"
  bottom: "data"
  top: "conv9_2_mbox_priorbox"
  prior_box_param {
    min_size: 264
    max_size: 315
    aspect_ratio: 2
    flip: true
    clip: false
    variance: 0.1
    variance: 0.1
    variance: 0.2
    variance: 0.2
    step: 300
    offset: 0.5
  }
}
layer {
  name: "mbox_loc"
  type: "Concat"
  bottom: "conv4_3_norm_mbox_loc_flat"
  bottom: "fc7_mbox_loc_flat"
  bottom: "conv6_2_mbox_loc_flat"
  bottom: "conv7_2_mbox_loc_flat"
  bottom: "conv8_2_mbox_loc_flat"
  bottom: "conv9_2_mbox_loc_flat"
  top: "mbox_loc"
  concat_param {
    axis: 1
  }
}
layer {
  name: "mbox_conf"
  type: "Concat"
  bottom: "conv4_3_norm_mbox_conf_flat"
  bottom: "fc7_mbox_conf_flat"
  bottom: "conv6_2_mbox_conf_flat"
  bottom: "conv7_2_mbox_conf_flat"
  bottom: "conv8_2_mbox_conf_flat"
  bottom: "conv9_2_mbox_conf_flat"
  top: "mbox_conf"
  concat_param {
    axis: 1
  }
}
layer {
  name: "mbox_priorbox"
  type: "Concat"
  bottom: "conv4_3_norm_mbox_priorbox"
  bottom: "fc7_mbox_priorbox"
  bottom: "conv6_2_mbox_priorbox"
  bottom: "conv7_2_mbox_priorbox"
  bottom: "conv8_2_mbox_priorbox"
  bottom: "conv9_2_mbox_priorbox"
  top: "mbox_priorbox"
  concat_param {
    axis: 2
  }
}
layer {
  name: "mbox_loss"
  type: "MultiBoxLoss"
  bottom: "mbox_loc"
  bottom: "mbox_conf"
  bottom: "mbox_priorbox"
  bottom: "label"
  top: "mbox_loss"
  include {
    phase: TRAIN
  }
  propagate_down: true
  propagate_down: true
  propagate_down: false
  propagate_down: false
  loss_param {
    normalization: VALID
  }
  multibox_loss_param {
    loc_loss_type: SMOOTH_L1
    conf_loss_type: SOFTMAX
    loc_weight: 1
    num_classes: 4
    share_location: true
    match_type: PER_PREDICTION
    overlap_threshold: 0.5
    use_prior_for_matching: true
    background_label_id: 0
    use_difficult_gt: true
    neg_pos_ratio: 3
    neg_overlap: 0.5
    code_type: CENTER_SIZE
    ignore_cross_boundary_bbox: false
    mining_type: MAX_NEGATIVE
  }
}
I0423 13:08:10.250504 10915 layer_factory.hpp:77] Creating layer data
I0423 13:08:10.250906 10915 net.cpp:100] Creating Layer data
I0423 13:08:10.250916 10915 net.cpp:408] data -> data
I0423 13:08:10.250946 10915 net.cpp:408] data -> label
I0423 13:08:10.253743 10932 db_lmdb.cpp:35] Opened lmdb /localdata/markustp/data/ascend/lmdb/ascend_trainval_lmdb
I0423 13:08:10.284171 10915 annotated_data_layer.cpp:62] output data size: 12,3,420,420
I0423 13:08:10.364774 10915 net.cpp:150] Setting up data
I0423 13:08:10.364799 10915 net.cpp:157] Top shape: 12 3 420 420 (6350400)
I0423 13:08:10.364802 10915 net.cpp:157] Top shape: 1 1 5 8 (40)
I0423 13:08:10.364820 10915 net.cpp:165] Memory required for data: 25401760
I0423 13:08:10.364831 10915 layer_factory.hpp:77] Creating layer data_data_0_split
I0423 13:08:10.364845 10915 net.cpp:100] Creating Layer data_data_0_split
I0423 13:08:10.364850 10915 net.cpp:434] data_data_0_split <- data
I0423 13:08:10.364864 10915 net.cpp:408] data_data_0_split -> data_data_0_split_0
I0423 13:08:10.364874 10915 net.cpp:408] data_data_0_split -> data_data_0_split_1
I0423 13:08:10.364879 10915 net.cpp:408] data_data_0_split -> data_data_0_split_2
I0423 13:08:10.364884 10915 net.cpp:408] data_data_0_split -> data_data_0_split_3
I0423 13:08:10.364888 10915 net.cpp:408] data_data_0_split -> data_data_0_split_4
I0423 13:08:10.364892 10915 net.cpp:408] data_data_0_split -> data_data_0_split_5
I0423 13:08:10.364897 10915 net.cpp:408] data_data_0_split -> data_data_0_split_6
I0423 13:08:10.365020 10915 net.cpp:150] Setting up data_data_0_split
I0423 13:08:10.365025 10915 net.cpp:157] Top shape: 12 3 420 420 (6350400)
I0423 13:08:10.365028 10915 net.cpp:157] Top shape: 12 3 420 420 (6350400)
I0423 13:08:10.365031 10915 net.cpp:157] Top shape: 12 3 420 420 (6350400)
I0423 13:08:10.365034 10915 net.cpp:157] Top shape: 12 3 420 420 (6350400)
I0423 13:08:10.365036 10915 net.cpp:157] Top shape: 12 3 420 420 (6350400)
I0423 13:08:10.365039 10915 net.cpp:157] Top shape: 12 3 420 420 (6350400)
I0423 13:08:10.365041 10915 net.cpp:157] Top shape: 12 3 420 420 (6350400)
I0423 13:08:10.365044 10915 net.cpp:165] Memory required for data: 203212960
I0423 13:08:10.365046 10915 layer_factory.hpp:77] Creating layer conv1_1
I0423 13:08:10.365059 10915 net.cpp:100] Creating Layer conv1_1
I0423 13:08:10.365062 10915 net.cpp:434] conv1_1 <- data_data_0_split_0
I0423 13:08:10.365067 10915 net.cpp:408] conv1_1 -> conv1_1
I0423 13:08:10.366595 10915 net.cpp:150] Setting up conv1_1
I0423 13:08:10.366605 10915 net.cpp:157] Top shape: 12 64 420 420 (135475200)
I0423 13:08:10.366607 10915 net.cpp:165] Memory required for data: 745113760
I0423 13:08:10.366619 10915 layer_factory.hpp:77] Creating layer relu1_1
I0423 13:08:10.366624 10915 net.cpp:100] Creating Layer relu1_1
I0423 13:08:10.366626 10915 net.cpp:434] relu1_1 <- conv1_1
I0423 13:08:10.366631 10915 net.cpp:395] relu1_1 -> conv1_1 (in-place)
I0423 13:08:10.366636 10915 net.cpp:150] Setting up relu1_1
I0423 13:08:10.366638 10915 net.cpp:157] Top shape: 12 64 420 420 (135475200)
I0423 13:08:10.366641 10915 net.cpp:165] Memory required for data: 1287014560
I0423 13:08:10.366642 10915 layer_factory.hpp:77] Creating layer conv1_2
I0423 13:08:10.366649 10915 net.cpp:100] Creating Layer conv1_2
I0423 13:08:10.366652 10915 net.cpp:434] conv1_2 <- conv1_1
I0423 13:08:10.366655 10915 net.cpp:408] conv1_2 -> conv1_2
I0423 13:08:10.367617 10915 net.cpp:150] Setting up conv1_2
I0423 13:08:10.367626 10915 net.cpp:157] Top shape: 12 64 420 420 (135475200)
I0423 13:08:10.367629 10915 net.cpp:165] Memory required for data: 1828915360
I0423 13:08:10.367635 10915 layer_factory.hpp:77] Creating layer relu1_2
I0423 13:08:10.367640 10915 net.cpp:100] Creating Layer relu1_2
I0423 13:08:10.367641 10915 net.cpp:434] relu1_2 <- conv1_2
I0423 13:08:10.367645 10915 net.cpp:395] relu1_2 -> conv1_2 (in-place)
I0423 13:08:10.367650 10915 net.cpp:150] Setting up relu1_2
I0423 13:08:10.367652 10915 net.cpp:157] Top shape: 12 64 420 420 (135475200)
I0423 13:08:10.367655 10915 net.cpp:165] Memory required for data: 2370816160
I0423 13:08:10.367656 10915 layer_factory.hpp:77] Creating layer pool1
I0423 13:08:10.367660 10915 net.cpp:100] Creating Layer pool1
I0423 13:08:10.367662 10915 net.cpp:434] pool1 <- conv1_2
I0423 13:08:10.367666 10915 net.cpp:408] pool1 -> pool1
I0423 13:08:10.367697 10915 net.cpp:150] Setting up pool1
I0423 13:08:10.367702 10915 net.cpp:157] Top shape: 12 64 210 210 (33868800)
I0423 13:08:10.367704 10915 net.cpp:165] Memory required for data: 2506291360
I0423 13:08:10.367707 10915 layer_factory.hpp:77] Creating layer conv2_1
I0423 13:08:10.367712 10915 net.cpp:100] Creating Layer conv2_1
I0423 13:08:10.367714 10915 net.cpp:434] conv2_1 <- pool1
I0423 13:08:10.367727 10915 net.cpp:408] conv2_1 -> conv2_1
I0423 13:08:10.368191 10915 net.cpp:150] Setting up conv2_1
I0423 13:08:10.368197 10915 net.cpp:157] Top shape: 12 128 210 210 (67737600)
I0423 13:08:10.368199 10915 net.cpp:165] Memory required for data: 2777241760
I0423 13:08:10.368204 10915 layer_factory.hpp:77] Creating layer relu2_1
I0423 13:08:10.368209 10915 net.cpp:100] Creating Layer relu2_1
I0423 13:08:10.368211 10915 net.cpp:434] relu2_1 <- conv2_1
I0423 13:08:10.368213 10915 net.cpp:395] relu2_1 -> conv2_1 (in-place)
I0423 13:08:10.368217 10915 net.cpp:150] Setting up relu2_1
I0423 13:08:10.368221 10915 net.cpp:157] Top shape: 12 128 210 210 (67737600)
I0423 13:08:10.368221 10915 net.cpp:165] Memory required for data: 3048192160
I0423 13:08:10.368224 10915 layer_factory.hpp:77] Creating layer conv2_2
I0423 13:08:10.368228 10915 net.cpp:100] Creating Layer conv2_2
I0423 13:08:10.368232 10915 net.cpp:434] conv2_2 <- conv2_1
I0423 13:08:10.368234 10915 net.cpp:408] conv2_2 -> conv2_2
I0423 13:08:10.369617 10915 net.cpp:150] Setting up conv2_2
I0423 13:08:10.369626 10915 net.cpp:157] Top shape: 12 128 210 210 (67737600)
I0423 13:08:10.369628 10915 net.cpp:165] Memory required for data: 3319142560
I0423 13:08:10.369633 10915 layer_factory.hpp:77] Creating layer relu2_2
I0423 13:08:10.369637 10915 net.cpp:100] Creating Layer relu2_2
I0423 13:08:10.369639 10915 net.cpp:434] relu2_2 <- conv2_2
I0423 13:08:10.369643 10915 net.cpp:395] relu2_2 -> conv2_2 (in-place)
I0423 13:08:10.369647 10915 net.cpp:150] Setting up relu2_2
I0423 13:08:10.369650 10915 net.cpp:157] Top shape: 12 128 210 210 (67737600)
I0423 13:08:10.369652 10915 net.cpp:165] Memory required for data: 3590092960
I0423 13:08:10.369653 10915 layer_factory.hpp:77] Creating layer pool2
I0423 13:08:10.369657 10915 net.cpp:100] Creating Layer pool2
I0423 13:08:10.369658 10915 net.cpp:434] pool2 <- conv2_2
I0423 13:08:10.369662 10915 net.cpp:408] pool2 -> pool2
I0423 13:08:10.369686 10915 net.cpp:150] Setting up pool2
I0423 13:08:10.369691 10915 net.cpp:157] Top shape: 12 128 105 105 (16934400)
I0423 13:08:10.369693 10915 net.cpp:165] Memory required for data: 3657830560
I0423 13:08:10.369695 10915 layer_factory.hpp:77] Creating layer conv3_1
I0423 13:08:10.369701 10915 net.cpp:100] Creating Layer conv3_1
I0423 13:08:10.369702 10915 net.cpp:434] conv3_1 <- pool2
I0423 13:08:10.369706 10915 net.cpp:408] conv3_1 -> conv3_1
I0423 13:08:10.371650 10915 net.cpp:150] Setting up conv3_1
I0423 13:08:10.371660 10915 net.cpp:157] Top shape: 12 256 105 105 (33868800)
I0423 13:08:10.371662 10915 net.cpp:165] Memory required for data: 3793305760
I0423 13:08:10.371668 10915 layer_factory.hpp:77] Creating layer relu3_1
I0423 13:08:10.371672 10915 net.cpp:100] Creating Layer relu3_1
I0423 13:08:10.371675 10915 net.cpp:434] relu3_1 <- conv3_1
I0423 13:08:10.371678 10915 net.cpp:395] relu3_1 -> conv3_1 (in-place)
I0423 13:08:10.371682 10915 net.cpp:150] Setting up relu3_1
I0423 13:08:10.371686 10915 net.cpp:157] Top shape: 12 256 105 105 (33868800)
I0423 13:08:10.371688 10915 net.cpp:165] Memory required for data: 3928780960
I0423 13:08:10.371690 10915 layer_factory.hpp:77] Creating layer conv3_2
I0423 13:08:10.371695 10915 net.cpp:100] Creating Layer conv3_2
I0423 13:08:10.371697 10915 net.cpp:434] conv3_2 <- conv3_1
I0423 13:08:10.371701 10915 net.cpp:408] conv3_2 -> conv3_2
I0423 13:08:10.374943 10915 net.cpp:150] Setting up conv3_2
I0423 13:08:10.374953 10915 net.cpp:157] Top shape: 12 256 105 105 (33868800)
I0423 13:08:10.374955 10915 net.cpp:165] Memory required for data: 4064256160
I0423 13:08:10.374959 10915 layer_factory.hpp:77] Creating layer relu3_2
I0423 13:08:10.374964 10915 net.cpp:100] Creating Layer relu3_2
I0423 13:08:10.374966 10915 net.cpp:434] relu3_2 <- conv3_2
I0423 13:08:10.374969 10915 net.cpp:395] relu3_2 -> conv3_2 (in-place)
I0423 13:08:10.374974 10915 net.cpp:150] Setting up relu3_2
I0423 13:08:10.374976 10915 net.cpp:157] Top shape: 12 256 105 105 (33868800)
I0423 13:08:10.374977 10915 net.cpp:165] Memory required for data: 4199731360
I0423 13:08:10.374989 10915 layer_factory.hpp:77] Creating layer conv3_3
I0423 13:08:10.374996 10915 net.cpp:100] Creating Layer conv3_3
I0423 13:08:10.374999 10915 net.cpp:434] conv3_3 <- conv3_2
I0423 13:08:10.375001 10915 net.cpp:408] conv3_3 -> conv3_3
I0423 13:08:10.378283 10915 net.cpp:150] Setting up conv3_3
I0423 13:08:10.378295 10915 net.cpp:157] Top shape: 12 256 105 105 (33868800)
I0423 13:08:10.378298 10915 net.cpp:165] Memory required for data: 4335206560
I0423 13:08:10.378301 10915 layer_factory.hpp:77] Creating layer relu3_3
I0423 13:08:10.378306 10915 net.cpp:100] Creating Layer relu3_3
I0423 13:08:10.378309 10915 net.cpp:434] relu3_3 <- conv3_3
I0423 13:08:10.378312 10915 net.cpp:395] relu3_3 -> conv3_3 (in-place)
I0423 13:08:10.378316 10915 net.cpp:150] Setting up relu3_3
I0423 13:08:10.378319 10915 net.cpp:157] Top shape: 12 256 105 105 (33868800)
I0423 13:08:10.378320 10915 net.cpp:165] Memory required for data: 4470681760
I0423 13:08:10.378322 10915 layer_factory.hpp:77] Creating layer pool3
I0423 13:08:10.378326 10915 net.cpp:100] Creating Layer pool3
I0423 13:08:10.378329 10915 net.cpp:434] pool3 <- conv3_3
I0423 13:08:10.378331 10915 net.cpp:408] pool3 -> pool3
I0423 13:08:10.378357 10915 net.cpp:150] Setting up pool3
I0423 13:08:10.378361 10915 net.cpp:157] Top shape: 12 256 53 53 (8629248)
I0423 13:08:10.378362 10915 net.cpp:165] Memory required for data: 4505198752
I0423 13:08:10.378366 10915 layer_factory.hpp:77] Creating layer conv4_1
I0423 13:08:10.378371 10915 net.cpp:100] Creating Layer conv4_1
I0423 13:08:10.378374 10915 net.cpp:434] conv4_1 <- pool3
I0423 13:08:10.378377 10915 net.cpp:408] conv4_1 -> conv4_1
I0423 13:08:10.419478 10915 net.cpp:150] Setting up conv4_1
I0423 13:08:10.419502 10915 net.cpp:157] Top shape: 12 512 53 53 (17258496)
I0423 13:08:10.419504 10915 net.cpp:165] Memory required for data: 4574232736
I0423 13:08:10.419512 10915 layer_factory.hpp:77] Creating layer relu4_1
I0423 13:08:10.419522 10915 net.cpp:100] Creating Layer relu4_1
I0423 13:08:10.419524 10915 net.cpp:434] relu4_1 <- conv4_1
I0423 13:08:10.419529 10915 net.cpp:395] relu4_1 -> conv4_1 (in-place)
I0423 13:08:10.419538 10915 net.cpp:150] Setting up relu4_1
I0423 13:08:10.419540 10915 net.cpp:157] Top shape: 12 512 53 53 (17258496)
I0423 13:08:10.419543 10915 net.cpp:165] Memory required for data: 4643266720
I0423 13:08:10.419543 10915 layer_factory.hpp:77] Creating layer conv4_2
I0423 13:08:10.419553 10915 net.cpp:100] Creating Layer conv4_2
I0423 13:08:10.419554 10915 net.cpp:434] conv4_2 <- conv4_1
I0423 13:08:10.419559 10915 net.cpp:408] conv4_2 -> conv4_2
I0423 13:08:10.431958 10915 net.cpp:150] Setting up conv4_2
I0423 13:08:10.431977 10915 net.cpp:157] Top shape: 12 512 53 53 (17258496)
I0423 13:08:10.431979 10915 net.cpp:165] Memory required for data: 4712300704
I0423 13:08:10.431991 10915 layer_factory.hpp:77] Creating layer relu4_2
I0423 13:08:10.431999 10915 net.cpp:100] Creating Layer relu4_2
I0423 13:08:10.432003 10915 net.cpp:434] relu4_2 <- conv4_2
I0423 13:08:10.432008 10915 net.cpp:395] relu4_2 -> conv4_2 (in-place)
I0423 13:08:10.432016 10915 net.cpp:150] Setting up relu4_2
I0423 13:08:10.432018 10915 net.cpp:157] Top shape: 12 512 53 53 (17258496)
I0423 13:08:10.432020 10915 net.cpp:165] Memory required for data: 4781334688
I0423 13:08:10.432023 10915 layer_factory.hpp:77] Creating layer conv4_3
I0423 13:08:10.432030 10915 net.cpp:100] Creating Layer conv4_3
I0423 13:08:10.432032 10915 net.cpp:434] conv4_3 <- conv4_2
I0423 13:08:10.432036 10915 net.cpp:408] conv4_3 -> conv4_3
I0423 13:08:10.444560 10915 net.cpp:150] Setting up conv4_3
I0423 13:08:10.444582 10915 net.cpp:157] Top shape: 12 512 53 53 (17258496)
I0423 13:08:10.444584 10915 net.cpp:165] Memory required for data: 4850368672
I0423 13:08:10.444591 10915 layer_factory.hpp:77] Creating layer relu4_3
I0423 13:08:10.444599 10915 net.cpp:100] Creating Layer relu4_3
I0423 13:08:10.444603 10915 net.cpp:434] relu4_3 <- conv4_3
I0423 13:08:10.444607 10915 net.cpp:395] relu4_3 -> conv4_3 (in-place)
I0423 13:08:10.444633 10915 net.cpp:150] Setting up relu4_3
I0423 13:08:10.444636 10915 net.cpp:157] Top shape: 12 512 53 53 (17258496)
I0423 13:08:10.444638 10915 net.cpp:165] Memory required for data: 4919402656
I0423 13:08:10.444640 10915 layer_factory.hpp:77] Creating layer conv4_3_relu4_3_0_split
I0423 13:08:10.444644 10915 net.cpp:100] Creating Layer conv4_3_relu4_3_0_split
I0423 13:08:10.444646 10915 net.cpp:434] conv4_3_relu4_3_0_split <- conv4_3
I0423 13:08:10.444650 10915 net.cpp:408] conv4_3_relu4_3_0_split -> conv4_3_relu4_3_0_split_0
I0423 13:08:10.444654 10915 net.cpp:408] conv4_3_relu4_3_0_split -> conv4_3_relu4_3_0_split_1
I0423 13:08:10.444679 10915 net.cpp:150] Setting up conv4_3_relu4_3_0_split
I0423 13:08:10.444685 10915 net.cpp:157] Top shape: 12 512 53 53 (17258496)
I0423 13:08:10.444687 10915 net.cpp:157] Top shape: 12 512 53 53 (17258496)
I0423 13:08:10.444689 10915 net.cpp:165] Memory required for data: 5057470624
I0423 13:08:10.444691 10915 layer_factory.hpp:77] Creating layer pool4
I0423 13:08:10.444696 10915 net.cpp:100] Creating Layer pool4
I0423 13:08:10.444699 10915 net.cpp:434] pool4 <- conv4_3_relu4_3_0_split_0
I0423 13:08:10.444701 10915 net.cpp:408] pool4 -> pool4
I0423 13:08:10.444723 10915 net.cpp:150] Setting up pool4
I0423 13:08:10.444728 10915 net.cpp:157] Top shape: 12 512 27 27 (4478976)
I0423 13:08:10.444730 10915 net.cpp:165] Memory required for data: 5075386528
I0423 13:08:10.444732 10915 layer_factory.hpp:77] Creating layer conv5_1
I0423 13:08:10.444739 10915 net.cpp:100] Creating Layer conv5_1
I0423 13:08:10.444742 10915 net.cpp:434] conv5_1 <- pool4
I0423 13:08:10.444746 10915 net.cpp:408] conv5_1 -> conv5_1
I0423 13:08:10.457031 10915 net.cpp:150] Setting up conv5_1
I0423 13:08:10.457052 10915 net.cpp:157] Top shape: 12 512 27 27 (4478976)
I0423 13:08:10.457054 10915 net.cpp:165] Memory required for data: 5093302432
I0423 13:08:10.457062 10915 layer_factory.hpp:77] Creating layer relu5_1
I0423 13:08:10.457069 10915 net.cpp:100] Creating Layer relu5_1
I0423 13:08:10.457072 10915 net.cpp:434] relu5_1 <- conv5_1
I0423 13:08:10.457078 10915 net.cpp:395] relu5_1 -> conv5_1 (in-place)
I0423 13:08:10.457087 10915 net.cpp:150] Setting up relu5_1
I0423 13:08:10.457088 10915 net.cpp:157] Top shape: 12 512 27 27 (4478976)
I0423 13:08:10.457090 10915 net.cpp:165] Memory required for data: 5111218336
I0423 13:08:10.457093 10915 layer_factory.hpp:77] Creating layer conv5_2
I0423 13:08:10.457100 10915 net.cpp:100] Creating Layer conv5_2
I0423 13:08:10.457103 10915 net.cpp:434] conv5_2 <- conv5_1
I0423 13:08:10.457106 10915 net.cpp:408] conv5_2 -> conv5_2
I0423 13:08:10.469357 10915 net.cpp:150] Setting up conv5_2
I0423 13:08:10.469377 10915 net.cpp:157] Top shape: 12 512 27 27 (4478976)
I0423 13:08:10.469379 10915 net.cpp:165] Memory required for data: 5129134240
I0423 13:08:10.469386 10915 layer_factory.hpp:77] Creating layer relu5_2
I0423 13:08:10.469394 10915 net.cpp:100] Creating Layer relu5_2
I0423 13:08:10.469398 10915 net.cpp:434] relu5_2 <- conv5_2
I0423 13:08:10.469403 10915 net.cpp:395] relu5_2 -> conv5_2 (in-place)
I0423 13:08:10.469410 10915 net.cpp:150] Setting up relu5_2
I0423 13:08:10.469413 10915 net.cpp:157] Top shape: 12 512 27 27 (4478976)
I0423 13:08:10.469415 10915 net.cpp:165] Memory required for data: 5147050144
I0423 13:08:10.469418 10915 layer_factory.hpp:77] Creating layer conv5_3
I0423 13:08:10.469424 10915 net.cpp:100] Creating Layer conv5_3
I0423 13:08:10.469427 10915 net.cpp:434] conv5_3 <- conv5_2
I0423 13:08:10.469431 10915 net.cpp:408] conv5_3 -> conv5_3
I0423 13:08:10.481794 10915 net.cpp:150] Setting up conv5_3
I0423 13:08:10.481814 10915 net.cpp:157] Top shape: 12 512 27 27 (4478976)
I0423 13:08:10.481817 10915 net.cpp:165] Memory required for data: 5164966048
I0423 13:08:10.481824 10915 layer_factory.hpp:77] Creating layer relu5_3
I0423 13:08:10.481835 10915 net.cpp:100] Creating Layer relu5_3
I0423 13:08:10.481839 10915 net.cpp:434] relu5_3 <- conv5_3
I0423 13:08:10.481847 10915 net.cpp:395] relu5_3 -> conv5_3 (in-place)
I0423 13:08:10.481853 10915 net.cpp:150] Setting up relu5_3
I0423 13:08:10.481874 10915 net.cpp:157] Top shape: 12 512 27 27 (4478976)
I0423 13:08:10.481876 10915 net.cpp:165] Memory required for data: 5182881952
I0423 13:08:10.481879 10915 layer_factory.hpp:77] Creating layer pool5
I0423 13:08:10.481884 10915 net.cpp:100] Creating Layer pool5
I0423 13:08:10.481885 10915 net.cpp:434] pool5 <- conv5_3
I0423 13:08:10.481889 10915 net.cpp:408] pool5 -> pool5
I0423 13:08:10.481916 10915 net.cpp:150] Setting up pool5
I0423 13:08:10.481921 10915 net.cpp:157] Top shape: 12 512 27 27 (4478976)
I0423 13:08:10.481922 10915 net.cpp:165] Memory required for data: 5200797856
I0423 13:08:10.481925 10915 layer_factory.hpp:77] Creating layer fc6
I0423 13:08:10.481932 10915 net.cpp:100] Creating Layer fc6
I0423 13:08:10.481935 10915 net.cpp:434] fc6 <- pool5
I0423 13:08:10.481938 10915 net.cpp:408] fc6 -> fc6
I0423 13:08:10.506376 10915 net.cpp:150] Setting up fc6
I0423 13:08:10.506397 10915 net.cpp:157] Top shape: 12 1024 27 27 (8957952)
I0423 13:08:10.506398 10915 net.cpp:165] Memory required for data: 5236629664
I0423 13:08:10.506405 10915 layer_factory.hpp:77] Creating layer relu6
I0423 13:08:10.506413 10915 net.cpp:100] Creating Layer relu6
I0423 13:08:10.506417 10915 net.cpp:434] relu6 <- fc6
I0423 13:08:10.506422 10915 net.cpp:395] relu6 -> fc6 (in-place)
I0423 13:08:10.506428 10915 net.cpp:150] Setting up relu6
I0423 13:08:10.506431 10915 net.cpp:157] Top shape: 12 1024 27 27 (8957952)
I0423 13:08:10.506433 10915 net.cpp:165] Memory required for data: 5272461472
I0423 13:08:10.506435 10915 layer_factory.hpp:77] Creating layer fc7
I0423 13:08:10.506443 10915 net.cpp:100] Creating Layer fc7
I0423 13:08:10.506444 10915 net.cpp:434] fc7 <- fc6
I0423 13:08:10.506448 10915 net.cpp:408] fc7 -> fc7
I0423 13:08:10.512151 10915 net.cpp:150] Setting up fc7
I0423 13:08:10.512168 10915 net.cpp:157] Top shape: 12 1024 27 27 (8957952)
I0423 13:08:10.512171 10915 net.cpp:165] Memory required for data: 5308293280
I0423 13:08:10.512176 10915 layer_factory.hpp:77] Creating layer relu7
I0423 13:08:10.512182 10915 net.cpp:100] Creating Layer relu7
I0423 13:08:10.512186 10915 net.cpp:434] relu7 <- fc7
I0423 13:08:10.512189 10915 net.cpp:395] relu7 -> fc7 (in-place)
I0423 13:08:10.512195 10915 net.cpp:150] Setting up relu7
I0423 13:08:10.512198 10915 net.cpp:157] Top shape: 12 1024 27 27 (8957952)
I0423 13:08:10.512199 10915 net.cpp:165] Memory required for data: 5344125088
I0423 13:08:10.512202 10915 layer_factory.hpp:77] Creating layer fc7_relu7_0_split
I0423 13:08:10.512205 10915 net.cpp:100] Creating Layer fc7_relu7_0_split
I0423 13:08:10.512207 10915 net.cpp:434] fc7_relu7_0_split <- fc7
I0423 13:08:10.512212 10915 net.cpp:408] fc7_relu7_0_split -> fc7_relu7_0_split_0
I0423 13:08:10.512215 10915 net.cpp:408] fc7_relu7_0_split -> fc7_relu7_0_split_1
I0423 13:08:10.512224 10915 net.cpp:408] fc7_relu7_0_split -> fc7_relu7_0_split_2
I0423 13:08:10.512228 10915 net.cpp:408] fc7_relu7_0_split -> fc7_relu7_0_split_3
I0423 13:08:10.512266 10915 net.cpp:150] Setting up fc7_relu7_0_split
I0423 13:08:10.512271 10915 net.cpp:157] Top shape: 12 1024 27 27 (8957952)
I0423 13:08:10.512275 10915 net.cpp:157] Top shape: 12 1024 27 27 (8957952)
I0423 13:08:10.512277 10915 net.cpp:157] Top shape: 12 1024 27 27 (8957952)
I0423 13:08:10.512279 10915 net.cpp:157] Top shape: 12 1024 27 27 (8957952)
I0423 13:08:10.512281 10915 net.cpp:165] Memory required for data: 5487452320
I0423 13:08:10.512284 10915 layer_factory.hpp:77] Creating layer conv6_1
I0423 13:08:10.512291 10915 net.cpp:100] Creating Layer conv6_1
I0423 13:08:10.512293 10915 net.cpp:434] conv6_1 <- fc7_relu7_0_split_0
I0423 13:08:10.512298 10915 net.cpp:408] conv6_1 -> conv6_1
I0423 13:08:10.514206 10915 net.cpp:150] Setting up conv6_1
I0423 13:08:10.514216 10915 net.cpp:157] Top shape: 12 256 27 27 (2239488)
I0423 13:08:10.514219 10915 net.cpp:165] Memory required for data: 5496410272
I0423 13:08:10.514226 10915 layer_factory.hpp:77] Creating layer conv6_1_relu
I0423 13:08:10.514230 10915 net.cpp:100] Creating Layer conv6_1_relu
I0423 13:08:10.514246 10915 net.cpp:434] conv6_1_relu <- conv6_1
I0423 13:08:10.514250 10915 net.cpp:395] conv6_1_relu -> conv6_1 (in-place)
I0423 13:08:10.514256 10915 net.cpp:150] Setting up conv6_1_relu
I0423 13:08:10.514258 10915 net.cpp:157] Top shape: 12 256 27 27 (2239488)
I0423 13:08:10.514261 10915 net.cpp:165] Memory required for data: 5505368224
I0423 13:08:10.514261 10915 layer_factory.hpp:77] Creating layer conv6_2
I0423 13:08:10.514267 10915 net.cpp:100] Creating Layer conv6_2
I0423 13:08:10.514271 10915 net.cpp:434] conv6_2 <- conv6_1
I0423 13:08:10.514273 10915 net.cpp:408] conv6_2 -> conv6_2
I0423 13:08:10.520509 10915 net.cpp:150] Setting up conv6_2
I0423 13:08:10.520530 10915 net.cpp:157] Top shape: 12 512 14 14 (1204224)
I0423 13:08:10.520534 10915 net.cpp:165] Memory required for data: 5510185120
I0423 13:08:10.520545 10915 layer_factory.hpp:77] Creating layer conv6_2_relu
I0423 13:08:10.520553 10915 net.cpp:100] Creating Layer conv6_2_relu
I0423 13:08:10.520556 10915 net.cpp:434] conv6_2_relu <- conv6_2
I0423 13:08:10.520561 10915 net.cpp:395] conv6_2_relu -> conv6_2 (in-place)
I0423 13:08:10.520568 10915 net.cpp:150] Setting up conv6_2_relu
I0423 13:08:10.520571 10915 net.cpp:157] Top shape: 12 512 14 14 (1204224)
I0423 13:08:10.520572 10915 net.cpp:165] Memory required for data: 5515002016
I0423 13:08:10.520575 10915 layer_factory.hpp:77] Creating layer conv6_2_conv6_2_relu_0_split
I0423 13:08:10.520579 10915 net.cpp:100] Creating Layer conv6_2_conv6_2_relu_0_split
I0423 13:08:10.520581 10915 net.cpp:434] conv6_2_conv6_2_relu_0_split <- conv6_2
I0423 13:08:10.520584 10915 net.cpp:408] conv6_2_conv6_2_relu_0_split -> conv6_2_conv6_2_relu_0_split_0
I0423 13:08:10.520589 10915 net.cpp:408] conv6_2_conv6_2_relu_0_split -> conv6_2_conv6_2_relu_0_split_1
I0423 13:08:10.520593 10915 net.cpp:408] conv6_2_conv6_2_relu_0_split -> conv6_2_conv6_2_relu_0_split_2
I0423 13:08:10.520597 10915 net.cpp:408] conv6_2_conv6_2_relu_0_split -> conv6_2_conv6_2_relu_0_split_3
I0423 13:08:10.520640 10915 net.cpp:150] Setting up conv6_2_conv6_2_relu_0_split
I0423 13:08:10.520647 10915 net.cpp:157] Top shape: 12 512 14 14 (1204224)
I0423 13:08:10.520648 10915 net.cpp:157] Top shape: 12 512 14 14 (1204224)
I0423 13:08:10.520650 10915 net.cpp:157] Top shape: 12 512 14 14 (1204224)
I0423 13:08:10.520653 10915 net.cpp:157] Top shape: 12 512 14 14 (1204224)
I0423 13:08:10.520655 10915 net.cpp:165] Memory required for data: 5534269600
I0423 13:08:10.520658 10915 layer_factory.hpp:77] Creating layer conv7_1
I0423 13:08:10.520663 10915 net.cpp:100] Creating Layer conv7_1
I0423 13:08:10.520666 10915 net.cpp:434] conv7_1 <- conv6_2_conv6_2_relu_0_split_0
I0423 13:08:10.520670 10915 net.cpp:408] conv7_1 -> conv7_1
I0423 13:08:10.521117 10915 net.cpp:150] Setting up conv7_1
I0423 13:08:10.521122 10915 net.cpp:157] Top shape: 12 128 14 14 (301056)
I0423 13:08:10.521124 10915 net.cpp:165] Memory required for data: 5535473824
I0423 13:08:10.521129 10915 layer_factory.hpp:77] Creating layer conv7_1_relu
I0423 13:08:10.521132 10915 net.cpp:100] Creating Layer conv7_1_relu
I0423 13:08:10.521134 10915 net.cpp:434] conv7_1_relu <- conv7_1
I0423 13:08:10.521137 10915 net.cpp:395] conv7_1_relu -> conv7_1 (in-place)
I0423 13:08:10.521142 10915 net.cpp:150] Setting up conv7_1_relu
I0423 13:08:10.521144 10915 net.cpp:157] Top shape: 12 128 14 14 (301056)
I0423 13:08:10.521145 10915 net.cpp:165] Memory required for data: 5536678048
I0423 13:08:10.521147 10915 layer_factory.hpp:77] Creating layer conv7_2
I0423 13:08:10.521153 10915 net.cpp:100] Creating Layer conv7_2
I0423 13:08:10.521155 10915 net.cpp:434] conv7_2 <- conv7_1
I0423 13:08:10.521158 10915 net.cpp:408] conv7_2 -> conv7_2
I0423 13:08:10.523269 10915 net.cpp:150] Setting up conv7_2
I0423 13:08:10.523280 10915 net.cpp:157] Top shape: 12 256 7 7 (150528)
I0423 13:08:10.523283 10915 net.cpp:165] Memory required for data: 5537280160
I0423 13:08:10.523288 10915 layer_factory.hpp:77] Creating layer conv7_2_relu
I0423 13:08:10.523291 10915 net.cpp:100] Creating Layer conv7_2_relu
I0423 13:08:10.523294 10915 net.cpp:434] conv7_2_relu <- conv7_2
I0423 13:08:10.523309 10915 net.cpp:395] conv7_2_relu -> conv7_2 (in-place)
I0423 13:08:10.523314 10915 net.cpp:150] Setting up conv7_2_relu
I0423 13:08:10.523317 10915 net.cpp:157] Top shape: 12 256 7 7 (150528)
I0423 13:08:10.523319 10915 net.cpp:165] Memory required for data: 5537882272
I0423 13:08:10.523321 10915 layer_factory.hpp:77] Creating layer conv7_2_conv7_2_relu_0_split
I0423 13:08:10.523324 10915 net.cpp:100] Creating Layer conv7_2_conv7_2_relu_0_split
I0423 13:08:10.523326 10915 net.cpp:434] conv7_2_conv7_2_relu_0_split <- conv7_2
I0423 13:08:10.523330 10915 net.cpp:408] conv7_2_conv7_2_relu_0_split -> conv7_2_conv7_2_relu_0_split_0
I0423 13:08:10.523334 10915 net.cpp:408] conv7_2_conv7_2_relu_0_split -> conv7_2_conv7_2_relu_0_split_1
I0423 13:08:10.523339 10915 net.cpp:408] conv7_2_conv7_2_relu_0_split -> conv7_2_conv7_2_relu_0_split_2
I0423 13:08:10.523342 10915 net.cpp:408] conv7_2_conv7_2_relu_0_split -> conv7_2_conv7_2_relu_0_split_3
I0423 13:08:10.523383 10915 net.cpp:150] Setting up conv7_2_conv7_2_relu_0_split
I0423 13:08:10.523388 10915 net.cpp:157] Top shape: 12 256 7 7 (150528)
I0423 13:08:10.523391 10915 net.cpp:157] Top shape: 12 256 7 7 (150528)
I0423 13:08:10.523392 10915 net.cpp:157] Top shape: 12 256 7 7 (150528)
I0423 13:08:10.523396 10915 net.cpp:157] Top shape: 12 256 7 7 (150528)
I0423 13:08:10.523397 10915 net.cpp:165] Memory required for data: 5540290720
I0423 13:08:10.523398 10915 layer_factory.hpp:77] Creating layer conv8_1
I0423 13:08:10.523404 10915 net.cpp:100] Creating Layer conv8_1
I0423 13:08:10.523407 10915 net.cpp:434] conv8_1 <- conv7_2_conv7_2_relu_0_split_0
I0423 13:08:10.523411 10915 net.cpp:408] conv8_1 -> conv8_1
I0423 13:08:10.523701 10915 net.cpp:150] Setting up conv8_1
I0423 13:08:10.523706 10915 net.cpp:157] Top shape: 12 128 7 7 (75264)
I0423 13:08:10.523710 10915 net.cpp:165] Memory required for data: 5540591776
I0423 13:08:10.523713 10915 layer_factory.hpp:77] Creating layer conv8_1_relu
I0423 13:08:10.523718 10915 net.cpp:100] Creating Layer conv8_1_relu
I0423 13:08:10.523721 10915 net.cpp:434] conv8_1_relu <- conv8_1
I0423 13:08:10.523725 10915 net.cpp:395] conv8_1_relu -> conv8_1 (in-place)
I0423 13:08:10.523728 10915 net.cpp:150] Setting up conv8_1_relu
I0423 13:08:10.523731 10915 net.cpp:157] Top shape: 12 128 7 7 (75264)
I0423 13:08:10.523732 10915 net.cpp:165] Memory required for data: 5540892832
I0423 13:08:10.523736 10915 layer_factory.hpp:77] Creating layer conv8_2
I0423 13:08:10.523741 10915 net.cpp:100] Creating Layer conv8_2
I0423 13:08:10.523741 10915 net.cpp:434] conv8_2 <- conv8_1
I0423 13:08:10.523746 10915 net.cpp:408] conv8_2 -> conv8_2
I0423 13:08:10.525753 10915 net.cpp:150] Setting up conv8_2
I0423 13:08:10.525763 10915 net.cpp:157] Top shape: 12 256 5 5 (76800)
I0423 13:08:10.525764 10915 net.cpp:165] Memory required for data: 5541200032
I0423 13:08:10.525768 10915 layer_factory.hpp:77] Creating layer conv8_2_relu
I0423 13:08:10.525773 10915 net.cpp:100] Creating Layer conv8_2_relu
I0423 13:08:10.525775 10915 net.cpp:434] conv8_2_relu <- conv8_2
I0423 13:08:10.525779 10915 net.cpp:395] conv8_2_relu -> conv8_2 (in-place)
I0423 13:08:10.525784 10915 net.cpp:150] Setting up conv8_2_relu
I0423 13:08:10.525786 10915 net.cpp:157] Top shape: 12 256 5 5 (76800)
I0423 13:08:10.525787 10915 net.cpp:165] Memory required for data: 5541507232
I0423 13:08:10.525789 10915 layer_factory.hpp:77] Creating layer conv8_2_conv8_2_relu_0_split
I0423 13:08:10.525794 10915 net.cpp:100] Creating Layer conv8_2_conv8_2_relu_0_split
I0423 13:08:10.525795 10915 net.cpp:434] conv8_2_conv8_2_relu_0_split <- conv8_2
I0423 13:08:10.525799 10915 net.cpp:408] conv8_2_conv8_2_relu_0_split -> conv8_2_conv8_2_relu_0_split_0
I0423 13:08:10.525804 10915 net.cpp:408] conv8_2_conv8_2_relu_0_split -> conv8_2_conv8_2_relu_0_split_1
I0423 13:08:10.525807 10915 net.cpp:408] conv8_2_conv8_2_relu_0_split -> conv8_2_conv8_2_relu_0_split_2
I0423 13:08:10.525811 10915 net.cpp:408] conv8_2_conv8_2_relu_0_split -> conv8_2_conv8_2_relu_0_split_3
I0423 13:08:10.525859 10915 net.cpp:150] Setting up conv8_2_conv8_2_relu_0_split
I0423 13:08:10.525866 10915 net.cpp:157] Top shape: 12 256 5 5 (76800)
I0423 13:08:10.525869 10915 net.cpp:157] Top shape: 12 256 5 5 (76800)
I0423 13:08:10.525872 10915 net.cpp:157] Top shape: 12 256 5 5 (76800)
I0423 13:08:10.525874 10915 net.cpp:157] Top shape: 12 256 5 5 (76800)
I0423 13:08:10.525876 10915 net.cpp:165] Memory required for data: 5542736032
I0423 13:08:10.525877 10915 layer_factory.hpp:77] Creating layer conv9_1
I0423 13:08:10.525884 10915 net.cpp:100] Creating Layer conv9_1
I0423 13:08:10.525887 10915 net.cpp:434] conv9_1 <- conv8_2_conv8_2_relu_0_split_0
I0423 13:08:10.525892 10915 net.cpp:408] conv9_1 -> conv9_1
I0423 13:08:10.526180 10915 net.cpp:150] Setting up conv9_1
I0423 13:08:10.526185 10915 net.cpp:157] Top shape: 12 128 5 5 (38400)
I0423 13:08:10.526187 10915 net.cpp:165] Memory required for data: 5542889632
I0423 13:08:10.526191 10915 layer_factory.hpp:77] Creating layer conv9_1_relu
I0423 13:08:10.526195 10915 net.cpp:100] Creating Layer conv9_1_relu
I0423 13:08:10.526197 10915 net.cpp:434] conv9_1_relu <- conv9_1
I0423 13:08:10.526201 10915 net.cpp:395] conv9_1_relu -> conv9_1 (in-place)
I0423 13:08:10.526203 10915 net.cpp:150] Setting up conv9_1_relu
I0423 13:08:10.526206 10915 net.cpp:157] Top shape: 12 128 5 5 (38400)
I0423 13:08:10.526208 10915 net.cpp:165] Memory required for data: 5543043232
I0423 13:08:10.526211 10915 layer_factory.hpp:77] Creating layer conv9_2
I0423 13:08:10.526214 10915 net.cpp:100] Creating Layer conv9_2
I0423 13:08:10.526216 10915 net.cpp:434] conv9_2 <- conv9_1
I0423 13:08:10.526221 10915 net.cpp:408] conv9_2 -> conv9_2
I0423 13:08:10.528192 10915 net.cpp:150] Setting up conv9_2
I0423 13:08:10.528200 10915 net.cpp:157] Top shape: 12 256 3 3 (27648)
I0423 13:08:10.528203 10915 net.cpp:165] Memory required for data: 5543153824
I0423 13:08:10.528208 10915 layer_factory.hpp:77] Creating layer conv9_2_relu
I0423 13:08:10.528211 10915 net.cpp:100] Creating Layer conv9_2_relu
I0423 13:08:10.528213 10915 net.cpp:434] conv9_2_relu <- conv9_2
I0423 13:08:10.528216 10915 net.cpp:395] conv9_2_relu -> conv9_2 (in-place)
I0423 13:08:10.528221 10915 net.cpp:150] Setting up conv9_2_relu
I0423 13:08:10.528223 10915 net.cpp:157] Top shape: 12 256 3 3 (27648)
I0423 13:08:10.528225 10915 net.cpp:165] Memory required for data: 5543264416
I0423 13:08:10.528228 10915 layer_factory.hpp:77] Creating layer conv9_2_conv9_2_relu_0_split
I0423 13:08:10.528230 10915 net.cpp:100] Creating Layer conv9_2_conv9_2_relu_0_split
I0423 13:08:10.528234 10915 net.cpp:434] conv9_2_conv9_2_relu_0_split <- conv9_2
I0423 13:08:10.528236 10915 net.cpp:408] conv9_2_conv9_2_relu_0_split -> conv9_2_conv9_2_relu_0_split_0
I0423 13:08:10.528241 10915 net.cpp:408] conv9_2_conv9_2_relu_0_split -> conv9_2_conv9_2_relu_0_split_1
I0423 13:08:10.528245 10915 net.cpp:408] conv9_2_conv9_2_relu_0_split -> conv9_2_conv9_2_relu_0_split_2
I0423 13:08:10.528278 10915 net.cpp:150] Setting up conv9_2_conv9_2_relu_0_split
I0423 13:08:10.528283 10915 net.cpp:157] Top shape: 12 256 3 3 (27648)
I0423 13:08:10.528285 10915 net.cpp:157] Top shape: 12 256 3 3 (27648)
I0423 13:08:10.528288 10915 net.cpp:157] Top shape: 12 256 3 3 (27648)
I0423 13:08:10.528290 10915 net.cpp:165] Memory required for data: 5543596192
I0423 13:08:10.528292 10915 layer_factory.hpp:77] Creating layer conv4_3_norm
I0423 13:08:10.528297 10915 net.cpp:100] Creating Layer conv4_3_norm
I0423 13:08:10.528300 10915 net.cpp:434] conv4_3_norm <- conv4_3_relu4_3_0_split_1
I0423 13:08:10.528303 10915 net.cpp:408] conv4_3_norm -> conv4_3_norm
I0423 13:08:10.528401 10915 net.cpp:150] Setting up conv4_3_norm
I0423 13:08:10.528406 10915 net.cpp:157] Top shape: 12 512 53 53 (17258496)
I0423 13:08:10.528409 10915 net.cpp:165] Memory required for data: 5612630176
I0423 13:08:10.528412 10915 layer_factory.hpp:77] Creating layer conv4_3_norm_conv4_3_norm_0_split
I0423 13:08:10.528415 10915 net.cpp:100] Creating Layer conv4_3_norm_conv4_3_norm_0_split
I0423 13:08:10.528417 10915 net.cpp:434] conv4_3_norm_conv4_3_norm_0_split <- conv4_3_norm
I0423 13:08:10.528429 10915 net.cpp:408] conv4_3_norm_conv4_3_norm_0_split -> conv4_3_norm_conv4_3_norm_0_split_0
I0423 13:08:10.528434 10915 net.cpp:408] conv4_3_norm_conv4_3_norm_0_split -> conv4_3_norm_conv4_3_norm_0_split_1
I0423 13:08:10.528437 10915 net.cpp:408] conv4_3_norm_conv4_3_norm_0_split -> conv4_3_norm_conv4_3_norm_0_split_2
I0423 13:08:10.528465 10915 net.cpp:150] Setting up conv4_3_norm_conv4_3_norm_0_split
I0423 13:08:10.528470 10915 net.cpp:157] Top shape: 12 512 53 53 (17258496)
I0423 13:08:10.528472 10915 net.cpp:157] Top shape: 12 512 53 53 (17258496)
I0423 13:08:10.528475 10915 net.cpp:157] Top shape: 12 512 53 53 (17258496)
I0423 13:08:10.528477 10915 net.cpp:165] Memory required for data: 5819732128
I0423 13:08:10.528479 10915 layer_factory.hpp:77] Creating layer conv4_3_norm_mbox_loc
I0423 13:08:10.528486 10915 net.cpp:100] Creating Layer conv4_3_norm_mbox_loc
I0423 13:08:10.528487 10915 net.cpp:434] conv4_3_norm_mbox_loc <- conv4_3_norm_conv4_3_norm_0_split_0
I0423 13:08:10.528491 10915 net.cpp:408] conv4_3_norm_mbox_loc -> conv4_3_norm_mbox_loc
I0423 13:08:10.528957 10915 net.cpp:150] Setting up conv4_3_norm_mbox_loc
I0423 13:08:10.528964 10915 net.cpp:157] Top shape: 12 16 53 53 (539328)
I0423 13:08:10.528965 10915 net.cpp:165] Memory required for data: 5821889440
I0423 13:08:10.528970 10915 layer_factory.hpp:77] Creating layer conv4_3_norm_mbox_loc_perm
I0423 13:08:10.528975 10915 net.cpp:100] Creating Layer conv4_3_norm_mbox_loc_perm
I0423 13:08:10.528977 10915 net.cpp:434] conv4_3_norm_mbox_loc_perm <- conv4_3_norm_mbox_loc
I0423 13:08:10.528981 10915 net.cpp:408] conv4_3_norm_mbox_loc_perm -> conv4_3_norm_mbox_loc_perm
I0423 13:08:10.529047 10915 net.cpp:150] Setting up conv4_3_norm_mbox_loc_perm
I0423 13:08:10.529052 10915 net.cpp:157] Top shape: 12 53 53 16 (539328)
I0423 13:08:10.529054 10915 net.cpp:165] Memory required for data: 5824046752
I0423 13:08:10.529057 10915 layer_factory.hpp:77] Creating layer conv4_3_norm_mbox_loc_flat
I0423 13:08:10.529062 10915 net.cpp:100] Creating Layer conv4_3_norm_mbox_loc_flat
I0423 13:08:10.529064 10915 net.cpp:434] conv4_3_norm_mbox_loc_flat <- conv4_3_norm_mbox_loc_perm
I0423 13:08:10.529068 10915 net.cpp:408] conv4_3_norm_mbox_loc_flat -> conv4_3_norm_mbox_loc_flat
I0423 13:08:10.529093 10915 net.cpp:150] Setting up conv4_3_norm_mbox_loc_flat
I0423 13:08:10.529098 10915 net.cpp:157] Top shape: 12 44944 (539328)
I0423 13:08:10.529100 10915 net.cpp:165] Memory required for data: 5826204064
I0423 13:08:10.529103 10915 layer_factory.hpp:77] Creating layer conv4_3_norm_mbox_conf
I0423 13:08:10.529114 10915 net.cpp:100] Creating Layer conv4_3_norm_mbox_conf
I0423 13:08:10.529117 10915 net.cpp:434] conv4_3_norm_mbox_conf <- conv4_3_norm_conv4_3_norm_0_split_1
I0423 13:08:10.529121 10915 net.cpp:408] conv4_3_norm_mbox_conf -> conv4_3_norm_mbox_conf
I0423 13:08:10.529585 10915 net.cpp:150] Setting up conv4_3_norm_mbox_conf
I0423 13:08:10.529592 10915 net.cpp:157] Top shape: 12 16 53 53 (539328)
I0423 13:08:10.529593 10915 net.cpp:165] Memory required for data: 5828361376
I0423 13:08:10.529598 10915 layer_factory.hpp:77] Creating layer conv4_3_norm_mbox_conf_perm
I0423 13:08:10.529603 10915 net.cpp:100] Creating Layer conv4_3_norm_mbox_conf_perm
I0423 13:08:10.529605 10915 net.cpp:434] conv4_3_norm_mbox_conf_perm <- conv4_3_norm_mbox_conf
I0423 13:08:10.529608 10915 net.cpp:408] conv4_3_norm_mbox_conf_perm -> conv4_3_norm_mbox_conf_perm
I0423 13:08:10.529670 10915 net.cpp:150] Setting up conv4_3_norm_mbox_conf_perm
I0423 13:08:10.529675 10915 net.cpp:157] Top shape: 12 53 53 16 (539328)
I0423 13:08:10.529676 10915 net.cpp:165] Memory required for data: 5830518688
I0423 13:08:10.529677 10915 layer_factory.hpp:77] Creating layer conv4_3_norm_mbox_conf_flat
I0423 13:08:10.529683 10915 net.cpp:100] Creating Layer conv4_3_norm_mbox_conf_flat
I0423 13:08:10.529685 10915 net.cpp:434] conv4_3_norm_mbox_conf_flat <- conv4_3_norm_mbox_conf_perm
I0423 13:08:10.529688 10915 net.cpp:408] conv4_3_norm_mbox_conf_flat -> conv4_3_norm_mbox_conf_flat
I0423 13:08:10.529712 10915 net.cpp:150] Setting up conv4_3_norm_mbox_conf_flat
I0423 13:08:10.529717 10915 net.cpp:157] Top shape: 12 44944 (539328)
I0423 13:08:10.529719 10915 net.cpp:165] Memory required for data: 5832676000
I0423 13:08:10.529721 10915 layer_factory.hpp:77] Creating layer conv4_3_norm_mbox_priorbox
I0423 13:08:10.529727 10915 net.cpp:100] Creating Layer conv4_3_norm_mbox_priorbox
I0423 13:08:10.529731 10915 net.cpp:434] conv4_3_norm_mbox_priorbox <- conv4_3_norm_conv4_3_norm_0_split_2
I0423 13:08:10.529733 10915 net.cpp:434] conv4_3_norm_mbox_priorbox <- data_data_0_split_1
I0423 13:08:10.529736 10915 net.cpp:408] conv4_3_norm_mbox_priorbox -> conv4_3_norm_mbox_priorbox
I0423 13:08:10.529755 10915 net.cpp:150] Setting up conv4_3_norm_mbox_priorbox
I0423 13:08:10.529762 10915 net.cpp:157] Top shape: 1 2 44944 (89888)
I0423 13:08:10.529763 10915 net.cpp:165] Memory required for data: 5833035552
I0423 13:08:10.529765 10915 layer_factory.hpp:77] Creating layer fc7_mbox_loc
I0423 13:08:10.529772 10915 net.cpp:100] Creating Layer fc7_mbox_loc
I0423 13:08:10.529774 10915 net.cpp:434] fc7_mbox_loc <- fc7_relu7_0_split_1
I0423 13:08:10.529779 10915 net.cpp:408] fc7_mbox_loc -> fc7_mbox_loc
I0423 13:08:10.530859 10915 net.cpp:150] Setting up fc7_mbox_loc
I0423 13:08:10.530865 10915 net.cpp:157] Top shape: 12 24 27 27 (209952)
I0423 13:08:10.530867 10915 net.cpp:165] Memory required for data: 5833875360
I0423 13:08:10.530871 10915 layer_factory.hpp:77] Creating layer fc7_mbox_loc_perm
I0423 13:08:10.530877 10915 net.cpp:100] Creating Layer fc7_mbox_loc_perm
I0423 13:08:10.530879 10915 net.cpp:434] fc7_mbox_loc_perm <- fc7_mbox_loc
I0423 13:08:10.530884 10915 net.cpp:408] fc7_mbox_loc_perm -> fc7_mbox_loc_perm
I0423 13:08:10.530943 10915 net.cpp:150] Setting up fc7_mbox_loc_perm
I0423 13:08:10.530948 10915 net.cpp:157] Top shape: 12 27 27 24 (209952)
I0423 13:08:10.530951 10915 net.cpp:165] Memory required for data: 5834715168
I0423 13:08:10.530952 10915 layer_factory.hpp:77] Creating layer fc7_mbox_loc_flat
I0423 13:08:10.530956 10915 net.cpp:100] Creating Layer fc7_mbox_loc_flat
I0423 13:08:10.530958 10915 net.cpp:434] fc7_mbox_loc_flat <- fc7_mbox_loc_perm
I0423 13:08:10.530961 10915 net.cpp:408] fc7_mbox_loc_flat -> fc7_mbox_loc_flat
I0423 13:08:10.530977 10915 net.cpp:150] Setting up fc7_mbox_loc_flat
I0423 13:08:10.530980 10915 net.cpp:157] Top shape: 12 17496 (209952)
I0423 13:08:10.530982 10915 net.cpp:165] Memory required for data: 5835554976
I0423 13:08:10.530983 10915 layer_factory.hpp:77] Creating layer fc7_mbox_conf
I0423 13:08:10.530990 10915 net.cpp:100] Creating Layer fc7_mbox_conf
I0423 13:08:10.530993 10915 net.cpp:434] fc7_mbox_conf <- fc7_relu7_0_split_2
I0423 13:08:10.530998 10915 net.cpp:408] fc7_mbox_conf -> fc7_mbox_conf
I0423 13:08:10.532093 10915 net.cpp:150] Setting up fc7_mbox_conf
I0423 13:08:10.532099 10915 net.cpp:157] Top shape: 12 24 27 27 (209952)
I0423 13:08:10.532100 10915 net.cpp:165] Memory required for data: 5836394784
I0423 13:08:10.532104 10915 layer_factory.hpp:77] Creating layer fc7_mbox_conf_perm
I0423 13:08:10.532109 10915 net.cpp:100] Creating Layer fc7_mbox_conf_perm
I0423 13:08:10.532110 10915 net.cpp:434] fc7_mbox_conf_perm <- fc7_mbox_conf
I0423 13:08:10.532115 10915 net.cpp:408] fc7_mbox_conf_perm -> fc7_mbox_conf_perm
I0423 13:08:10.532174 10915 net.cpp:150] Setting up fc7_mbox_conf_perm
I0423 13:08:10.532179 10915 net.cpp:157] Top shape: 12 27 27 24 (209952)
I0423 13:08:10.532182 10915 net.cpp:165] Memory required for data: 5837234592
I0423 13:08:10.532183 10915 layer_factory.hpp:77] Creating layer fc7_mbox_conf_flat
I0423 13:08:10.532187 10915 net.cpp:100] Creating Layer fc7_mbox_conf_flat
I0423 13:08:10.532189 10915 net.cpp:434] fc7_mbox_conf_flat <- fc7_mbox_conf_perm
I0423 13:08:10.532194 10915 net.cpp:408] fc7_mbox_conf_flat -> fc7_mbox_conf_flat
I0423 13:08:10.532207 10915 net.cpp:150] Setting up fc7_mbox_conf_flat
I0423 13:08:10.532212 10915 net.cpp:157] Top shape: 12 17496 (209952)
I0423 13:08:10.532214 10915 net.cpp:165] Memory required for data: 5838074400
I0423 13:08:10.532222 10915 layer_factory.hpp:77] Creating layer fc7_mbox_priorbox
I0423 13:08:10.532227 10915 net.cpp:100] Creating Layer fc7_mbox_priorbox
I0423 13:08:10.532228 10915 net.cpp:434] fc7_mbox_priorbox <- fc7_relu7_0_split_3
I0423 13:08:10.532232 10915 net.cpp:434] fc7_mbox_priorbox <- data_data_0_split_2
I0423 13:08:10.532238 10915 net.cpp:408] fc7_mbox_priorbox -> fc7_mbox_priorbox
I0423 13:08:10.532253 10915 net.cpp:150] Setting up fc7_mbox_priorbox
I0423 13:08:10.532258 10915 net.cpp:157] Top shape: 1 2 17496 (34992)
I0423 13:08:10.532260 10915 net.cpp:165] Memory required for data: 5838214368
I0423 13:08:10.532263 10915 layer_factory.hpp:77] Creating layer conv6_2_mbox_loc
I0423 13:08:10.532269 10915 net.cpp:100] Creating Layer conv6_2_mbox_loc
I0423 13:08:10.532271 10915 net.cpp:434] conv6_2_mbox_loc <- conv6_2_conv6_2_relu_0_split_1
I0423 13:08:10.532275 10915 net.cpp:408] conv6_2_mbox_loc -> conv6_2_mbox_loc
I0423 13:08:10.532902 10915 net.cpp:150] Setting up conv6_2_mbox_loc
I0423 13:08:10.532907 10915 net.cpp:157] Top shape: 12 24 14 14 (56448)
I0423 13:08:10.532909 10915 net.cpp:165] Memory required for data: 5838440160
I0423 13:08:10.532913 10915 layer_factory.hpp:77] Creating layer conv6_2_mbox_loc_perm
I0423 13:08:10.532918 10915 net.cpp:100] Creating Layer conv6_2_mbox_loc_perm
I0423 13:08:10.532922 10915 net.cpp:434] conv6_2_mbox_loc_perm <- conv6_2_mbox_loc
I0423 13:08:10.532927 10915 net.cpp:408] conv6_2_mbox_loc_perm -> conv6_2_mbox_loc_perm
I0423 13:08:10.532994 10915 net.cpp:150] Setting up conv6_2_mbox_loc_perm
I0423 13:08:10.532999 10915 net.cpp:157] Top shape: 12 14 14 24 (56448)
I0423 13:08:10.533000 10915 net.cpp:165] Memory required for data: 5838665952
I0423 13:08:10.533002 10915 layer_factory.hpp:77] Creating layer conv6_2_mbox_loc_flat
I0423 13:08:10.533006 10915 net.cpp:100] Creating Layer conv6_2_mbox_loc_flat
I0423 13:08:10.533010 10915 net.cpp:434] conv6_2_mbox_loc_flat <- conv6_2_mbox_loc_perm
I0423 13:08:10.533013 10915 net.cpp:408] conv6_2_mbox_loc_flat -> conv6_2_mbox_loc_flat
I0423 13:08:10.533027 10915 net.cpp:150] Setting up conv6_2_mbox_loc_flat
I0423 13:08:10.533031 10915 net.cpp:157] Top shape: 12 4704 (56448)
I0423 13:08:10.533033 10915 net.cpp:165] Memory required for data: 5838891744
I0423 13:08:10.533035 10915 layer_factory.hpp:77] Creating layer conv6_2_mbox_conf
I0423 13:08:10.533041 10915 net.cpp:100] Creating Layer conv6_2_mbox_conf
I0423 13:08:10.533043 10915 net.cpp:434] conv6_2_mbox_conf <- conv6_2_conv6_2_relu_0_split_2
I0423 13:08:10.533048 10915 net.cpp:408] conv6_2_mbox_conf -> conv6_2_mbox_conf
I0423 13:08:10.533670 10915 net.cpp:150] Setting up conv6_2_mbox_conf
I0423 13:08:10.533676 10915 net.cpp:157] Top shape: 12 24 14 14 (56448)
I0423 13:08:10.533677 10915 net.cpp:165] Memory required for data: 5839117536
I0423 13:08:10.533682 10915 layer_factory.hpp:77] Creating layer conv6_2_mbox_conf_perm
I0423 13:08:10.533686 10915 net.cpp:100] Creating Layer conv6_2_mbox_conf_perm
I0423 13:08:10.533689 10915 net.cpp:434] conv6_2_mbox_conf_perm <- conv6_2_mbox_conf
I0423 13:08:10.533692 10915 net.cpp:408] conv6_2_mbox_conf_perm -> conv6_2_mbox_conf_perm
I0423 13:08:10.533756 10915 net.cpp:150] Setting up conv6_2_mbox_conf_perm
I0423 13:08:10.533761 10915 net.cpp:157] Top shape: 12 14 14 24 (56448)
I0423 13:08:10.533761 10915 net.cpp:165] Memory required for data: 5839343328
I0423 13:08:10.533763 10915 layer_factory.hpp:77] Creating layer conv6_2_mbox_conf_flat
I0423 13:08:10.533768 10915 net.cpp:100] Creating Layer conv6_2_mbox_conf_flat
I0423 13:08:10.533771 10915 net.cpp:434] conv6_2_mbox_conf_flat <- conv6_2_mbox_conf_perm
I0423 13:08:10.533773 10915 net.cpp:408] conv6_2_mbox_conf_flat -> conv6_2_mbox_conf_flat
I0423 13:08:10.533788 10915 net.cpp:150] Setting up conv6_2_mbox_conf_flat
I0423 13:08:10.533792 10915 net.cpp:157] Top shape: 12 4704 (56448)
I0423 13:08:10.533794 10915 net.cpp:165] Memory required for data: 5839569120
I0423 13:08:10.533797 10915 layer_factory.hpp:77] Creating layer conv6_2_mbox_priorbox
I0423 13:08:10.533800 10915 net.cpp:100] Creating Layer conv6_2_mbox_priorbox
I0423 13:08:10.533810 10915 net.cpp:434] conv6_2_mbox_priorbox <- conv6_2_conv6_2_relu_0_split_3
I0423 13:08:10.533813 10915 net.cpp:434] conv6_2_mbox_priorbox <- data_data_0_split_3
I0423 13:08:10.533818 10915 net.cpp:408] conv6_2_mbox_priorbox -> conv6_2_mbox_priorbox
I0423 13:08:10.533834 10915 net.cpp:150] Setting up conv6_2_mbox_priorbox
I0423 13:08:10.533839 10915 net.cpp:157] Top shape: 1 2 4704 (9408)
I0423 13:08:10.533841 10915 net.cpp:165] Memory required for data: 5839606752
I0423 13:08:10.533843 10915 layer_factory.hpp:77] Creating layer conv7_2_mbox_loc
I0423 13:08:10.533849 10915 net.cpp:100] Creating Layer conv7_2_mbox_loc
I0423 13:08:10.533852 10915 net.cpp:434] conv7_2_mbox_loc <- conv7_2_conv7_2_relu_0_split_1
I0423 13:08:10.533857 10915 net.cpp:408] conv7_2_mbox_loc -> conv7_2_mbox_loc
I0423 13:08:10.534247 10915 net.cpp:150] Setting up conv7_2_mbox_loc
I0423 13:08:10.534253 10915 net.cpp:157] Top shape: 12 24 7 7 (14112)
I0423 13:08:10.534255 10915 net.cpp:165] Memory required for data: 5839663200
I0423 13:08:10.534260 10915 layer_factory.hpp:77] Creating layer conv7_2_mbox_loc_perm
I0423 13:08:10.534263 10915 net.cpp:100] Creating Layer conv7_2_mbox_loc_perm
I0423 13:08:10.534265 10915 net.cpp:434] conv7_2_mbox_loc_perm <- conv7_2_mbox_loc
I0423 13:08:10.534271 10915 net.cpp:408] conv7_2_mbox_loc_perm -> conv7_2_mbox_loc_perm
I0423 13:08:10.534332 10915 net.cpp:150] Setting up conv7_2_mbox_loc_perm
I0423 13:08:10.534337 10915 net.cpp:157] Top shape: 12 7 7 24 (14112)
I0423 13:08:10.534339 10915 net.cpp:165] Memory required for data: 5839719648
I0423 13:08:10.534342 10915 layer_factory.hpp:77] Creating layer conv7_2_mbox_loc_flat
I0423 13:08:10.534344 10915 net.cpp:100] Creating Layer conv7_2_mbox_loc_flat
I0423 13:08:10.534346 10915 net.cpp:434] conv7_2_mbox_loc_flat <- conv7_2_mbox_loc_perm
I0423 13:08:10.534351 10915 net.cpp:408] conv7_2_mbox_loc_flat -> conv7_2_mbox_loc_flat
I0423 13:08:10.534365 10915 net.cpp:150] Setting up conv7_2_mbox_loc_flat
I0423 13:08:10.534370 10915 net.cpp:157] Top shape: 12 1176 (14112)
I0423 13:08:10.534371 10915 net.cpp:165] Memory required for data: 5839776096
I0423 13:08:10.534373 10915 layer_factory.hpp:77] Creating layer conv7_2_mbox_conf
I0423 13:08:10.534380 10915 net.cpp:100] Creating Layer conv7_2_mbox_conf
I0423 13:08:10.534382 10915 net.cpp:434] conv7_2_mbox_conf <- conv7_2_conv7_2_relu_0_split_2
I0423 13:08:10.534385 10915 net.cpp:408] conv7_2_mbox_conf -> conv7_2_mbox_conf
I0423 13:08:10.534770 10915 net.cpp:150] Setting up conv7_2_mbox_conf
I0423 13:08:10.534775 10915 net.cpp:157] Top shape: 12 24 7 7 (14112)
I0423 13:08:10.534777 10915 net.cpp:165] Memory required for data: 5839832544
I0423 13:08:10.534780 10915 layer_factory.hpp:77] Creating layer conv7_2_mbox_conf_perm
I0423 13:08:10.534786 10915 net.cpp:100] Creating Layer conv7_2_mbox_conf_perm
I0423 13:08:10.534788 10915 net.cpp:434] conv7_2_mbox_conf_perm <- conv7_2_mbox_conf
I0423 13:08:10.534792 10915 net.cpp:408] conv7_2_mbox_conf_perm -> conv7_2_mbox_conf_perm
I0423 13:08:10.534855 10915 net.cpp:150] Setting up conv7_2_mbox_conf_perm
I0423 13:08:10.534859 10915 net.cpp:157] Top shape: 12 7 7 24 (14112)
I0423 13:08:10.534862 10915 net.cpp:165] Memory required for data: 5839888992
I0423 13:08:10.534863 10915 layer_factory.hpp:77] Creating layer conv7_2_mbox_conf_flat
I0423 13:08:10.534868 10915 net.cpp:100] Creating Layer conv7_2_mbox_conf_flat
I0423 13:08:10.534868 10915 net.cpp:434] conv7_2_mbox_conf_flat <- conv7_2_mbox_conf_perm
I0423 13:08:10.534873 10915 net.cpp:408] conv7_2_mbox_conf_flat -> conv7_2_mbox_conf_flat
I0423 13:08:10.534888 10915 net.cpp:150] Setting up conv7_2_mbox_conf_flat
I0423 13:08:10.534891 10915 net.cpp:157] Top shape: 12 1176 (14112)
I0423 13:08:10.534893 10915 net.cpp:165] Memory required for data: 5839945440
I0423 13:08:10.534895 10915 layer_factory.hpp:77] Creating layer conv7_2_mbox_priorbox
I0423 13:08:10.534899 10915 net.cpp:100] Creating Layer conv7_2_mbox_priorbox
I0423 13:08:10.534901 10915 net.cpp:434] conv7_2_mbox_priorbox <- conv7_2_conv7_2_relu_0_split_3
I0423 13:08:10.534909 10915 net.cpp:434] conv7_2_mbox_priorbox <- data_data_0_split_4
I0423 13:08:10.534915 10915 net.cpp:408] conv7_2_mbox_priorbox -> conv7_2_mbox_priorbox
I0423 13:08:10.534932 10915 net.cpp:150] Setting up conv7_2_mbox_priorbox
I0423 13:08:10.534937 10915 net.cpp:157] Top shape: 1 2 1176 (2352)
I0423 13:08:10.534939 10915 net.cpp:165] Memory required for data: 5839954848
I0423 13:08:10.534940 10915 layer_factory.hpp:77] Creating layer conv8_2_mbox_loc
I0423 13:08:10.534947 10915 net.cpp:100] Creating Layer conv8_2_mbox_loc
I0423 13:08:10.534950 10915 net.cpp:434] conv8_2_mbox_loc <- conv8_2_conv8_2_relu_0_split_1
I0423 13:08:10.534955 10915 net.cpp:408] conv8_2_mbox_loc -> conv8_2_mbox_loc
I0423 13:08:10.535262 10915 net.cpp:150] Setting up conv8_2_mbox_loc
I0423 13:08:10.535269 10915 net.cpp:157] Top shape: 12 16 5 5 (4800)
I0423 13:08:10.535269 10915 net.cpp:165] Memory required for data: 5839974048
I0423 13:08:10.535280 10915 layer_factory.hpp:77] Creating layer conv8_2_mbox_loc_perm
I0423 13:08:10.535286 10915 net.cpp:100] Creating Layer conv8_2_mbox_loc_perm
I0423 13:08:10.535290 10915 net.cpp:434] conv8_2_mbox_loc_perm <- conv8_2_mbox_loc
I0423 13:08:10.535292 10915 net.cpp:408] conv8_2_mbox_loc_perm -> conv8_2_mbox_loc_perm
I0423 13:08:10.535354 10915 net.cpp:150] Setting up conv8_2_mbox_loc_perm
I0423 13:08:10.535362 10915 net.cpp:157] Top shape: 12 5 5 16 (4800)
I0423 13:08:10.535362 10915 net.cpp:165] Memory required for data: 5839993248
I0423 13:08:10.535364 10915 layer_factory.hpp:77] Creating layer conv8_2_mbox_loc_flat
I0423 13:08:10.535367 10915 net.cpp:100] Creating Layer conv8_2_mbox_loc_flat
I0423 13:08:10.535370 10915 net.cpp:434] conv8_2_mbox_loc_flat <- conv8_2_mbox_loc_perm
I0423 13:08:10.535374 10915 net.cpp:408] conv8_2_mbox_loc_flat -> conv8_2_mbox_loc_flat
I0423 13:08:10.535388 10915 net.cpp:150] Setting up conv8_2_mbox_loc_flat
I0423 13:08:10.535392 10915 net.cpp:157] Top shape: 12 400 (4800)
I0423 13:08:10.535394 10915 net.cpp:165] Memory required for data: 5840012448
I0423 13:08:10.535396 10915 layer_factory.hpp:77] Creating layer conv8_2_mbox_conf
I0423 13:08:10.535405 10915 net.cpp:100] Creating Layer conv8_2_mbox_conf
I0423 13:08:10.535408 10915 net.cpp:434] conv8_2_mbox_conf <- conv8_2_conv8_2_relu_0_split_2
I0423 13:08:10.535413 10915 net.cpp:408] conv8_2_mbox_conf -> conv8_2_mbox_conf
I0423 13:08:10.535714 10915 net.cpp:150] Setting up conv8_2_mbox_conf
I0423 13:08:10.535720 10915 net.cpp:157] Top shape: 12 16 5 5 (4800)
I0423 13:08:10.535722 10915 net.cpp:165] Memory required for data: 5840031648
I0423 13:08:10.535727 10915 layer_factory.hpp:77] Creating layer conv8_2_mbox_conf_perm
I0423 13:08:10.535732 10915 net.cpp:100] Creating Layer conv8_2_mbox_conf_perm
I0423 13:08:10.535733 10915 net.cpp:434] conv8_2_mbox_conf_perm <- conv8_2_mbox_conf
I0423 13:08:10.535737 10915 net.cpp:408] conv8_2_mbox_conf_perm -> conv8_2_mbox_conf_perm
I0423 13:08:10.535797 10915 net.cpp:150] Setting up conv8_2_mbox_conf_perm
I0423 13:08:10.535802 10915 net.cpp:157] Top shape: 12 5 5 16 (4800)
I0423 13:08:10.535804 10915 net.cpp:165] Memory required for data: 5840050848
I0423 13:08:10.535806 10915 layer_factory.hpp:77] Creating layer conv8_2_mbox_conf_flat
I0423 13:08:10.535810 10915 net.cpp:100] Creating Layer conv8_2_mbox_conf_flat
I0423 13:08:10.535812 10915 net.cpp:434] conv8_2_mbox_conf_flat <- conv8_2_mbox_conf_perm
I0423 13:08:10.535816 10915 net.cpp:408] conv8_2_mbox_conf_flat -> conv8_2_mbox_conf_flat
I0423 13:08:10.535830 10915 net.cpp:150] Setting up conv8_2_mbox_conf_flat
I0423 13:08:10.535835 10915 net.cpp:157] Top shape: 12 400 (4800)
I0423 13:08:10.535836 10915 net.cpp:165] Memory required for data: 5840070048
I0423 13:08:10.535838 10915 layer_factory.hpp:77] Creating layer conv8_2_mbox_priorbox
I0423 13:08:10.535842 10915 net.cpp:100] Creating Layer conv8_2_mbox_priorbox
I0423 13:08:10.535845 10915 net.cpp:434] conv8_2_mbox_priorbox <- conv8_2_conv8_2_relu_0_split_3
I0423 13:08:10.535847 10915 net.cpp:434] conv8_2_mbox_priorbox <- data_data_0_split_5
I0423 13:08:10.535859 10915 net.cpp:408] conv8_2_mbox_priorbox -> conv8_2_mbox_priorbox
I0423 13:08:10.535877 10915 net.cpp:150] Setting up conv8_2_mbox_priorbox
I0423 13:08:10.535882 10915 net.cpp:157] Top shape: 1 2 400 (800)
I0423 13:08:10.535884 10915 net.cpp:165] Memory required for data: 5840073248
I0423 13:08:10.535887 10915 layer_factory.hpp:77] Creating layer conv9_2_mbox_loc
I0423 13:08:10.535892 10915 net.cpp:100] Creating Layer conv9_2_mbox_loc
I0423 13:08:10.535897 10915 net.cpp:434] conv9_2_mbox_loc <- conv9_2_conv9_2_relu_0_split_0
I0423 13:08:10.535902 10915 net.cpp:408] conv9_2_mbox_loc -> conv9_2_mbox_loc
I0423 13:08:10.536208 10915 net.cpp:150] Setting up conv9_2_mbox_loc
I0423 13:08:10.536214 10915 net.cpp:157] Top shape: 12 16 3 3 (1728)
I0423 13:08:10.536216 10915 net.cpp:165] Memory required for data: 5840080160
I0423 13:08:10.536221 10915 layer_factory.hpp:77] Creating layer conv9_2_mbox_loc_perm
I0423 13:08:10.536224 10915 net.cpp:100] Creating Layer conv9_2_mbox_loc_perm
I0423 13:08:10.536227 10915 net.cpp:434] conv9_2_mbox_loc_perm <- conv9_2_mbox_loc
I0423 13:08:10.536231 10915 net.cpp:408] conv9_2_mbox_loc_perm -> conv9_2_mbox_loc_perm
I0423 13:08:10.536293 10915 net.cpp:150] Setting up conv9_2_mbox_loc_perm
I0423 13:08:10.536298 10915 net.cpp:157] Top shape: 12 3 3 16 (1728)
I0423 13:08:10.536299 10915 net.cpp:165] Memory required for data: 5840087072
I0423 13:08:10.536301 10915 layer_factory.hpp:77] Creating layer conv9_2_mbox_loc_flat
I0423 13:08:10.536304 10915 net.cpp:100] Creating Layer conv9_2_mbox_loc_flat
I0423 13:08:10.536306 10915 net.cpp:434] conv9_2_mbox_loc_flat <- conv9_2_mbox_loc_perm
I0423 13:08:10.536309 10915 net.cpp:408] conv9_2_mbox_loc_flat -> conv9_2_mbox_loc_flat
I0423 13:08:10.536324 10915 net.cpp:150] Setting up conv9_2_mbox_loc_flat
I0423 13:08:10.536329 10915 net.cpp:157] Top shape: 12 144 (1728)
I0423 13:08:10.536330 10915 net.cpp:165] Memory required for data: 5840093984
I0423 13:08:10.536331 10915 layer_factory.hpp:77] Creating layer conv9_2_mbox_conf
I0423 13:08:10.536339 10915 net.cpp:100] Creating Layer conv9_2_mbox_conf
I0423 13:08:10.536340 10915 net.cpp:434] conv9_2_mbox_conf <- conv9_2_conv9_2_relu_0_split_1
I0423 13:08:10.536345 10915 net.cpp:408] conv9_2_mbox_conf -> conv9_2_mbox_conf
I0423 13:08:10.536653 10915 net.cpp:150] Setting up conv9_2_mbox_conf
I0423 13:08:10.536659 10915 net.cpp:157] Top shape: 12 16 3 3 (1728)
I0423 13:08:10.536660 10915 net.cpp:165] Memory required for data: 5840100896
I0423 13:08:10.536664 10915 layer_factory.hpp:77] Creating layer conv9_2_mbox_conf_perm
I0423 13:08:10.536667 10915 net.cpp:100] Creating Layer conv9_2_mbox_conf_perm
I0423 13:08:10.536669 10915 net.cpp:434] conv9_2_mbox_conf_perm <- conv9_2_mbox_conf
I0423 13:08:10.536674 10915 net.cpp:408] conv9_2_mbox_conf_perm -> conv9_2_mbox_conf_perm
I0423 13:08:10.536736 10915 net.cpp:150] Setting up conv9_2_mbox_conf_perm
I0423 13:08:10.536741 10915 net.cpp:157] Top shape: 12 3 3 16 (1728)
I0423 13:08:10.536743 10915 net.cpp:165] Memory required for data: 5840107808
I0423 13:08:10.536746 10915 layer_factory.hpp:77] Creating layer conv9_2_mbox_conf_flat
I0423 13:08:10.536748 10915 net.cpp:100] Creating Layer conv9_2_mbox_conf_flat
I0423 13:08:10.536751 10915 net.cpp:434] conv9_2_mbox_conf_flat <- conv9_2_mbox_conf_perm
I0423 13:08:10.536754 10915 net.cpp:408] conv9_2_mbox_conf_flat -> conv9_2_mbox_conf_flat
I0423 13:08:10.536767 10915 net.cpp:150] Setting up conv9_2_mbox_conf_flat
I0423 13:08:10.536772 10915 net.cpp:157] Top shape: 12 144 (1728)
I0423 13:08:10.536773 10915 net.cpp:165] Memory required for data: 5840114720
I0423 13:08:10.536775 10915 layer_factory.hpp:77] Creating layer conv9_2_mbox_priorbox
I0423 13:08:10.536780 10915 net.cpp:100] Creating Layer conv9_2_mbox_priorbox
I0423 13:08:10.536782 10915 net.cpp:434] conv9_2_mbox_priorbox <- conv9_2_conv9_2_relu_0_split_2
I0423 13:08:10.536785 10915 net.cpp:434] conv9_2_mbox_priorbox <- data_data_0_split_6
I0423 13:08:10.536790 10915 net.cpp:408] conv9_2_mbox_priorbox -> conv9_2_mbox_priorbox
I0423 13:08:10.536813 10915 net.cpp:150] Setting up conv9_2_mbox_priorbox
I0423 13:08:10.536818 10915 net.cpp:157] Top shape: 1 2 144 (288)
I0423 13:08:10.536819 10915 net.cpp:165] Memory required for data: 5840115872
I0423 13:08:10.536821 10915 layer_factory.hpp:77] Creating layer mbox_loc
I0423 13:08:10.536828 10915 net.cpp:100] Creating Layer mbox_loc
I0423 13:08:10.536829 10915 net.cpp:434] mbox_loc <- conv4_3_norm_mbox_loc_flat
I0423 13:08:10.536833 10915 net.cpp:434] mbox_loc <- fc7_mbox_loc_flat
I0423 13:08:10.536836 10915 net.cpp:434] mbox_loc <- conv6_2_mbox_loc_flat
I0423 13:08:10.536839 10915 net.cpp:434] mbox_loc <- conv7_2_mbox_loc_flat
I0423 13:08:10.536841 10915 net.cpp:434] mbox_loc <- conv8_2_mbox_loc_flat
I0423 13:08:10.536844 10915 net.cpp:434] mbox_loc <- conv9_2_mbox_loc_flat
I0423 13:08:10.536849 10915 net.cpp:408] mbox_loc -> mbox_loc
I0423 13:08:10.536893 10915 net.cpp:150] Setting up mbox_loc
I0423 13:08:10.536898 10915 net.cpp:157] Top shape: 12 68864 (826368)
I0423 13:08:10.536900 10915 net.cpp:165] Memory required for data: 5843421344
I0423 13:08:10.536902 10915 layer_factory.hpp:77] Creating layer mbox_conf
I0423 13:08:10.536907 10915 net.cpp:100] Creating Layer mbox_conf
I0423 13:08:10.536911 10915 net.cpp:434] mbox_conf <- conv4_3_norm_mbox_conf_flat
I0423 13:08:10.536913 10915 net.cpp:434] mbox_conf <- fc7_mbox_conf_flat
I0423 13:08:10.536916 10915 net.cpp:434] mbox_conf <- conv6_2_mbox_conf_flat
I0423 13:08:10.536919 10915 net.cpp:434] mbox_conf <- conv7_2_mbox_conf_flat
I0423 13:08:10.536921 10915 net.cpp:434] mbox_conf <- conv8_2_mbox_conf_flat
I0423 13:08:10.536924 10915 net.cpp:434] mbox_conf <- conv9_2_mbox_conf_flat
I0423 13:08:10.536928 10915 net.cpp:408] mbox_conf -> mbox_conf
I0423 13:08:10.536943 10915 net.cpp:150] Setting up mbox_conf
I0423 13:08:10.536947 10915 net.cpp:157] Top shape: 12 68864 (826368)
I0423 13:08:10.536949 10915 net.cpp:165] Memory required for data: 5846726816
I0423 13:08:10.536952 10915 layer_factory.hpp:77] Creating layer mbox_priorbox
I0423 13:08:10.536957 10915 net.cpp:100] Creating Layer mbox_priorbox
I0423 13:08:10.536958 10915 net.cpp:434] mbox_priorbox <- conv4_3_norm_mbox_priorbox
I0423 13:08:10.536962 10915 net.cpp:434] mbox_priorbox <- fc7_mbox_priorbox
I0423 13:08:10.536964 10915 net.cpp:434] mbox_priorbox <- conv6_2_mbox_priorbox
I0423 13:08:10.536967 10915 net.cpp:434] mbox_priorbox <- conv7_2_mbox_priorbox
I0423 13:08:10.536969 10915 net.cpp:434] mbox_priorbox <- conv8_2_mbox_priorbox
I0423 13:08:10.536972 10915 net.cpp:434] mbox_priorbox <- conv9_2_mbox_priorbox
I0423 13:08:10.536974 10915 net.cpp:408] mbox_priorbox -> mbox_priorbox
I0423 13:08:10.536989 10915 net.cpp:150] Setting up mbox_priorbox
I0423 13:08:10.536993 10915 net.cpp:157] Top shape: 1 2 68864 (137728)
I0423 13:08:10.536995 10915 net.cpp:165] Memory required for data: 5847277728
I0423 13:08:10.536998 10915 layer_factory.hpp:77] Creating layer mbox_loss
I0423 13:08:10.537006 10915 net.cpp:100] Creating Layer mbox_loss
I0423 13:08:10.537009 10915 net.cpp:434] mbox_loss <- mbox_loc
I0423 13:08:10.537012 10915 net.cpp:434] mbox_loss <- mbox_conf
I0423 13:08:10.537015 10915 net.cpp:434] mbox_loss <- mbox_priorbox
…
  phase: TEST
}
layer {
  name: "data"
  type: "AnnotatedData"
  top: "data"
  top: "label"
  include {
    phase: TEST
  }
  transform_param {
    mean_value: 104
    mean_value: 117
    mean_value: 123
    resize_param {
      prob: 1
      resize_mode: WARP
      height: 420
      width: 420
      interp_mode: LINEAR
    }
  }
  data_param {
    source: "/localdata/markustp/data/ascend/lmdb/ascend_test_lmdb"
    batch_size: 2
    backend: LMDB
  }
  annotated_data_param {
    batch_sampler {
    }
    label_map_file: "data/ascend/labelmap.prototxt"
  }
}
layer {
  name: "conv1_1"
  type: "Convolution"
  bottom: "data"
  top: "conv1_1"
  param {
    lr_mult: 1
    decay_mult: 1
  }
  param {
    lr_mult: 2
    decay_mult: 0
  }
  convolution_param {
    num_output: 64
    pad: 1
    kernel_size: 3
    weight_filler {
      type: "xavier"
    }
    bias_filler {
      type: "constant"
      value: 0
    }
  }
}
layer {
  name: "relu1_1"
  type: "ReLU"
  bottom: "conv1_1"
  top: "conv1_1"
}
layer {
  name: "conv1_2"
  type: "Convolution"
  bottom: "conv1_1"
  top: "conv1_2"
  param {
    lr_mult: 1
    decay_mult: 1
  }
  param {
    lr_mult: 2
    decay_mult: 0
  }
  convolution_param {
    num_output: 64
    pad: 1
    kernel_size: 3
    weight_filler {
      type: "xavier"
    }
    bias_filler {
      type: "constant"
      value: 0
    }
  }
}
layer {
  name: "relu1_2"
  type: "ReLU"
  bottom: "conv1_2"
  top: "conv1_2"
}
layer {
  name: "pool1"
  type: "Pooling"
  bottom: "conv1_2"
  top: "pool1"
  pooling_param {
    pool: MAX
    kernel_size: 2
    stride: 2
  }
}
layer {
  name: "conv2_1"
  type: "Convolution"
  bottom: "pool1"
  top: "conv2_1"
  param {
    lr_mult: 1
    decay_mult: 1
  }
  param {
    lr_mult: 2
    decay_mult: 0
  }
  convolution_param {
    num_output: 128
    pad: 1
    kernel_size: 3
    weight_filler {
      type: "xavier"
    }
    bias_filler {
      type: "constant"
      value: 0
    }
  }
}
layer {
  name: "relu2_1"
  type: "ReLU"
  bottom: "conv2_1"
  top: "conv2_1"
}
layer {
  name: "conv2_2"
  type: "Convolution"
  bottom: "conv2_1"
  top: "conv2_2"
  param {
    lr_mult: 1
    decay_mult: 1
  }
  param {
    lr_mult: 2
    decay_mult: 0
  }
  convolution_param {
    num_output: 128
    pad: 1
    kernel_size: 3
    weight_filler {
      type: "xavier"
    }
    bias_filler {
      type: "constant"
      value: 0
    }
  }
}
layer {
  name: "relu2_2"
  type: "ReLU"
  bottom: "conv2_2"
  top: "conv2_2"
}
layer {
  name: "pool2"
  type: "Pooling"
  bottom: "conv2_2"
  top: "pool2"
  pooling_param {
    pool: MAX
    kernel_size: 2
    stride: 2
  }
}
layer {
  name: "conv3_1"
  type: "Convolution"
  bottom: "pool2"
  top: "conv3_1"
  param {
    lr_mult: 1
    decay_mult: 1
  }
  param {
    lr_mult: 2
    decay_mult: 0
  }
  convolution_param {
    num_output: 256
    pad: 1
    kernel_size: 3
    weight_filler {
      type: "xavier"
    }
    bias_filler {
      type: "constant"
      value: 0
    }
  }
}
layer {
  name: "relu3_1"
  type: "ReLU"
  bottom: "conv3_1"
  top: "conv3_1"
}
layer {
  name: "conv3_2"
  type: "Convolution"
  bottom: "conv3_1"
  top: "conv3_2"
  param {
    lr_mult: 1
    decay_mult: 1
  }
  param {
    lr_mult: 2
    decay_mult: 0
  }
  convolution_param {
    num_output: 256
    pad: 1
    kernel_size: 3
    weight_filler {
      type: "xavier"
    }
    bias_filler {
      type: "constant"
      value: 0
    }
  }
}
layer {
  name: "relu3_2"
  type: "ReLU"
  bottom: "conv3_2"
  top: "conv3_2"
}
layer {
  name: "conv3_3"
  type: "Convolution"
  bottom: "conv3_2"
  top: "conv3_3"
  param {
    lr_mult: 1
    decay_mult: 1
  }
  param {
    lr_mult: 2
    decay_mult: 0
  }
  convolution_param {
    num_output: 256
    pad: 1
    kernel_size: 3
    weight_filler {
      type: "xavier"
    }
    bias_filler {
      type: "constant"
      value: 0
    }
  }
}
layer {
  name: "relu3_3"
  type: "ReLU"
  bottom: "conv3_3"
  top: "conv3_3"
}
layer {
  name: "pool3"
  type: "Pooling"
  bottom: "conv3_3"
  top: "pool3"
  pooling_param {
    pool: MAX
    kernel_size: 2
    stride: 2
  }
}
layer {
  name: "conv4_1"
  type: "Convolution"
  bottom: "pool3"
  top: "conv4_1"
  param {
    lr_mult: 1
    decay_mult: 1
  }
  param {
    lr_mult: 2
    decay_mult: 0
  }
  convolution_param {
    num_output: 512
    pad: 1
    kernel_size: 3
    weight_filler {
      type: "xavier"
    }
    bias_filler {
      type: "constant"
      value: 0
    }
  }
}
layer {
  name: "relu4_1"
  type: "ReLU"
  bottom: "conv4_1"
  top: "conv4_1"
}
layer {
  name: "conv4_2"
  type: "Convolution"
  bottom: "conv4_1"
  top: "conv4_2"
  param {
    lr_mult: 1
    decay_mult: 1
  }
  param {
    lr_mult: 2
    decay_mult: 0
  }
  convolution_param {
    num_output: 512
    pad: 1
    kernel_size: 3
    weight_filler {
      type: "xavier"
    }
    bias_filler {
      type: "constant"
      value: 0
    }
  }
}
layer {
  name: "relu4_2"
  type: "ReLU"
  bottom: "conv4_2"
  top: "conv4_2"
}
layer {
  name: "conv4_3"
  type: "Convolution"
  bottom: "conv4_2"
  top: "conv4_3"
  param {
    lr_mult: 1
    decay_mult: 1
  }
  param {
    lr_mult: 2
    decay_mult: 0
  }
  convolution_param {
    num_output: 512
    pad: 1
    kernel_size: 3
    weight_filler {
      type: "xavier"
    }
    bias_filler {
      type: "constant"
      value: 0
    }
  }
}
layer {
  name: "relu4_3"
  type: "ReLU"
  bottom: "conv4_3"
  top: "conv4_3"
}
layer {
  name: "pool4"
  type: "Pooling"
  bottom: "conv4_3"
  top: "pool4"
  pooling_param {
    pool: MAX
    kernel_size: 2
    stride: 2
  }
}
layer {
  name: "conv5_1"
  type: "Convolution"
  bottom: "pool4"
  top: "conv5_1"
  param {
    lr_mult: 1
    decay_mult: 1
  }
  param {
    lr_mult: 2
    decay_mult: 0
  }
  convolution_param {
    num_output: 512
    pad: 1
    kernel_size: 3
    weight_filler {
      type: "xavier"
    }
    bias_filler {
      type: "constant"
      value: 0
    }
    dilation: 1
  }
}
layer {
  name: "relu5_1"
  type: "ReLU"
  bottom: "conv5_1"
  top: "conv5_1"
}
layer {
  name: "conv5_2"
  type: "Convolution"
  bottom: "conv5_1"
  top: "conv5_2"
  param {
    lr_mult: 1
    decay_mult: 1
  }
  param {
    lr_mult: 2
    decay_mult: 0
  }
  convolution_param {
    num_output: 512
    pad: 1
    kernel_size: 3
    weight_filler {
      type: "xavier"
    }
    bias_filler {
      type: "constant"
      value: 0
    }
    dilation: 1
  }
}
layer {
  name: "relu5_2"
  type: "ReLU"
  bottom: "conv5_2"
  top: "conv5_2"
}
layer {
  name: "conv5_3"
  type: "Convolution"
  bottom: "conv5_2"
  top: "conv5_3"
  param {
    lr_mult: 1
    decay_mult: 1
  }
  param {
    lr_mult: 2
    decay_mult: 0
  }
  convolution_param {
    num_output: 512
    pad: 1
    kernel_size: 3
    weight_filler {
      type: "xavier"
    }
    bias_filler {
      type: "constant"
      value: 0
    }
    dilation: 1
  }
}
layer {
  name: "relu5_3"
  type: "ReLU"
  bottom: "conv5_3"
  top: "conv5_3"
}
layer {
  name: "pool5"
  type: "Pooling"
  bottom: "conv5_3"
  top: "pool5"
  pooling_param {
    pool: MAX
    kernel_size: 3
    stride: 1
    pad: 1
  }
}
layer {
  name: "fc6"
  type: "Convolution"
  bottom: "pool5"
  top: "fc6"
  param {
    lr_mult: 1
    decay_mult: 1
  }
  param {
    lr_mult: 2
    decay_mult: 0
  }
  convolution_param {
    num_output: 1024
    pad: 6
    kernel_size: 3
    weight_filler {
      type: "xavier"
    }
    bias_filler {
      type: "constant"
      value: 0
    }
    dilation: 6
  }
}
layer {
  name: "relu6"
  type: "ReLU"
  bottom: "fc6"
  top: "fc6"
}
layer {
  name: "fc7"
  type: "Convolution"
  bottom: "fc6"
  top: "fc7"
  param {
    lr_mult: 1
    decay_mult: 1
  }
  param {
    lr_mult: 2
    decay_mult: 0
  }
  convolution_param {
    num_output: 1024
    kernel_size: 1
    weight_filler {
      type: "xavier"
    }
    bias_filler {
      type: "constant"
      value: 0
    }
  }
}
layer {
  name: "relu7"
  type: "ReLU"
  bottom: "fc7"
  top: "fc7"
}
layer {
  name: "conv6_1"
  type: "Convolution"
  bottom: "fc7"
  top: "conv6_1"
  param {
    lr_mult: 1
    decay_mult: 1
  }
  param {
    lr_mult: 2
    decay_mult: 0
  }
  convolution_param {
    num_output: 256
    pad: 0
    kernel_size: 1
    stride: 1
    weight_filler {
      type: "xavier"
    }
    bias_filler {
      type: "constant"
      value: 0
    }
  }
}
layer {
  name: "conv6_1_relu"
  type: "ReLU"
  bottom: "conv6_1"
  top: "conv6_1"
}
layer {
  name: "conv6_2"
  type: "Convolution"
  bottom: "conv6_1"
  top: "conv6_2"
  param {
    lr_mult: 1
    decay_mult: 1
  }
  param {
    lr_mult: 2
    decay_mult: 0
  }
  convolution_param {
    num_output: 512
    pad: 1
    kernel_size: 3
    stride: 2
    weight_filler {
      type: "xavier"
    }
    bias_filler {
      type: "constant"
      value: 0
    }
  }
}
layer {
  name: "conv6_2_relu"
  type: "ReLU"
  bottom: "conv6_2"
  top: "conv6_2"
}
layer {
  name: "conv7_1"
  type: "Convolution"
  bottom: "conv6_2"
  top: "conv7_1"
  param {
    lr_mult: 1
    decay_mult: 1
  }
  param {
    lr_mult: 2
    decay_mult: 0
  }
  convolution_param {
    num_output: 128
    pad: 0
    kernel_size: 1
    stride: 1
    weight_filler {
      type: "xavier"
    }
    bias_filler {
      type: "constant"
      value: 0
    }
  }
}
layer {
  name: "conv7_1_relu"
  type: "ReLU"
  bottom: "conv7_1"
  top: "conv7_1"
}
layer {
  name: "conv7_2"
  type: "Convolution"
  bottom: "conv7_1"
  top: "conv7_2"
  param {
    lr_mult: 1
    decay_mult: 1
  }
  param {
    lr_mult: 2
    decay_mult: 0
  }
  convolution_param {
    num_output: 256
    pad: 1
    kernel_size: 3
    stride: 2
    weight_filler {
      type: "xavier"
    }
    bias_filler {
      type: "constant"
      value: 0
    }
  }
}
layer {
  name: "conv7_2_relu"
  type: "ReLU"
  bottom: "conv7_2"
  top: "conv7_2"
}
layer {
  name: "conv8_1"
  type: "Convolution"
  bottom: "conv7_2"
  top: "conv8_1"
  param {
    lr_mult: 1
    decay_mult: 1
  }
  param {
    lr_mult: 2
    decay_mult: 0
  }
  convolution_param {
    num_output: 128
    pad: 0
    kernel_size: 1
    stride: 1
    weight_filler {
      type: "xavier"
    }
    bias_filler {
      type: "constant"
      value: 0
    }
  }
}
layer {
  name: "conv8_1_relu"
  type: "ReLU"
  bottom: "conv8_1"
  top: "conv8_1"
}
layer {
  name: "conv8_2"
  type: "Convolution"
  bottom: "conv8_1"
  top: "conv8_2"
  param {
    lr_mult: 1
    decay_mult: 1
  }
  param {
    lr_mult: 2
    decay_mult: 0
  }
  convolution_param {
    num_output: 256
    pad: 0
    kernel_size: 3
    stride: 1
    weight_filler {
      type: "xavier"
    }
    bias_filler {
      type: "constant"
      value: 0
    }
  }
}
layer {
  name: "conv8_2_relu"
  type: "ReLU"
  bottom: "conv8_2"
  top: "conv8_2"
}
layer {
  name: "conv9_1"
  type: "Convolution"
  bottom: "conv8_2"
  top: "conv9_1"
  param {
    lr_mult: 1
    decay_mult: 1
  }
  param {
    lr_mult: 2
    decay_mult: 0
  }
  convolution_param {
    num_output: 128
    pad: 0
    kernel_size: 1
    stride: 1
    weight_filler {
      type: "xavier"
    }
    bias_filler {
      type: "constant"
      value: 0
    }
  }
}
layer {
  name: "conv9_1_relu"
  type: "ReLU"
  bottom: "conv9_1"
  top: "conv9_1"
}
layer {
  name: "conv9_2"
  type: "Convolution"
  bottom: "conv9_1"
  top: "conv9_2"
  param {
    lr_mult: 1
    decay_mult: 1
  }
  param {
    lr_mult: 2
    decay_mult: 0
  }
  convolution_param {
    num_output: 256
    pad: 0
    kernel_size: 3
    stride: 1
    weight_filler {
      type: "xavier"
    }
    bias_filler {
      type: "constant"
      value: 0
    }
  }
}
layer {
  name: "conv9_2_relu"
  type: "ReLU"
  bottom: "conv9_2"
  top: "conv9_2"
}
layer {
  name: "conv4_3_norm"
  type: "Normalize"
  bottom: "conv4_3"
  top: "conv4_3_norm"
  norm_param {
    across_spatial: false
    scale_filler {
      type: "constant"
      value: 20
    }
    channel_shared: false
  }
}
layer {
  name: "conv4_3_norm_mbox_loc"
  type: "Convolution"
  bottom: "conv4_3_norm"
  top: "conv4_3_norm_mbox_loc"
  param {
    lr_mult: 1
    decay_mult: 1
  }
  param {
    lr_mult: 2
    decay_mult: 0
  }
  convolution_param {
    num_output: 16
    pad: 1
    kernel_size: 3
    stride: 1
    weight_filler {
      type: "xavier"
    }
    bias_filler {
      type: "constant"
      value: 0
    }
  }
}
layer {
  name: "conv4_3_norm_mbox_loc_perm"
  type: "Permute"
  bottom: "conv4_3_norm_mbox_loc"
  top: "conv4_3_norm_mbox_loc_perm"
  permute_param {
    order: 0
    order: 2
    order: 3
    order: 1
  }
}
layer {
  name: "conv4_3_norm_mbox_loc_flat"
  type: "Flatten"
  bottom: "conv4_3_norm_mbox_loc_perm"
  top: "conv4_3_norm_mbox_loc_flat"
  flatten_param {
    axis: 1
  }
}
layer {
  name: "conv4_3_norm_mbox_conf"
  type: "Convolution"
  bottom: "conv4_3_norm"
  top: "conv4_3_norm_mbox_conf"
  param {
    lr_mult: 1
    decay_mult: 1
  }
  param {
    lr_mult: 2
    decay_mult: 0
  }
  convolution_param {
    num_output: 16
    pad: 1
    kernel_size: 3
    stride: 1
    weight_filler {
      type: "xavier"
    }
    bias_filler {
      type: "constant"
      value: 0
    }
  }
}
layer {
  name: "conv4_3_norm_mbox_conf_perm"
  type: "Permute"
  bottom: "conv4_3_norm_mbox_conf"
  top: "conv4_3_norm_mbox_conf_perm"
  permute_param {
    order: 0
    order: 2
    order: 3
    order: 1
  }
}
layer {
  name: "conv4_3_norm_mbox_conf_flat"
  type: "Flatten"
  bottom: "conv4_3_norm_mbox_conf_perm"
  top: "conv4_3_norm_mbox_conf_flat"
  flatten_param {
    axis: 1
  }
}
layer {
  name: "conv4_3_norm_mbox_priorbox"
  type: "PriorBox"
  bottom: "conv4_3_norm"
  bottom: "data"
  top: "conv4_3_norm_mbox_priorbox"
  prior_box_param {
    min_size: 30
    max_size: 60
    aspect_ratio: 2
    flip: true
    clip: false
    variance: 0.1
    variance: 0.1
    variance: 0.2
    variance: 0.2
    step: 8
    offset: 0.5
  }
}
layer {
  name: "fc7_mbox_loc"
  type: "Convolution"
  bottom: "fc7"
  top: "fc7_mbox_loc"
  param {
    lr_mult: 1
    decay_mult: 1
  }
  param {
    lr_mult: 2
    decay_mult: 0
  }
  convolution_param {
    num_output: 24
    pad: 1
    kernel_size: 3
    stride: 1
    weight_filler {
      type: "xavier"
    }
    bias_filler {
      type: "constant"
      value: 0
    }
  }
}
layer {
  name: "fc7_mbox_loc_perm"
  type: "Permute"
  bottom: "fc7_mbox_loc"
  top: "fc7_mbox_loc_perm"
  permute_param {
    order: 0
    order: 2
    order: 3
    order: 1
  }
}
layer {
  name: "fc7_mbox_loc_flat"
  type: "Flatten"
  bottom: "fc7_mbox_loc_perm"
  top: "fc7_mbox_loc_flat"
  flatten_param {
    axis: 1
  }
}
layer {
  name: "fc7_mbox_conf"
  type: "Convolution"
  bottom: "fc7"
  top: "fc7_mbox_conf"
  param {
    lr_mult: 1
    decay_mult: 1
  }
  param {
    lr_mult: 2
    decay_mult: 0
  }
  convolution_param {
    num_output: 24
    pad: 1
    kernel_size: 3
    stride: 1
    weight_filler {
      type: "xavier"
    }
    bias_filler {
      type: "constant"
      value: 0
    }
  }
}
layer {
  name: "fc7_mbox_conf_perm"
  type: "Permute"
  bottom: "fc7_mbox_conf"
  top: "fc7_mbox_conf_perm"
  permute_param {
    order: 0
    order: 2
    order: 3
    order: 1
  }
}
layer {
  name: "fc7_mbox_conf_flat"
  type: "Flatten"
  bottom: "fc7_mbox_conf_perm"
  top: "fc7_mbox_conf_flat"
  flatten_param {
    axis: 1
  }
}
layer {
  name: "fc7_mbox_priorbox"
  type: "PriorBox"
  bottom: "fc7"
  bottom: "data"
  top: "fc7_mbox_priorbox"
  prior_box_param {
    min_size: 60
    max_size: 111
    aspect_ratio: 2
    aspect_ratio: 3
    flip: true
    clip: false
    variance: 0.1
    variance: 0.1
    variance: 0.2
    variance: 0.2
    step: 16
    offset: 0.5
  }
}
layer {
  name: "conv6_2_mbox_loc"
  type: "Convolution"
  bottom: "conv6_2"
  top: "conv6_2_mbox_loc"
  param {
    lr_mult: 1
    decay_mult: 1
  }
  param {
    lr_mult: 2
    decay_mult: 0
  }
  convolution_param {
    num_output: 24
    pad: 1
    kernel_size: 3
    stride: 1
    weight_filler {
      type: "xavier"
    }
    bias_filler {
      type: "constant"
      value: 0
    }
  }
}
layer {
  name: "conv6_2_mbox_loc_perm"
  type: "Permute"
  bottom: "conv6_2_mbox_loc"
  top: "conv6_2_mbox_loc_perm"
  permute_param {
    order: 0
    order: 2
    order: 3
    order: 1
  }
}
layer {
  name: "conv6_2_mbox_loc_flat"
  type: "Flatten"
  bottom: "conv6_2_mbox_loc_perm"
  top: "conv6_2_mbox_loc_flat"
  flatten_param {
    axis: 1
  }
}
layer {
  name: "conv6_2_mbox_conf"
  type: "Convolution"
  bottom: "conv6_2"
  top: "conv6_2_mbox_conf"
  param {
    lr_mult: 1
    decay_mult: 1
  }
  param {
    lr_mult: 2
    decay_mult: 0
  }
  convolution_param {
    num_output: 24
    pad: 1
    kernel_size: 3
    stride: 1
    weight_filler {
      type: "xavier"
    }
    bias_filler {
      type: "constant"
      value: 0
    }
  }
}
layer {
  name: "conv6_2_mbox_conf_perm"
  type: "Permute"
  bottom: "conv6_2_mbox_conf"
  top: "conv6_2_mbox_conf_perm"
  permute_param {
    order: 0
    order: 2
    order: 3
    order: 1
  }
}
layer {
  name: "conv6_2_mbox_conf_flat"
  type: "Flatten"
  bottom: "conv6_2_mbox_conf_perm"
  top: "conv6_2_mbox_conf_flat"
  flatten_param {
    axis: 1
  }
}
layer {
  name: "conv6_2_mbox_priorbox"
  type: "PriorBox"
  bottom: "conv6_2"
  bottom: "data"
  top: "conv6_2_mbox_priorbox"
  prior_box_param {
    min_size: 111
    max_size: 162
    aspect_ratio: 2
    aspect_ratio: 3
    flip: true
    clip: false
    variance: 0.1
    variance: 0.1
    variance: 0.2
    variance: 0.2
    step: 32
    offset: 0.5
  }
}
layer {
  name: "conv7_2_mbox_loc"
  type: "Convolution"
  bottom: "conv7_2"
  top: "conv7_2_mbox_loc"
  param {
    lr_mult: 1
    decay_mult: 1
  }
  param {
    lr_mult: 2
    decay_mult: 0
  }
  convolution_param {
    num_output: 24
    pad: 1
    kernel_size: 3
    stride: 1
    weight_filler {
      type: "xavier"
    }
    bias_filler {
      type: "constant"
      value: 0
    }
  }
}
layer {
  name: "conv7_2_mbox_loc_perm"
  type: "Permute"
  bottom: "conv7_2_mbox_loc"
  top: "conv7_2_mbox_loc_perm"
  permute_param {
    order: 0
    order: 2
    order: 3
    order: 1
  }
}
layer {
  name: "conv7_2_mbox_loc_flat"
  type: "Flatten"
  bottom: "conv7_2_mbox_loc_perm"
  top: "conv7_2_mbox_loc_flat"
  flatten_param {
    axis: 1
  }
}
layer {
  name: "conv7_2_mbox_conf"
  type: "Convolution"
  bottom: "conv7_2"
  top: "conv7_2_mbox_conf"
  param {
    lr_mult: 1
    decay_mult: 1
  }
  param {
    lr_mult: 2
    decay_mult: 0
  }
  convolution_param {
    num_output: 24
    pad: 1
    kernel_size: 3
    stride: 1
    weight_filler {
      type: "xavier"
    }
    bias_filler {
      type: "constant"
      value: 0
    }
  }
}
layer {
  name: "conv7_2_mbox_conf_perm"
  type: "Permute"
  bottom: "conv7_2_mbox_conf"
  top: "conv7_2_mbox_conf_perm"
  permute_param {
    order: 0
    order: 2
    order: 3
    order: 1
  }
}
layer {
  name: "conv7_2_mbox_conf_flat"
  type: "Flatten"
  bottom: "conv7_2_mbox_conf_perm"
  top: "conv7_2_mbox_conf_flat"
  flatten_param {
    axis: 1
  }
}
layer {
  name: "conv7_2_mbox_priorbox"
  type: "PriorBox"
  bottom: "conv7_2"
  bottom: "data"
  top: "conv7_2_mbox_priorbox"
  prior_box_param {
    min_size: 162
    max_size: 213
    aspect_ratio: 2
    aspect_ratio: 3
    flip: true
    clip: false
    variance: 0.1
    variance: 0.1
    variance: 0.2
    variance: 0.2
    step: 64
    offset: 0.5
  }
}
layer {
  name: "conv8_2_mbox_loc"
  type: "Convolution"
  bottom: "conv8_2"
  top: "conv8_2_mbox_loc"
  param {
    lr_mult: 1
    decay_mult: 1
  }
  param {
    lr_mult: 2
    decay_mult: 0
  }
  convolution_param {
    num_output: 16
    pad: 1
    kernel_size: 3
    stride: 1
    weight_filler {
      type: "xavier"
    }
    bias_filler {
      type: "constant"
      value: 0
    }
  }
}
layer {
  name: "conv8_2_mbox_loc_perm"
  type: "Permute"
  bottom: "conv8_2_mbox_loc"
  top: "conv8_2_mbox_loc_perm"
  permute_param {
    order: 0
    order: 2
    order: 3
    order: 1
  }
}
layer {
  name: "conv8_2_mbox_loc_flat"
  type: "Flatten"
  bottom: "conv8_2_mbox_loc_perm"
  top: "conv8_2_mbox_loc_flat"
  flatten_param {
    axis: 1
  }
}
layer {
  name: "conv8_2_mbox_conf"
  type: "Convolution"
  bottom: "conv8_2"
  top: "conv8_2_mbox_conf"
  param {
    lr_mult: 1
    decay_mult: 1
  }
  param {
    lr_mult: 2
    decay_mult: 0
  }
  convolution_param {
    num_output: 16
    pad: 1
    kernel_size: 3
    stride: 1
    weight_filler {
      type: "xavier"
    }
    bias_filler {
      type: "constant"
      value: 0
    }
  }
}
layer {
  name: "conv8_2_mbox_conf_perm"
  type: "Permute"
  bottom: "conv8_2_mbox_conf"
  top: "conv8_2_mbox_conf_perm"
  permute_param {
    order: 0
    order: 2
    order: 3
    order: 1
  }
}
layer {
  name: "conv8_2_mbox_conf_flat"
  type: "Flatten"
  bottom: "conv8_2_mbox_conf_perm"
  top: "conv8_2_mbox_conf_flat"
  flatten_param {
    axis: 1
  }
}
layer {
  name: "conv8_2_mbox_priorbox"
  type: "PriorBox"
  bottom: "conv8_2"
  bottom: "data"
  top: "conv8_2_mbox_priorbox"
  prior_box_param {
    min_size: 213
    max_size: 264
    aspect_ratio: 2
    flip: true
    clip: false
    variance: 0.1
    variance: 0.1
    variance: 0.2
    variance: 0.2
    step: 100
    offset: 0.5
  }
}
layer {
  name: "conv9_2_mbox_loc"
  type: "Convolution"
  bottom: "conv9_2"
  top: "conv9_2_mbox_loc"
  param {
    lr_mult: 1
    decay_mult: 1
  }
  param {
    lr_mult: 2
    decay_mult: 0
  }
  convolution_param {
    num_output: 16
    pad: 1
    kernel_size: 3
    stride: 1
    weight_filler {
      type: "xavier"
    }
    bias_filler {
      type: "constant"
      value: 0
    }
  }
}
layer {
  name: "conv9_2_mbox_loc_perm"
  type: "Permute"
  bottom: "conv9_2_mbox_loc"
  top: "conv9_2_mbox_loc_perm"
  permute_param {
    order: 0
    order: 2
    order: 3
    order: 1
  }
}
layer {
  name: "conv9_2_mbox_loc_flat"
  type: "Flatten"
  bottom: "conv9_2_mbox_loc_perm"
  top: "conv9_2_mbox_loc_flat"
  flatten_param {
    axis: 1
  }
}
layer {
  name: "conv9_2_mbox_conf"
  type: "Convolution"
  bottom: "conv9_2"
  top: "conv9_2_mbox_conf"
  param {
    lr_mult: 1
    decay_mult: 1
  }
  param {
    lr_mult: 2
    decay_mult: 0
  }
  convolution_param {
    num_output: 16
    pad: 1
    kernel_size: 3
    stride: 1
    weight_filler {
      type: "xavier"
    }
    bias_filler {
      type: "constant"
      value: 0
    }
  }
}
layer {
  name: "conv9_2_mbox_conf_perm"
  type: "Permute"
  bottom: "conv9_2_mbox_conf"
  top: "conv9_2_mbox_conf_perm"
  permute_param {
    order: 0
    order: 2
    order: 3
    order: 1
  }
}
layer {
  name: "conv9_2_mbox_conf_flat"
  type: "Flatten"
  bottom: "conv9_2_mbox_conf_perm"
  top: "conv9_2_mbox_conf_flat"
  flatten_param {
    axis: 1
  }
}
layer {
  name: "conv9_2_mbox_priorbox"
  type: "PriorBox"
  bottom: "conv9_2"
  bottom: "data"
  top: "conv9_2_mbox_priorbox"
  prior_box_param {
    min_size: 264
    max_size: 315
    aspect_ratio: 2
    flip: true
    clip: false
    variance: 0.1
    variance: 0.1
    variance: 0.2
    variance: 0.2
    step: 300
    offset: 0.5
  }
}
layer {
  name: "mbox_loc"
  type: "Concat"
  bottom: "conv4_3_norm_mbox_loc_flat"
  bottom: "fc7_mbox_loc_flat"
  bottom: "conv6_2_mbox_loc_flat"
  bottom: "conv7_2_mbox_loc_flat"
  bottom: "conv8_2_mbox_loc_flat"
  bottom: "conv9_2_mbox_loc_flat"
  top: "mbox_loc"
  concat_param {
    axis: 1
  }
}
layer {
  name: "mbox_conf"
  type: "Concat"
  bottom: "conv4_3_norm_mbox_conf_flat"
  bottom: "fc7_mbox_conf_flat"
  bottom: "conv6_2_mbox_conf_flat"
  bottom: "conv7_2_mbox_conf_flat"
  bottom: "conv8_2_mbox_conf_flat"
  bottom: "conv9_2_mbox_conf_flat"
  top: "mbox_conf"
  concat_param {
    axis: 1
  }
}
layer {
  name: "mbox_priorbox"
  type: "Concat"
  bottom: "conv4_3_norm_mbox_priorbox"
  bottom: "fc7_mbox_priorbox"
  bottom: "conv6_2_mbox_priorbox"
  bottom: "conv7_2_mbox_priorbox"
  bottom: "conv8_2_mbox_priorbox"
  bottom: "conv9_2_mbox_priorbox"
  top: "mbox_priorbox"
  concat_param {
    axis: 2
  }
}
layer {
  name: "mbox_conf_reshape"
  type: "Reshape"
  bottom: "mbox_conf"
  top: "mbox_conf_reshape"
  reshape_param {
    shape {
      dim: 0
      dim: -1
      dim: 4
    }
  }
}
layer {
  name: "mbox_conf_softmax"
  type: "Softmax"
  bottom: "mbox_conf_reshape"
  top: "mbox_conf_softmax"
  softmax_param {
    axis: 2
  }
}
layer {
  name: "mbox_conf_flatten"
  type: "Flatten"
  bottom: "mbox_conf_softmax"
  top: "mbox_conf_flatten"
  flatten_param {
    axis: 1
  }
}
layer {
  name: "detection_out"
  type: "DetectionOutput"
  bottom: "mbox_loc"
  bottom: "mbox_conf_flatten"
  bottom: "mbox_priorbox"
  top: "detection_out"
  include {
    phase: TEST
  }
  detection_output_param {
    num_classes: 4
    share_location: true
    background_label_id: 0
    nms_param {
      nms_threshold: 0.45
      top_k: 400
    }
    save_output_param {
      output_directory: "/home/shomeb/m/markustp/data/VOCdevkit/results/VOC2007/SSD_Color_420x420/Main"
      output_name_prefix: "comp4_det_test_"
      output_format: "VOC"
      label_map_file: "data/ascend/labelmap.prototxt"
      name_size_file: "data/ascend/test_name_size.txt"
      num_test_image: 901
    }
    code_type: CENTER_SIZE
    keep_top_k: 200
    confidence_threshold: 0.01
  }
}
layer {
  name: "detection_eval"
  type: "DetectionEvaluate"
  bottom: "detection_out"
  bottom: "label"
  top: "detection_eval"
  include {
    phase: TEST
  }
  detection_evaluate_param {
    num_classes: 4
    background_label_id: 0
    overlap_threshold: 0.5
    evaluate_difficult_gt: false
    name_size_file: "data/ascend/test_name_size.txt"
  }
}
I0423 13:08:10.539299 10915 layer_factory.hpp:77] Creating layer data
I0423 13:08:10.539350 10915 net.cpp:100] Creating Layer data
I0423 13:08:10.539355 10915 net.cpp:408] data -> data
I0423 13:08:10.539362 10915 net.cpp:408] data -> label
I0423 13:08:10.540606 10934 db_lmdb.cpp:35] Opened lmdb /localdata/markustp/data/ascend/lmdb/ascend_test_lmdb
I0423 13:08:10.554322 10915 annotated_data_layer.cpp:62] output data size: 2,3,420,420
I0423 13:08:10.561185 10915 net.cpp:150] Setting up data
I0423 13:08:10.561208 10915 net.cpp:157] Top shape: 2 3 420 420 (1058400)
I0423 13:08:10.561213 10915 net.cpp:157] Top shape: 1 1 2 8 (16)
I0423 13:08:10.561214 10915 net.cpp:165] Memory required for data: 4233664
I0423 13:08:10.561219 10915 layer_factory.hpp:77] Creating layer data_data_0_split
I0423 13:08:10.561233 10915 net.cpp:100] Creating Layer data_data_0_split
I0423 13:08:10.561235 10915 net.cpp:434] data_data_0_split <- data
I0423 13:08:10.561242 10915 net.cpp:408] data_data_0_split -> data_data_0_split_0
I0423 13:08:10.561251 10915 net.cpp:408] data_data_0_split -> data_data_0_split_1
I0423 13:08:10.561257 10915 net.cpp:408] data_data_0_split -> data_data_0_split_2
I0423 13:08:10.561264 10915 net.cpp:408] data_data_0_split -> data_data_0_split_3
I0423 13:08:10.561269 10915 net.cpp:408] data_data_0_split -> data_data_0_split_4
I0423 13:08:10.561275 10915 net.cpp:408] data_data_0_split -> data_data_0_split_5
I0423 13:08:10.561282 10915 net.cpp:408] data_data_0_split -> data_data_0_split_6
I0423 13:08:10.561384 10915 net.cpp:150] Setting up data_data_0_split
I0423 13:08:10.561390 10915 net.cpp:157] Top shape: 2 3 420 420 (1058400)
I0423 13:08:10.561393 10915 net.cpp:157] Top shape: 2 3 420 420 (1058400)
I0423 13:08:10.561395 10915 net.cpp:157] Top shape: 2 3 420 420 (1058400)
I0423 13:08:10.561398 10915 net.cpp:157] Top shape: 2 3 420 420 (1058400)
I0423 13:08:10.561400 10915 net.cpp:157] Top shape: 2 3 420 420 (1058400)
I0423 13:08:10.561419 10915 net.cpp:157] Top shape: 2 3 420 420 (1058400)
I0423 13:08:10.561421 10915 net.cpp:157] Top shape: 2 3 420 420 (1058400)
I0423 13:08:10.561424 10915 net.cpp:165] Memory required for data: 33868864
I0423 13:08:10.561426 10915 layer_factory.hpp:77] Creating layer conv1_1
I0423 13:08:10.561437 10915 net.cpp:100] Creating Layer conv1_1
I0423 13:08:10.561439 10915 net.cpp:434] conv1_1 <- data_data_0_split_0
I0423 13:08:10.561444 10915 net.cpp:408] conv1_1 -> conv1_1
I0423 13:08:10.562441 10915 net.cpp:150] Setting up conv1_1
I0423 13:08:10.562451 10915 net.cpp:157] Top shape: 2 64 420 420 (22579200)
I0423 13:08:10.562454 10915 net.cpp:165] Memory required for data: 124185664
I0423 13:08:10.562463 10915 layer_factory.hpp:77] Creating layer relu1_1
I0423 13:08:10.562469 10915 net.cpp:100] Creating Layer relu1_1
I0423 13:08:10.562471 10915 net.cpp:434] relu1_1 <- conv1_1
I0423 13:08:10.562475 10915 net.cpp:395] relu1_1 -> conv1_1 (in-place)
I0423 13:08:10.562480 10915 net.cpp:150] Setting up relu1_1
I0423 13:08:10.562482 10915 net.cpp:157] Top shape: 2 64 420 420 (22579200)
I0423 13:08:10.562484 10915 net.cpp:165] Memory required for data: 214502464
I0423 13:08:10.562486 10915 layer_factory.hpp:77] Creating layer conv1_2
I0423 13:08:10.562494 10915 net.cpp:100] Creating Layer conv1_2
I0423 13:08:10.562496 10915 net.cpp:434] conv1_2 <- conv1_1
I0423 13:08:10.562500 10915 net.cpp:408] conv1_2 -> conv1_2
I0423 13:08:10.563637 10915 net.cpp:150] Setting up conv1_2
I0423 13:08:10.563647 10915 net.cpp:157] Top shape: 2 64 420 420 (22579200)
I0423 13:08:10.563649 10915 net.cpp:165] Memory required for data: 304819264
I0423 13:08:10.563655 10915 layer_factory.hpp:77] Creating layer relu1_2
I0423 13:08:10.563659 10915 net.cpp:100] Creating Layer relu1_2
I0423 13:08:10.563663 10915 net.cpp:434] relu1_2 <- conv1_2
I0423 13:08:10.563665 10915 net.cpp:395] relu1_2 -> conv1_2 (in-place)
I0423 13:08:10.563670 10915 net.cpp:150] Setting up relu1_2
I0423 13:08:10.563673 10915 net.cpp:157] Top shape: 2 64 420 420 (22579200)
I0423 13:08:10.563674 10915 net.cpp:165] Memory required for data: 395136064
I0423 13:08:10.563676 10915 layer_factory.hpp:77] Creating layer pool1
I0423 13:08:10.563680 10915 net.cpp:100] Creating Layer pool1
I0423 13:08:10.563683 10915 net.cpp:434] pool1 <- conv1_2
I0423 13:08:10.563685 10915 net.cpp:408] pool1 -> pool1
I0423 13:08:10.563714 10915 net.cpp:150] Setting up pool1
I0423 13:08:10.563719 10915 net.cpp:157] Top shape: 2 64 210 210 (5644800)
I0423 13:08:10.563721 10915 net.cpp:165] Memory required for data: 417715264
I0423 13:08:10.563724 10915 layer_factory.hpp:77] Creating layer conv2_1
I0423 13:08:10.563730 10915 net.cpp:100] Creating Layer conv2_1
I0423 13:08:10.563731 10915 net.cpp:434] conv2_1 <- pool1
I0423 13:08:10.563735 10915 net.cpp:408] conv2_1 -> conv2_1
I0423 13:08:10.564225 10915 net.cpp:150] Setting up conv2_1
I0423 13:08:10.564231 10915 net.cpp:157] Top shape: 2 128 210 210 (11289600)
I0423 13:08:10.564234 10915 net.cpp:165] Memory required for data: 462873664
I0423 13:08:10.564239 10915 layer_factory.hpp:77] Creating layer relu2_1
I0423 13:08:10.564244 10915 net.cpp:100] Creating Layer relu2_1
I0423 13:08:10.564246 10915 net.cpp:434] relu2_1 <- conv2_1
I0423 13:08:10.564249 10915 net.cpp:395] relu2_1 -> conv2_1 (in-place)
I0423 13:08:10.564252 10915 net.cpp:150] Setting up relu2_1
I0423 13:08:10.564255 10915 net.cpp:157] Top shape: 2 128 210 210 (11289600)
I0423 13:08:10.564257 10915 net.cpp:165] Memory required for data: 508032064
I0423 13:08:10.564258 10915 layer_factory.hpp:77] Creating layer conv2_2
I0423 13:08:10.564265 10915 net.cpp:100] Creating Layer conv2_2
I0423 13:08:10.564266 10915 net.cpp:434] conv2_2 <- conv2_1
I0423 13:08:10.564270 10915 net.cpp:408] conv2_2 -> conv2_2
I0423 13:08:10.565732 10915 net.cpp:150] Setting up conv2_2
I0423 13:08:10.565743 10915 net.cpp:157] Top shape: 2 128 210 210 (11289600)
I0423 13:08:10.565745 10915 net.cpp:165] Memory required for data: 553190464
I0423 13:08:10.565750 10915 layer_factory.hpp:77] Creating layer relu2_2
I0423 13:08:10.565754 10915 net.cpp:100] Creating Layer relu2_2
I0423 13:08:10.565771 10915 net.cpp:434] relu2_2 <- conv2_2
I0423 13:08:10.565775 10915 net.cpp:395] relu2_2 -> conv2_2 (in-place)
I0423 13:08:10.565779 10915 net.cpp:150] Setting up relu2_2
I0423 13:08:10.565783 10915 net.cpp:157] Top shape: 2 128 210 210 (11289600)
I0423 13:08:10.565784 10915 net.cpp:165] Memory required for data: 598348864
I0423 13:08:10.565786 10915 layer_factory.hpp:77] Creating layer pool2
I0423 13:08:10.565790 10915 net.cpp:100] Creating Layer pool2
I0423 13:08:10.565791 10915 net.cpp:434] pool2 <- conv2_2
I0423 13:08:10.565794 10915 net.cpp:408] pool2 -> pool2
I0423 13:08:10.565824 10915 net.cpp:150] Setting up pool2
I0423 13:08:10.565829 10915 net.cpp:157] Top shape: 2 128 105 105 (2822400)
I0423 13:08:10.565830 10915 net.cpp:165] Memory required for data: 609638464
I0423 13:08:10.565832 10915 layer_factory.hpp:77] Creating layer conv3_1
I0423 13:08:10.565840 10915 net.cpp:100] Creating Layer conv3_1
I0423 13:08:10.565841 10915 net.cpp:434] conv3_1 <- pool2
I0423 13:08:10.565845 10915 net.cpp:408] conv3_1 -> conv3_1
I0423 13:08:10.567252 10915 net.cpp:150] Setting up conv3_1
I0423 13:08:10.567260 10915 net.cpp:157] Top shape: 2 256 105 105 (5644800)
I0423 13:08:10.567261 10915 net.cpp:165] Memory required for data: 632217664
I0423 13:08:10.567267 10915 layer_factory.hpp:77] Creating layer relu3_1
I0423 13:08:10.567270 10915 net.cpp:100] Creating Layer relu3_1
I0423 13:08:10.567273 10915 net.cpp:434] relu3_1 <- conv3_1
I0423 13:08:10.567276 10915 net.cpp:395] relu3_1 -> conv3_1 (in-place)
I0423 13:08:10.567279 10915 net.cpp:150] Setting up relu3_1
I0423 13:08:10.567282 10915 net.cpp:157] Top shape: 2 256 105 105 (5644800)
I0423 13:08:10.567284 10915 net.cpp:165] Memory required for data: 654796864
I0423 13:08:10.567286 10915 layer_factory.hpp:77] Creating layer conv3_2
I0423 13:08:10.567291 10915 net.cpp:100] Creating Layer conv3_2
I0423 13:08:10.567292 10915 net.cpp:434] conv3_2 <- conv3_1
I0423 13:08:10.567296 10915 net.cpp:408] conv3_2 -> conv3_2
I0423 13:08:10.570677 10915 net.cpp:150] Setting up conv3_2
I0423 13:08:10.570691 10915 net.cpp:157] Top shape: 2 256 105 105 (5644800)
I0423 13:08:10.570693 10915 net.cpp:165] Memory required for data: 677376064
I0423 13:08:10.570699 10915 layer_factory.hpp:77] Creating layer relu3_2
I0423 13:08:10.570704 10915 net.cpp:100] Creating Layer relu3_2
I0423 13:08:10.570708 10915 net.cpp:434] relu3_2 <- conv3_2
I0423 13:08:10.570710 10915 net.cpp:395] relu3_2 -> conv3_2 (in-place)
I0423 13:08:10.570716 10915 net.cpp:150] Setting up relu3_2
I0423 13:08:10.570720 10915 net.cpp:157] Top shape: 2 256 105 105 (5644800)
I0423 13:08:10.570721 10915 net.cpp:165] Memory required for data: 699955264
I0423 13:08:10.570724 10915 layer_factory.hpp:77] Creating layer conv3_3
I0423 13:08:10.570732 10915 net.cpp:100] Creating Layer conv3_3
I0423 13:08:10.570734 10915 net.cpp:434] conv3_3 <- conv3_2
I0423 13:08:10.570737 10915 net.cpp:408] conv3_3 -> conv3_3
I0423 13:08:10.574115 10915 net.cpp:150] Setting up conv3_3
I0423 13:08:10.574131 10915 net.cpp:157] Top shape: 2 256 105 105 (5644800)
I0423 13:08:10.574132 10915 net.cpp:165] Memory required for data: 722534464
I0423 13:08:10.574138 10915 layer_factory.hpp:77] Creating layer relu3_3
I0423 13:08:10.574144 10915 net.cpp:100] Creating Layer relu3_3
I0423 13:08:10.574147 10915 net.cpp:434] relu3_3 <- conv3_3
I0423 13:08:10.574152 10915 net.cpp:395] relu3_3 -> conv3_3 (in-place)
I0423 13:08:10.574157 10915 net.cpp:150] Setting up relu3_3
I0423 13:08:10.574160 10915 net.cpp:157] Top shape: 2 256 105 105 (5644800)
I0423 13:08:10.574162 10915 net.cpp:165] Memory required for data: 745113664
I0423 13:08:10.574164 10915 layer_factory.hpp:77] Creating layer pool3
I0423 13:08:10.574168 10915 net.cpp:100] Creating Layer pool3
I0423 13:08:10.574170 10915 net.cpp:434] pool3 <- conv3_3
I0423 13:08:10.574173 10915 net.cpp:408] pool3 -> pool3
I0423 13:08:10.574204 10915 net.cpp:150] Setting up pool3
I0423 13:08:10.574208 10915 net.cpp:157] Top shape: 2 256 53 53 (1438208)
I0423 13:08:10.574209 10915 net.cpp:165] Memory required for data: 750866496
I0423 13:08:10.574224 10915 layer_factory.hpp:77] Creating layer conv4_1
I0423 13:08:10.574231 10915 net.cpp:100] Creating Layer conv4_1
I0423 13:08:10.574234 10915 net.cpp:434] conv4_1 <- pool3
I0423 13:08:10.574237 10915 net.cpp:408] conv4_1 -> conv4_1
I0423 13:08:10.580636 10915 net.cpp:150] Setting up conv4_1
I0423 13:08:10.580658 10915 net.cpp:157] Top shape: 2 512 53 53 (2876416)
I0423 13:08:10.580660 10915 net.cpp:165] Memory required for data: 762372160
I0423 13:08:10.580667 10915 layer_factory.hpp:77] Creating layer relu4_1
I0423 13:08:10.580677 10915 net.cpp:100] Creating Layer relu4_1
I0423 13:08:10.580679 10915 net.cpp:434] relu4_1 <- conv4_1
I0423 13:08:10.580684 10915 net.cpp:395] relu4_1 -> conv4_1 (in-place)
I0423 13:08:10.580691 10915 net.cpp:150] Setting up relu4_1
I0423 13:08:10.580694 10915 net.cpp:157] Top shape: 2 512 53 53 (2876416)
I0423 13:08:10.580696 10915 net.cpp:165] Memory required for data: 773877824
I0423 13:08:10.580698 10915 layer_factory.hpp:77] Creating layer conv4_2
I0423 13:08:10.580705 10915 net.cpp:100] Creating Layer conv4_2
I0423 13:08:10.580708 10915 net.cpp:434] conv4_2 <- conv4_1
I0423 13:08:10.580713 10915 net.cpp:408] conv4_2 -> conv4_2
I0423 13:08:10.593415 10915 net.cpp:150] Setting up conv4_2
I0423 13:08:10.593436 10915 net.cpp:157] Top shape: 2 512 53 53 (2876416)
I0423 13:08:10.593437 10915 net.cpp:165] Memory required for data: 785383488
I0423 13:08:10.593451 10915 layer_factory.hpp:77] Creating layer relu4_2
I0423 13:08:10.593458 10915 net.cpp:100] Creating Layer relu4_2
I0423 13:08:10.593461 10915 net.cpp:434] relu4_2 <- conv4_2
I0423 13:08:10.593466 10915 net.cpp:395] relu4_2 -> conv4_2 (in-place)
I0423 13:08:10.593473 10915 net.cpp:150] Setting up relu4_2
I0423 13:08:10.593477 10915 net.cpp:157] Top shape: 2 512 53 53 (2876416)
I0423 13:08:10.593477 10915 net.cpp:165] Memory required for data: 796889152
I0423 13:08:10.593480 10915 layer_factory.hpp:77] Creating layer conv4_3
I0423 13:08:10.593487 10915 net.cpp:100] Creating Layer conv4_3
I0423 13:08:10.593489 10915 net.cpp:434] conv4_3 <- conv4_2
I0423 13:08:10.593493 10915 net.cpp:408] conv4_3 -> conv4_3
I0423 13:08:10.605965 10915 net.cpp:150] Setting up conv4_3
I0423 13:08:10.605985 10915 net.cpp:157] Top shape: 2 512 53 53 (2876416)
I0423 13:08:10.605988 10915 net.cpp:165] Memory required for data: 808394816
I0423 13:08:10.605994 10915 layer_factory.hpp:77] Creating layer relu4_3
I0423 13:08:10.606003 10915 net.cpp:100] Creating Layer relu4_3
I0423 13:08:10.606006 10915 net.cpp:434] relu4_3 <- conv4_3
I0423 13:08:10.606011 10915 net.cpp:395] relu4_3 -> conv4_3 (in-place)
I0423 13:08:10.606019 10915 net.cpp:150] Setting up relu4_3
I0423 13:08:10.606021 10915 net.cpp:157] Top shape: 2 512 53 53 (2876416)
I0423 13:08:10.606024 10915 net.cpp:165] Memory required for data: 819900480
I0423 13:08:10.606025 10915 layer_factory.hpp:77] Creating layer conv4_3_relu4_3_0_split
I0423 13:08:10.606029 10915 net.cpp:100] Creating Layer conv4_3_relu4_3_0_split
I0423 13:08:10.606031 10915 net.cpp:434] conv4_3_relu4_3_0_split <- conv4_3
I0423 13:08:10.606034 10915 net.cpp:408] conv4_3_relu4_3_0_split -> conv4_3_relu4_3_0_split_0
I0423 13:08:10.606040 10915 net.cpp:408] conv4_3_relu4_3_0_split -> conv4_3_relu4_3_0_split_1
I0423 13:08:10.606067 10915 net.cpp:150] Setting up conv4_3_relu4_3_0_split
I0423 13:08:10.606071 10915 net.cpp:157] Top shape: 2 512 53 53 (2876416)
I0423 13:08:10.606075 10915 net.cpp:157] Top shape: 2 512 53 53 (2876416)
I0423 13:08:10.606076 10915 net.cpp:165] Memory required for data: 842911808
I0423 13:08:10.606077 10915 layer_factory.hpp:77] Creating layer pool4
I0423 13:08:10.606082 10915 net.cpp:100] Creating Layer pool4
I0423 13:08:10.606084 10915 net.cpp:434] pool4 <- conv4_3_relu4_3_0_split_0
I0423 13:08:10.606087 10915 net.cpp:408] pool4 -> pool4
I0423 13:08:10.606112 10915 net.cpp:150] Setting up pool4
I0423 13:08:10.606117 10915 net.cpp:157] Top shape: 2 512 27 27 (746496)
I0423 13:08:10.606118 10915 net.cpp:165] Memory required for data: 845897792
I0423 13:08:10.606137 10915 layer_factory.hpp:77] Creating layer conv5_1
I0423 13:08:10.606144 10915 net.cpp:100] Creating Layer conv5_1
I0423 13:08:10.606148 10915 net.cpp:434] conv5_1 <- pool4
I0423 13:08:10.606151 10915 net.cpp:408] conv5_1 -> conv5_1
I0423 13:08:10.618477 10915 net.cpp:150] Setting up conv5_1
I0423 13:08:10.618497 10915 net.cpp:157] Top shape: 2 512 27 27 (746496)
I0423 13:08:10.618500 10915 net.cpp:165] Memory required for data: 848883776
I0423 13:08:10.618506 10915 layer_factory.hpp:77] Creating layer relu5_1
I0423 13:08:10.618513 10915 net.cpp:100] Creating Layer relu5_1
I0423 13:08:10.618517 10915 net.cpp:434] relu5_1 <- conv5_1
I0423 13:08:10.618522 10915 net.cpp:395] relu5_1 -> conv5_1 (in-place)
I0423 13:08:10.618530 10915 net.cpp:150] Setting up relu5_1
I0423 13:08:10.618532 10915 net.cpp:157] Top shape: 2 512 27 27 (746496)
I0423 13:08:10.618533 10915 net.cpp:165] Memory required for data: 851869760
I0423 13:08:10.618535 10915 layer_factory.hpp:77] Creating layer conv5_2
I0423 13:08:10.618543 10915 net.cpp:100] Creating Layer conv5_2
I0423 13:08:10.618546 10915 net.cpp:434] conv5_2 <- conv5_1
I0423 13:08:10.618548 10915 net.cpp:408] conv5_2 -> conv5_2
I0423 13:08:10.630882 10915 net.cpp:150] Setting up conv5_2
I0423 13:08:10.630901 10915 net.cpp:157] Top shape: 2 512 27 27 (746496)
I0423 13:08:10.630903 10915 net.cpp:165] Memory required for data: 854855744
I0423 13:08:10.630910 10915 layer_factory.hpp:77] Creating layer relu5_2
I0423 13:08:10.630918 10915 net.cpp:100] Creating Layer relu5_2
I0423 13:08:10.630923 10915 net.cpp:434] relu5_2 <- conv5_2
I0423 13:08:10.630928 10915 net.cpp:395] relu5_2 -> conv5_2 (in-place)
I0423 13:08:10.630934 10915 net.cpp:150] Setting up relu5_2
I0423 13:08:10.630936 10915 net.cpp:157] Top shape: 2 512 27 27 (746496)
I0423 13:08:10.630939 10915 net.cpp:165] Memory required for data: 857841728
I0423 13:08:10.630940 10915 layer_factory.hpp:77] Creating layer conv5_3
I0423 13:08:10.630947 10915 net.cpp:100] Creating Layer conv5_3
I0423 13:08:10.630950 10915 net.cpp:434] conv5_3 <- conv5_2
I0423 13:08:10.630954 10915 net.cpp:408] conv5_3 -> conv5_3
I0423 13:08:10.646598 10915 net.cpp:150] Setting up conv5_3
I0423 13:08:10.646623 10915 net.cpp:157] Top shape: 2 512 27 27 (746496)
I0423 13:08:10.646625 10915 net.cpp:165] Memory required for data: 860827712
I0423 13:08:10.646633 10915 layer_factory.hpp:77] Creating layer relu5_3
I0423 13:08:10.646646 10915 net.cpp:100] Creating Layer relu5_3
I0423 13:08:10.646648 10915 net.cpp:434] relu5_3 <- conv5_3
I0423 13:08:10.646654 10915 net.cpp:395] relu5_3 -> conv5_3 (in-place)
I0423 13:08:10.646661 10915 net.cpp:150] Setting up relu5_3
I0423 13:08:10.646664 10915 net.cpp:157] Top shape: 2 512 27 27 (746496)
I0423 13:08:10.646667 10915 net.cpp:165] Memory required for data: 863813696
I0423 13:08:10.646668 10915 layer_factory.hpp:77] Creating layer pool5
I0423 13:08:10.646672 10915 net.cpp:100] Creating Layer pool5
I0423 13:08:10.646673 10915 net.cpp:434] pool5 <- conv5_3
I0423 13:08:10.646677 10915 net.cpp:408] pool5 -> pool5
I0423 13:08:10.646708 10915 net.cpp:150] Setting up pool5
I0423 13:08:10.646713 10915 net.cpp:157] Top shape: 2 512 27 27 (746496)
I0423 13:08:10.646713 10915 net.cpp:165] Memory required for data: 866799680
I0423 13:08:10.646715 10915 layer_factory.hpp:77] Creating layer fc6
I0423 13:08:10.646724 10915 net.cpp:100] Creating Layer fc6
I0423 13:08:10.646726 10915 net.cpp:434] fc6 <- pool5
I0423 13:08:10.646729 10915 net.cpp:408] fc6 -> fc6
I0423 13:08:10.672013 10915 net.cpp:150] Setting up fc6
I0423 13:08:10.672073 10915 net.cpp:157] Top shape: 2 1024 27 27 (1492992)
I0423 13:08:10.672086 10915 net.cpp:165] Memory required for data: 872771648
I0423 13:08:10.672103 10915 layer_factory.hpp:77] Creating layer relu6
I0423 13:08:10.672122 10915 net.cpp:100] Creating Layer relu6
I0423 13:08:10.672134 10915 net.cpp:434] relu6 <- fc6
I0423 13:08:10.672149 10915 net.cpp:395] relu6 -> fc6 (in-place)
I0423 13:08:10.672166 10915 net.cpp:150] Setting up relu6
I0423 13:08:10.672188 10915 net.cpp:157] Top shape: 2 1024 27 27 (1492992)
I0423 13:08:10.672207 10915 net.cpp:165] Memory required for data: 878743616
I0423 13:08:10.672219 10915 layer_factory.hpp:77] Creating layer fc7
I0423 13:08:10.672236 10915 net.cpp:100] Creating Layer fc7
I0423 13:08:10.672247 10915 net.cpp:434] fc7 <- fc6
I0423 13:08:10.672261 10915 net.cpp:408] fc7 -> fc7
I0423 13:08:10.679499 10915 net.cpp:150] Setting up fc7
I0423 13:08:10.679522 10915 net.cpp:157] Top shape: 2 1024 27 27 (1492992)
I0423 13:08:10.679523 10915 net.cpp:165] Memory required for data: 884715584
I0423 13:08:10.679532 10915 layer_factory.hpp:77] Creating layer relu7
I0423 13:08:10.679539 10915 net.cpp:100] Creating Layer relu7
I0423 13:08:10.679543 10915 net.cpp:434] relu7 <- fc7
I0423 13:08:10.679546 10915 net.cpp:395] relu7 -> fc7 (in-place)
I0423 13:08:10.679554 10915 net.cpp:150] Setting up relu7
I0423 13:08:10.679558 10915 net.cpp:157] Top shape: 2 1024 27 27 (1492992)
I0423 13:08:10.679558 10915 net.cpp:165] Memory required for data: 890687552
I0423 13:08:10.679560 10915 layer_factory.hpp:77] Creating layer fc7_relu7_0_split
I0423 13:08:10.679565 10915 net.cpp:100] Creating Layer fc7_relu7_0_split
I0423 13:08:10.679567 10915 net.cpp:434] fc7_relu7_0_split <- fc7
I0423 13:08:10.679570 10915 net.cpp:408] fc7_relu7_0_split -> fc7_relu7_0_split_0
I0423 13:08:10.679575 10915 net.cpp:408] fc7_relu7_0_split -> fc7_relu7_0_split_1
I0423 13:08:10.679584 10915 net.cpp:408] fc7_relu7_0_split -> fc7_relu7_0_split_2
I0423 13:08:10.679587 10915 net.cpp:408] fc7_relu7_0_split -> fc7_relu7_0_split_3
I0423 13:08:10.679631 10915 net.cpp:150] Setting up fc7_relu7_0_split
I0423 13:08:10.679636 10915 net.cpp:157] Top shape: 2 1024 27 27 (1492992)
I0423 13:08:10.679641 10915 net.cpp:157] Top shape: 2 1024 27 27 (1492992)
I0423 13:08:10.679643 10915 net.cpp:157] Top shape: 2 1024 27 27 (1492992)
I0423 13:08:10.679646 10915 net.cpp:157] Top shape: 2 1024 27 27 (1492992)
I0423 13:08:10.679647 10915 net.cpp:165] Memory required for data: 914575424
I0423 13:08:10.679649 10915 layer_factory.hpp:77] Creating layer conv6_1
I0423 13:08:10.679657 10915 net.cpp:100] Creating Layer conv6_1
I0423 13:08:10.679659 10915 net.cpp:434] conv6_1 <- fc7_relu7_0_split_0
I0423 13:08:10.679664 10915 net.cpp:408] conv6_1 -> conv6_1
I0423 13:08:10.681686 10915 net.cpp:150] Setting up conv6_1
I0423 13:08:10.681699 10915 net.cpp:157] Top shape: 2 256 27 27 (373248)
I0423 13:08:10.681700 10915 net.cpp:165] Memory required for data: 916068416
I0423 13:08:10.681705 10915 layer_factory.hpp:77] Creating layer conv6_1_relu
I0423 13:08:10.681710 10915 net.cpp:100] Creating Layer conv6_1_relu
I0423 13:08:10.681712 10915 net.cpp:434] conv6_1_relu <- conv6_1
I0423 13:08:10.681716 10915 net.cpp:395] conv6_1_relu -> conv6_1 (in-place)
I0423 13:08:10.681721 10915 net.cpp:150] Setting up conv6_1_relu
I0423 13:08:10.681725 10915 net.cpp:157] Top shape: 2 256 27 27 (373248)
I0423 13:08:10.681725 10915 net.cpp:165] Memory required for data: 917561408
I0423 13:08:10.681727 10915 layer_factory.hpp:77] Creating layer conv6_2
I0423 13:08:10.681733 10915 net.cpp:100] Creating Layer conv6_2
I0423 13:08:10.681735 10915 net.cpp:434] conv6_2 <- conv6_1
I0423 13:08:10.681740 10915 net.cpp:408] conv6_2 -> conv6_2
I0423 13:08:10.692248 10915 net.cpp:150] Setting up conv6_2
I0423 13:08:10.692312 10915 net.cpp:157] Top shape: 2 512 14 14 (200704)
I0423 13:08:10.692325 10915 net.cpp:165] Memory required for data: 918364224
I0423 13:08:10.692348 10915 layer_factory.hpp:77] Creating layer conv6_2_relu
I0423 13:08:10.692365 10915 net.cpp:100] Creating Layer conv6_2_relu
I0423 13:08:10.692378 10915 net.cpp:434] conv6_2_relu <- conv6_2
I0423 13:08:10.692392 10915 net.cpp:395] conv6_2_relu -> conv6_2 (in-place)
I0423 13:08:10.692409 10915 net.cpp:150] Setting up conv6_2_relu
I0423 13:08:10.692421 10915 net.cpp:157] Top shape: 2 512 14 14 (200704)
I0423 13:08:10.692430 10915 net.cpp:165] Memory required for data: 919167040
I0423 13:08:10.692440 10915 layer_factory.hpp:77] Creating layer conv6_2_conv6_2_relu_0_split
I0423 13:08:10.692463 10915 net.cpp:100] Creating Layer conv6_2_conv6_2_relu_0_split
I0423 13:08:10.692483 10915 net.cpp:434] conv6_2_conv6_2_relu_0_split <- conv6_2
I0423 13:08:10.692497 10915 net.cpp:408] conv6_2_conv6_2_relu_0_split -> conv6_2_conv6_2_relu_0_split_0
I0423 13:08:10.692512 10915 net.cpp:408] conv6_2_conv6_2_relu_0_split -> conv6_2_conv6_2_relu_0_split_1
I0423 13:08:10.692528 10915 net.cpp:408] conv6_2_conv6_2_relu_0_split -> conv6_2_conv6_2_relu_0_split_2
I0423 13:08:10.692541 10915 net.cpp:408] conv6_2_conv6_2_relu_0_split -> conv6_2_conv6_2_relu_0_split_3
I0423 13:08:10.692620 10915 net.cpp:150] Setting up conv6_2_conv6_2_relu_0_split
I0423 13:08:10.692637 10915 net.cpp:157] Top shape: 2 512 14 14 (200704)
I0423 13:08:10.692648 10915 net.cpp:157] Top shape: 2 512 14 14 (200704)
I0423 13:08:10.692659 10915 net.cpp:157] Top shape: 2 512 14 14 (200704)
I0423 13:08:10.692670 10915 net.cpp:157] Top shape: 2 512 14 14 (200704)
I0423 13:08:10.692680 10915 net.cpp:165] Memory required for data: 922378304
I0423 13:08:10.692689 10915 layer_factory.hpp:77] Creating layer conv7_1
I0423 13:08:10.692706 10915 net.cpp:100] Creating Layer conv7_1
I0423 13:08:10.692718 10915 net.cpp:434] conv7_1 <- conv6_2_conv6_2_relu_0_split_0
I0423 13:08:10.692731 10915 net.cpp:408] conv7_1 -> conv7_1
I0423 13:08:10.693580 10915 net.cpp:150] Setting up conv7_1
I0423 13:08:10.693599 10915 net.cpp:157] Top shape: 2 128 14 14 (50176)
I0423 13:08:10.693610 10915 net.cpp:165] Memory required for data: 922579008
I0423 13:08:10.693624 10915 layer_factory.hpp:77] Creating layer conv7_1_relu
I0423 13:08:10.693636 10915 net.cpp:100] Creating Layer conv7_1_relu
I0423 13:08:10.693646 10915 net.cpp:434] conv7_1_relu <- conv7_1
I0423 13:08:10.693657 10915 net.cpp:395] conv7_1_relu -> conv7_1 (in-place)
I0423 13:08:10.693670 10915 net.cpp:150] Setting up conv7_1_relu
I0423 13:08:10.693682 10915 net.cpp:157] Top shape: 2 128 14 14 (50176)
I0423 13:08:10.693691 10915 net.cpp:165] Memory required for data: 922779712
I0423 13:08:10.693701 10915 layer_factory.hpp:77] Creating layer conv7_2
I0423 13:08:10.693716 10915 net.cpp:100] Creating Layer conv7_2
I0423 13:08:10.693725 10915 net.cpp:434] conv7_2 <- conv7_1
I0423 13:08:10.693738 10915 net.cpp:408] conv7_2 -> conv7_2
I0423 13:08:10.696128 10915 net.cpp:150] Setting up conv7_2
I0423 13:08:10.696141 10915 net.cpp:157] Top shape: 2 256 7 7 (25088)
I0423 13:08:10.696143 10915 net.cpp:165] Memory required for data: 922880064
I0423 13:08:10.696147 10915 layer_factory.hpp:77] Creating layer conv7_2_relu
I0423 13:08:10.696152 10915 net.cpp:100] Creating Layer conv7_2_relu
I0423 13:08:10.696156 10915 net.cpp:434] conv7_2_relu <- conv7_2
I0423 13:08:10.696159 10915 net.cpp:395] conv7_2_relu -> conv7_2 (in-place)
I0423 13:08:10.696164 10915 net.cpp:150] Setting up conv7_2_relu
I0423 13:08:10.696166 10915 net.cpp:157] Top shape: 2 256 7 7 (25088)
I0423 13:08:10.696168 10915 net.cpp:165] Memory required for data: 922980416
I0423 13:08:10.696171 10915 layer_factory.hpp:77] Creating layer conv7_2_conv7_2_relu_0_split
I0423 13:08:10.696174 10915 net.cpp:100] Creating Layer conv7_2_conv7_2_relu_0_split
I0423 13:08:10.696177 10915 net.cpp:434] conv7_2_conv7_2_relu_0_split <- conv7_2
I0423 13:08:10.696182 10915 net.cpp:408] conv7_2_conv7_2_relu_0_split -> conv7_2_conv7_2_relu_0_split_0
I0423 13:08:10.696188 10915 net.cpp:408] conv7_2_conv7_2_relu_0_split -> conv7_2_conv7_2_relu_0_split_1
I0423 13:08:10.696193 10915 net.cpp:408] conv7_2_conv7_2_relu_0_split -> conv7_2_conv7_2_relu_0_split_2
I0423 13:08:10.696197 10915 net.cpp:408] conv7_2_conv7_2_relu_0_split -> conv7_2_conv7_2_relu_0_split_3
I0423 13:08:10.696254 10915 net.cpp:150] Setting up conv7_2_conv7_2_relu_0_split
I0423 13:08:10.696259 10915 net.cpp:157] Top shape: 2 256 7 7 (25088)
I0423 13:08:10.696262 10915 net.cpp:157] Top shape: 2 256 7 7 (25088)
I0423 13:08:10.696264 10915 net.cpp:157] Top shape: 2 256 7 7 (25088)
I0423 13:08:10.696269 10915 net.cpp:157] Top shape: 2 256 7 7 (25088)
I0423 13:08:10.696271 10915 net.cpp:165] Memory required for data: 923381824
I0423 13:08:10.696274 10915 layer_factory.hpp:77] Creating layer conv8_1
I0423 13:08:10.696295 10915 net.cpp:100] Creating Layer conv8_1
I0423 13:08:10.696298 10915 net.cpp:434] conv8_1 <- conv7_2_conv7_2_relu_0_split_0
I0423 13:08:10.696305 10915 net.cpp:408] conv8_1 -> conv8_1
I0423 13:08:10.696619 10915 net.cpp:150] Setting up conv8_1
I0423 13:08:10.696624 10915 net.cpp:157] Top shape: 2 128 7 7 (12544)
I0423 13:08:10.696626 10915 net.cpp:165] Memory required for data: 923432000
I0423 13:08:10.696630 10915 layer_factory.hpp:77] Creating layer conv8_1_relu
I0423 13:08:10.696635 10915 net.cpp:100] Creating Layer conv8_1_relu
I0423 13:08:10.696636 10915 net.cpp:434] conv8_1_relu <- conv8_1
I0423 13:08:10.696640 10915 net.cpp:395] conv8_1_relu -> conv8_1 (in-place)
I0423 13:08:10.696643 10915 net.cpp:150] Setting up conv8_1_relu
I0423 13:08:10.696648 10915 net.cpp:157] Top shape: 2 128 7 7 (12544)
I0423 13:08:10.696650 10915 net.cpp:165] Memory required for data: 923482176
I0423 13:08:10.696652 10915 layer_factory.hpp:77] Creating layer conv8_2
I0423 13:08:10.696660 10915 net.cpp:100] Creating Layer conv8_2
I0423 13:08:10.696662 10915 net.cpp:434] conv8_2 <- conv8_1
I0423 13:08:10.696668 10915 net.cpp:408] conv8_2 -> conv8_2
I0423 13:08:10.698803 10915 net.cpp:150] Setting up conv8_2
I0423 13:08:10.698815 10915 net.cpp:157] Top shape: 2 256 5 5 (12800)
I0423 13:08:10.698817 10915 net.cpp:165] Memory required for data: 923533376
I0423 13:08:10.698822 10915 layer_factory.hpp:77] Creating layer conv8_2_relu
I0423 13:08:10.698829 10915 net.cpp:100] Creating Layer conv8_2_relu
I0423 13:08:10.698833 10915 net.cpp:434] conv8_2_relu <- conv8_2
I0423 13:08:10.698837 10915 net.cpp:395] conv8_2_relu -> conv8_2 (in-place)
I0423 13:08:10.698843 10915 net.cpp:150] Setting up conv8_2_relu
I0423 13:08:10.698848 10915 net.cpp:157] Top shape: 2 256 5 5 (12800)
I0423 13:08:10.698850 10915 net.cpp:165] Memory required for data: 923584576
I0423 13:08:10.698853 10915 layer_factory.hpp:77] Creating layer conv8_2_conv8_2_relu_0_split
I0423 13:08:10.698858 10915 net.cpp:100] Creating Layer conv8_2_conv8_2_relu_0_split
I0423 13:08:10.698861 10915 net.cpp:434] conv8_2_conv8_2_relu_0_split <- conv8_2
I0423 13:08:10.698866 10915 net.cpp:408] conv8_2_conv8_2_relu_0_split -> conv8_2_conv8_2_relu_0_split_0
I0423 13:08:10.698873 10915 net.cpp:408] conv8_2_conv8_2_relu_0_split -> conv8_2_conv8_2_relu_0_split_1
I0423 13:08:10.698879 10915 net.cpp:408] conv8_2_conv8_2_relu_0_split -> conv8_2_conv8_2_relu_0_split_2
I0423 13:08:10.698884 10915 net.cpp:408] conv8_2_conv8_2_relu_0_split -> conv8_2_conv8_2_relu_0_split_3
I0423 13:08:10.698931 10915 net.cpp:150] Setting up conv8_2_conv8_2_relu_0_split
I0423 13:08:10.698937 10915 net.cpp:157] Top shape: 2 256 5 5 (12800)
I0423 13:08:10.698940 10915 net.cpp:157] Top shape: 2 256 5 5 (12800)
I0423 13:08:10.698942 10915 net.cpp:157] Top shape: 2 256 5 5 (12800)
I0423 13:08:10.698945 10915 net.cpp:157] Top shape: 2 256 5 5 (12800)
I0423 13:08:10.698946 10915 net.cpp:165] Memory required for data: 923789376
I0423 13:08:10.698948 10915 layer_factory.hpp:77] Creating layer conv9_1
I0423 13:08:10.698954 10915 net.cpp:100] Creating Layer conv9_1
I0423 13:08:10.698957 10915 net.cpp:434] conv9_1 <- conv8_2_conv8_2_relu_0_split_0
I0423 13:08:10.698962 10915 net.cpp:408] conv9_1 -> conv9_1
I0423 13:08:10.699272 10915 net.cpp:150] Setting up conv9_1
I0423 13:08:10.699278 10915 net.cpp:157] Top shape: 2 128 5 5 (6400)
I0423 13:08:10.699280 10915 net.cpp:165] Memory required for data: 923814976
I0423 13:08:10.699285 10915 layer_factory.hpp:77] Creating layer conv9_1_relu
I0423 13:08:10.699288 10915 net.cpp:100] Creating Layer conv9_1_relu
I0423 13:08:10.699292 10915 net.cpp:434] conv9_1_relu <- conv9_1
I0423 13:08:10.699295 10915 net.cpp:395] conv9_1_relu -> conv9_1 (in-place)
I0423 13:08:10.699301 10915 net.cpp:150] Setting up conv9_1_relu
I0423 13:08:10.699304 10915 net.cpp:157] Top shape: 2 128 5 5 (6400)
I0423 13:08:10.699306 10915 net.cpp:165] Memory required for data: 923840576
I0423 13:08:10.699308 10915 layer_factory.hpp:77] Creating layer conv9_2
I0423 13:08:10.699326 10915 net.cpp:100] Creating Layer conv9_2
I0423 13:08:10.699331 10915 net.cpp:434] conv9_2 <- conv9_1
I0423 13:08:10.699335 10915 net.cpp:408] conv9_2 -> conv9_2
I0423 13:08:10.701455 10915 net.cpp:150] Setting up conv9_2
I0423 13:08:10.701472 10915 net.cpp:157] Top shape: 2 256 3 3 (4608)
I0423 13:08:10.701475 10915 net.cpp:165] Memory required for data: 923859008
I0423 13:08:10.701481 10915 layer_factory.hpp:77] Creating layer conv9_2_relu
I0423 13:08:10.701488 10915 net.cpp:100] Creating Layer conv9_2_relu
I0423 13:08:10.701491 10915 net.cpp:434] conv9_2_relu <- conv9_2
I0423 13:08:10.701496 10915 net.cpp:395] conv9_2_relu -> conv9_2 (in-place)
I0423 13:08:10.701503 10915 net.cpp:150] Setting up conv9_2_relu
I0423 13:08:10.701505 10915 net.cpp:157] Top shape: 2 256 3 3 (4608)
I0423 13:08:10.701506 10915 net.cpp:165] Memory required for data: 923877440
I0423 13:08:10.701508 10915 layer_factory.hpp:77] Creating layer conv9_2_conv9_2_relu_0_split
I0423 13:08:10.701514 10915 net.cpp:100] Creating Layer conv9_2_conv9_2_relu_0_split
I0423 13:08:10.701516 10915 net.cpp:434] conv9_2_conv9_2_relu_0_split <- conv9_2
I0423 13:08:10.701521 10915 net.cpp:408] conv9_2_conv9_2_relu_0_split -> conv9_2_conv9_2_relu_0_split_0
I0423 13:08:10.701529 10915 net.cpp:408] conv9_2_conv9_2_relu_0_split -> conv9_2_conv9_2_relu_0_split_1
I0423 13:08:10.701535 10915 net.cpp:408] conv9_2_conv9_2_relu_0_split -> conv9_2_conv9_2_relu_0_split_2
I0423 13:08:10.701577 10915 net.cpp:150] Setting up conv9_2_conv9_2_relu_0_split
I0423 13:08:10.701582 10915 net.cpp:157] Top shape: 2 256 3 3 (4608)
I0423 13:08:10.701586 10915 net.cpp:157] Top shape: 2 256 3 3 (4608)
I0423 13:08:10.701588 10915 net.cpp:157] Top shape: 2 256 3 3 (4608)
I0423 13:08:10.701589 10915 net.cpp:165] Memory required for data: 923932736
I0423 13:08:10.701591 10915 layer_factory.hpp:77] Creating layer conv4_3_norm
I0423 13:08:10.701597 10915 net.cpp:100] Creating Layer conv4_3_norm
I0423 13:08:10.701601 10915 net.cpp:434] conv4_3_norm <- conv4_3_relu4_3_0_split_1
I0423 13:08:10.701606 10915 net.cpp:408] conv4_3_norm -> conv4_3_norm
I0423 13:08:10.701728 10915 net.cpp:150] Setting up conv4_3_norm
I0423 13:08:10.701733 10915 net.cpp:157] Top shape: 2 512 53 53 (2876416)
I0423 13:08:10.701736 10915 net.cpp:165] Memory required for data: 935438400
I0423 13:08:10.701740 10915 layer_factory.hpp:77] Creating layer conv4_3_norm_conv4_3_norm_0_split
I0423 13:08:10.701745 10915 net.cpp:100] Creating Layer conv4_3_norm_conv4_3_norm_0_split
I0423 13:08:10.701747 10915 net.cpp:434] conv4_3_norm_conv4_3_norm_0_split <- conv4_3_norm
I0423 13:08:10.701752 10915 net.cpp:408] conv4_3_norm_conv4_3_norm_0_split -> conv4_3_norm_conv4_3_norm_0_split_0
I0423 13:08:10.701758 10915 net.cpp:408] conv4_3_norm_conv4_3_norm_0_split -> conv4_3_norm_conv4_3_norm_0_split_1
I0423 13:08:10.701763 10915 net.cpp:408] conv4_3_norm_conv4_3_norm_0_split -> conv4_3_norm_conv4_3_norm_0_split_2
I0423 13:08:10.701798 10915 net.cpp:150] Setting up conv4_3_norm_conv4_3_norm_0_split
I0423 13:08:10.701804 10915 net.cpp:157] Top shape: 2 512 53 53 (2876416)
I0423 13:08:10.701807 10915 net.cpp:157] Top shape: 2 512 53 53 (2876416)
I0423 13:08:10.701810 10915 net.cpp:157] Top shape: 2 512 53 53 (2876416)
I0423 13:08:10.701812 10915 net.cpp:165] Memory required for data: 969955392
I0423 13:08:10.701815 10915 layer_factory.hpp:77] Creating layer conv4_3_norm_mbox_loc
I0423 13:08:10.701825 10915 net.cpp:100] Creating Layer conv4_3_norm_mbox_loc
I0423 13:08:10.701828 10915 net.cpp:434] conv4_3_norm_mbox_loc <- conv4_3_norm_conv4_3_norm_0_split_0
I0423 13:08:10.701833 10915 net.cpp:408] conv4_3_norm_mbox_loc -> conv4_3_norm_mbox_loc
I0423 13:08:10.702627 10915 net.cpp:150] Setting up conv4_3_norm_mbox_loc
I0423 13:08:10.702656 10915 net.cpp:157] Top shape: 2 16 53 53 (89888)
I0423 13:08:10.702666 10915 net.cpp:165] Memory required for data: 970314944
I0423 13:08:10.702679 10915 layer_factory.hpp:77] Creating layer conv4_3_norm_mbox_loc_perm
I0423 13:08:10.702694 10915 net.cpp:100] Creating Layer conv4_3_norm_mbox_loc_perm
I0423 13:08:10.702721 10915 net.cpp:434] conv4_3_norm_mbox_loc_perm <- conv4_3_norm_mbox_loc
I0423 13:08:10.702735 10915 net.cpp:408] conv4_3_norm_mbox_loc_perm -> conv4_3_norm_mbox_loc_perm
I0423 13:08:10.702852 10915 net.cpp:150] Setting up conv4_3_norm_mbox_loc_perm
I0423 13:08:10.702869 10915 net.cpp:157] Top shape: 2 53 53 16 (89888)
I0423 13:08:10.702882 10915 net.cpp:165] Memory required for data: 970674496
I0423 13:08:10.702890 10915 layer_factory.hpp:77] Creating layer conv4_3_norm_mbox_loc_flat
I0423 13:08:10.702903 10915 net.cpp:100] Creating Layer conv4_3_norm_mbox_loc_flat
I0423 13:08:10.702915 10915 net.cpp:434] conv4_3_norm_mbox_loc_flat <- conv4_3_norm_mbox_loc_perm
I0423 13:08:10.702929 10915 net.cpp:408] conv4_3_norm_mbox_loc_flat -> conv4_3_norm_mbox_loc_flat
I0423 13:08:10.702975 10915 net.cpp:150] Setting up conv4_3_norm_mbox_loc_flat
I0423 13:08:10.702991 10915 net.cpp:157] Top shape: 2 44944 (89888)
I0423 13:08:10.703001 10915 net.cpp:165] Memory required for data: 971034048
I0423 13:08:10.703009 10915 layer_factory.hpp:77] Creating layer conv4_3_norm_mbox_conf
I0423 13:08:10.703032 10915 net.cpp:100] Creating Layer conv4_3_norm_mbox_conf
I0423 13:08:10.703043 10915 net.cpp:434] conv4_3_norm_mbox_conf <- conv4_3_norm_conv4_3_norm_0_split_1
I0423 13:08:10.703058 10915 net.cpp:408] conv4_3_norm_mbox_conf -> conv4_3_norm_mbox_conf
I0423 13:08:10.703963 10915 net.cpp:150] Setting up conv4_3_norm_mbox_conf
I0423 13:08:10.703982 10915 net.cpp:157] Top shape: 2 16 53 53 (89888)
I0423 13:08:10.703992 10915 net.cpp:165] Memory required for data: 971393600
I0423 13:08:10.704006 10915 layer_factory.hpp:77] Creating layer conv4_3_norm_mbox_conf_perm
I0423 13:08:10.704020 10915 net.cpp:100] Creating Layer conv4_3_norm_mbox_conf_perm
I0423 13:08:10.704030 10915 net.cpp:434] conv4_3_norm_mbox_conf_perm <- conv4_3_norm_mbox_conf
I0423 13:08:10.704042 10915 net.cpp:408] conv4_3_norm_mbox_conf_perm -> conv4_3_norm_mbox_conf_perm
I0423 13:08:10.704152 10915 net.cpp:150] Setting up conv4_3_norm_mbox_conf_perm
I0423 13:08:10.704169 10915 net.cpp:157] Top shape: 2 53 53 16 (89888)
I0423 13:08:10.704179 10915 net.cpp:165] Memory required for data: 971753152
I0423 13:08:10.704187 10915 layer_factory.hpp:77] Creating layer conv4_3_norm_mbox_conf_flat
I0423 13:08:10.704200 10915 net.cpp:100] Creating Layer conv4_3_norm_mbox_conf_flat
I0423 13:08:10.704210 10915 net.cpp:434] conv4_3_norm_mbox_conf_flat <- conv4_3_norm_mbox_conf_perm
I0423 13:08:10.704222 10915 net.cpp:408] conv4_3_norm_mbox_conf_flat -> conv4_3_norm_mbox_conf_flat
I0423 13:08:10.704257 10915 net.cpp:150] Setting up conv4_3_norm_mbox_conf_flat
I0423 13:08:10.704272 10915 net.cpp:157] Top shape: 2 44944 (89888)
I0423 13:08:10.704280 10915 net.cpp:165] Memory required for data: 972112704
I0423 13:08:10.704290 10915 layer_factory.hpp:77] Creating layer conv4_3_norm_mbox_priorbox
I0423 13:08:10.704304 10915 net.cpp:100] Creating Layer conv4_3_norm_mbox_priorbox
I0423 13:08:10.704315 10915 net.cpp:434] conv4_3_norm_mbox_priorbox <- conv4_3_norm_conv4_3_norm_0_split_2
I0423 13:08:10.704326 10915 net.cpp:434] conv4_3_norm_mbox_priorbox <- data_data_0_split_1
I0423 13:08:10.704339 10915 net.cpp:408] conv4_3_norm_mbox_priorbox -> conv4_3_norm_mbox_priorbox
I0423 13:08:10.704376 10915 net.cpp:150] Setting up conv4_3_norm_mbox_priorbox
I0423 13:08:10.704391 10915 net.cpp:157] Top shape: 1 2 44944 (89888)
I0423 13:08:10.704401 10915 net.cpp:165] Memory required for data: 972472256
I0423 13:08:10.704411 10915 layer_factory.hpp:77] Creating layer fc7_mbox_loc
I0423 13:08:10.704426 10915 net.cpp:100] Creating Layer fc7_mbox_loc
I0423 13:08:10.704437 10915 net.cpp:434] fc7_mbox_loc <- fc7_relu7_0_split_1
I0423 13:08:10.704450 10915 net.cpp:408] fc7_mbox_loc -> fc7_mbox_loc
I0423 13:08:10.706614 10915 net.cpp:150] Setting up fc7_mbox_loc
I0423 13:08:10.706641 10915 net.cpp:157] Top shape: 2 24 27 27 (34992)
I0423 13:08:10.706653 10915 net.cpp:165] Memory required for data: 972612224
I0423 13:08:10.706667 10915 layer_factory.hpp:77] Creating layer fc7_mbox_loc_perm
I0423 13:08:10.706686 10915 net.cpp:100] Creating Layer fc7_mbox_loc_perm
I0423 13:08:10.706706 10915 net.cpp:434] fc7_mbox_loc_perm <- fc7_mbox_loc
I0423 13:08:10.706719 10915 net.cpp:408] fc7_mbox_loc_perm -> fc7_mbox_loc_perm
I0423 13:08:10.706830 10915 net.cpp:150] Setting up fc7_mbox_loc_perm
I0423 13:08:10.706846 10915 net.cpp:157] Top shape: 2 27 27 24 (34992)
I0423 13:08:10.706856 10915 net.cpp:165] Memory required for data: 972752192
I0423 13:08:10.706866 10915 layer_factory.hpp:77] Creating layer fc7_mbox_loc_flat
I0423 13:08:10.706877 10915 net.cpp:100] Creating Layer fc7_mbox_loc_flat
I0423 13:08:10.706887 10915 net.cpp:434] fc7_mbox_loc_flat <- fc7_mbox_loc_perm
I0423 13:08:10.706900 10915 net.cpp:408] fc7_mbox_loc_flat -> fc7_mbox_loc_flat
I0423 13:08:10.706935 10915 net.cpp:150] Setting up fc7_mbox_loc_flat
I0423 13:08:10.706949 10915 net.cpp:157] Top shape: 2 17496 (34992)
I0423 13:08:10.706959 10915 net.cpp:165] Memory required for data: 972892160
I0423 13:08:10.706967 10915 layer_factory.hpp:77] Creating layer fc7_mbox_conf
I0423 13:08:10.706984 10915 net.cpp:100] Creating Layer fc7_mbox_conf
I0423 13:08:10.706995 10915 net.cpp:434] fc7_mbox_conf <- fc7_relu7_0_split_2
I0423 13:08:10.707007 10915 net.cpp:408] fc7_mbox_conf -> fc7_mbox_conf
I0423 13:08:10.708425 10915 net.cpp:150] Setting up fc7_mbox_conf
I0423 13:08:10.708456 10915 net.cpp:157] Top shape: 2 24 27 27 (34992)
I0423 13:08:10.708469 10915 net.cpp:165] Memory required for data: 973032128
I0423 13:08:10.708485 10915 layer_factory.hpp:77] Creating layer fc7_mbox_conf_perm
I0423 13:08:10.708503 10915 net.cpp:100] Creating Layer fc7_mbox_conf_perm
I0423 13:08:10.708509 10915 net.cpp:434] fc7_mbox_conf_perm <- fc7_mbox_conf
I0423 13:08:10.708515 10915 net.cpp:408] fc7_mbox_conf_perm -> fc7_mbox_conf_perm
I0423 13:08:10.708600 10915 net.cpp:150] Setting up fc7_mbox_conf_perm
I0423 13:08:10.708607 10915 net.cpp:157] Top shape: 2 27 27 24 (34992)
I0423 13:08:10.708611 10915 net.cpp:165] Memory required for data: 973172096
I0423 13:08:10.708614 10915 layer_factory.hpp:77] Creating layer fc7_mbox_conf_flat
I0423 13:08:10.708621 10915 net.cpp:100] Creating Layer fc7_mbox_conf_flat
I0423 13:08:10.708626 10915 net.cpp:434] fc7_mbox_conf_flat <- fc7_mbox_conf_perm
I0423 13:08:10.708631 10915 net.cpp:408] fc7_mbox_conf_flat -> fc7_mbox_conf_flat
I0423 13:08:10.708657 10915 net.cpp:150] Setting up fc7_mbox_conf_flat
I0423 13:08:10.708662 10915 net.cpp:157] Top shape: 2 17496 (34992)
I0423 13:08:10.708664 10915 net.cpp:165] Memory required for data: 973312064
I0423 13:08:10.708669 10915 layer_factory.hpp:77] Creating layer fc7_mbox_priorbox
I0423 13:08:10.708675 10915 net.cpp:100] Creating Layer fc7_mbox_priorbox
I0423 13:08:10.708679 10915 net.cpp:434] fc7_mbox_priorbox <- fc7_relu7_0_split_3
I0423 13:08:10.708684 10915 net.cpp:434] fc7_mbox_priorbox <- data_data_0_split_2
I0423 13:08:10.708691 10915 net.cpp:408] fc7_mbox_priorbox -> fc7_mbox_priorbox
I0423 13:08:10.708719 10915 net.cpp:150] Setting up fc7_mbox_priorbox
I0423 13:08:10.708725 10915 net.cpp:157] Top shape: 1 2 17496 (34992)
I0423 13:08:10.708729 10915 net.cpp:165] Memory required for data: 973452032
I0423 13:08:10.708731 10915 layer_factory.hpp:77] Creating layer conv6_2_mbox_loc
I0423 13:08:10.708742 10915 net.cpp:100] Creating Layer conv6_2_mbox_loc
I0423 13:08:10.708746 10915 net.cpp:434] conv6_2_mbox_loc <- conv6_2_conv6_2_relu_0_split_1
I0423 13:08:10.708753 10915 net.cpp:408] conv6_2_mbox_loc -> conv6_2_mbox_loc
I0423 13:08:10.709450 10915 net.cpp:150] Setting up conv6_2_mbox_loc
I0423 13:08:10.709457 10915 net.cpp:157] Top shape: 2 24 14 14 (9408)
I0423 13:08:10.709460 10915 net.cpp:165] Memory required for data: 973489664
I0423 13:08:10.709467 10915 layer_factory.hpp:77] Creating layer conv6_2_mbox_loc_perm
I0423 13:08:10.709475 10915 net.cpp:100] Creating Layer conv6_2_mbox_loc_perm
I0423 13:08:10.709478 10915 net.cpp:434] conv6_2_mbox_loc_perm <- conv6_2_mbox_loc
I0423 13:08:10.709484 10915 net.cpp:408] conv6_2_mbox_loc_perm -> conv6_2_mbox_loc_perm
I0423 13:08:10.709568 10915 net.cpp:150] Setting up conv6_2_mbox_loc_perm
I0423 13:08:10.709583 10915 net.cpp:157] Top shape: 2 14 14 24 (9408)
I0423 13:08:10.709586 10915 net.cpp:165] Memory required for data: 973527296
I0423 13:08:10.709590 10915 layer_factory.hpp:77] Creating layer conv6_2_mbox_loc_flat
I0423 13:08:10.709595 10915 net.cpp:100] Creating Layer conv6_2_mbox_loc_flat
I0423 13:08:10.709600 10915 net.cpp:434] conv6_2_mbox_loc_flat <- conv6_2_mbox_loc_perm
I0423 13:08:10.709605 10915 net.cpp:408] conv6_2_mbox_loc_flat -> conv6_2_mbox_loc_flat
I0423 13:08:10.709630 10915 net.cpp:150] Setting up conv6_2_mbox_loc_flat
I0423 13:08:10.709635 10915 net.cpp:157] Top shape: 2 4704 (9408)
I0423 13:08:10.709638 10915 net.cpp:165] Memory required for data: 973564928
I0423 13:08:10.709641 10915 layer_factory.hpp:77] Creating layer conv6_2_mbox_conf
I0423 13:08:10.709651 10915 net.cpp:100] Creating Layer conv6_2_mbox_conf
I0423 13:08:10.709655 10915 net.cpp:434] conv6_2_mbox_conf <- conv6_2_conv6_2_relu_0_split_2
I0423 13:08:10.709661 10915 net.cpp:408] conv6_2_mbox_conf -> conv6_2_mbox_conf
I0423 13:08:10.710314 10915 net.cpp:150] Setting up conv6_2_mbox_conf
I0423 13:08:10.710320 10915 net.cpp:157] Top shape: 2 24 14 14 (9408)
I0423 13:08:10.710324 10915 net.cpp:165] Memory required for data: 973602560
I0423 13:08:10.710330 10915 layer_factory.hpp:77] Creating layer conv6_2_mbox_conf_perm
I0423 13:08:10.710337 10915 net.cpp:100] Creating Layer conv6_2_mbox_conf_perm
I0423 13:08:10.710341 10915 net.cpp:434] conv6_2_mbox_conf_perm <- conv6_2_mbox_conf
I0423 13:08:10.710347 10915 net.cpp:408] conv6_2_mbox_conf_perm -> conv6_2_mbox_conf_perm
I0423 13:08:10.710420 10915 net.cpp:150] Setting up conv6_2_mbox_conf_perm
I0423 13:08:10.710427 10915 net.cpp:157] Top shape: 2 14 14 24 (9408)
I0423 13:08:10.710429 10915 net.cpp:165] Memory required for data: 973640192
I0423 13:08:10.710433 10915 layer_factory.hpp:77] Creating layer conv6_2_mbox_conf_flat
I0423 13:08:10.710438 10915 net.cpp:100] Creating Layer conv6_2_mbox_conf_flat
I0423 13:08:10.710441 10915 net.cpp:434] conv6_2_mbox_conf_flat <- conv6_2_mbox_conf_perm
I0423 13:08:10.710446 10915 net.cpp:408] conv6_2_mbox_conf_flat -> conv6_2_mbox_conf_flat
I0423 13:08:10.710469 10915 net.cpp:150] Setting up conv6_2_mbox_conf_flat
I0423 13:08:10.710474 10915 net.cpp:157] Top shape: 2 4704 (9408)
I0423 13:08:10.710477 10915 net.cpp:165] Memory required for data: 973677824
I0423 13:08:10.710480 10915 layer_factory.hpp:77] Creating layer conv6_2_mbox_priorbox
I0423 13:08:10.710486 10915 net.cpp:100] Creating Layer conv6_2_mbox_priorbox
I0423 13:08:10.710491 10915 net.cpp:434] conv6_2_mbox_priorbox <- conv6_2_conv6_2_relu_0_split_3
I0423 13:08:10.710496 10915 net.cpp:434] conv6_2_mbox_priorbox <- data_data_0_split_3
I0423 13:08:10.710502 10915 net.cpp:408] conv6_2_mbox_priorbox -> conv6_2_mbox_priorbox
I0423 13:08:10.710525 10915 net.cpp:150] Setting up conv6_2_mbox_priorbox
I0423 13:08:10.710531 10915 net.cpp:157] Top shape: 1 2 4704 (9408)
I0423 13:08:10.710533 10915 net.cpp:165] Memory required for data: 973715456
I0423 13:08:10.710536 10915 layer_factory.hpp:77] Creating layer conv7_2_mbox_loc
I0423 13:08:10.710546 10915 net.cpp:100] Creating Layer conv7_2_mbox_loc
I0423 13:08:10.710551 10915 net.cpp:434] conv7_2_mbox_loc <- conv7_2_conv7_2_relu_0_split_1
I0423 13:08:10.710556 10915 net.cpp:408] conv7_2_mbox_loc -> conv7_2_mbox_loc
I0423 13:08:10.710973 10915 net.cpp:150] Setting up conv7_2_mbox_loc
I0423 13:08:10.710979 10915 net.cpp:157] Top shape: 2 24 7 7 (2352)
I0423 13:08:10.710983 10915 net.cpp:165] Memory required for data: 973724864
I0423 13:08:10.710988 10915 layer_factory.hpp:77] Creating layer conv7_2_mbox_loc_perm
I0423 13:08:10.710994 10915 net.cpp:100] Creating Layer conv7_2_mbox_loc_perm
I0423 13:08:10.710999 10915 net.cpp:434] conv7_2_mbox_loc_perm <- conv7_2_mbox_loc
I0423 13:08:10.711005 10915 net.cpp:408] conv7_2_mbox_loc_perm -> conv7_2_mbox_loc_perm
I0423 13:08:10.711081 10915 net.cpp:150] Setting up conv7_2_mbox_loc_perm
I0423 13:08:10.711086 10915 net.cpp:157] Top shape: 2 7 7 24 (2352)
I0423 13:08:10.711089 10915 net.cpp:165] Memory required for data: 973734272
I0423 13:08:10.711100 10915 layer_factory.hpp:77] Creating layer conv7_2_mbox_loc_flat
I0423 13:08:10.711107 10915 net.cpp:100] Creating Layer conv7_2_mbox_loc_flat
I0423 13:08:10.711110 10915 net.cpp:434] conv7_2_mbox_loc_flat <- conv7_2_mbox_loc_perm
I0423 13:08:10.711117 10915 net.cpp:408] conv7_2_mbox_loc_flat -> conv7_2_mbox_loc_flat
I0423 13:08:10.711138 10915 net.cpp:150] Setting up conv7_2_mbox_loc_flat
I0423 13:08:10.711143 10915 net.cpp:157] Top shape: 2 1176 (2352)
I0423 13:08:10.711146 10915 net.cpp:165] Memory required for data: 973743680
I0423 13:08:10.711149 10915 layer_factory.hpp:77] Creating layer conv7_2_mbox_conf
I0423 13:08:10.711158 10915 net.cpp:100] Creating Layer conv7_2_mbox_conf
I0423 13:08:10.711163 10915 net.cpp:434] conv7_2_mbox_conf <- conv7_2_conv7_2_relu_0_split_2
I0423 13:08:10.711169 10915 net.cpp:408] conv7_2_mbox_conf -> conv7_2_mbox_conf
I0423 13:08:10.711578 10915 net.cpp:150] Setting up conv7_2_mbox_conf
I0423 13:08:10.711585 10915 net.cpp:157] Top shape: 2 24 7 7 (2352)
I0423 13:08:10.711588 10915 net.cpp:165] Memory required for data: 973753088
I0423 13:08:10.711594 10915 layer_factory.hpp:77] Creating layer conv7_2_mbox_conf_perm
I0423 13:08:10.711601 10915 net.cpp:100] Creating Layer conv7_2_mbox_conf_perm
I0423 13:08:10.711606 10915 net.cpp:434] conv7_2_mbox_conf_perm <- conv7_2_mbox_conf
I0423 13:08:10.711611 10915 net.cpp:408] conv7_2_mbox_conf_perm -> conv7_2_mbox_conf_perm
I0423 13:08:10.711683 10915 net.cpp:150] Setting up conv7_2_mbox_conf_perm
I0423 13:08:10.711688 10915 net.cpp:157] Top shape: 2 7 7 24 (2352)
I0423 13:08:10.711691 10915 net.cpp:165] Memory required for data: 973762496
I0423 13:08:10.711694 10915 layer_factory.hpp:77] Creating layer conv7_2_mbox_conf_flat
I0423 13:08:10.711699 10915 net.cpp:100] Creating Layer conv7_2_mbox_conf_flat
I0423 13:08:10.711702 10915 net.cpp:434] conv7_2_mbox_conf_flat <- conv7_2_mbox_conf_perm
I0423 13:08:10.711709 10915 net.cpp:408] conv7_2_mbox_conf_flat -> conv7_2_mbox_conf_flat
I0423 13:08:10.711729 10915 net.cpp:150] Setting up conv7_2_mbox_conf_flat
I0423 13:08:10.711733 10915 net.cpp:157] Top shape: 2 1176 (2352)
I0423 13:08:10.711736 10915 net.cpp:165] Memory required for data: 973771904
I0423 13:08:10.711740 10915 layer_factory.hpp:77] Creating layer conv7_2_mbox_priorbox
I0423 13:08:10.711745 10915 net.cpp:100] Creating Layer conv7_2_mbox_priorbox
I0423 13:08:10.711750 10915 net.cpp:434] conv7_2_mbox_priorbox <- conv7_2_conv7_2_relu_0_split_3
I0423 13:08:10.711753 10915 net.cpp:434] conv7_2_mbox_priorbox <- data_data_0_split_4
I0423 13:08:10.711760 10915 net.cpp:408] conv7_2_mbox_priorbox -> conv7_2_mbox_priorbox
I0423 13:08:10.711782 10915 net.cpp:150] Setting up conv7_2_mbox_priorbox
I0423 13:08:10.711787 10915 net.cpp:157] Top shape: 1 2 1176 (2352)
I0423 13:08:10.711789 10915 net.cpp:165] Memory required for data: 973781312
I0423 13:08:10.711793 10915 layer_factory.hpp:77] Creating layer conv8_2_mbox_loc
I0423 13:08:10.711802 10915 net.cpp:100] Creating Layer conv8_2_mbox_loc
I0423 13:08:10.711807 10915 net.cpp:434] conv8_2_mbox_loc <- conv8_2_conv8_2_relu_0_split_1
I0423 13:08:10.711812 10915 net.cpp:408] conv8_2_mbox_loc -> conv8_2_mbox_loc
I0423 13:08:10.712146 10915 net.cpp:150] Setting up conv8_2_mbox_loc
I0423 13:08:10.712152 10915 net.cpp:157] Top shape: 2 16 5 5 (800)
I0423 13:08:10.712154 10915 net.cpp:165] Memory required for data: 973784512
I0423 13:08:10.712168 10915 layer_factory.hpp:77] Creating layer conv8_2_mbox_loc_perm
I0423 13:08:10.712175 10915 net.cpp:100] Creating Layer conv8_2_mbox_loc_perm
I0423 13:08:10.712179 10915 net.cpp:434] conv8_2_mbox_loc_perm <- conv8_2_mbox_loc
I0423 13:08:10.712185 10915 net.cpp:408] conv8_2_mbox_loc_perm -> conv8_2_mbox_loc_perm
I0423 13:08:10.712260 10915 net.cpp:150] Setting up conv8_2_mbox_loc_perm
I0423 13:08:10.712266 10915 net.cpp:157] Top shape: 2 5 5 16 (800)
I0423 13:08:10.712270 10915 net.cpp:165] Memory required for data: 973787712
I0423 13:08:10.712272 10915 layer_factory.hpp:77] Creating layer conv8_2_mbox_loc_flat
I0423 13:08:10.712286 10915 net.cpp:100] Creating Layer conv8_2_mbox_loc_flat
I0423 13:08:10.712291 10915 net.cpp:434] conv8_2_mbox_loc_flat <- conv8_2_mbox_loc_perm
I0423 13:08:10.712297 10915 net.cpp:408] conv8_2_mbox_loc_flat -> conv8_2_mbox_loc_flat
I0423 13:08:10.712319 10915 net.cpp:150] Setting up conv8_2_mbox_loc_flat
I0423 13:08:10.712324 10915 net.cpp:157] Top shape: 2 400 (800)
I0423 13:08:10.712327 10915 net.cpp:165] Memory required for data: 973790912
I0423 13:08:10.712330 10915 layer_factory.hpp:77] Creating layer conv8_2_mbox_conf
I0423 13:08:10.712338 10915 net.cpp:100] Creating Layer conv8_2_mbox_conf
I0423 13:08:10.712343 10915 net.cpp:434] conv8_2_mbox_conf <- conv8_2_conv8_2_relu_0_split_2
I0423 13:08:10.712350 10915 net.cpp:408] conv8_2_mbox_conf -> conv8_2_mbox_conf
I0423 13:08:10.712678 10915 net.cpp:150] Setting up conv8_2_mbox_conf
I0423 13:08:10.712684 10915 net.cpp:157] Top shape: 2 16 5 5 (800)
I0423 13:08:10.712687 10915 net.cpp:165] Memory required for data: 973794112
I0423 13:08:10.712693 10915 layer_factory.hpp:77] Creating layer conv8_2_mbox_conf_perm
I0423 13:08:10.712699 10915 net.cpp:100] Creating Layer conv8_2_mbox_conf_perm
I0423 13:08:10.712703 10915 net.cpp:434] conv8_2_mbox_conf_perm <- conv8_2_mbox_conf
I0423 13:08:10.712709 10915 net.cpp:408] conv8_2_mbox_conf_perm -> conv8_2_mbox_conf_perm
I0423 13:08:10.712781 10915 net.cpp:150] Setting up conv8_2_mbox_conf_perm
I0423 13:08:10.712786 10915 net.cpp:157] Top shape: 2 5 5 16 (800)
I0423 13:08:10.712790 10915 net.cpp:165] Memory required for data: 973797312
I0423 13:08:10.712792 10915 layer_factory.hpp:77] Creating layer conv8_2_mbox_conf_flat
I0423 13:08:10.712798 10915 net.cpp:100] Creating Layer conv8_2_mbox_conf_flat
I0423 13:08:10.712801 10915 net.cpp:434] conv8_2_mbox_conf_flat <- conv8_2_mbox_conf_perm
I0423 13:08:10.712806 10915 net.cpp:408] conv8_2_mbox_conf_flat -> conv8_2_mbox_conf_flat
I0423 13:08:10.712826 10915 net.cpp:150] Setting up conv8_2_mbox_conf_flat
I0423 13:08:10.712832 10915 net.cpp:157] Top shape: 2 400 (800)
I0423 13:08:10.712834 10915 net.cpp:165] Memory required for data: 973800512
I0423 13:08:10.712837 10915 layer_factory.hpp:77] Creating layer conv8_2_mbox_priorbox
I0423 13:08:10.712843 10915 net.cpp:100] Creating Layer conv8_2_mbox_priorbox
I0423 13:08:10.712848 10915 net.cpp:434] conv8_2_mbox_priorbox <- conv8_2_conv8_2_relu_0_split_3
I0423 13:08:10.712857 10915 net.cpp:434] conv8_2_mbox_priorbox <- data_data_0_split_5
I0423 13:08:10.712863 10915 net.cpp:408] conv8_2_mbox_priorbox -> conv8_2_mbox_priorbox
I0423 13:08:10.712888 10915 net.cpp:150] Setting up conv8_2_mbox_priorbox
I0423 13:08:10.712894 10915 net.cpp:157] Top shape: 1 2 400 (800)
I0423 13:08:10.712896 10915 net.cpp:165] Memory required for data: 973803712
I0423 13:08:10.712899 10915 layer_factory.hpp:77] Creating layer conv9_2_mbox_loc
I0423 13:08:10.712908 10915 net.cpp:100] Creating Layer conv9_2_mbox_loc
I0423 13:08:10.712913 10915 net.cpp:434] conv9_2_mbox_loc <- conv9_2_conv9_2_relu_0_split_0
I0423 13:08:10.712919 10915 net.cpp:408] conv9_2_mbox_loc -> conv9_2_mbox_loc
I0423 13:08:10.713250 10915 net.cpp:150] Setting up conv9_2_mbox_loc
I0423 13:08:10.713258 10915 net.cpp:157] Top shape: 2 16 3 3 (288)
I0423 13:08:10.713260 10915 net.cpp:165] Memory required for data: 973804864
I0423 13:08:10.713266 10915 layer_factory.hpp:77] Creating layer conv9_2_mbox_loc_perm
I0423 13:08:10.713273 10915 net.cpp:100] Creating Layer conv9_2_mbox_loc_perm
I0423 13:08:10.713276 10915 net.cpp:434] conv9_2_mbox_loc_perm <- conv9_2_mbox_loc
I0423 13:08:10.713282 10915 net.cpp:408] conv9_2_mbox_loc_perm -> conv9_2_mbox_loc_perm
I0423 13:08:10.713356 10915 net.cpp:150] Setting up conv9_2_mbox_loc_perm
I0423 13:08:10.713361 10915 net.cpp:157] Top shape: 2 3 3 16 (288)
I0423 13:08:10.713364 10915 net.cpp:165] Memory required for data: 973806016
I0423 13:08:10.713367 10915 layer_factory.hpp:77] Creating layer conv9_2_mbox_loc_flat
I0423 13:08:10.713373 10915 net.cpp:100] Creating Layer conv9_2_mbox_loc_flat
I0423 13:08:10.713377 10915 net.cpp:434] conv9_2_mbox_loc_flat <- conv9_2_mbox_loc_perm
I0423 13:08:10.713390 10915 net.cpp:408] conv9_2_mbox_loc_flat -> conv9_2_mbox_loc_flat
I0423 13:08:10.713413 10915 net.cpp:150] Setting up conv9_2_mbox_loc_flat
I0423 13:08:10.713418 10915 net.cpp:157] Top shape: 2 144 (288)
I0423 13:08:10.713420 10915 net.cpp:165] Memory required for data: 973807168
I0423 13:08:10.713423 10915 layer_factory.hpp:77] Creating layer conv9_2_mbox_conf
I0423 13:08:10.713433 10915 net.cpp:100] Creating Layer conv9_2_mbox_conf
I0423 13:08:10.713436 10915 net.cpp:434] conv9_2_mbox_conf <- conv9_2_conv9_2_relu_0_split_1
I0423 13:08:10.713443 10915 net.cpp:408] conv9_2_mbox_conf -> conv9_2_mbox_conf
I0423 13:08:10.713773 10915 net.cpp:150] Setting up conv9_2_mbox_conf
I0423 13:08:10.713780 10915 net.cpp:157] Top shape: 2 16 3 3 (288)
I0423 13:08:10.713783 10915 net.cpp:165] Memory required for data: 973808320
I0423 13:08:10.713788 10915 layer_factory.hpp:77] Creating layer conv9_2_mbox_conf_perm
I0423 13:08:10.713795 10915 net.cpp:100] Creating Layer conv9_2_mbox_conf_perm
I0423 13:08:10.713800 10915 net.cpp:434] conv9_2_mbox_conf_perm <- conv9_2_mbox_conf
I0423 13:08:10.713805 10915 net.cpp:408] conv9_2_mbox_conf_perm -> conv9_2_mbox_conf_perm
I0423 13:08:10.713876 10915 net.cpp:150] Setting up conv9_2_mbox_conf_perm
I0423 13:08:10.713881 10915 net.cpp:157] Top shape: 2 3 3 16 (288)
I0423 13:08:10.713884 10915 net.cpp:165] Memory required for data: 973809472
I0423 13:08:10.713887 10915 layer_factory.hpp:77] Creating layer conv9_2_mbox_conf_flat
I0423 13:08:10.713893 10915 net.cpp:100] Creating Layer conv9_2_mbox_conf_flat
I0423 13:08:10.713897 10915 net.cpp:434] conv9_2_mbox_conf_flat <- conv9_2_mbox_conf_perm
I0423 13:08:10.713903 10915 net.cpp:408] conv9_2_mbox_conf_flat -> conv9_2_mbox_conf_flat
I0423 13:08:10.713924 10915 net.cpp:150] Setting up conv9_2_mbox_conf_flat
I0423 13:08:10.713929 10915 net.cpp:157] Top shape: 2 144 (288)
I0423 13:08:10.713932 10915 net.cpp:165] Memory required for data: 973810624
I0423 13:08:10.713935 10915 layer_factory.hpp:77] Creating layer conv9_2_mbox_priorbox
I0423 13:08:10.713942 10915 net.cpp:100] Creating Layer conv9_2_mbox_priorbox
I0423 13:08:10.713944 10915 net.cpp:434] conv9_2_mbox_priorbox <- conv9_2_conv9_2_relu_0_split_2
I0423 13:08:10.713948 10915 net.cpp:434] conv9_2_mbox_priorbox <- data_data_0_split_6
I0423 13:08:10.713956 10915 net.cpp:408] conv9_2_mbox_priorbox -> conv9_2_mbox_priorbox
I0423 13:08:10.713979 10915 net.cpp:150] Setting up conv9_2_mbox_priorbox
I0423 13:08:10.713984 10915 net.cpp:157] Top shape: 1 2 144 (288)
I0423 13:08:10.713986 10915 net.cpp:165] Memory required for data: 973811776
I0423 13:08:10.713989 10915 layer_factory.hpp:77] Creating layer mbox_loc
I0423 13:08:10.713997 10915 net.cpp:100] Creating Layer mbox_loc
I0423 13:08:10.714002 10915 net.cpp:434] mbox_loc <- conv4_3_norm_mbox_loc_flat
I0423 13:08:10.714006 10915 net.cpp:434] mbox_loc <- fc7_mbox_loc_flat
I0423 13:08:10.714012 10915 net.cpp:434] mbox_loc <- conv6_2_mbox_loc_flat
I0423 13:08:10.714016 10915 net.cpp:434] mbox_loc <- conv7_2_mbox_loc_flat
I0423 13:08:10.714020 10915 net.cpp:434] mbox_loc <- conv8_2_mbox_loc_flat
I0423 13:08:10.714025 10915 net.cpp:434] mbox_loc <- conv9_2_mbox_loc_flat
I0423 13:08:10.714031 10915 net.cpp:408] mbox_loc -> mbox_loc
I0423 13:08:10.714053 10915 net.cpp:150] Setting up mbox_loc
I0423 13:08:10.714059 10915 net.cpp:157] Top shape: 2 68864 (137728)
I0423 13:08:10.714062 10915 net.cpp:165] Memory required for data: 974362688
I0423 13:08:10.714066 10915 layer_factory.hpp:77] Creating layer mbox_conf
I0423 13:08:10.714071 10915 net.cpp:100] Creating Layer mbox_conf
I0423 13:08:10.714076 10915 net.cpp:434] mbox_conf <- conv4_3_norm_mbox_conf_flat
I0423 13:08:10.714079 10915 net.cpp:434] mbox_conf <- fc7_mbox_conf_flat
I0423 13:08:10.714084 10915 net.cpp:434] mbox_conf <- conv6_2_mbox_conf_flat
I0423 13:08:10.714088 10915 net.cpp:434] mbox_conf <- conv7_2_mbox_conf_flat
I0423 13:08:10.714092 10915 net.cpp:434] mbox_conf <- conv8_2_mbox_conf_flat
I0423 13:08:10.714095 10915 net.cpp:434] mbox_conf <- conv9_2_mbox_conf_flat
I0423 13:08:10.714108 10915 net.cpp:408] mbox_conf -> mbox_conf
I0423 13:08:10.714131 10915 net.cpp:150] Setting up mbox_conf
I0423 13:08:10.714136 10915 net.cpp:157] Top shape: 2 68864 (137728)
I0423 13:08:10.714139 10915 net.cpp:165] Memory required for data: 974913600
I0423 13:08:10.714143 10915 layer_factory.hpp:77] Creating layer mbox_priorbox
I0423 13:08:10.714148 10915 net.cpp:100] Creating Layer mbox_priorbox
I0423 13:08:10.714151 10915 net.cpp:434] mbox_priorbox <- conv4_3_norm_mbox_priorbox
I0423 13:08:10.714156 10915 net.cpp:434] mbox_priorbox <- fc7_mbox_priorbox
I0423 13:08:10.714161 10915 net.cpp:434] mbox_priorbox <- conv6_2_mbox_priorbox
I0423 13:08:10.714165 10915 net.cpp:434] mbox_priorbox <- conv7_2_mbox_priorbox
I0423 13:08:10.714169 10915 net.cpp:434] mbox_priorbox <- conv8_2_mbox_priorbox
I0423 13:08:10.714172 10915 net.cpp:434] mbox_priorbox <- conv9_2_mbox_priorbox
I0423 13:08:10.714177 10915 net.cpp:408] mbox_priorbox -> mbox_priorbox
I0423 13:08:10.714197 10915 net.cpp:150] Setting up mbox_priorbox
I0423 13:08:10.714203 10915 net.cpp:157] Top shape: 1 2 68864 (137728)
I0423 13:08:10.714205 10915 net.cpp:165] Memory required for data: 975464512
I0423 13:08:10.714210 10915 layer_factory.hpp:77] Creating layer mbox_conf_reshape
I0423 13:08:10.714216 10915 net.cpp:100] Creating Layer mbox_conf_reshape
I0423 13:08:10.714221 10915 net.cpp:434] mbox_conf_reshape <- mbox_conf
I0423 13:08:10.714226 10915 net.cpp:408] mbox_conf_reshape -> mbox_conf_reshape
I0423 13:08:10.714256 10915 net.cpp:150] Setting up mbox_conf_reshape
I0423 13:08:10.714262 10915 net.cpp:157] Top shape: 2 17216 4 (137728)
I0423 13:08:10.714264 10915 net.cpp:165] Memory required for data: 976015424
I0423 13:08:10.714267 10915 layer_factory.hpp:77] Creating layer mbox_conf_softmax
I0423 13:08:10.714274 10915 net.cpp:100] Creating Layer mbox_conf_softmax
I0423 13:08:10.714277 10915 net.cpp:434] mbox_conf_softmax <- mbox_conf_reshape
I0423 13:08:10.714282 10915 net.cpp:408] mbox_conf_softmax -> mbox_conf_softmax
I0423 13:08:10.714330 10915 net.cpp:150] Setting up mbox_conf_softmax
I0423 13:08:10.714337 10915 net.cpp:157] Top shape: 2 17216 4 (137728)
I0423 13:08:10.714339 10915 net.cpp:165] Memory required for data: 976566336
I0423 13:08:10.714342 10915 layer_factory.hpp:77] Creating layer mbox_conf_flatten
I0423 13:08:10.714349 10915 net.cpp:100] Creating Layer mbox_conf_flatten
I0423 13:08:10.714352 10915 net.cpp:434] mbox_conf_flatten <- mbox_conf_softmax
I0423 13:08:10.714357 10915 net.cpp:408] mbox_conf_flatten -> mbox_conf_flatten
I0423 13:08:10.714377 10915 net.cpp:150] Setting up mbox_conf_flatten
I0423 13:08:10.714382 10915 net.cpp:157] Top shape: 2 68864 (137728)
I0423 13:08:10.714386 10915 net.cpp:165] Memory required for data: 977117248
I0423 13:08:10.714390 10915 layer_factory.hpp:77] Creating layer detection_out
I0423 13:08:10.714401 10915 net.cpp:100] Creating Layer detection_out
I0423 13:08:10.714404 10915 net.cpp:434] detection_out <- mbox_loc
I0423 13:08:10.714409 10915 net.cpp:434] detection_out <- mbox_conf_flatten
I0423 13:08:10.714413 10915 net.cpp:434] detection_out <- mbox_priorbox
I0423 13:08:10.714419 10915 net.cpp:408] detection_out -> detection_out
I0423 13:08:10.727946 10915 net.cpp:150] Setting up detection_out
I0423 13:08:10.727967 10915 net.cpp:157] Top shape: 1 1 1 7 (7)
I0423 13:08:10.727969 10915 net.cpp:165] Memory required for data: 977117276
I0423 13:08:10.727974 10915 layer_factory.hpp:77] Creating layer detection_eval
I0423 13:08:10.727987 10915 net.cpp:100] Creating Layer detection_eval
I0423 13:08:10.727993 10915 net.cpp:434] detection_eval <- detection_out
I0423 13:08:10.727999 10915 net.cpp:434] detection_eval <- label
I0423 13:08:10.728008 10915 net.cpp:408] detection_eval -> detection_eval
I0423 13:08:10.728272 10915 net.cpp:150] Setting up detection_eval
I0423 13:08:10.728279 10915 net.cpp:157] Top shape: 1 1 4 5 (20)
I0423 13:08:10.728282 10915 net.cpp:165] Memory required for data: 977117356
I0423 13:08:10.728286 10915 net.cpp:228] detection_eval does not need backward computation.
I0423 13:08:10.728302 10915 net.cpp:228] detection_out does not need backward computation.
I0423 13:08:10.728308 10915 net.cpp:228] mbox_conf_flatten does not need backward computation.
I0423 13:08:10.728313 10915 net.cpp:228] mbox_conf_softmax does not need backward computation.
…
