…
      sampler {
        min_scale: 0.3
        max_scale: 1
        min_aspect_ratio: 0.5
        max_aspect_ratio: 2
      }
      sample_constraint {
        min_jaccard_overlap: 0.9
      }
      max_sample: 1
      max_trials: 50
    }
    batch_sampler {
      sampler {
        min_scale: 0.3
        max_scale: 1
        min_aspect_ratio: 0.5
        max_aspect_ratio: 2
      }
      sample_constraint {
        max_jaccard_overlap: 1
      }
      max_sample: 1
      max_trials: 50
    }
    label_map_file: "data/ascend/labelmap.prototxt"
  }
}
layer {
  name: "conv1_1"
  type: "Convolution"
  bottom: "data"
  top: "conv1_1"
  param {
    lr_mult: 1
    decay_mult: 1
  }
  param {
    lr_mult: 2
    decay_mult: 0
  }
  convolution_param {
    num_output: 64
    pad: 1
    kernel_size: 3
    weight_filler {
      type: "xavier"
    }
    bias_filler {
      type: "constant"
      value: 0
    }
  }
}
layer {
  name: "relu1_1"
  type: "ReLU"
  bottom: "conv1_1"
  top: "conv1_1"
}
layer {
  name: "conv1_2"
  type: "Convolution"
  bottom: "conv1_1"
  top: "conv1_2"
  param {
    lr_mult: 1
    decay_mult: 1
  }
  param {
    lr_mult: 2
    decay_mult: 0
  }
  convolution_param {
    num_output: 64
    pad: 1
    kernel_size: 3
    weight_filler {
      type: "xavier"
    }
    bias_filler {
      type: "constant"
      value: 0
    }
  }
}
layer {
  name: "relu1_2"
  type: "ReLU"
  bottom: "conv1_2"
  top: "conv1_2"
}
layer {
  name: "pool1"
  type: "Pooling"
  bottom: "conv1_2"
  top: "pool1"
  pooling_param {
    pool: MAX
    kernel_size: 2
    stride: 2
  }
}
layer {
  name: "conv2_1"
  type: "Convolution"
  bottom: "pool1"
  top: "conv2_1"
  param {
    lr_mult: 1
    decay_mult: 1
  }
  param {
    lr_mult: 2
    decay_mult: 0
  }
  convolution_param {
    num_output: 128
    pad: 1
    kernel_size: 3
    weight_filler {
      type: "xavier"
    }
    bias_filler {
      type: "constant"
      value: 0
    }
  }
}
layer {
  name: "relu2_1"
  type: "ReLU"
  bottom: "conv2_1"
  top: "conv2_1"
}
layer {
  name: "conv2_2"
  type: "Convolution"
  bottom: "conv2_1"
  top: "conv2_2"
  param {
    lr_mult: 1
    decay_mult: 1
  }
  param {
    lr_mult: 2
    decay_mult: 0
  }
  convolution_param {
    num_output: 128
    pad: 1
    kernel_size: 3
    weight_filler {
      type: "xavier"
    }
    bias_filler {
      type: "constant"
      value: 0
    }
  }
}
layer {
  name: "relu2_2"
  type: "ReLU"
  bottom: "conv2_2"
  top: "conv2_2"
}
layer {
  name: "pool2"
  type: "Pooling"
  bottom: "conv2_2"
  top: "pool2"
  pooling_param {
    pool: MAX
    kernel_size: 2
    stride: 2
  }
}
layer {
  name: "conv3_1"
  type: "Convolution"
  bottom: "pool2"
  top: "conv3_1"
  param {
    lr_mult: 1
    decay_mult: 1
  }
  param {
    lr_mult: 2
    decay_mult: 0
  }
  convolution_param {
    num_output: 256
    pad: 1
    kernel_size: 3
    weight_filler {
      type: "xavier"
    }
    bias_filler {
      type: "constant"
      value: 0
    }
  }
}
layer {
  name: "relu3_1"
  type: "ReLU"
  bottom: "conv3_1"
  top: "conv3_1"
}
layer {
  name: "conv3_2"
  type: "Convolution"
  bottom: "conv3_1"
  top: "conv3_2"
  param {
    lr_mult: 1
    decay_mult: 1
  }
  param {
    lr_mult: 2
    decay_mult: 0
  }
  convolution_param {
    num_output: 256
    pad: 1
    kernel_size: 3
    weight_filler {
      type: "xavier"
    }
    bias_filler {
      type: "constant"
      value: 0
    }
  }
}
layer {
  name: "relu3_2"
  type: "ReLU"
  bottom: "conv3_2"
  top: "conv3_2"
}
layer {
  name: "conv3_3"
  type: "Convolution"
  bottom: "conv3_2"
  top: "conv3_3"
  param {
    lr_mult: 1
    decay_mult: 1
  }
  param {
    lr_mult: 2
    decay_mult: 0
  }
  convolution_param {
    num_output: 256
    pad: 1
    kernel_size: 3
    weight_filler {
      type: "xavier"
    }
    bias_filler {
      type: "constant"
      value: 0
    }
  }
}
layer {
  name: "relu3_3"
  type: "ReLU"
  bottom: "conv3_3"
  top: "conv3_3"
}
layer {
  name: "pool3"
  type: "Pooling"
  bottom: "conv3_3"
  top: "pool3"
  pooling_param {
    pool: MAX
    kernel_size: 2
    stride: 2
  }
}
layer {
  name: "conv4_1"
  type: "Convolution"
  bottom: "pool3"
  top: "conv4_1"
  param {
    lr_mult: 1
    decay_mult: 1
  }
  param {
    lr_mult: 2
    decay_mult: 0
  }
  convolution_param {
    num_output: 512
    pad: 1
    kernel_size: 3
    weight_filler {
      type: "xavier"
    }
    bias_filler {
      type: "constant"
      value: 0
    }
  }
}
layer {
  name: "relu4_1"
  type: "ReLU"
  bottom: "conv4_1"
  top: "conv4_1"
}
layer {
  name: "conv4_2"
  type: "Convolution"
  bottom: "conv4_1"
  top: "conv4_2"
  param {
    lr_mult: 1
    decay_mult: 1
  }
  param {
    lr_mult: 2
    decay_mult: 0
  }
  convolution_param {
    num_output: 512
    pad: 1
    kernel_size: 3
    weight_filler {
      type: "xavier"
    }
    bias_filler {
      type: "constant"
      value: 0
    }
  }
}
layer {
  name: "relu4_2"
  type: "ReLU"
  bottom: "conv4_2"
  top: "conv4_2"
}
layer {
  name: "conv4_3"
  type: "Convolution"
  bottom: "conv4_2"
  top: "conv4_3"
  param {
    lr_mult: 1
    decay_mult: 1
  }
  param {
    lr_mult: 2
    decay_mult: 0
  }
  convolution_param {
    num_output: 512
    pad: 1
    kernel_size: 3
    weight_filler {
      type: "xavier"
    }
    bias_filler {
      type: "constant"
      value: 0
    }
  }
}
layer {
  name: "relu4_3"
  type: "ReLU"
  bottom: "conv4_3"
  top: "conv4_3"
}
layer {
  name: "pool4"
  type: "Pooling"
  bottom: "conv4_3"
  top: "pool4"
  pooling_param {
    pool: MAX
    kernel_size: 2
    stride: 2
  }
}
layer {
  name: "conv5_1"
  type: "Convolution"
  bottom: "pool4"
  top: "conv5_1"
  param {
    lr_mult: 1
    decay_mult: 1
  }
  param {
    lr_mult: 2
    decay_mult: 0
  }
  convolution_param {
    num_output: 512
    pad: 1
    kernel_size: 3
    weight_filler {
      type: "xavier"
    }
    bias_filler {
      type: "constant"
      value: 0
    }
    dilation: 1
  }
}
layer {
  name: "relu5_1"
  type: "ReLU"
  bottom: "conv5_1"
  top: "conv5_1"
}
layer {
  name: "conv5_2"
  type: "Convolution"
  bottom: "conv5_1"
  top: "conv5_2"
  param {
    lr_mult: 1
    decay_mult: 1
  }
  param {
    lr_mult: 2
    decay_mult: 0
  }
  convolution_param {
    num_output: 512
    pad: 1
    kernel_size: 3
    weight_filler {
      type: "xavier"
    }
    bias_filler {
      type: "constant"
      value: 0
    }
    dilation: 1
  }
}
layer {
  name: "relu5_2"
  type: "ReLU"
  bottom: "conv5_2"
  top: "conv5_2"
}
layer {
  name: "conv5_3"
  type: "Convolution"
  bottom: "conv5_2"
  top: "conv5_3"
  param {
    lr_mult: 1
    decay_mult: 1
  }
  param {
    lr_mult: 2
    decay_mult: 0
  }
  convolution_param {
    num_output: 512
    pad: 1
    kernel_size: 3
    weight_filler {
      type: "xavier"
    }
    bias_filler {
      type: "constant"
      value: 0
    }
    dilation: 1
  }
}
layer {
  name: "relu5_3"
  type: "ReLU"
  bottom: "conv5_3"
  top: "conv5_3"
}
layer {
  name: "pool5"
  type: "Pooling"
  bottom: "conv5_3"
  top: "pool5"
  pooling_param {
    pool: MAX
    kernel_size: 3
    stride: 1
    pad: 1
  }
}
layer {
  name: "fc6"
  type: "Convolution"
  bottom: "pool5"
  top: "fc6"
  param {
    lr_mult: 1
    decay_mult: 1
  }
  param {
    lr_mult: 2
    decay_mult: 0
  }
  convolution_param {
    num_output: 1024
    pad: 6
    kernel_size: 3
    weight_filler {
      type: "xavier"
    }
    bias_filler {
      type: "constant"
      value: 0
    }
    dilation: 6
  }
}
layer {
  name: "relu6"
  type: "ReLU"
  bottom: "fc6"
  top: "fc6"
}
layer {
  name: "fc7"
  type: "Convolution"
  bottom: "fc6"
  top: "fc7"
  param {
    lr_mult: 1
    decay_mult: 1
  }
  param {
    lr_mult: 2
    decay_mult: 0
  }
  convolution_param {
    num_output: 1024
    kernel_size: 1
    weight_filler {
      type: "xavier"
    }
    bias_filler {
      type: "constant"
      value: 0
    }
  }
}
layer {
  name: "relu7"
  type: "ReLU"
  bottom: "fc7"
  top: "fc7"
}
layer {
  name: "conv6_1"
  type: "Convolution"
  bottom: "fc7"
  top: "conv6_1"
  param {
    lr_mult: 1
    decay_mult: 1
  }
  param {
    lr_mult: 2
    decay_mult: 0
  }
  convolution_param {
    num_output: 256
    pad: 0
    kernel_size: 1
    stride: 1
    weight_filler {
      type: "xavier"
    }
    bias_filler {
      type: "constant"
      value: 0
    }
  }
}
layer {
  name: "conv6_1_relu"
  type: "ReLU"
  bottom: "conv6_1"
  top: "conv6_1"
}
layer {
  name: "conv6_2"
  type: "Convolution"
  bottom: "conv6_1"
  top: "conv6_2"
  param {
    lr_mult: 1
    decay_mult: 1
  }
  param {
    lr_mult: 2
    decay_mult: 0
  }
  convolution_param {
    num_output: 512
    pad: 1
    kernel_size: 3
    stride: 2
    weight_filler {
      type: "xavier"
    }
    bias_filler {
      type: "constant"
      value: 0
    }
  }
}
layer {
  name: "conv6_2_relu"
  type: "ReLU"
  bottom: "conv6_2"
  top: "conv6_2"
}
layer {
  name: "conv7_1"
  type: "Convolution"
  bottom: "conv6_2"
  top: "conv7_1"
  param {
    lr_mult: 1
    decay_mult: 1
  }
  param {
    lr_mult: 2
    decay_mult: 0
  }
  convolution_param {
    num_output: 128
    pad: 0
    kernel_size: 1
    stride: 1
    weight_filler {
      type: "xavier"
    }
    bias_filler {
      type: "constant"
      value: 0
    }
  }
}
layer {
  name: "conv7_1_relu"
  type: "ReLU"
  bottom: "conv7_1"
  top: "conv7_1"
}
layer {
  name: "conv7_2"
  type: "Convolution"
  bottom: "conv7_1"
  top: "conv7_2"
  param {
    lr_mult: 1
    decay_mult: 1
  }
  param {
    lr_mult: 2
    decay_mult: 0
  }
  convolution_param {
    num_output: 256
    pad: 1
    kernel_size: 3
    stride: 2
    weight_filler {
      type: "xavier"
    }
    bias_filler {
      type: "constant"
      value: 0
    }
  }
}
layer {
  name: "conv7_2_relu"
  type: "ReLU"
  bottom: "conv7_2"
  top: "conv7_2"
}
layer {
  name: "conv8_1"
  type: "Convolution"
  bottom: "conv7_2"
  top: "conv8_1"
  param {
    lr_mult: 1
    decay_mult: 1
  }
  param {
    lr_mult: 2
    decay_mult: 0
  }
  convolution_param {
    num_output: 128
    pad: 0
    kernel_size: 1
    stride: 1
    weight_filler {
      type: "xavier"
    }
    bias_filler {
      type: "constant"
      value: 0
    }
  }
}
layer {
  name: "conv8_1_relu"
  type: "ReLU"
  bottom: "conv8_1"
  top: "conv8_1"
}
layer {
  name: "conv8_2"
  type: "Convolution"
  bottom: "conv8_1"
  top: "conv8_2"
  param {
    lr_mult: 1
    decay_mult: 1
  }
  param {
    lr_mult: 2
    decay_mult: 0
  }
  convolution_param {
    num_output: 256
    pad: 0
    kernel_size: 3
    stride: 1
    weight_filler {
      type: "xavier"
    }
    bias_filler {
      type: "constant"
      value: 0
    }
  }
}
layer {
  name: "conv8_2_relu"
  type: "ReLU"
  bottom: "conv8_2"
  top: "conv8_2"
}
layer {
  name: "conv9_1"
  type: "Convolution"
  bottom: "conv8_2"
  top: "conv9_1"
  param {
    lr_mult: 1
    decay_mult: 1
  }
  param {
    lr_mult: 2
    decay_mult: 0
  }
  convolution_param {
    num_output: 128
    pad: 0
    kernel_size: 1
    stride: 1
    weight_filler {
      type: "xavier"
    }
    bias_filler {
      type: "constant"
      value: 0
    }
  }
}
layer {
  name: "conv9_1_relu"
  type: "ReLU"
  bottom: "conv9_1"
  top: "conv9_1"
}
layer {
  name: "conv9_2"
  type: "Convolution"
  bottom: "conv9_1"
  top: "conv9_2"
  param {
    lr_mult: 1
    decay_mult: 1
  }
  param {
    lr_mult: 2
    decay_mult: 0
  }
  convolution_param {
    num_output: 256
    pad: 0
    kernel_size: 3
    stride: 1
    weight_filler {
      type: "xavier"
    }
    bias_filler {
      type: "constant"
      value: 0
    }
  }
}
layer {
  name: "conv9_2_relu"
  type: "ReLU"
  bottom: "conv9_2"
  top: "conv9_2"
}
layer {
  name: "conv4_3_norm"
  type: "Normalize"
  bottom: "conv4_3"
  top: "conv4_3_norm"
  norm_param {
    across_spatial: false
    scale_filler {
      type: "constant"
      value: 20
    }
    channel_shared: false
  }
}
layer {
  name: "conv4_3_norm_mbox_loc"
  type: "Convolution"
  bottom: "conv4_3_norm"
  top: "conv4_3_norm_mbox_loc"
  param {
    lr_mult: 1
    decay_mult: 1
  }
  param {
    lr_mult: 2
    decay_mult: 0
  }
  convolution_param {
    num_output: 16
    pad: 1
    kernel_size: 3
    stride: 1
    weight_filler {
      type: "xavier"
    }
    bias_filler {
      type: "constant"
      value: 0
    }
  }
}
layer {
  name: "conv4_3_norm_mbox_loc_perm"
  type: "Permute"
  bottom: "conv4_3_norm_mbox_loc"
  top: "conv4_3_norm_mbox_loc_perm"
  permute_param {
    order: 0
    order: 2
    order: 3
    order: 1
  }
}
layer {
  name: "conv4_3_norm_mbox_loc_flat"
  type: "Flatten"
  bottom: "conv4_3_norm_mbox_loc_perm"
  top: "conv4_3_norm_mbox_loc_flat"
  flatten_param {
    axis: 1
  }
}
layer {
  name: "conv4_3_norm_mbox_conf"
  type: "Convolution"
  bottom: "conv4_3_norm"
  top: "conv4_3_norm_mbox_conf"
  param {
    lr_mult: 1
    decay_mult: 1
  }
  param {
    lr_mult: 2
    decay_mult: 0
  }
  convolution_param {
    num_output: 8
    pad: 1
    kernel_size: 3
    stride: 1
    weight_filler {
      type: "xavier"
    }
    bias_filler {
      type: "constant"
      value: 0
    }
  }
}
layer {
  name: "conv4_3_norm_mbox_conf_perm"
  type: "Permute"
  bottom: "conv4_3_norm_mbox_conf"
  top: "conv4_3_norm_mbox_conf_perm"
  permute_param {
    order: 0
    order: 2
    order: 3
    order: 1
  }
}
layer {
  name: "conv4_3_norm_mbox_conf_flat"
  type: "Flatten"
  bottom: "conv4_3_norm_mbox_conf_perm"
  top: "conv4_3_norm_mbox_conf_flat"
  flatten_param {
    axis: 1
  }
}
layer {
  name: "conv4_3_norm_mbox_priorbox"
  type: "PriorBox"
  bottom: "conv4_3_norm"
  bottom: "data"
  top: "conv4_3_norm_mbox_priorbox"
  prior_box_param {
    min_size: 30
    max_size: 60
    aspect_ratio: 2
    flip: true
    clip: false
    variance: 0.1
    variance: 0.1
    variance: 0.2
    variance: 0.2
    step: 8
    offset: 0.5
  }
}
layer {
  name: "fc7_mbox_loc"
  type: "Convolution"
  bottom: "fc7"
  top: "fc7_mbox_loc"
  param {
    lr_mult: 1
    decay_mult: 1
  }
  param {
    lr_mult: 2
    decay_mult: 0
  }
  convolution_param {
    num_output: 24
    pad: 1
    kernel_size: 3
    stride: 1
    weight_filler {
      type: "xavier"
    }
    bias_filler {
      type: "constant"
      value: 0
    }
  }
}
layer {
  name: "fc7_mbox_loc_perm"
  type: "Permute"
  bottom: "fc7_mbox_loc"
  top: "fc7_mbox_loc_perm"
  permute_param {
    order: 0
    order: 2
    order: 3
    order: 1
  }
}
layer {
  name: "fc7_mbox_loc_flat"
  type: "Flatten"
  bottom: "fc7_mbox_loc_perm"
  top: "fc7_mbox_loc_flat"
  flatten_param {
    axis: 1
  }
}
layer {
  name: "fc7_mbox_conf"
  type: "Convolution"
  bottom: "fc7"
  top: "fc7_mbox_conf"
  param {
    lr_mult: 1
    decay_mult: 1
  }
  param {
    lr_mult: 2
    decay_mult: 0
  }
  convolution_param {
    num_output: 12
    pad: 1
    kernel_size: 3
    stride: 1
    weight_filler {
      type: "xavier"
    }
    bias_filler {
      type: "constant"
      value: 0
    }
  }
}
layer {
  name: "fc7_mbox_conf_perm"
  type: "Permute"
  bottom: "fc7_mbox_conf"
  top: "fc7_mbox_conf_perm"
  permute_param {
    order: 0
    order: 2
    order: 3
    order: 1
  }
}
layer {
  name: "fc7_mbox_conf_flat"
  type: "Flatten"
  bottom: "fc7_mbox_conf_perm"
  top: "fc7_mbox_conf_flat"
  flatten_param {
    axis: 1
  }
}
layer {
  name: "fc7_mbox_priorbox"
  type: "PriorBox"
  bottom: "fc7"
  bottom: "data"
  top: "fc7_mbox_priorbox"
  prior_box_param {
    min_size: 60
    max_size: 111
    aspect_ratio: 2
    aspect_ratio: 3
    flip: true
    clip: false
    variance: 0.1
    variance: 0.1
    variance: 0.2
    variance: 0.2
    step: 16
    offset: 0.5
  }
}
layer {
  name: "conv6_2_mbox_loc"
  type: "Convolution"
  bottom: "conv6_2"
  top: "conv6_2_mbox_loc"
  param {
    lr_mult: 1
    decay_mult: 1
  }
  param {
    lr_mult: 2
    decay_mult: 0
  }
  convolution_param {
    num_output: 24
    pad: 1
    kernel_size: 3
    stride: 1
    weight_filler {
      type: "xavier"
    }
    bias_filler {
      type: "constant"
      value: 0
    }
  }
}
layer {
  name: "conv6_2_mbox_loc_perm"
  type: "Permute"
  bottom: "conv6_2_mbox_loc"
  top: "conv6_2_mbox_loc_perm"
  permute_param {
    order: 0
    order: 2
    order: 3
    order: 1
  }
}
layer {
  name: "conv6_2_mbox_loc_flat"
  type: "Flatten"
  bottom: "conv6_2_mbox_loc_perm"
  top: "conv6_2_mbox_loc_flat"
  flatten_param {
    axis: 1
  }
}
layer {
  name: "conv6_2_mbox_conf"
  type: "Convolution"
  bottom: "conv6_2"
  top: "conv6_2_mbox_conf"
  param {
    lr_mult: 1
    decay_mult: 1
  }
  param {
    lr_mult: 2
    decay_mult: 0
  }
  convolution_param {
    num_output: 12
    pad: 1
    kernel_size: 3
    stride: 1
    weight_filler {
      type: "xavier"
    }
    bias_filler {
      type: "constant"
      value: 0
    }
  }
}
layer {
  name: "conv6_2_mbox_conf_perm"
  type: "Permute"
  bottom: "conv6_2_mbox_conf"
  top: "conv6_2_mbox_conf_perm"
  permute_param {
    order: 0
    order: 2
    order: 3
    order: 1
  }
}
layer {
  name: "conv6_2_mbox_conf_flat"
  type: "Flatten"
  bottom: "conv6_2_mbox_conf_perm"
  top: "conv6_2_mbox_conf_flat"
  flatten_param {
    axis: 1
  }
}
layer {
  name: "conv6_2_mbox_priorbox"
  type: "PriorBox"
  bottom: "conv6_2"
  bottom: "data"
  top: "conv6_2_mbox_priorbox"
  prior_box_param {
    min_size: 111
    max_size: 162
    aspect_ratio: 2
    aspect_ratio: 3
    flip: true
    clip: false
    variance: 0.1
    variance: 0.1
    variance: 0.2
    variance: 0.2
    step: 32
    offset: 0.5
  }
}
layer {
  name: "conv7_2_mbox_loc"
  type: "Convolution"
  bottom: "conv7_2"
  top: "conv7_2_mbox_loc"
  param {
    lr_mult: 1
    decay_mult: 1
  }
  param {
    lr_mult: 2
    decay_mult: 0
  }
  convolution_param {
    num_output: 24
    pad: 1
    kernel_size: 3
    stride: 1
    weight_filler {
      type: "xavier"
    }
    bias_filler {
      type: "constant"
      value: 0
    }
  }
}
layer {
  name: "conv7_2_mbox_loc_perm"
  type: "Permute"
  bottom: "conv7_2_mbox_loc"
  top: "conv7_2_mbox_loc_perm"
  permute_param {
    order: 0
    order: 2
    order: 3
    order: 1
  }
}
layer {
  name: "conv7_2_mbox_loc_flat"
  type: "Flatten"
  bottom: "conv7_2_mbox_loc_perm"
  top: "conv7_2_mbox_loc_flat"
  flatten_param {
    axis: 1
  }
}
layer {
  name: "conv7_2_mbox_conf"
  type: "Convolution"
  bottom: "conv7_2"
  top: "conv7_2_mbox_conf"
  param {
    lr_mult: 1
    decay_mult: 1
  }
  param {
    lr_mult: 2
    decay_mult: 0
  }
  convolution_param {
    num_output: 12
    pad: 1
    kernel_size: 3
    stride: 1
    weight_filler {
      type: "xavier"
    }
    bias_filler {
      type: "constant"
      value: 0
    }
  }
}
layer {
  name: "conv7_2_mbox_conf_perm"
  type: "Permute"
  bottom: "conv7_2_mbox_conf"
  top: "conv7_2_mbox_conf_perm"
  permute_param {
    order: 0
    order: 2
    order: 3
    order: 1
  }
}
layer {
  name: "conv7_2_mbox_conf_flat"
  type: "Flatten"
  bottom: "conv7_2_mbox_conf_perm"
  top: "conv7_2_mbox_conf_flat"
  flatten_param {
    axis: 1
  }
}
layer {
  name: "conv7_2_mbox_priorbox"
  type: "PriorBox"
  bottom: "conv7_2"
  bottom: "data"
  top: "conv7_2_mbox_priorbox"
  prior_box_param {
    min_size: 162
    max_size: 213
    aspect_ratio: 2
    aspect_ratio: 3
    flip: true
    clip: false
    variance: 0.1
    variance: 0.1
    variance: 0.2
    variance: 0.2
    step: 64
    offset: 0.5
  }
}
layer {
  name: "conv8_2_mbox_loc"
  type: "Convolution"
  bottom: "conv8_2"
  top: "conv8_2_mbox_loc"
  param {
    lr_mult: 1
    decay_mult: 1
  }
  param {
    lr_mult: 2
    decay_mult: 0
  }
  convolution_param {
    num_output: 16
    pad: 1
    kernel_size: 3
    stride: 1
    weight_filler {
      type: "xavier"
    }
    bias_filler {
      type: "constant"
      value: 0
    }
  }
}
layer {
  name: "conv8_2_mbox_loc_perm"
  type: "Permute"
  bottom: "conv8_2_mbox_loc"
  top: "conv8_2_mbox_loc_perm"
  permute_param {
    order: 0
    order: 2
    order: 3
    order: 1
  }
}
layer {
  name: "conv8_2_mbox_loc_flat"
  type: "Flatten"
  bottom: "conv8_2_mbox_loc_perm"
  top: "conv8_2_mbox_loc_flat"
  flatten_param {
    axis: 1
  }
}
layer {
  name: "conv8_2_mbox_conf"
  type: "Convolution"
  bottom: "conv8_2"
  top: "conv8_2_mbox_conf"
  param {
    lr_mult: 1
    decay_mult: 1
  }
  param {
    lr_mult: 2
    decay_mult: 0
  }
  convolution_param {
    num_output: 8
    pad: 1
    kernel_size: 3
    stride: 1
    weight_filler {
      type: "xavier"
    }
    bias_filler {
      type: "constant"
      value: 0
    }
  }
}
layer {
  name: "conv8_2_mbox_conf_perm"
  type: "Permute"
  bottom: "conv8_2_mbox_conf"
  top: "conv8_2_mbox_conf_perm"
  permute_param {
    order: 0
    order: 2
    order: 3
    order: 1
  }
}
layer {
  name: "conv8_2_mbox_conf_flat"
  type: "Flatten"
  bottom: "conv8_2_mbox_conf_perm"
  top: "conv8_2_mbox_conf_flat"
  flatten_param {
    axis: 1
  }
}
layer {
  name: "conv8_2_mbox_priorbox"
  type: "PriorBox"
  bottom: "conv8_2"
  bottom: "data"
  top: "conv8_2_mbox_priorbox"
  prior_box_param {
    min_size: 213
    max_size: 264
    aspect_ratio: 2
    flip: true
    clip: false
    variance: 0.1
    variance: 0.1
    variance: 0.2
    variance: 0.2
    step: 100
    offset: 0.5
  }
}
layer {
  name: "conv9_2_mbox_loc"
  type: "Convolution"
  bottom: "conv9_2"
  top: "conv9_2_mbox_loc"
  param {
    lr_mult: 1
    decay_mult: 1
  }
  param {
    lr_mult: 2
    decay_mult: 0
  }
  convolution_param {
    num_output: 16
    pad: 1
    kernel_size: 3
    stride: 1
    weight_filler {
      type: "xavier"
    }
    bias_filler {
      type: "constant"
      value: 0
    }
  }
}
layer {
  name: "conv9_2_mbox_loc_perm"
  type: "Permute"
  bottom: "conv9_2_mbox_loc"
  top: "conv9_2_mbox_loc_perm"
  permute_param {
    order: 0
    order: 2
    order: 3
    order: 1
  }
}
layer {
  name: "conv9_2_mbox_loc_flat"
  type: "Flatten"
  bottom: "conv9_2_mbox_loc_perm"
  top: "conv9_2_mbox_loc_flat"
  flatten_param {
    axis: 1
  }
}
layer {
  name: "conv9_2_mbox_conf"
  type: "Convolution"
  bottom: "conv9_2"
  top: "conv9_2_mbox_conf"
  param {
    lr_mult: 1
    decay_mult: 1
  }
  param {
    lr_mult: 2
    decay_mult: 0
  }
  convolution_param {
    num_output: 8
    pad: 1
    kernel_size: 3
    stride: 1
    weight_filler {
      type: "xavier"
    }
    bias_filler {
      type: "constant"
      value: 0
    }
  }
}
layer {
  name: "conv9_2_mbox_conf_perm"
  type: "Permute"
  bottom: "conv9_2_mbox_conf"
  top: "conv9_2_mbox_conf_perm"
  permute_param {
    order: 0
    order: 2
    order: 3
    order: 1
  }
}
layer {
  name: "conv9_2_mbox_conf_flat"
  type: "Flatten"
  bottom: "conv9_2_mbox_conf_perm"
  top: "conv9_2_mbox_conf_flat"
  flatten_param {
    axis: 1
  }
}
layer {
  name: "conv9_2_mbox_priorbox"
  type: "PriorBox"
  bottom: "conv9_2"
  bottom: "data"
  top: "conv9_2_mbox_priorbox"
  prior_box_param {
    min_size: 264
    max_size: 315
    aspect_ratio: 2
    flip: true
    clip: false
    variance: 0.1
    variance: 0.1
    variance: 0.2
    variance: 0.2
    step: 300
    offset: 0.5
  }
}
layer {
  name: "mbox_loc"
  type: "Concat"
  bottom: "conv4_3_norm_mbox_loc_flat"
  bottom: "fc7_mbox_loc_flat"
  bottom: "conv6_2_mbox_loc_flat"
  bottom: "conv7_2_mbox_loc_flat"
  bottom: "conv8_2_mbox_loc_flat"
  bottom: "conv9_2_mbox_loc_flat"
  top: "mbox_loc"
  concat_param {
    axis: 1
  }
}
layer {
  name: "mbox_conf"
  type: "Concat"
  bottom: "conv4_3_norm_mbox_conf_flat"
  bottom: "fc7_mbox_conf_flat"
  bottom: "conv6_2_mbox_conf_flat"
  bottom: "conv7_2_mbox_conf_flat"
  bottom: "conv8_2_mbox_conf_flat"
  bottom: "conv9_2_mbox_conf_flat"
  top: "mbox_conf"
  concat_param {
    axis: 1
  }
}
layer {
  name: "mbox_priorbox"
  type: "Concat"
  bottom: "conv4_3_norm_mbox_priorbox"
  bottom: "fc7_mbox_priorbox"
  bottom: "conv6_2_mbox_priorbox"
  bottom: "conv7_2_mbox_priorbox"
  bottom: "conv8_2_mbox_priorbox"
  bottom: "conv9_2_mbox_priorbox"
  top: "mbox_priorbox"
  concat_param {
    axis: 2
  }
}
layer {
  name: "mbox_loss"
  type: "MultiBoxLoss"
  bottom: "mbox_loc"
  bottom: "mbox_conf"
  bottom: "mbox_priorbox"
  bottom: "label"
  top: "mbox_loss"
  include {
    phase: TRAIN
  }
  propagate_down: true
  propagate_down: true
  propagate_down: false
  propagate_down: false
  loss_param {
    normalization: VALID
  }
  multibox_loss_param {
    loc_loss_type: SMOOTH_L1
    conf_loss_type: SOFTMAX
    loc_weight: 1
    num_classes: 2
    share_location: true
    match_type: PER_PREDICTION
    overlap_threshold: 0.5
    use_prior_for_matching: true
    background_label_id: 0
    use_difficult_gt: true
    neg_pos_ratio: 3
    neg_overlap: 0.5
    code_type: CENTER_SIZE
    ignore_cross_boundary_bbox: false
    mining_type: MAX_NEGATIVE
  }
}
I0323 21:20:41.402428 22279 layer_factory.hpp:77] Creating layer data
I0323 21:20:41.402828 22279 net.cpp:100] Creating Layer data
I0323 21:20:41.402842 22279 net.cpp:408] data -> data
I0323 21:20:41.402869 22279 net.cpp:408] data -> label
I0323 21:20:41.404026 22298 db_lmdb.cpp:35] Opened lmdb /localdata/markustp/data/ascend/lmdb/ascend_trainval_lmdb
I0323 21:20:41.427013 22279 annotated_data_layer.cpp:62] output data size: 32,3,300,300
I0323 21:20:41.467664 22279 net.cpp:150] Setting up data
I0323 21:20:41.467690 22279 net.cpp:157] Top shape: 32 3 300 300 (8640000)
I0323 21:20:41.467694 22279 net.cpp:157] Top shape: 1 1 9 8 (72)
I0323 21:20:41.467696 22279 net.cpp:165] Memory required for data: 34560288
I0323 21:20:41.467721 22279 layer_factory.hpp:77] Creating layer data_data_0_split
I0323 21:20:41.467733 22279 net.cpp:100] Creating Layer data_data_0_split
I0323 21:20:41.467738 22279 net.cpp:434] data_data_0_split <- data
I0323 21:20:41.467749 22279 net.cpp:408] data_data_0_split -> data_data_0_split_0
I0323 21:20:41.467757 22279 net.cpp:408] data_data_0_split -> data_data_0_split_1
I0323 21:20:41.467762 22279 net.cpp:408] data_data_0_split -> data_data_0_split_2
I0323 21:20:41.467768 22279 net.cpp:408] data_data_0_split -> data_data_0_split_3
I0323 21:20:41.467772 22279 net.cpp:408] data_data_0_split -> data_data_0_split_4
I0323 21:20:41.467777 22279 net.cpp:408] data_data_0_split -> data_data_0_split_5
I0323 21:20:41.467780 22279 net.cpp:408] data_data_0_split -> data_data_0_split_6
I0323 21:20:41.467892 22279 net.cpp:150] Setting up data_data_0_split
I0323 21:20:41.467900 22279 net.cpp:157] Top shape: 32 3 300 300 (8640000)
I0323 21:20:41.467902 22279 net.cpp:157] Top shape: 32 3 300 300 (8640000)
I0323 21:20:41.467905 22279 net.cpp:157] Top shape: 32 3 300 300 (8640000)
I0323 21:20:41.467907 22279 net.cpp:157] Top shape: 32 3 300 300 (8640000)
I0323 21:20:41.467911 22279 net.cpp:157] Top shape: 32 3 300 300 (8640000)
I0323 21:20:41.467912 22279 net.cpp:157] Top shape: 32 3 300 300 (8640000)
I0323 21:20:41.467916 22279 net.cpp:157] Top shape: 32 3 300 300 (8640000)
I0323 21:20:41.467917 22279 net.cpp:165] Memory required for data: 276480288
I0323 21:20:41.467921 22279 layer_factory.hpp:77] Creating layer conv1_1
I0323 21:20:41.467933 22279 net.cpp:100] Creating Layer conv1_1
I0323 21:20:41.467937 22279 net.cpp:434] conv1_1 <- data_data_0_split_0
I0323 21:20:41.467942 22279 net.cpp:408] conv1_1 -> conv1_1
I0323 21:20:41.469509 22279 net.cpp:150] Setting up conv1_1
I0323 21:20:41.469519 22279 net.cpp:157] Top shape: 32 64 300 300 (184320000)
I0323 21:20:41.469522 22279 net.cpp:165] Memory required for data: 1013760288
I0323 21:20:41.469534 22279 layer_factory.hpp:77] Creating layer relu1_1
I0323 21:20:41.469540 22279 net.cpp:100] Creating Layer relu1_1
I0323 21:20:41.469542 22279 net.cpp:434] relu1_1 <- conv1_1
I0323 21:20:41.469547 22279 net.cpp:395] relu1_1 -> conv1_1 (in-place)
I0323 21:20:41.469552 22279 net.cpp:150] Setting up relu1_1
I0323 21:20:41.469554 22279 net.cpp:157] Top shape: 32 64 300 300 (184320000)
I0323 21:20:41.469557 22279 net.cpp:165] Memory required for data: 1751040288
I0323 21:20:41.469558 22279 layer_factory.hpp:77] Creating layer conv1_2
I0323 21:20:41.469566 22279 net.cpp:100] Creating Layer conv1_2
I0323 21:20:41.469568 22279 net.cpp:434] conv1_2 <- conv1_1
I0323 21:20:41.469573 22279 net.cpp:408] conv1_2 -> conv1_2
I0323 21:20:41.470561 22279 net.cpp:150] Setting up conv1_2
I0323 21:20:41.470571 22279 net.cpp:157] Top shape: 32 64 300 300 (184320000)
I0323 21:20:41.470574 22279 net.cpp:165] Memory required for data: 2488320288
I0323 21:20:41.470580 22279 layer_factory.hpp:77] Creating layer relu1_2
I0323 21:20:41.470584 22279 net.cpp:100] Creating Layer relu1_2
I0323 21:20:41.470587 22279 net.cpp:434] relu1_2 <- conv1_2
I0323 21:20:41.470592 22279 net.cpp:395] relu1_2 -> conv1_2 (in-place)
I0323 21:20:41.470595 22279 net.cpp:150] Setting up relu1_2
I0323 21:20:41.470598 22279 net.cpp:157] Top shape: 32 64 300 300 (184320000)
I0323 21:20:41.470600 22279 net.cpp:165] Memory required for data: 3225600288
I0323 21:20:41.470602 22279 layer_factory.hpp:77] Creating layer pool1
I0323 21:20:41.470607 22279 net.cpp:100] Creating Layer pool1
I0323 21:20:41.470608 22279 net.cpp:434] pool1 <- conv1_2
I0323 21:20:41.470612 22279 net.cpp:408] pool1 -> pool1
I0323 21:20:41.470644 22279 net.cpp:150] Setting up pool1
I0323 21:20:41.470650 22279 net.cpp:157] Top shape: 32 64 150 150 (46080000)
I0323 21:20:41.470652 22279 net.cpp:165] Memory required for data: 3409920288
I0323 21:20:41.470655 22279 layer_factory.hpp:77] Creating layer conv2_1
I0323 21:20:41.470660 22279 net.cpp:100] Creating Layer conv2_1
I0323 21:20:41.470664 22279 net.cpp:434] conv2_1 <- pool1
I0323 21:20:41.470677 22279 net.cpp:408] conv2_1 -> conv2_1
I0323 21:20:41.471130 22279 net.cpp:150] Setting up conv2_1
I0323 21:20:41.471137 22279 net.cpp:157] Top shape: 32 128 150 150 (92160000)
I0323 21:20:41.471138 22279 net.cpp:165] Memory required for data: 3778560288
I0323 21:20:41.471143 22279 layer_factory.hpp:77] Creating layer relu2_1
I0323 21:20:41.471148 22279 net.cpp:100] Creating Layer relu2_1
I0323 21:20:41.471150 22279 net.cpp:434] relu2_1 <- conv2_1
I0323 21:20:41.471153 22279 net.cpp:395] relu2_1 -> conv2_1 (in-place)
I0323 21:20:41.471158 22279 net.cpp:150] Setting up relu2_1
I0323 21:20:41.471160 22279 net.cpp:157] Top shape: 32 128 150 150 (92160000)
I0323 21:20:41.471163 22279 net.cpp:165] Memory required for data: 4147200288
I0323 21:20:41.471163 22279 layer_factory.hpp:77] Creating layer conv2_2
I0323 21:20:41.471169 22279 net.cpp:100] Creating Layer conv2_2
I0323 21:20:41.471171 22279 net.cpp:434] conv2_2 <- conv2_1
I0323 21:20:41.471174 22279 net.cpp:408] conv2_2 -> conv2_2
I0323 21:20:41.471956 22279 net.cpp:150] Setting up conv2_2
I0323 21:20:41.471963 22279 net.cpp:157] Top shape: 32 128 150 150 (92160000)
I0323 21:20:41.471966 22279 net.cpp:165] Memory required for data: 4515840288
I0323 21:20:41.471971 22279 layer_factory.hpp:77] Creating layer relu2_2
I0323 21:20:41.471973 22279 net.cpp:100] Creating Layer relu2_2
I0323 21:20:41.471976 22279 net.cpp:434] relu2_2 <- conv2_2
I0323 21:20:41.471979 22279 net.cpp:395] relu2_2 -> conv2_2 (in-place)
I0323 21:20:41.471982 22279 net.cpp:150] Setting up relu2_2
I0323 21:20:41.471985 22279 net.cpp:157] Top shape: 32 128 150 150 (92160000)
I0323 21:20:41.471987 22279 net.cpp:165] Memory required for data: 4884480288
I0323 21:20:41.471989 22279 layer_factory.hpp:77] Creating layer pool2
I0323 21:20:41.471992 22279 net.cpp:100] Creating Layer pool2
I0323 21:20:41.471994 22279 net.cpp:434] pool2 <- conv2_2
I0323 21:20:41.471997 22279 net.cpp:408] pool2 -> pool2
I0323 21:20:41.472021 22279 net.cpp:150] Setting up pool2
I0323 21:20:41.472025 22279 net.cpp:157] Top shape: 32 128 75 75 (23040000)
I0323 21:20:41.472028 22279 net.cpp:165] Memory required for data: 4976640288
I0323 21:20:41.472029 22279 layer_factory.hpp:77] Creating layer conv3_1
I0323 21:20:41.472034 22279 net.cpp:100] Creating Layer conv3_1
I0323 21:20:41.472036 22279 net.cpp:434] conv3_1 <- pool2
I0323 21:20:41.472039 22279 net.cpp:408] conv3_1 -> conv3_1
I0323 21:20:41.474637 22279 net.cpp:150] Setting up conv3_1
I0323 21:20:41.474649 22279 net.cpp:157] Top shape: 32 256 75 75 (46080000)
I0323 21:20:41.474653 22279 net.cpp:165] Memory required for data: 5160960288
I0323 21:20:41.474659 22279 layer_factory.hpp:77] Creating layer relu3_1
I0323 21:20:41.474664 22279 net.cpp:100] Creating Layer relu3_1
I0323 21:20:41.474666 22279 net.cpp:434] relu3_1 <- conv3_1
I0323 21:20:41.474670 22279 net.cpp:395] relu3_1 -> conv3_1 (in-place)
I0323 21:20:41.474675 22279 net.cpp:150] Setting up relu3_1
I0323 21:20:41.474678 22279 net.cpp:157] Top shape: 32 256 75 75 (46080000)
I0323 21:20:41.474680 22279 net.cpp:165] Memory required for data: 5345280288
I0323 21:20:41.474684 22279 layer_factory.hpp:77] Creating layer conv3_2
I0323 21:20:41.474689 22279 net.cpp:100] Creating Layer conv3_2
I0323 21:20:41.474691 22279 net.cpp:434] conv3_2 <- conv3_1
I0323 21:20:41.474695 22279 net.cpp:408] conv3_2 -> conv3_2
I0323 21:20:41.477955 22279 net.cpp:150] Setting up conv3_2
I0323 21:20:41.477983 22279 net.cpp:157] Top shape: 32 256 75 75 (46080000)
I0323 21:20:41.477985 22279 net.cpp:165] Memory required for data: 5529600288
I0323 21:20:41.477990 22279 layer_factory.hpp:77] Creating layer relu3_2
I0323 21:20:41.477995 22279 net.cpp:100] Creating Layer relu3_2
I0323 21:20:41.477998 22279 net.cpp:434] relu3_2 <- conv3_2
I0323 21:20:41.478001 22279 net.cpp:395] relu3_2 -> conv3_2 (in-place)
I0323 21:20:41.478006 22279 net.cpp:150] Setting up relu3_2
I0323 21:20:41.478008 22279 net.cpp:157] Top shape: 32 256 75 75 (46080000)
I0323 21:20:41.478010 22279 net.cpp:165] Memory required for data: 5713920288
I0323 21:20:41.478013 22279 layer_factory.hpp:77] Creating layer conv3_3
I0323 21:20:41.478032 22279 net.cpp:100] Creating Layer conv3_3
I0323 21:20:41.478036 22279 net.cpp:434] conv3_3 <- conv3_2
I0323 21:20:41.478040 22279 net.cpp:408] conv3_3 -> conv3_3
I0323 21:20:41.481266 22279 net.cpp:150] Setting up conv3_3
I0323 21:20:41.481277 22279 net.cpp:157] Top shape: 32 256 75 75 (46080000)
I0323 21:20:41.481294 22279 net.cpp:165] Memory required for data: 5898240288
I0323 21:20:41.481299 22279 layer_factory.hpp:77] Creating layer relu3_3
I0323 21:20:41.481303 22279 net.cpp:100] Creating Layer relu3_3
I0323 21:20:41.481305 22279 net.cpp:434] relu3_3 <- conv3_3
I0323 21:20:41.481309 22279 net.cpp:395] relu3_3 -> conv3_3 (in-place)
I0323 21:20:41.481313 22279 net.cpp:150] Setting up relu3_3
I0323 21:20:41.481317 22279 net.cpp:157] Top shape: 32 256 75 75 (46080000)
I0323 21:20:41.481318 22279 net.cpp:165] Memory required for data: 6082560288
I0323 21:20:41.481320 22279 layer_factory.hpp:77] Creating layer pool3
I0323 21:20:41.481324 22279 net.cpp:100] Creating Layer pool3
I0323 21:20:41.481326 22279 net.cpp:434] pool3 <- conv3_3
I0323 21:20:41.481330 22279 net.cpp:408] pool3 -> pool3
I0323 21:20:41.481356 22279 net.cpp:150] Setting up pool3
I0323 21:20:41.481361 22279 net.cpp:157] Top shape: 32 256 38 38 (11829248)
I0323 21:20:41.481362 22279 net.cpp:165] Memory required for data: 6129877280
I0323 21:20:41.481365 22279 layer_factory.hpp:77] Creating layer conv4_1
I0323 21:20:41.481370 22279 net.cpp:100] Creating Layer conv4_1
I0323 21:20:41.481372 22279 net.cpp:434] conv4_1 <- pool3
I0323 21:20:41.481376 22279 net.cpp:408] conv4_1 -> conv4_1
I0323 21:20:41.488050 22279 net.cpp:150] Setting up conv4_1
I0323 21:20:41.488080 22279 net.cpp:157] Top shape: 32 512 38 38 (23658496)
I0323 21:20:41.488082 22279 net.cpp:165] Memory required for data: 6224511264
I0323 21:20:41.488087 22279 layer_factory.hpp:77] Creating layer relu4_1
I0323 21:20:41.488092 22279 net.cpp:100] Creating Layer relu4_1
I0323 21:20:41.488095 22279 net.cpp:434] relu4_1 <- conv4_1
I0323 21:20:41.488099 22279 net.cpp:395] relu4_1 -> conv4_1 (in-place)
I0323 21:20:41.488104 22279 net.cpp:150] Setting up relu4_1
I0323 21:20:41.488107 22279 net.cpp:157] Top shape: 32 512 38 38 (23658496)
I0323 21:20:41.488108 22279 net.cpp:165] Memory required for data: 6319145248
I0323 21:20:41.488111 22279 layer_factory.hpp:77] Creating layer conv4_2
I0323 21:20:41.488116 22279 net.cpp:100] Creating Layer conv4_2
I0323 21:20:41.488118 22279 net.cpp:434] conv4_2 <- conv4_1
I0323 21:20:41.488122 22279 net.cpp:408] conv4_2 -> conv4_2
I0323 21:20:41.499949 22279 net.cpp:150] Setting up conv4_2
I0323 21:20:41.499984 22279 net.cpp:157] Top shape: 32 512 38 38 (23658496)
I0323 21:20:41.499987 22279 net.cpp:165] Memory required for data: 6413779232
I0323 21:20:41.499999 22279 layer_factory.hpp:77] Creating layer relu4_2
I0323 21:20:41.500005 22279 net.cpp:100] Creating Layer relu4_2
I0323 21:20:41.500007 22279 net.cpp:434] relu4_2 <- conv4_2
I0323 21:20:41.500013 22279 net.cpp:395] relu4_2 -> conv4_2 (in-place)
I0323 21:20:41.500020 22279 net.cpp:150] Setting up relu4_2
I0323 21:20:41.500022 22279 net.cpp:157] Top shape: 32 512 38 38 (23658496)
I0323 21:20:41.500023 22279 net.cpp:165] Memory required for data: 6508413216
I0323 21:20:41.500025 22279 layer_factory.hpp:77] Creating layer conv4_3
I0323 21:20:41.500032 22279 net.cpp:100] Creating Layer conv4_3
I0323 21:20:41.500038 22279 net.cpp:434] conv4_3 <- conv4_2
I0323 21:20:41.500043 22279 net.cpp:408] conv4_3 -> conv4_3
I0323 21:20:41.512001 22279 net.cpp:150] Setting up conv4_3
I0323 21:20:41.512023 22279 net.cpp:157] Top shape: 32 512 38 38 (23658496)
I0323 21:20:41.512025 22279 net.cpp:165] Memory required for data: 6603047200
I0323 21:20:41.512034 22279 layer_factory.hpp:77] Creating layer relu4_3
I0323 21:20:41.512044 22279 net.cpp:100] Creating Layer relu4_3
I0323 21:20:41.512049 22279 net.cpp:434] relu4_3 <- conv4_3
I0323 21:20:41.512058 22279 net.cpp:395] relu4_3 -> conv4_3 (in-place)
I0323 21:20:41.512068 22279 net.cpp:150] Setting up relu4_3
I0323 21:20:41.512085 22279 net.cpp:157] Top shape: 32 512 38 38 (23658496)
I0323 21:20:41.512090 22279 net.cpp:165] Memory required for data: 6697681184
I0323 21:20:41.512094 22279 layer_factory.hpp:77] Creating layer conv4_3_relu4_3_0_split
I0323 21:20:41.512099 22279 net.cpp:100] Creating Layer conv4_3_relu4_3_0_split
I0323 21:20:41.512104 22279 net.cpp:434] conv4_3_relu4_3_0_split <- conv4_3
I0323 21:20:41.512109 22279 net.cpp:408] conv4_3_relu4_3_0_split -> conv4_3_relu4_3_0_split_0
I0323 21:20:41.512117 22279 net.cpp:408] conv4_3_relu4_3_0_split -> conv4_3_relu4_3_0_split_1
I0323 21:20:41.512148 22279 net.cpp:150] Setting up conv4_3_relu4_3_0_split
I0323 21:20:41.512154 22279 net.cpp:157] Top shape: 32 512 38 38 (23658496)
I0323 21:20:41.512159 22279 net.cpp:157] Top shape: 32 512 38 38 (23658496)
I0323 21:20:41.512161 22279 net.cpp:165] Memory required for data: 6886949152
I0323 21:20:41.512166 22279 layer_factory.hpp:77] Creating layer pool4
I0323 21:20:41.512174 22279 net.cpp:100] Creating Layer pool4
I0323 21:20:41.512178 22279 net.cpp:434] pool4 <- conv4_3_relu4_3_0_split_0
I0323 21:20:41.512183 22279 net.cpp:408] pool4 -> pool4
I0323 21:20:41.512212 22279 net.cpp:150] Setting up pool4
I0323 21:20:41.512218 22279 net.cpp:157] Top shape: 32 512 19 19 (5914624)
I0323 21:20:41.512222 22279 net.cpp:165] Memory required for data: 6910607648
I0323 21:20:41.512224 22279 layer_factory.hpp:77] Creating layer conv5_1
I0323 21:20:41.512234 22279 net.cpp:100] Creating Layer conv5_1
I0323 21:20:41.512238 22279 net.cpp:434] conv5_1 <- pool4
I0323 21:20:41.512245 22279 net.cpp:408] conv5_1 -> conv5_1
I0323 21:20:41.524447 22279 net.cpp:150] Setting up conv5_1
I0323 21:20:41.524472 22279 net.cpp:157] Top shape: 32 512 19 19 (5914624)
I0323 21:20:41.524476 22279 net.cpp:165] Memory required for data: 6934266144
I0323 21:20:41.524484 22279 layer_factory.hpp:77] Creating layer relu5_1
I0323 21:20:41.524493 22279 net.cpp:100] Creating Layer relu5_1
I0323 21:20:41.524499 22279 net.cpp:434] relu5_1 <- conv5_1
I0323 21:20:41.524508 22279 net.cpp:395] relu5_1 -> conv5_1 (in-place)
I0323 21:20:41.524518 22279 net.cpp:150] Setting up relu5_1
I0323 21:20:41.524523 22279 net.cpp:157] Top shape: 32 512 19 19 (5914624)
I0323 21:20:41.524526 22279 net.cpp:165] Memory required for data: 6957924640
I0323 21:20:41.524530 22279 layer_factory.hpp:77] Creating layer conv5_2
I0323 21:20:41.524540 22279 net.cpp:100] Creating Layer conv5_2
I0323 21:20:41.524544 22279 net.cpp:434] conv5_2 <- conv5_1
I0323 21:20:41.524549 22279 net.cpp:408] conv5_2 -> conv5_2
I0323 21:20:41.536859 22279 net.cpp:150] Setting up conv5_2
I0323 21:20:41.536877 22279 net.cpp:157] Top shape: 32 512 19 19 (5914624)
I0323 21:20:41.536880 22279 net.cpp:165] Memory required for data: 6981583136
I0323 21:20:41.536887 22279 layer_factory.hpp:77] Creating layer relu5_2
I0323 21:20:41.536896 22279 net.cpp:100] Creating Layer relu5_2
I0323 21:20:41.536901 22279 net.cpp:434] relu5_2 <- conv5_2
I0323 21:20:41.536908 22279 net.cpp:395] relu5_2 -> conv5_2 (in-place)
I0323 21:20:41.536917 22279 net.cpp:150] Setting up relu5_2
I0323 21:20:41.536923 22279 net.cpp:157] Top shape: 32 512 19 19 (5914624)
I0323 21:20:41.536926 22279 net.cpp:165] Memory required for data: 7005241632
I0323 21:20:41.536929 22279 layer_factory.hpp:77] Creating layer conv5_3
I0323 21:20:41.536938 22279 net.cpp:100] Creating Layer conv5_3
I0323 21:20:41.536942 22279 net.cpp:434] conv5_3 <- conv5_2
I0323 21:20:41.536948 22279 net.cpp:408] conv5_3 -> conv5_3
I0323 21:20:41.548970 22279 net.cpp:150] Setting up conv5_3
I0323 21:20:41.548990 22279 net.cpp:157] Top shape: 32 512 19 19 (5914624)
I0323 21:20:41.548993 22279 net.cpp:165] Memory required for data: 7028900128
I0323 21:20:41.549000 22279 layer_factory.hpp:77] Creating layer relu5_3
I0323 21:20:41.549012 22279 net.cpp:100] Creating Layer relu5_3
I0323 21:20:41.549018 22279 net.cpp:434] relu5_3 <- conv5_3
I0323 21:20:41.549026 22279 net.cpp:395] relu5_3 -> conv5_3 (in-place)
I0323 21:20:41.549034 22279 net.cpp:150] Setting up relu5_3
I0323 21:20:41.549039 22279 net.cpp:157] Top shape: 32 512 19 19 (5914624)
I0323 21:20:41.549055 22279 net.cpp:165] Memory required for data: 7052558624
I0323 21:20:41.549060 22279 layer_factory.hpp:77] Creating layer pool5
I0323 21:20:41.549068 22279 net.cpp:100] Creating Layer pool5
I0323 21:20:41.549072 22279 net.cpp:434] pool5 <- conv5_3
I0323 21:20:41.549077 22279 net.cpp:408] pool5 -> pool5
I0323 21:20:41.549110 22279 net.cpp:150] Setting up pool5
I0323 21:20:41.549116 22279 net.cpp:157] Top shape: 32 512 19 19 (5914624)
I0323 21:20:41.549119 22279 net.cpp:165] Memory required for data: 7076217120
I0323 21:20:41.549123 22279 layer_factory.hpp:77] Creating layer fc6
I0323 21:20:41.549134 22279 net.cpp:100] Creating Layer fc6
I0323 21:20:41.549136 22279 net.cpp:434] fc6 <- pool5
I0323 21:20:41.549142 22279 net.cpp:408] fc6 -> fc6
I0323 21:20:41.573264 22279 net.cpp:150] Setting up fc6
I0323 21:20:41.573288 22279 net.cpp:157] Top shape: 32 1024 19 19 (11829248)
I0323 21:20:41.573292 22279 net.cpp:165] Memory required for data: 7123534112
I0323 21:20:41.573299 22279 layer_factory.hpp:77] Creating layer relu6
I0323 21:20:41.573308 22279 net.cpp:100] Creating Layer relu6
I0323 21:20:41.573318 22279 net.cpp:434] relu6 <- fc6
I0323 21:20:41.573325 22279 net.cpp:395] relu6 -> fc6 (in-place)
I0323 21:20:41.573334 22279 net.cpp:150] Setting up relu6
I0323 21:20:41.573339 22279 net.cpp:157] Top shape: 32 1024 19 19 (11829248)
I0323 21:20:41.573344 22279 net.cpp:165] Memory required for data: 7170851104
I0323 21:20:41.573348 22279 layer_factory.hpp:77] Creating layer fc7
I0323 21:20:41.573357 22279 net.cpp:100] Creating Layer fc7
I0323 21:20:41.573360 22279 net.cpp:434] fc7 <- fc6
I0323 21:20:41.573367 22279 net.cpp:408] fc7 -> fc7
I0323 21:20:41.578954 22279 net.cpp:150] Setting up fc7
I0323 21:20:41.578968 22279 net.cpp:157] Top shape: 32 1024 19 19 (11829248)
I0323 21:20:41.578970 22279 net.cpp:165] Memory required for data: 7218168096
I0323 21:20:41.578979 22279 layer_factory.hpp:77] Creating layer relu7
I0323 21:20:41.578987 22279 net.cpp:100] Creating Layer relu7
I0323 21:20:41.578991 22279 net.cpp:434] relu7 <- fc7
I0323 21:20:41.578997 22279 net.cpp:395] relu7 -> fc7 (in-place)
I0323 21:20:41.579006 22279 net.cpp:150] Setting up relu7
I0323 21:20:41.579011 22279 net.cpp:157] Top shape: 32 1024 19 19 (11829248)
I0323 21:20:41.579015 22279 net.cpp:165] Memory required for data: 7265485088
I0323 21:20:41.579017 22279 layer_factory.hpp:77] Creating layer fc7_relu7_0_split
I0323 21:20:41.579025 22279 net.cpp:100] Creating Layer fc7_relu7_0_split
I0323 21:20:41.579030 22279 net.cpp:434] fc7_relu7_0_split <- fc7
I0323 21:20:41.579035 22279 net.cpp:408] fc7_relu7_0_split -> fc7_relu7_0_split_0
I0323 21:20:41.579043 22279 net.cpp:408] fc7_relu7_0_split -> fc7_relu7_0_split_1
I0323 21:20:41.579054 22279 net.cpp:408] fc7_relu7_0_split -> fc7_relu7_0_split_2
I0323 21:20:41.579061 22279 net.cpp:408] fc7_relu7_0_split -> fc7_relu7_0_split_3
I0323 21:20:41.579107 22279 net.cpp:150] Setting up fc7_relu7_0_split
I0323 21:20:41.579113 22279 net.cpp:157] Top shape: 32 1024 19 19 (11829248)
I0323 21:20:41.579119 22279 net.cpp:157] Top shape: 32 1024 19 19 (11829248)
I0323 21:20:41.579124 22279 net.cpp:157] Top shape: 32 1024 19 19 (11829248)
I0323 21:20:41.579128 22279 net.cpp:157] Top shape: 32 1024 19 19 (11829248)
I0323 21:20:41.579131 22279 net.cpp:165] Memory required for data: 7454753056
I0323 21:20:41.579136 22279 layer_factory.hpp:77] Creating layer conv6_1
I0323 21:20:41.579145 22279 net.cpp:100] Creating Layer conv6_1
I0323 21:20:41.579149 22279 net.cpp:434] conv6_1 <- fc7_relu7_0_split_0
I0323 21:20:41.579155 22279 net.cpp:408] conv6_1 -> conv6_1
I0323 21:20:41.581017 22279 net.cpp:150] Setting up conv6_1
I0323 21:20:41.581030 22279 net.cpp:157] Top shape: 32 256 19 19 (2957312)
I0323 21:20:41.581032 22279 net.cpp:165] Memory required for data: 7466582304
I0323 21:20:41.581039 22279 layer_factory.hpp:77] Creating layer conv6_1_relu
I0323 21:20:41.581049 22279 net.cpp:100] Creating Layer conv6_1_relu
I0323 21:20:41.581053 22279 net.cpp:434] conv6_1_relu <- conv6_1
I0323 21:20:41.581070 22279 net.cpp:395] conv6_1_relu -> conv6_1 (in-place)
I0323 21:20:41.581079 22279 net.cpp:150] Setting up conv6_1_relu
I0323 21:20:41.581084 22279 net.cpp:157] Top shape: 32 256 19 19 (2957312)
I0323 21:20:41.581089 22279 net.cpp:165] Memory required for data: 7478411552
I0323 21:20:41.581091 22279 layer_factory.hpp:77] Creating layer conv6_2
I0323 21:20:41.581100 22279 net.cpp:100] Creating Layer conv6_2
I0323 21:20:41.581104 22279 net.cpp:434] conv6_2 <- conv6_1
I0323 21:20:41.581110 22279 net.cpp:408] conv6_2 -> conv6_2
I0323 21:20:41.587301 22279 net.cpp:150] Setting up conv6_2
I0323 21:20:41.587316 22279 net.cpp:157] Top shape: 32 512 10 10 (1638400)
I0323 21:20:41.587319 22279 net.cpp:165] Memory required for data: 7484965152
I0323 21:20:41.587332 22279 layer_factory.hpp:77] Creating layer conv6_2_relu
I0323 21:20:41.587342 22279 net.cpp:100] Creating Layer conv6_2_relu
I0323 21:20:41.587347 22279 net.cpp:434] conv6_2_relu <- conv6_2
I0323 21:20:41.587353 22279 net.cpp:395] conv6_2_relu -> conv6_2 (in-place)
I0323 21:20:41.587362 22279 net.cpp:150] Setting up conv6_2_relu
I0323 21:20:41.587373 22279 net.cpp:157] Top shape: 32 512 10 10 (1638400)
I0323 21:20:41.587376 22279 net.cpp:165] Memory required for data: 7491518752
I0323 21:20:41.587380 22279 layer_factory.hpp:77] Creating layer conv6_2_conv6_2_relu_0_split
I0323 21:20:41.587386 22279 net.cpp:100] Creating Layer conv6_2_conv6_2_relu_0_split
I0323 21:20:41.587389 22279 net.cpp:434] conv6_2_conv6_2_relu_0_split <- conv6_2
I0323 21:20:41.587395 22279 net.cpp:408] conv6_2_conv6_2_relu_0_split -> conv6_2_conv6_2_relu_0_split_0
I0323 21:20:41.587404 22279 net.cpp:408] conv6_2_conv6_2_relu_0_split -> conv6_2_conv6_2_relu_0_split_1
I0323 21:20:41.587412 22279 net.cpp:408] conv6_2_conv6_2_relu_0_split -> conv6_2_conv6_2_relu_0_split_2
I0323 21:20:41.587419 22279 net.cpp:408] conv6_2_conv6_2_relu_0_split -> conv6_2_conv6_2_relu_0_split_3
I0323 21:20:41.587466 22279 net.cpp:150] Setting up conv6_2_conv6_2_relu_0_split
I0323 21:20:41.587473 22279 net.cpp:157] Top shape: 32 512 10 10 (1638400)
I0323 21:20:41.587477 22279 net.cpp:157] Top shape: 32 512 10 10 (1638400)
I0323 21:20:41.587482 22279 net.cpp:157] Top shape: 32 512 10 10 (1638400)
I0323 21:20:41.587487 22279 net.cpp:157] Top shape: 32 512 10 10 (1638400)
I0323 21:20:41.587491 22279 net.cpp:165] Memory required for data: 7517733152
I0323 21:20:41.587494 22279 layer_factory.hpp:77] Creating layer conv7_1
I0323 21:20:41.587504 22279 net.cpp:100] Creating Layer conv7_1
I0323 21:20:41.587507 22279 net.cpp:434] conv7_1 <- conv6_2_conv6_2_relu_0_split_0
I0323 21:20:41.587515 22279 net.cpp:408] conv7_1 -> conv7_1
I0323 21:20:41.587955 22279 net.cpp:150] Setting up conv7_1
I0323 21:20:41.587962 22279 net.cpp:157] Top shape: 32 128 10 10 (409600)
I0323 21:20:41.587965 22279 net.cpp:165] Memory required for data: 7519371552
I0323 21:20:41.587972 22279 layer_factory.hpp:77] Creating layer conv7_1_relu
I0323 21:20:41.587978 22279 net.cpp:100] Creating Layer conv7_1_relu
I0323 21:20:41.587983 22279 net.cpp:434] conv7_1_relu <- conv7_1
I0323 21:20:41.587988 22279 net.cpp:395] conv7_1_relu -> conv7_1 (in-place)
I0323 21:20:41.587996 22279 net.cpp:150] Setting up conv7_1_relu
I0323 21:20:41.588001 22279 net.cpp:157] Top shape: 32 128 10 10 (409600)
I0323 21:20:41.588004 22279 net.cpp:165] Memory required for data: 7521009952
I0323 21:20:41.588007 22279 layer_factory.hpp:77] Creating layer conv7_2
I0323 21:20:41.588016 22279 net.cpp:100] Creating Layer conv7_2
I0323 21:20:41.588019 22279 net.cpp:434] conv7_2 <- conv7_1
I0323 21:20:41.588024 22279 net.cpp:408] conv7_2 -> conv7_2
I0323 21:20:41.590029 22279 net.cpp:150] Setting up conv7_2
I0323 21:20:41.590040 22279 net.cpp:157] Top shape: 32 256 5 5 (204800)
I0323 21:20:41.590044 22279 net.cpp:165] Memory required for data: 7521829152
I0323 21:20:41.590050 22279 layer_factory.hpp:77] Creating layer conv7_2_relu
I0323 21:20:41.590059 22279 net.cpp:100] Creating Layer conv7_2_relu
I0323 21:20:41.590064 22279 net.cpp:434] conv7_2_relu <- conv7_2
I0323 21:20:41.590080 22279 net.cpp:395] conv7_2_relu -> conv7_2 (in-place)
I0323 21:20:41.590087 22279 net.cpp:150] Setting up conv7_2_relu
I0323 21:20:41.590093 22279 net.cpp:157] Top shape: 32 256 5 5 (204800)
I0323 21:20:41.590097 22279 net.cpp:165] Memory required for data: 7522648352
I0323 21:20:41.590101 22279 layer_factory.hpp:77] Creating layer conv7_2_conv7_2_relu_0_split
I0323 21:20:41.590107 22279 net.cpp:100] Creating Layer conv7_2_conv7_2_relu_0_split
I0323 21:20:41.590111 22279 net.cpp:434] conv7_2_conv7_2_relu_0_split <- conv7_2
I0323 21:20:41.590116 22279 net.cpp:408] conv7_2_conv7_2_relu_0_split -> conv7_2_conv7_2_relu_0_split_0
I0323 21:20:41.590124 22279 net.cpp:408] conv7_2_conv7_2_relu_0_split -> conv7_2_conv7_2_relu_0_split_1
I0323 21:20:41.590132 22279 net.cpp:408] conv7_2_conv7_2_relu_0_split -> conv7_2_conv7_2_relu_0_split_2
I0323 21:20:41.590140 22279 net.cpp:408] conv7_2_conv7_2_relu_0_split -> conv7_2_conv7_2_relu_0_split_3
I0323 21:20:41.590185 22279 net.cpp:150] Setting up conv7_2_conv7_2_relu_0_split
I0323 21:20:41.590191 22279 net.cpp:157] Top shape: 32 256 5 5 (204800)
I0323 21:20:41.590195 22279 net.cpp:157] Top shape: 32 256 5 5 (204800)
I0323 21:20:41.590201 22279 net.cpp:157] Top shape: 32 256 5 5 (204800)
I0323 21:20:41.590207 22279 net.cpp:157] Top shape: 32 256 5 5 (204800)
I0323 21:20:41.590211 22279 net.cpp:165] Memory required for data: 7525925152
I0323 21:20:41.590215 22279 layer_factory.hpp:77] Creating layer conv8_1
I0323 21:20:41.590224 22279 net.cpp:100] Creating Layer conv8_1
I0323 21:20:41.590227 22279 net.cpp:434] conv8_1 <- conv7_2_conv7_2_relu_0_split_0
I0323 21:20:41.590234 22279 net.cpp:408] conv8_1 -> conv8_1
I0323 21:20:41.590524 22279 net.cpp:150] Setting up conv8_1
I0323 21:20:41.590531 22279 net.cpp:157] Top shape: 32 128 5 5 (102400)
I0323 21:20:41.590534 22279 net.cpp:165] Memory required for data: 7526334752
I0323 21:20:41.590541 22279 layer_factory.hpp:77] Creating layer conv8_1_relu
I0323 21:20:41.590548 22279 net.cpp:100] Creating Layer conv8_1_relu
I0323 21:20:41.590551 22279 net.cpp:434] conv8_1_relu <- conv8_1
I0323 21:20:41.590557 22279 net.cpp:395] conv8_1_relu -> conv8_1 (in-place)
I0323 21:20:41.590564 22279 net.cpp:150] Setting up conv8_1_relu
I0323 21:20:41.590569 22279 net.cpp:157] Top shape: 32 128 5 5 (102400)
I0323 21:20:41.590574 22279 net.cpp:165] Memory required for data: 7526744352
I0323 21:20:41.590577 22279 layer_factory.hpp:77] Creating layer conv8_2
I0323 21:20:41.590584 22279 net.cpp:100] Creating Layer conv8_2
I0323 21:20:41.590587 22279 net.cpp:434] conv8_2 <- conv8_1
I0323 21:20:41.590593 22279 net.cpp:408] conv8_2 -> conv8_2
I0323 21:20:41.592571 22279 net.cpp:150] Setting up conv8_2
I0323 21:20:41.592581 22279 net.cpp:157] Top shape: 32 256 3 3 (73728)
I0323 21:20:41.592584 22279 net.cpp:165] Memory required for data: 7527039264
I0323 21:20:41.592592 22279 layer_factory.hpp:77] Creating layer conv8_2_relu
I0323 21:20:41.592600 22279 net.cpp:100] Creating Layer conv8_2_relu
I0323 21:20:41.592604 22279 net.cpp:434] conv8_2_relu <- conv8_2
I0323 21:20:41.592610 22279 net.cpp:395] conv8_2_relu -> conv8_2 (in-place)
I0323 21:20:41.592617 22279 net.cpp:150] Setting up conv8_2_relu
I0323 21:20:41.592623 22279 net.cpp:157] Top shape: 32 256 3 3 (73728)
I0323 21:20:41.592628 22279 net.cpp:165] Memory required for data: 7527334176
I0323 21:20:41.592630 22279 layer_factory.hpp:77] Creating layer conv8_2_conv8_2_relu_0_split
I0323 21:20:41.592636 22279 net.cpp:100] Creating Layer conv8_2_conv8_2_relu_0_split
I0323 21:20:41.592641 22279 net.cpp:434] conv8_2_conv8_2_relu_0_split <- conv8_2
I0323 21:20:41.592649 22279 net.cpp:408] conv8_2_conv8_2_relu_0_split -> conv8_2_conv8_2_relu_0_split_0
I0323 21:20:41.592658 22279 net.cpp:408] conv8_2_conv8_2_relu_0_split -> conv8_2_conv8_2_relu_0_split_1
I0323 21:20:41.592665 22279 net.cpp:408] conv8_2_conv8_2_relu_0_split -> conv8_2_conv8_2_relu_0_split_2
I0323 21:20:41.592672 22279 net.cpp:408] conv8_2_conv8_2_relu_0_split -> conv8_2_conv8_2_relu_0_split_3
I0323 21:20:41.592720 22279 net.cpp:150] Setting up conv8_2_conv8_2_relu_0_split
I0323 21:20:41.592736 22279 net.cpp:157] Top shape: 32 256 3 3 (73728)
I0323 21:20:41.592741 22279 net.cpp:157] Top shape: 32 256 3 3 (73728)
I0323 21:20:41.592746 22279 net.cpp:157] Top shape: 32 256 3 3 (73728)
I0323 21:20:41.592751 22279 net.cpp:157] Top shape: 32 256 3 3 (73728)
I0323 21:20:41.592753 22279 net.cpp:165] Memory required for data: 7528513824
I0323 21:20:41.592756 22279 layer_factory.hpp:77] Creating layer conv9_1
I0323 21:20:41.592767 22279 net.cpp:100] Creating Layer conv9_1
I0323 21:20:41.592770 22279 net.cpp:434] conv9_1 <- conv8_2_conv8_2_relu_0_split_0
I0323 21:20:41.592780 22279 net.cpp:408] conv9_1 -> conv9_1
I0323 21:20:41.593073 22279 net.cpp:150] Setting up conv9_1
I0323 21:20:41.593080 22279 net.cpp:157] Top shape: 32 128 3 3 (36864)
I0323 21:20:41.593083 22279 net.cpp:165] Memory required for data: 7528661280
I0323 21:20:41.593089 22279 layer_factory.hpp:77] Creating layer conv9_1_relu
I0323 21:20:41.593096 22279 net.cpp:100] Creating Layer conv9_1_relu
I0323 21:20:41.593101 22279 net.cpp:434] conv9_1_relu <- conv9_1
I0323 21:20:41.593106 22279 net.cpp:395] conv9_1_relu -> conv9_1 (in-place)
I0323 21:20:41.593112 22279 net.cpp:150] Setting up conv9_1_relu
I0323 21:20:41.593118 22279 net.cpp:157] Top shape: 32 128 3 3 (36864)
I0323 21:20:41.593122 22279 net.cpp:165] Memory required for data: 7528808736
I0323 21:20:41.593125 22279 layer_factory.hpp:77] Creating layer conv9_2
I0323 21:20:41.593134 22279 net.cpp:100] Creating Layer conv9_2
I0323 21:20:41.593137 22279 net.cpp:434] conv9_2 <- conv9_1
I0323 21:20:41.593144 22279 net.cpp:408] conv9_2 -> conv9_2
I0323 21:20:41.595115 22279 net.cpp:150] Setting up conv9_2
I0323 21:20:41.595126 22279 net.cpp:157] Top shape: 32 256 1 1 (8192)
I0323 21:20:41.595129 22279 net.cpp:165] Memory required for data: 7528841504
I0323 21:20:41.595136 22279 layer_factory.hpp:77] Creating layer conv9_2_relu
I0323 21:20:41.595144 22279 net.cpp:100] Creating Layer conv9_2_relu
I0323 21:20:41.595150 22279 net.cpp:434] conv9_2_relu <- conv9_2
I0323 21:20:41.595155 22279 net.cpp:395] conv9_2_relu -> conv9_2 (in-place)
I0323 21:20:41.595165 22279 net.cpp:150] Setting up conv9_2_relu
I0323 21:20:41.595170 22279 net.cpp:157] Top shape: 32 256 1 1 (8192)
I0323 21:20:41.595173 22279 net.cpp:165] Memory required for data: 7528874272
I0323 21:20:41.595176 22279 layer_factory.hpp:77] Creating layer conv9_2_conv9_2_relu_0_split
I0323 21:20:41.595183 22279 net.cpp:100] Creating Layer conv9_2_conv9_2_relu_0_split
I0323 21:20:41.595186 22279 net.cpp:434] conv9_2_conv9_2_relu_0_split <- conv9_2
I0323 21:20:41.595194 22279 net.cpp:408] conv9_2_conv9_2_relu_0_split -> conv9_2_conv9_2_relu_0_split_0
I0323 21:20:41.595202 22279 net.cpp:408] conv9_2_conv9_2_relu_0_split -> conv9_2_conv9_2_relu_0_split_1
I0323 21:20:41.595211 22279 net.cpp:408] conv9_2_conv9_2_relu_0_split -> conv9_2_conv9_2_relu_0_split_2
I0323 21:20:41.595252 22279 net.cpp:150] Setting up conv9_2_conv9_2_relu_0_split
I0323 21:20:41.595257 22279 net.cpp:157] Top shape: 32 256 1 1 (8192)
I0323 21:20:41.595263 22279 net.cpp:157] Top shape: 32 256 1 1 (8192)
I0323 21:20:41.595268 22279 net.cpp:157] Top shape: 32 256 1 1 (8192)
I0323 21:20:41.595270 22279 net.cpp:165] Memory required for data: 7528972576
I0323 21:20:41.595273 22279 layer_factory.hpp:77] Creating layer conv4_3_norm
I0323 21:20:41.595281 22279 net.cpp:100] Creating Layer conv4_3_norm
I0323 21:20:41.595285 22279 net.cpp:434] conv4_3_norm <- conv4_3_relu4_3_0_split_1
I0323 21:20:41.595293 22279 net.cpp:408] conv4_3_norm -> conv4_3_norm
I0323 21:20:41.595409 22279 net.cpp:150] Setting up conv4_3_norm
I0323 21:20:41.595417 22279 net.cpp:157] Top shape: 32 512 38 38 (23658496)
I0323 21:20:41.595419 22279 net.cpp:165] Memory required for data: 7623606560
I0323 21:20:41.595425 22279 layer_factory.hpp:77] Creating layer conv4_3_norm_conv4_3_norm_0_split
I0323 21:20:41.595432 22279 net.cpp:100] Creating Layer conv4_3_norm_conv4_3_norm_0_split
I0323 21:20:41.595435 22279 net.cpp:434] conv4_3_norm_conv4_3_norm_0_split <- conv4_3_norm
I0323 21:20:41.595451 22279 net.cpp:408] conv4_3_norm_conv4_3_norm_0_split -> conv4_3_norm_conv4_3_norm_0_split_0
I0323 21:20:41.595459 22279 net.cpp:408] conv4_3_norm_conv4_3_norm_0_split -> conv4_3_norm_conv4_3_norm_0_split_1
I0323 21:20:41.595466 22279 net.cpp:408] conv4_3_norm_conv4_3_norm_0_split -> conv4_3_norm_conv4_3_norm_0_split_2
I0323 21:20:41.595501 22279 net.cpp:150] Setting up conv4_3_norm_conv4_3_norm_0_split
I0323 21:20:41.595508 22279 net.cpp:157] Top shape: 32 512 38 38 (23658496)
I0323 21:20:41.595512 22279 net.cpp:157] Top shape: 32 512 38 38 (23658496)
I0323 21:20:41.595516 22279 net.cpp:157] Top shape: 32 512 38 38 (23658496)
I0323 21:20:41.595520 22279 net.cpp:165] Memory required for data: 7907508512
I0323 21:20:41.595525 22279 layer_factory.hpp:77] Creating layer conv4_3_norm_mbox_loc
I0323 21:20:41.595535 22279 net.cpp:100] Creating Layer conv4_3_norm_mbox_loc
I0323 21:20:41.595537 22279 net.cpp:434] conv4_3_norm_mbox_loc <- conv4_3_norm_conv4_3_norm_0_split_0
I0323 21:20:41.595544 22279 net.cpp:408] conv4_3_norm_mbox_loc -> conv4_3_norm_mbox_loc
I0323 21:20:41.596019 22279 net.cpp:150] Setting up conv4_3_norm_mbox_loc
I0323 21:20:41.596026 22279 net.cpp:157] Top shape: 32 16 38 38 (739328)
I0323 21:20:41.596029 22279 net.cpp:165] Memory required for data: 7910465824
I0323 21:20:41.596035 22279 layer_factory.hpp:77] Creating layer conv4_3_norm_mbox_loc_perm
I0323 21:20:41.596045 22279 net.cpp:100] Creating Layer conv4_3_norm_mbox_loc_perm
I0323 21:20:41.596048 22279 net.cpp:434] conv4_3_norm_mbox_loc_perm <- conv4_3_norm_mbox_loc
I0323 21:20:41.596055 22279 net.cpp:408] conv4_3_norm_mbox_loc_perm -> conv4_3_norm_mbox_loc_perm
I0323 21:20:41.596129 22279 net.cpp:150] Setting up conv4_3_norm_mbox_loc_perm
I0323 21:20:41.596138 22279 net.cpp:157] Top shape: 32 38 38 16 (739328)
I0323 21:20:41.596140 22279 net.cpp:165] Memory required for data: 7913423136
I0323 21:20:41.596143 22279 layer_factory.hpp:77] Creating layer conv4_3_norm_mbox_loc_flat
I0323 21:20:41.596150 22279 net.cpp:100] Creating Layer conv4_3_norm_mbox_loc_flat
I0323 21:20:41.596155 22279 net.cpp:434] conv4_3_norm_mbox_loc_flat <- conv4_3_norm_mbox_loc_perm
I0323 21:20:41.596163 22279 net.cpp:408] conv4_3_norm_mbox_loc_flat -> conv4_3_norm_mbox_loc_flat
I0323 21:20:41.596195 22279 net.cpp:150] Setting up conv4_3_norm_mbox_loc_flat
I0323 21:20:41.596202 22279 net.cpp:157] Top shape: 32 23104 (739328)
I0323 21:20:41.596205 22279 net.cpp:165] Memory required for data: 7916380448
I0323 21:20:41.596210 22279 layer_factory.hpp:77] Creating layer conv4_3_norm_mbox_conf
I0323 21:20:41.596223 22279 net.cpp:100] Creating Layer conv4_3_norm_mbox_conf
I0323 21:20:41.596226 22279 net.cpp:434] conv4_3_norm_mbox_conf <- conv4_3_norm_conv4_3_norm_0_split_1
I0323 21:20:41.596235 22279 net.cpp:408] conv4_3_norm_mbox_conf -> conv4_3_norm_mbox_conf
I0323 21:20:41.596557 22279 net.cpp:150] Setting up conv4_3_norm_mbox_conf
I0323 21:20:41.596565 22279 net.cpp:157] Top shape: 32 8 38 38 (369664)
I0323 21:20:41.596567 22279 net.cpp:165] Memory required for data: 7917859104
I0323 21:20:41.596575 22279 layer_factory.hpp:77] Creating layer conv4_3_norm_mbox_conf_perm
I0323 21:20:41.596581 22279 net.cpp:100] Creating Layer conv4_3_norm_mbox_conf_perm
I0323 21:20:41.596585 22279 net.cpp:434] conv4_3_norm_mbox_conf_perm <- conv4_3_norm_mbox_conf
I0323 21:20:41.596591 22279 net.cpp:408] conv4_3_norm_mbox_conf_perm -> conv4_3_norm_mbox_conf_perm
I0323 21:20:41.596664 22279 net.cpp:150] Setting up conv4_3_norm_mbox_conf_perm
I0323 21:20:41.596670 22279 net.cpp:157] Top shape: 32 38 38 8 (369664)
I0323 21:20:41.596673 22279 net.cpp:165] Memory required for data: 7919337760
I0323 21:20:41.596676 22279 layer_factory.hpp:77] Creating layer conv4_3_norm_mbox_conf_flat
I0323 21:20:41.596684 22279 net.cpp:100] Creating Layer conv4_3_norm_mbox_conf_flat
I0323 21:20:41.596688 22279 net.cpp:434] conv4_3_norm_mbox_conf_flat <- conv4_3_norm_mbox_conf_perm
I0323 21:20:41.596694 22279 net.cpp:408] conv4_3_norm_mbox_conf_flat -> conv4_3_norm_mbox_conf_flat
I0323 21:20:41.596716 22279 net.cpp:150] Setting up conv4_3_norm_mbox_conf_flat
I0323 21:20:41.596729 22279 net.cpp:157] Top shape: 32 11552 (369664)
I0323 21:20:41.596731 22279 net.cpp:165] Memory required for data: 7920816416
I0323 21:20:41.596735 22279 layer_factory.hpp:77] Creating layer conv4_3_norm_mbox_priorbox
I0323 21:20:41.596745 22279 net.cpp:100] Creating Layer conv4_3_norm_mbox_priorbox
I0323 21:20:41.596750 22279 net.cpp:434] conv4_3_norm_mbox_priorbox <- conv4_3_norm_conv4_3_norm_0_split_2
I0323 21:20:41.596755 22279 net.cpp:434] conv4_3_norm_mbox_priorbox <- data_data_0_split_1
I0323 21:20:41.596761 22279 net.cpp:408] conv4_3_norm_mbox_priorbox -> conv4_3_norm_mbox_priorbox
I0323 21:20:41.596786 22279 net.cpp:150] Setting up conv4_3_norm_mbox_priorbox
I0323 21:20:41.596793 22279 net.cpp:157] Top shape: 1 2 23104 (46208)
I0323 21:20:41.596796 22279 net.cpp:165] Memory required for data: 7921001248
I0323 21:20:41.596799 22279 layer_factory.hpp:77] Creating layer fc7_mbox_loc
I0323 21:20:41.596809 22279 net.cpp:100] Creating Layer fc7_mbox_loc
I0323 21:20:41.596813 22279 net.cpp:434] fc7_mbox_loc <- fc7_relu7_0_split_1
I0323 21:20:41.596822 22279 net.cpp:408] fc7_mbox_loc -> fc7_mbox_loc
I0323 21:20:41.597889 22279 net.cpp:150] Setting up fc7_mbox_loc
I0323 21:20:41.597898 22279 net.cpp:157] Top shape: 32 24 19 19 (277248)
I0323 21:20:41.597900 22279 net.cpp:165] Memory required for data: 7922110240
I0323 21:20:41.597908 22279 layer_factory.hpp:77] Creating layer fc7_mbox_loc_perm
I0323 21:20:41.597915 22279 net.cpp:100] Creating Layer fc7_mbox_loc_perm
I0323 21:20:41.597919 22279 net.cpp:434] fc7_mbox_loc_perm <- fc7_mbox_loc
I0323 21:20:41.597926 22279 net.cpp:408] fc7_mbox_loc_perm -> fc7_mbox_loc_perm
I0323 21:20:41.597996 22279 net.cpp:150] Setting up fc7_mbox_loc_perm
I0323 21:20:41.598002 22279 net.cpp:157] Top shape: 32 19 19 24 (277248)
I0323 21:20:41.598006 22279 net.cpp:165] Memory required for data: 7923219232
I0323 21:20:41.598009 22279 layer_factory.hpp:77] Creating layer fc7_mbox_loc_flat
I0323 21:20:41.598016 22279 net.cpp:100] Creating Layer fc7_mbox_loc_flat
I0323 21:20:41.598021 22279 net.cpp:434] fc7_mbox_loc_flat <- fc7_mbox_loc_perm
I0323 21:20:41.598026 22279 net.cpp:408] fc7_mbox_loc_flat -> fc7_mbox_loc_flat
I0323 21:20:41.598048 22279 net.cpp:150] Setting up fc7_mbox_loc_flat
I0323 21:20:41.598053 22279 net.cpp:157] Top shape: 32 8664 (277248)
I0323 21:20:41.598057 22279 net.cpp:165] Memory required for data: 7924328224
I0323 21:20:41.598059 22279 layer_factory.hpp:77] Creating layer fc7_mbox_conf
I0323 21:20:41.598069 22279 net.cpp:100] Creating Layer fc7_mbox_conf
I0323 21:20:41.598073 22279 net.cpp:434] fc7_mbox_conf <- fc7_relu7_0_split_2
I0323 21:20:41.598080 22279 net.cpp:408] fc7_mbox_conf -> fc7_mbox_conf
I0323 21:20:41.598700 22279 net.cpp:150] Setting up fc7_mbox_conf
I0323 21:20:41.598707 22279 net.cpp:157] Top shape: 32 12 19 19 (138624)
I0323 21:20:41.598711 22279 net.cpp:165] Memory required for data: 7924882720
I0323 21:20:41.598716 22279 layer_factory.hpp:77] Creating layer fc7_mbox_conf_perm
I0323 21:20:41.598723 22279 net.cpp:100] Creating Layer fc7_mbox_conf_perm
I0323 21:20:41.598728 22279 net.cpp:434] fc7_mbox_conf_perm <- fc7_mbox_conf
I0323 21:20:41.598736 22279 net.cpp:408] fc7_mbox_conf_perm -> fc7_mbox_conf_perm
I0323 21:20:41.598808 22279 net.cpp:150] Setting up fc7_mbox_conf_perm
I0323 21:20:41.598814 22279 net.cpp:157] Top shape: 32 19 19 12 (138624)
I0323 21:20:41.598816 22279 net.cpp:165] Memory required for data: 7925437216
I0323 21:20:41.598819 22279 layer_factory.hpp:77] Creating layer fc7_mbox_conf_flat
I0323 21:20:41.598826 22279 net.cpp:100] Creating Layer fc7_mbox_conf_flat
I0323 21:20:41.598831 22279 net.cpp:434] fc7_mbox_conf_flat <- fc7_mbox_conf_perm
I0323 21:20:41.598837 22279 net.cpp:408] fc7_mbox_conf_flat -> fc7_mbox_conf_flat
I0323 21:20:41.598858 22279 net.cpp:150] Setting up fc7_mbox_conf_flat
I0323 21:20:41.598865 22279 net.cpp:157] Top shape: 32 4332 (138624)
I0323 21:20:41.598867 22279 net.cpp:165] Memory required for data: 7925991712
I0323 21:20:41.598871 22279 layer_factory.hpp:77] Creating layer fc7_mbox_priorbox
I0323 21:20:41.598886 22279 net.cpp:100] Creating Layer fc7_mbox_priorbox
I0323 21:20:41.598891 22279 net.cpp:434] fc7_mbox_priorbox <- fc7_relu7_0_split_3
I0323 21:20:41.598896 22279 net.cpp:434] fc7_mbox_priorbox <- data_data_0_split_2
I0323 21:20:41.598903 22279 net.cpp:408] fc7_mbox_priorbox -> fc7_mbox_priorbox
I0323 21:20:41.598925 22279 net.cpp:150] Setting up fc7_mbox_priorbox
I0323 21:20:41.598932 22279 net.cpp:157] Top shape: 1 2 8664 (17328)
I0323 21:20:41.598934 22279 net.cpp:165] Memory required for data: 7926061024
I0323 21:20:41.598938 22279 layer_factory.hpp:77] Creating layer conv6_2_mbox_loc
I0323 21:20:41.598948 22279 net.cpp:100] Creating Layer conv6_2_mbox_loc
I0323 21:20:41.598951 22279 net.cpp:434] conv6_2_mbox_loc <- conv6_2_conv6_2_relu_0_split_1
I0323 21:20:41.598959 22279 net.cpp:408] conv6_2_mbox_loc -> conv6_2_mbox_loc
I0323 21:20:41.599586 22279 net.cpp:150] Setting up conv6_2_mbox_loc
I0323 21:20:41.599593 22279 net.cpp:157] Top shape: 32 24 10 10 (76800)
I0323 21:20:41.599596 22279 net.cpp:165] Memory required for data: 7926368224
I0323 21:20:41.599603 22279 layer_factory.hpp:77] Creating layer conv6_2_mbox_loc_perm
I0323 21:20:41.599611 22279 net.cpp:100] Creating Layer conv6_2_mbox_loc_perm
I0323 21:20:41.599616 22279 net.cpp:434] conv6_2_mbox_loc_perm <- conv6_2_mbox_loc
I0323 21:20:41.599623 22279 net.cpp:408] conv6_2_mbox_loc_perm -> conv6_2_mbox_loc_perm
I0323 21:20:41.599694 22279 net.cpp:150] Setting up conv6_2_mbox_loc_perm
I0323 21:20:41.599700 22279 net.cpp:157] Top shape: 32 10 10 24 (76800)
I0323 21:20:41.599702 22279 net.cpp:165] Memory required for data: 7926675424
I0323 21:20:41.599706 22279 layer_factory.hpp:77] Creating layer conv6_2_mbox_loc_flat
I0323 21:20:41.599711 22279 net.cpp:100] Creating Layer conv6_2_mbox_loc_flat
I0323 21:20:41.599716 22279 net.cpp:434] conv6_2_mbox_loc_flat <- conv6_2_mbox_loc_perm
I0323 21:20:41.599723 22279 net.cpp:408] conv6_2_mbox_loc_flat -> conv6_2_mbox_loc_flat
I0323 21:20:41.599743 22279 net.cpp:150] Setting up conv6_2_mbox_loc_flat
I0323 21:20:41.599750 22279 net.cpp:157] Top shape: 32 2400 (76800)
I0323 21:20:41.599755 22279 net.cpp:165] Memory required for data: 7926982624
I0323 21:20:41.599757 22279 layer_factory.hpp:77] Creating layer conv6_2_mbox_conf
I0323 21:20:41.599767 22279 net.cpp:100] Creating Layer conv6_2_mbox_conf
I0323 21:20:41.599771 22279 net.cpp:434] conv6_2_mbox_conf <- conv6_2_conv6_2_relu_0_split_2
I0323 21:20:41.599781 22279 net.cpp:408] conv6_2_mbox_conf -> conv6_2_mbox_conf
I0323 21:20:41.600174 22279 net.cpp:150] Setting up conv6_2_mbox_conf
I0323 21:20:41.600180 22279 net.cpp:157] Top shape: 32 12 10 10 (38400)
I0323 21:20:41.600183 22279 net.cpp:165] Memory required for data: 7927136224
I0323 21:20:41.600190 22279 layer_factory.hpp:77] Creating layer conv6_2_mbox_conf_perm
I0323 21:20:41.600199 22279 net.cpp:100] Creating Layer conv6_2_mbox_conf_perm
I0323 21:20:41.600204 22279 net.cpp:434] conv6_2_mbox_conf_perm <- conv6_2_mbox_conf
I0323 21:20:41.600209 22279 net.cpp:408] conv6_2_mbox_conf_perm -> conv6_2_mbox_conf_perm
I0323 21:20:41.600281 22279 net.cpp:150] Setting up conv6_2_mbox_conf_perm
I0323 21:20:41.600286 22279 net.cpp:157] Top shape: 32 10 10 12 (38400)
I0323 21:20:41.600289 22279 net.cpp:165] Memory required for data: 7927289824
I0323 21:20:41.600292 22279 layer_factory.hpp:77] Creating layer conv6_2_mbox_conf_flat
I0323 21:20:41.600299 22279 net.cpp:100] Creating Layer conv6_2_mbox_conf_flat
I0323 21:20:41.600304 22279 net.cpp:434] conv6_2_mbox_conf_flat <- conv6_2_mbox_conf_perm
I0323 21:20:41.600311 22279 net.cpp:408] conv6_2_mbox_conf_flat -> conv6_2_mbox_conf_flat
I0323 21:20:41.600332 22279 net.cpp:150] Setting up conv6_2_mbox_conf_flat
I0323 21:20:41.600337 22279 net.cpp:157] Top shape: 32 1200 (38400)
I0323 21:20:41.600339 22279 net.cpp:165] Memory required for data: 7927443424
I0323 21:20:41.600342 22279 layer_factory.hpp:77] Creating layer conv6_2_mbox_priorbox
I0323 21:20:41.600348 22279 net.cpp:100] Creating Layer conv6_2_mbox_priorbox
I0323 21:20:41.600363 22279 net.cpp:434] conv6_2_mbox_priorbox <- conv6_2_conv6_2_relu_0_split_3
I0323 21:20:41.600368 22279 net.cpp:434] conv6_2_mbox_priorbox <- data_data_0_split_3
I0323 21:20:41.600374 22279 net.cpp:408] conv6_2_mbox_priorbox -> conv6_2_mbox_priorbox
I0323 21:20:41.600399 22279 net.cpp:150] Setting up conv6_2_mbox_priorbox
I0323 21:20:41.600404 22279 net.cpp:157] Top shape: 1 2 2400 (4800)
I0323 21:20:41.600407 22279 net.cpp:165] Memory required for data: 7927462624
I0323 21:20:41.600410 22279 layer_factory.hpp:77] Creating layer conv7_2_mbox_loc
I0323 21:20:41.600420 22279 net.cpp:100] Creating Layer conv7_2_mbox_loc
I0323 21:20:41.600425 22279 net.cpp:434] conv7_2_mbox_loc <- conv7_2_conv7_2_relu_0_split_1
I0323 21:20:41.600432 22279 net.cpp:408] conv7_2_mbox_loc -> conv7_2_mbox_loc
I0323 21:20:41.600823 22279 net.cpp:150] Setting up conv7_2_mbox_loc
I0323 21:20:41.600831 22279 net.cpp:157] Top shape: 32 24 5 5 (19200)
I0323 21:20:41.600834 22279 net.cpp:165] Memory required for data: 7927539424
I0323 21:20:41.600841 22279 layer_factory.hpp:77] Creating layer conv7_2_mbox_loc_perm
I0323 21:20:41.600847 22279 net.cpp:100] Creating Layer conv7_2_mbox_loc_perm
I0323 21:20:41.600852 22279 net.cpp:434] conv7_2_mbox_loc_perm <- conv7_2_mbox_loc
I0323 21:20:41.600859 22279 net.cpp:408] conv7_2_mbox_loc_perm -> conv7_2_mbox_loc_perm
I0323 21:20:41.600927 22279 net.cpp:150] Setting up conv7_2_mbox_loc_perm
I0323 21:20:41.600934 22279 net.cpp:157] Top shape: 32 5 5 24 (19200)
I0323 21:20:41.600936 22279 net.cpp:165] Memory required for data: 7927616224
I0323 21:20:41.600940 22279 layer_factory.hpp:77] Creating layer conv7_2_mbox_loc_flat
I0323 21:20:41.600947 22279 net.cpp:100] Creating Layer conv7_2_mbox_loc_flat
I0323 21:20:41.600951 22279 net.cpp:434] conv7_2_mbox_loc_flat <- conv7_2_mbox_loc_perm
I0323 21:20:41.600957 22279 net.cpp:408] conv7_2_mbox_loc_flat -> conv7_2_mbox_loc_flat
I0323 21:20:41.600978 22279 net.cpp:150] Setting up conv7_2_mbox_loc_flat
I0323 21:20:41.600983 22279 net.cpp:157] Top shape: 32 600 (19200)
I0323 21:20:41.600986 22279 net.cpp:165] Memory required for data: 7927693024
I0323 21:20:41.600989 22279 layer_factory.hpp:77] Creating layer conv7_2_mbox_conf
I0323 21:20:41.600999 22279 net.cpp:100] Creating Layer conv7_2_mbox_conf
I0323 21:20:41.601003 22279 net.cpp:434] conv7_2_mbox_conf <- conv7_2_conv7_2_relu_0_split_2
I0323 21:20:41.601011 22279 net.cpp:408] conv7_2_mbox_conf -> conv7_2_mbox_conf
I0323 21:20:41.601284 22279 net.cpp:150] Setting up conv7_2_mbox_conf
I0323 21:20:41.601291 22279 net.cpp:157] Top shape: 32 12 5 5 (9600)
I0323 21:20:41.601294 22279 net.cpp:165] Memory required for data: 7927731424
I0323 21:20:41.601300 22279 layer_factory.hpp:77] Creating layer conv7_2_mbox_conf_perm
I0323 21:20:41.601307 22279 net.cpp:100] Creating Layer conv7_2_mbox_conf_perm
I0323 21:20:41.601313 22279 net.cpp:434] conv7_2_mbox_conf_perm <- conv7_2_mbox_conf
I0323 21:20:41.601321 22279 net.cpp:408] conv7_2_mbox_conf_perm -> conv7_2_mbox_conf_perm
I0323 21:20:41.601392 22279 net.cpp:150] Setting up conv7_2_mbox_conf_perm
I0323 21:20:41.601397 22279 net.cpp:157] Top shape: 32 5 5 12 (9600)
I0323 21:20:41.601402 22279 net.cpp:165] Memory required for data: 7927769824
I0323 21:20:41.601404 22279 layer_factory.hpp:77] Creating layer conv7_2_mbox_conf_flat
I0323 21:20:41.601409 22279 net.cpp:100] Creating Layer conv7_2_mbox_conf_flat
I0323 21:20:41.601413 22279 net.cpp:434] conv7_2_mbox_conf_flat <- conv7_2_mbox_conf_perm
I0323 21:20:41.601421 22279 net.cpp:408] conv7_2_mbox_conf_flat -> conv7_2_mbox_conf_flat
I0323 21:20:41.601441 22279 net.cpp:150] Setting up conv7_2_mbox_conf_flat
I0323 21:20:41.601447 22279 net.cpp:157] Top shape: 32 300 (9600)
I0323 21:20:41.601450 22279 net.cpp:165] Memory required for data: 7927808224
I0323 21:20:41.601454 22279 layer_factory.hpp:77] Creating layer conv7_2_mbox_priorbox
I0323 21:20:41.601460 22279 net.cpp:100] Creating Layer conv7_2_mbox_priorbox
I0323 21:20:41.601464 22279 net.cpp:434] conv7_2_mbox_priorbox <- conv7_2_conv7_2_relu_0_split_3
I0323 21:20:41.601475 22279 net.cpp:434] conv7_2_mbox_priorbox <- data_data_0_split_4
I0323 21:20:41.601485 22279 net.cpp:408] conv7_2_mbox_priorbox -> conv7_2_mbox_priorbox
I0323 21:20:41.601508 22279 net.cpp:150] Setting up conv7_2_mbox_priorbox
I0323 21:20:41.601514 22279 net.cpp:157] Top shape: 1 2 600 (1200)
I0323 21:20:41.601516 22279 net.cpp:165] Memory required for data: 7927813024
I0323 21:20:41.601521 22279 layer_factory.hpp:77] Creating layer conv8_2_mbox_loc
I0323 21:20:41.601531 22279 net.cpp:100] Creating Layer conv8_2_mbox_loc
I0323 21:20:41.601536 22279 net.cpp:434] conv8_2_mbox_loc <- conv8_2_conv8_2_relu_0_split_1
I0323 21:20:41.601542 22279 net.cpp:408] conv8_2_mbox_loc -> conv8_2_mbox_loc
I0323 21:20:41.601867 22279 net.cpp:150] Setting up conv8_2_mbox_loc
I0323 21:20:41.601874 22279 net.cpp:157] Top shape: 32 16 3 3 (4608)
I0323 21:20:41.601877 22279 net.cpp:165] Memory required for data: 7927831456
I0323 21:20:41.601892 22279 layer_factory.hpp:77] Creating layer conv8_2_mbox_loc_perm
I0323 21:20:41.601900 22279 net.cpp:100] Creating Layer conv8_2_mbox_loc_perm
I0323 21:20:41.601905 22279 net.cpp:434] conv8_2_mbox_loc_perm <- conv8_2_mbox_loc
I0323 21:20:41.601912 22279 net.cpp:408] conv8_2_mbox_loc_perm -> conv8_2_mbox_loc_perm
I0323 21:20:41.601981 22279 net.cpp:150] Setting up conv8_2_mbox_loc_perm
I0323 21:20:41.601989 22279 net.cpp:157] Top shape: 32 3 3 16 (4608)
I0323 21:20:41.601992 22279 net.cpp:165] Memory required for data: 7927849888
I0323 21:20:41.601995 22279 layer_factory.hpp:77] Creating layer conv8_2_mbox_loc_flat
I0323 21:20:41.602002 22279 net.cpp:100] Creating Layer conv8_2_mbox_loc_flat
I0323 21:20:41.602007 22279 net.cpp:434] conv8_2_mbox_loc_flat <- conv8_2_mbox_loc_perm
I0323 21:20:41.602013 22279 net.cpp:408] conv8_2_mbox_loc_flat -> conv8_2_mbox_loc_flat
I0323 21:20:41.602035 22279 net.cpp:150] Setting up conv8_2_mbox_loc_flat
I0323 21:20:41.602041 22279 net.cpp:157] Top shape: 32 144 (4608)
I0323 21:20:41.602046 22279 net.cpp:165] Memory required for data: 7927868320
I0323 21:20:41.602049 22279 layer_factory.hpp:77] Creating layer conv8_2_mbox_conf
I0323 21:20:41.602057 22279 net.cpp:100] Creating Layer conv8_2_mbox_conf
I0323 21:20:41.602061 22279 net.cpp:434] conv8_2_mbox_conf <- conv8_2_conv8_2_relu_0_split_2
I0323 21:20:41.602071 22279 net.cpp:408] conv8_2_mbox_conf -> conv8_2_mbox_conf
I0323 21:20:41.602308 22279 net.cpp:150] Setting up conv8_2_mbox_conf
I0323 21:20:41.602313 22279 net.cpp:157] Top shape: 32 8 3 3 (2304)
I0323 21:20:41.602316 22279 net.cpp:165] Memory required for data: 7927877536
I0323 21:20:41.602322 22279 layer_factory.hpp:77] Creating layer conv8_2_mbox_conf_perm
I0323 21:20:41.602329 22279 net.cpp:100] Creating Layer conv8_2_mbox_conf_perm
I0323 21:20:41.602334 22279 net.cpp:434] conv8_2_mbox_conf_perm <- conv8_2_mbox_conf
I0323 21:20:41.602342 22279 net.cpp:408] conv8_2_mbox_conf_perm -> conv8_2_mbox_conf_perm
I0323 21:20:41.602412 22279 net.cpp:150] Setting up conv8_2_mbox_conf_perm
I0323 21:20:41.602418 22279 net.cpp:157] Top shape: 32 3 3 8 (2304)
I0323 21:20:41.602421 22279 net.cpp:165] Memory required for data: 7927886752
I0323 21:20:41.602423 22279 layer_factory.hpp:77] Creating layer conv8_2_mbox_conf_flat
I0323 21:20:41.602430 22279 net.cpp:100] Creating Layer conv8_2_mbox_conf_flat
I0323 21:20:41.602434 22279 net.cpp:434] conv8_2_mbox_conf_flat <- conv8_2_mbox_conf_perm
I0323 21:20:41.602442 22279 net.cpp:408] conv8_2_mbox_conf_flat -> conv8_2_mbox_conf_flat
I0323 21:20:41.602460 22279 net.cpp:150] Setting up conv8_2_mbox_conf_flat
I0323 21:20:41.602466 22279 net.cpp:157] Top shape: 32 72 (2304)
I0323 21:20:41.602468 22279 net.cpp:165] Memory required for data: 7927895968
I0323 21:20:41.602473 22279 layer_factory.hpp:77] Creating layer conv8_2_mbox_priorbox
I0323 21:20:41.602480 22279 net.cpp:100] Creating Layer conv8_2_mbox_priorbox
I0323 21:20:41.602484 22279 net.cpp:434] conv8_2_mbox_priorbox <- conv8_2_conv8_2_relu_0_split_3
I0323 21:20:41.602489 22279 net.cpp:434] conv8_2_mbox_priorbox <- data_data_0_split_5
I0323 21:20:41.602497 22279 net.cpp:408] conv8_2_mbox_priorbox -> conv8_2_mbox_priorbox
I0323 21:20:41.602527 22279 net.cpp:150] Setting up conv8_2_mbox_priorbox
I0323 21:20:41.602533 22279 net.cpp:157] Top shape: 1 2 144 (288)
I0323 21:20:41.602536 22279 net.cpp:165] Memory required for data: 7927897120
I0323 21:20:41.602540 22279 layer_factory.hpp:77] Creating layer conv9_2_mbox_loc
I0323 21:20:41.602550 22279 net.cpp:100] Creating Layer conv9_2_mbox_loc
I0323 21:20:41.602555 22279 net.cpp:434] conv9_2_mbox_loc <- conv9_2_conv9_2_relu_0_split_0
I0323 21:20:41.602563 22279 net.cpp:408] conv9_2_mbox_loc -> conv9_2_mbox_loc
I0323 21:20:41.602880 22279 net.cpp:150] Setting up conv9_2_mbox_loc
I0323 21:20:41.602885 22279 net.cpp:157] Top shape: 32 16 1 1 (512)
I0323 21:20:41.602888 22279 net.cpp:165] Memory required for data: 7927899168
I0323 21:20:41.602895 22279 layer_factory.hpp:77] Creating layer conv9_2_mbox_loc_perm
I0323 21:20:41.602901 22279 net.cpp:100] Creating Layer conv9_2_mbox_loc_perm
I0323 21:20:41.602906 22279 net.cpp:434] conv9_2_mbox_loc_perm <- conv9_2_mbox_loc
I0323 21:20:41.602912 22279 net.cpp:408] conv9_2_mbox_loc_perm -> conv9_2_mbox_loc_perm
I0323 21:20:41.602982 22279 net.cpp:150] Setting up conv9_2_mbox_loc_perm
I0323 21:20:41.602988 22279 net.cpp:157] Top shape: 32 1 1 16 (512)
I0323 21:20:41.602990 22279 net.cpp:165] Memory required for data: 7927901216
I0323 21:20:41.602994 22279 layer_factory.hpp:77] Creating layer conv9_2_mbox_loc_flat
I0323 21:20:41.603000 22279 net.cpp:100] Creating Layer conv9_2_mbox_loc_flat
I0323 21:20:41.603005 22279 net.cpp:434] conv9_2_mbox_loc_flat <- conv9_2_mbox_loc_perm
I0323 21:20:41.603010 22279 net.cpp:408] conv9_2_mbox_loc_flat -> conv9_2_mbox_loc_flat
I0323 21:20:41.603032 22279 net.cpp:150] Setting up conv9_2_mbox_loc_flat
I0323 21:20:41.603037 22279 net.cpp:157] Top shape: 32 16 (512)
I0323 21:20:41.603039 22279 net.cpp:165] Memory required for data: 7927903264
I0323 21:20:41.603044 22279 layer_factory.hpp:77] Creating layer conv9_2_mbox_conf
I0323 21:20:41.603054 22279 net.cpp:100] Creating Layer conv9_2_mbox_conf
I0323 21:20:41.603057 22279 net.cpp:434] conv9_2_mbox_conf <- conv9_2_conv9_2_relu_0_split_1
I0323 21:20:41.603065 22279 net.cpp:408] conv9_2_mbox_conf -> conv9_2_mbox_conf
I0323 21:20:41.603303 22279 net.cpp:150] Setting up conv9_2_mbox_conf
I0323 21:20:41.603309 22279 net.cpp:157] Top shape: 32 8 1 1 (256)
I0323 21:20:41.603312 22279 net.cpp:165] Memory required for data: 7927904288
I0323 21:20:41.603318 22279 layer_factory.hpp:77] Creating layer conv9_2_mbox_conf_perm
I0323 21:20:41.603325 22279 net.cpp:100] Creating Layer conv9_2_mbox_conf_perm
I0323 21:20:41.603330 22279 net.cpp:434] conv9_2_mbox_conf_perm <- conv9_2_mbox_conf
I0323 21:20:41.603338 22279 net.cpp:408] conv9_2_mbox_conf_perm -> conv9_2_mbox_conf_perm
I0323 21:20:41.603411 22279 net.cpp:150] Setting up conv9_2_mbox_conf_perm
I0323 21:20:41.603420 22279 net.cpp:157] Top shape: 32 1 1 8 (256)
I0323 21:20:41.603422 22279 net.cpp:165] Memory required for data: 7927905312
I0323 21:20:41.603426 22279 layer_factory.hpp:77] Creating layer conv9_2_mbox_conf_flat
I0323 21:20:41.603431 22279 net.cpp:100] Creating Layer conv9_2_mbox_conf_flat
I0323 21:20:41.603435 22279 net.cpp:434] conv9_2_mbox_conf_flat <- conv9_2_mbox_conf_perm
I0323 21:20:41.603442 22279 net.cpp:408] conv9_2_mbox_conf_flat -> conv9_2_mbox_conf_flat
I0323 21:20:41.603464 22279 net.cpp:150] Setting up conv9_2_mbox_conf_flat
I0323 21:20:41.603471 22279 net.cpp:157] Top shape: 32 8 (256)
I0323 21:20:41.603474 22279 net.cpp:165] Memory required for data: 7927906336
I0323 21:20:41.603479 22279 layer_factory.hpp:77] Creating layer conv9_2_mbox_priorbox
I0323 21:20:41.603485 22279 net.cpp:100] Creating Layer conv9_2_mbox_priorbox
I0323 21:20:41.603489 22279 net.cpp:434] conv9_2_mbox_priorbox <- conv9_2_conv9_2_relu_0_split_2
I0323 21:20:41.603494 22279 net.cpp:434] conv9_2_mbox_priorbox <- data_data_0_split_6
I0323 21:20:41.603503 22279 net.cpp:408] conv9_2_mbox_priorbox -> conv9_2_mbox_priorbox
I0323 21:20:41.603525 22279 net.cpp:150] Setting up conv9_2_mbox_priorbox
I0323 21:20:41.603538 22279 net.cpp:157] Top shape: 1 2 16 (32)
I0323 21:20:41.603543 22279 net.cpp:165] Memory required for data: 7927906464
I0323 21:20:41.603546 22279 layer_factory.hpp:77] Creating layer mbox_loc
I0323 21:20:41.603554 22279 net.cpp:100] Creating Layer mbox_loc
I0323 21:20:41.603559 22279 net.cpp:434] mbox_loc <- conv4_3_norm_mbox_loc_flat
I0323 21:20:41.603564 22279 net.cpp:434] mbox_loc <- fc7_mbox_loc_flat
I0323 21:20:41.603569 22279 net.cpp:434] mbox_loc <- conv6_2_mbox_loc_flat
I0323 21:20:41.603574 22279 net.cpp:434] mbox_loc <- conv7_2_mbox_loc_flat
I0323 21:20:41.603579 22279 net.cpp:434] mbox_loc <- conv8_2_mbox_loc_flat
I0323 21:20:41.603582 22279 net.cpp:434] mbox_loc <- conv9_2_mbox_loc_flat
I0323 21:20:41.603590 22279 net.cpp:408] mbox_loc -> mbox_loc
I0323 21:20:41.603613 22279 net.cpp:150] Setting up mbox_loc
I0323 21:20:41.603619 22279 net.cpp:157] Top shape: 32 34928 (1117696)
I0323 21:20:41.603622 22279 net.cpp:165] Memory required for data: 7932377248
I0323 21:20:41.603626 22279 layer_factory.hpp:77] Creating layer mbox_conf
I0323 21:20:41.603633 22279 net.cpp:100] Creating Layer mbox_conf
I0323 21:20:41.603637 22279 net.cpp:434] mbox_conf <- conv4_3_norm_mbox_conf_flat
I0323 21:20:41.603642 22279 net.cpp:434] mbox_conf <- fc7_mbox_conf_flat
I0323 21:20:41.603648 22279 net.cpp:434] mbox_conf <- conv6_2_mbox_conf_flat
I0323 21:20:41.603652 22279 net.cpp:434] mbox_conf <- conv7_2_mbox_conf_flat
I0323 21:20:41.603657 22279 net.cpp:434] mbox_conf <- conv8_2_mbox_conf_flat
I0323 21:20:41.603660 22279 net.cpp:434] mbox_conf <- conv9_2_mbox_conf_flat
I0323 21:20:41.603667 22279 net.cpp:408] mbox_conf -> mbox_conf
I0323 21:20:41.603689 22279 net.cpp:150] Setting up mbox_conf
I0323 21:20:41.603694 22279 net.cpp:157] Top shape: 32 17464 (558848)
I0323 21:20:41.603698 22279 net.cpp:165] Memory required for data: 7934612640
I0323 21:20:41.603701 22279 layer_factory.hpp:77] Creating layer mbox_priorbox
I0323 21:20:41.603708 22279 net.cpp:100] Creating Layer mbox_priorbox
I0323 21:20:41.603713 22279 net.cpp:434] mbox_priorbox <- conv4_3_norm_mbox_priorbox
I0323 21:20:41.603716 22279 net.cpp:434] mbox_priorbox <- fc7_mbox_priorbox
I0323 21:20:41.603723 22279 net.cpp:434] mbox_priorbox <- conv6_2_mbox_priorbox
I0323 21:20:41.603727 22279 net.cpp:434] mbox_priorbox <- conv7_2_mbox_priorbox
I0323 21:20:41.603731 22279 net.cpp:434] mbox_priorbox <- conv8_2_mbox_priorbox
I0323 21:20:41.603735 22279 net.cpp:434] mbox_priorbox <- conv9_2_mbox_priorbox
I0323 21:20:41.603742 22279 net.cpp:408] mbox_priorbox -> mbox_priorbox
I0323 21:20:41.603765 22279 net.cpp:150] Setting up mbox_priorbox
I0323 21:20:41.603770 22279 net.cpp:157] Top shape: 1 2 34928 (69856)
I0323 21:20:41.603772 22279 net.cpp:165] Memory required for data: 7934892064
I0323 21:20:41.603777 22279 layer_factory.hpp:77] Creating layer mbox_loss
I0323 21:20:41.603787 22279 net.cpp:100] Creating Layer mbox_loss
I0323 21:20:41.603792 22279 net.cpp:434] mbox_loss <- mbox_loc
I0323 21:20:41.603796 22279 net.cpp:434] mbox_loss <- mbox_conf
I0323 21:20:41.603802 22279 net.cpp:434] mbox_loss <- mbox_priorbox
…
  phase: TEST
}
layer {
  name: "data"
  type: "AnnotatedData"
  top: "data"
  top: "label"
  include {
    phase: TEST
  }
  transform_param {
    mean_value: 104
    mean_value: 117
    mean_value: 123
    resize_param {
      prob: 1
      resize_mode: WARP
      height: 300
      width: 300
      interp_mode: LINEAR
    }
  }
  data_param {
    source: "/localdata/markustp/data/ascend/lmdb/ascend_test_lmdb"
    batch_size: 2
    backend: LMDB
  }
  annotated_data_param {
    batch_sampler {
    }
    label_map_file: "data/ascend/labelmap.prototxt"
  }
}
layer {
  name: "conv1_1"
  type: "Convolution"
  bottom: "data"
  top: "conv1_1"
  param {
    lr_mult: 1
    decay_mult: 1
  }
  param {
    lr_mult: 2
    decay_mult: 0
  }
  convolution_param {
    num_output: 64
    pad: 1
    kernel_size: 3
    weight_filler {
      type: "xavier"
    }
    bias_filler {
      type: "constant"
      value: 0
    }
  }
}
layer {
  name: "relu1_1"
  type: "ReLU"
  bottom: "conv1_1"
  top: "conv1_1"
}
layer {
  name: "conv1_2"
  type: "Convolution"
  bottom: "conv1_1"
  top: "conv1_2"
  param {
    lr_mult: 1
    decay_mult: 1
  }
  param {
    lr_mult: 2
    decay_mult: 0
  }
  convolution_param {
    num_output: 64
    pad: 1
    kernel_size: 3
    weight_filler {
      type: "xavier"
    }
    bias_filler {
      type: "constant"
      value: 0
    }
  }
}
layer {
  name: "relu1_2"
  type: "ReLU"
  bottom: "conv1_2"
  top: "conv1_2"
}
layer {
  name: "pool1"
  type: "Pooling"
  bottom: "conv1_2"
  top: "pool1"
  pooling_param {
    pool: MAX
    kernel_size: 2
    stride: 2
  }
}
layer {
  name: "conv2_1"
  type: "Convolution"
  bottom: "pool1"
  top: "conv2_1"
  param {
    lr_mult: 1
    decay_mult: 1
  }
  param {
    lr_mult: 2
    decay_mult: 0
  }
  convolution_param {
    num_output: 128
    pad: 1
    kernel_size: 3
    weight_filler {
      type: "xavier"
    }
    bias_filler {
      type: "constant"
      value: 0
    }
  }
}
layer {
  name: "relu2_1"
  type: "ReLU"
  bottom: "conv2_1"
  top: "conv2_1"
}
layer {
  name: "conv2_2"
  type: "Convolution"
  bottom: "conv2_1"
  top: "conv2_2"
  param {
    lr_mult: 1
    decay_mult: 1
  }
  param {
    lr_mult: 2
    decay_mult: 0
  }
  convolution_param {
    num_output: 128
    pad: 1
    kernel_size: 3
    weight_filler {
      type: "xavier"
    }
    bias_filler {
      type: "constant"
      value: 0
    }
  }
}
layer {
  name: "relu2_2"
  type: "ReLU"
  bottom: "conv2_2"
  top: "conv2_2"
}
layer {
  name: "pool2"
  type: "Pooling"
  bottom: "conv2_2"
  top: "pool2"
  pooling_param {
    pool: MAX
    kernel_size: 2
    stride: 2
  }
}
layer {
  name: "conv3_1"
  type: "Convolution"
  bottom: "pool2"
  top: "conv3_1"
  param {
    lr_mult: 1
    decay_mult: 1
  }
  param {
    lr_mult: 2
    decay_mult: 0
  }
  convolution_param {
    num_output: 256
    pad: 1
    kernel_size: 3
    weight_filler {
      type: "xavier"
    }
    bias_filler {
      type: "constant"
      value: 0
    }
  }
}
layer {
  name: "relu3_1"
  type: "ReLU"
  bottom: "conv3_1"
  top: "conv3_1"
}
layer {
  name: "conv3_2"
  type: "Convolution"
  bottom: "conv3_1"
  top: "conv3_2"
  param {
    lr_mult: 1
    decay_mult: 1
  }
  param {
    lr_mult: 2
    decay_mult: 0
  }
  convolution_param {
    num_output: 256
    pad: 1
    kernel_size: 3
    weight_filler {
      type: "xavier"
    }
    bias_filler {
      type: "constant"
      value: 0
    }
  }
}
layer {
  name: "relu3_2"
  type: "ReLU"
  bottom: "conv3_2"
  top: "conv3_2"
}
layer {
  name: "conv3_3"
  type: "Convolution"
  bottom: "conv3_2"
  top: "conv3_3"
  param {
    lr_mult: 1
    decay_mult: 1
  }
  param {
    lr_mult: 2
    decay_mult: 0
  }
  convolution_param {
    num_output: 256
    pad: 1
    kernel_size: 3
    weight_filler {
      type: "xavier"
    }
    bias_filler {
      type: "constant"
      value: 0
    }
  }
}
layer {
  name: "relu3_3"
  type: "ReLU"
  bottom: "conv3_3"
  top: "conv3_3"
}
layer {
  name: "pool3"
  type: "Pooling"
  bottom: "conv3_3"
  top: "pool3"
  pooling_param {
    pool: MAX
    kernel_size: 2
    stride: 2
  }
}
layer {
  name: "conv4_1"
  type: "Convolution"
  bottom: "pool3"
  top: "conv4_1"
  param {
    lr_mult: 1
    decay_mult: 1
  }
  param {
    lr_mult: 2
    decay_mult: 0
  }
  convolution_param {
    num_output: 512
    pad: 1
    kernel_size: 3
    weight_filler {
      type: "xavier"
    }
    bias_filler {
      type: "constant"
      value: 0
    }
  }
}
layer {
  name: "relu4_1"
  type: "ReLU"
  bottom: "conv4_1"
  top: "conv4_1"
}
layer {
  name: "conv4_2"
  type: "Convolution"
  bottom: "conv4_1"
  top: "conv4_2"
  param {
    lr_mult: 1
    decay_mult: 1
  }
  param {
    lr_mult: 2
    decay_mult: 0
  }
  convolution_param {
    num_output: 512
    pad: 1
    kernel_size: 3
    weight_filler {
      type: "xavier"
    }
    bias_filler {
      type: "constant"
      value: 0
    }
  }
}
layer {
  name: "relu4_2"
  type: "ReLU"
  bottom: "conv4_2"
  top: "conv4_2"
}
layer {
  name: "conv4_3"
  type: "Convolution"
  bottom: "conv4_2"
  top: "conv4_3"
  param {
    lr_mult: 1
    decay_mult: 1
  }
  param {
    lr_mult: 2
    decay_mult: 0
  }
  convolution_param {
    num_output: 512
    pad: 1
    kernel_size: 3
    weight_filler {
      type: "xavier"
    }
    bias_filler {
      type: "constant"
      value: 0
    }
  }
}
layer {
  name: "relu4_3"
  type: "ReLU"
  bottom: "conv4_3"
  top: "conv4_3"
}
layer {
  name: "pool4"
  type: "Pooling"
  bottom: "conv4_3"
  top: "pool4"
  pooling_param {
    pool: MAX
    kernel_size: 2
    stride: 2
  }
}
layer {
  name: "conv5_1"
  type: "Convolution"
  bottom: "pool4"
  top: "conv5_1"
  param {
    lr_mult: 1
    decay_mult: 1
  }
  param {
    lr_mult: 2
    decay_mult: 0
  }
  convolution_param {
    num_output: 512
    pad: 1
    kernel_size: 3
    weight_filler {
      type: "xavier"
    }
    bias_filler {
      type: "constant"
      value: 0
    }
    dilation: 1
  }
}
layer {
  name: "relu5_1"
  type: "ReLU"
  bottom: "conv5_1"
  top: "conv5_1"
}
layer {
  name: "conv5_2"
  type: "Convolution"
  bottom: "conv5_1"
  top: "conv5_2"
  param {
    lr_mult: 1
    decay_mult: 1
  }
  param {
    lr_mult: 2
    decay_mult: 0
  }
  convolution_param {
    num_output: 512
    pad: 1
    kernel_size: 3
    weight_filler {
      type: "xavier"
    }
    bias_filler {
      type: "constant"
      value: 0
    }
    dilation: 1
  }
}
layer {
  name: "relu5_2"
  type: "ReLU"
  bottom: "conv5_2"
  top: "conv5_2"
}
layer {
  name: "conv5_3"
  type: "Convolution"
  bottom: "conv5_2"
  top: "conv5_3"
  param {
    lr_mult: 1
    decay_mult: 1
  }
  param {
    lr_mult: 2
    decay_mult: 0
  }
  convolution_param {
    num_output: 512
    pad: 1
    kernel_size: 3
    weight_filler {
      type: "xavier"
    }
    bias_filler {
      type: "constant"
      value: 0
    }
    dilation: 1
  }
}
layer {
  name: "relu5_3"
  type: "ReLU"
  bottom: "conv5_3"
  top: "conv5_3"
}
layer {
  name: "pool5"
  type: "Pooling"
  bottom: "conv5_3"
  top: "pool5"
  pooling_param {
    pool: MAX
    kernel_size: 3
    stride: 1
    pad: 1
  }
}
layer {
  name: "fc6"
  type: "Convolution"
  bottom: "pool5"
  top: "fc6"
  param {
    lr_mult: 1
    decay_mult: 1
  }
  param {
    lr_mult: 2
    decay_mult: 0
  }
  convolution_param {
    num_output: 1024
    pad: 6
    kernel_size: 3
    weight_filler {
      type: "xavier"
    }
    bias_filler {
      type: "constant"
      value: 0
    }
    dilation: 6
  }
}
layer {
  name: "relu6"
  type: "ReLU"
  bottom: "fc6"
  top: "fc6"
}
layer {
  name: "fc7"
  type: "Convolution"
  bottom: "fc6"
  top: "fc7"
  param {
    lr_mult: 1
    decay_mult: 1
  }
  param {
    lr_mult: 2
    decay_mult: 0
  }
  convolution_param {
    num_output: 1024
    kernel_size: 1
    weight_filler {
      type: "xavier"
    }
    bias_filler {
      type: "constant"
      value: 0
    }
  }
}
layer {
  name: "relu7"
  type: "ReLU"
  bottom: "fc7"
  top: "fc7"
}
layer {
  name: "conv6_1"
  type: "Convolution"
  bottom: "fc7"
  top: "conv6_1"
  param {
    lr_mult: 1
    decay_mult: 1
  }
  param {
    lr_mult: 2
    decay_mult: 0
  }
  convolution_param {
    num_output: 256
    pad: 0
    kernel_size: 1
    stride: 1
    weight_filler {
      type: "xavier"
    }
    bias_filler {
      type: "constant"
      value: 0
    }
  }
}
layer {
  name: "conv6_1_relu"
  type: "ReLU"
  bottom: "conv6_1"
  top: "conv6_1"
}
layer {
  name: "conv6_2"
  type: "Convolution"
  bottom: "conv6_1"
  top: "conv6_2"
  param {
    lr_mult: 1
    decay_mult: 1
  }
  param {
    lr_mult: 2
    decay_mult: 0
  }
  convolution_param {
    num_output: 512
    pad: 1
    kernel_size: 3
    stride: 2
    weight_filler {
      type: "xavier"
    }
    bias_filler {
      type: "constant"
      value: 0
    }
  }
}
layer {
  name: "conv6_2_relu"
  type: "ReLU"
  bottom: "conv6_2"
  top: "conv6_2"
}
layer {
  name: "conv7_1"
  type: "Convolution"
  bottom: "conv6_2"
  top: "conv7_1"
  param {
    lr_mult: 1
    decay_mult: 1
  }
  param {
    lr_mult: 2
    decay_mult: 0
  }
  convolution_param {
    num_output: 128
    pad: 0
    kernel_size: 1
    stride: 1
    weight_filler {
      type: "xavier"
    }
    bias_filler {
      type: "constant"
      value: 0
    }
  }
}
layer {
  name: "conv7_1_relu"
  type: "ReLU"
  bottom: "conv7_1"
  top: "conv7_1"
}
layer {
  name: "conv7_2"
  type: "Convolution"
  bottom: "conv7_1"
  top: "conv7_2"
  param {
    lr_mult: 1
    decay_mult: 1
  }
  param {
    lr_mult: 2
    decay_mult: 0
  }
  convolution_param {
    num_output: 256
    pad: 1
    kernel_size: 3
    stride: 2
    weight_filler {
      type: "xavier"
    }
    bias_filler {
      type: "constant"
      value: 0
    }
  }
}
layer {
  name: "conv7_2_relu"
  type: "ReLU"
  bottom: "conv7_2"
  top: "conv7_2"
}
layer {
  name: "conv8_1"
  type: "Convolution"
  bottom: "conv7_2"
  top: "conv8_1"
  param {
    lr_mult: 1
    decay_mult: 1
  }
  param {
    lr_mult: 2
    decay_mult: 0
  }
  convolution_param {
    num_output: 128
    pad: 0
    kernel_size: 1
    stride: 1
    weight_filler {
      type: "xavier"
    }
    bias_filler {
      type: "constant"
      value: 0
    }
  }
}
layer {
  name: "conv8_1_relu"
  type: "ReLU"
  bottom: "conv8_1"
  top: "conv8_1"
}
layer {
  name: "conv8_2"
  type: "Convolution"
  bottom: "conv8_1"
  top: "conv8_2"
  param {
    lr_mult: 1
    decay_mult: 1
  }
  param {
    lr_mult: 2
    decay_mult: 0
  }
  convolution_param {
    num_output: 256
    pad: 0
    kernel_size: 3
    stride: 1
    weight_filler {
      type: "xavier"
    }
    bias_filler {
      type: "constant"
      value: 0
    }
  }
}
layer {
  name: "conv8_2_relu"
  type: "ReLU"
  bottom: "conv8_2"
  top: "conv8_2"
}
layer {
  name: "conv9_1"
  type: "Convolution"
  bottom: "conv8_2"
  top: "conv9_1"
  param {
    lr_mult: 1
    decay_mult: 1
  }
  param {
    lr_mult: 2
    decay_mult: 0
  }
  convolution_param {
    num_output: 128
    pad: 0
    kernel_size: 1
    stride: 1
    weight_filler {
      type: "xavier"
    }
    bias_filler {
      type: "constant"
      value: 0
    }
  }
}
layer {
  name: "conv9_1_relu"
  type: "ReLU"
  bottom: "conv9_1"
  top: "conv9_1"
}
layer {
  name: "conv9_2"
  type: "Convolution"
  bottom: "conv9_1"
  top: "conv9_2"
  param {
    lr_mult: 1
    decay_mult: 1
  }
  param {
    lr_mult: 2
    decay_mult: 0
  }
  convolution_param {
    num_output: 256
    pad: 0
    kernel_size: 3
    stride: 1
    weight_filler {
      type: "xavier"
    }
    bias_filler {
      type: "constant"
      value: 0
    }
  }
}
layer {
  name: "conv9_2_relu"
  type: "ReLU"
  bottom: "conv9_2"
  top: "conv9_2"
}
layer {
  name: "conv4_3_norm"
  type: "Normalize"
  bottom: "conv4_3"
  top: "conv4_3_norm"
  norm_param {
    across_spatial: false
    scale_filler {
      type: "constant"
      value: 20
    }
    channel_shared: false
  }
}
layer {
  name: "conv4_3_norm_mbox_loc"
  type: "Convolution"
  bottom: "conv4_3_norm"
  top: "conv4_3_norm_mbox_loc"
  param {
    lr_mult: 1
    decay_mult: 1
  }
  param {
    lr_mult: 2
    decay_mult: 0
  }
  convolution_param {
    num_output: 16
    pad: 1
    kernel_size: 3
    stride: 1
    weight_filler {
      type: "xavier"
    }
    bias_filler {
      type: "constant"
      value: 0
    }
  }
}
layer {
  name: "conv4_3_norm_mbox_loc_perm"
  type: "Permute"
  bottom: "conv4_3_norm_mbox_loc"
  top: "conv4_3_norm_mbox_loc_perm"
  permute_param {
    order: 0
    order: 2
    order: 3
    order: 1
  }
}
layer {
  name: "conv4_3_norm_mbox_loc_flat"
  type: "Flatten"
  bottom: "conv4_3_norm_mbox_loc_perm"
  top: "conv4_3_norm_mbox_loc_flat"
  flatten_param {
    axis: 1
  }
}
layer {
  name: "conv4_3_norm_mbox_conf"
  type: "Convolution"
  bottom: "conv4_3_norm"
  top: "conv4_3_norm_mbox_conf"
  param {
    lr_mult: 1
    decay_mult: 1
  }
  param {
    lr_mult: 2
    decay_mult: 0
  }
  convolution_param {
    num_output: 8
    pad: 1
    kernel_size: 3
    stride: 1
    weight_filler {
      type: "xavier"
    }
    bias_filler {
      type: "constant"
      value: 0
    }
  }
}
layer {
  name: "conv4_3_norm_mbox_conf_perm"
  type: "Permute"
  bottom: "conv4_3_norm_mbox_conf"
  top: "conv4_3_norm_mbox_conf_perm"
  permute_param {
    order: 0
    order: 2
    order: 3
    order: 1
  }
}
layer {
  name: "conv4_3_norm_mbox_conf_flat"
  type: "Flatten"
  bottom: "conv4_3_norm_mbox_conf_perm"
  top: "conv4_3_norm_mbox_conf_flat"
  flatten_param {
    axis: 1
  }
}
layer {
  name: "conv4_3_norm_mbox_priorbox"
  type: "PriorBox"
  bottom: "conv4_3_norm"
  bottom: "data"
  top: "conv4_3_norm_mbox_priorbox"
  prior_box_param {
    min_size: 30
    max_size: 60
    aspect_ratio: 2
    flip: true
    clip: false
    variance: 0.1
    variance: 0.1
    variance: 0.2
    variance: 0.2
    step: 8
    offset: 0.5
  }
}
layer {
  name: "fc7_mbox_loc"
  type: "Convolution"
  bottom: "fc7"
  top: "fc7_mbox_loc"
  param {
    lr_mult: 1
    decay_mult: 1
  }
  param {
    lr_mult: 2
    decay_mult: 0
  }
  convolution_param {
    num_output: 24
    pad: 1
    kernel_size: 3
    stride: 1
    weight_filler {
      type: "xavier"
    }
    bias_filler {
      type: "constant"
      value: 0
    }
  }
}
layer {
  name: "fc7_mbox_loc_perm"
  type: "Permute"
  bottom: "fc7_mbox_loc"
  top: "fc7_mbox_loc_perm"
  permute_param {
    order: 0
    order: 2
    order: 3
    order: 1
  }
}
layer {
  name: "fc7_mbox_loc_flat"
  type: "Flatten"
  bottom: "fc7_mbox_loc_perm"
  top: "fc7_mbox_loc_flat"
  flatten_param {
    axis: 1
  }
}
layer {
  name: "fc7_mbox_conf"
  type: "Convolution"
  bottom: "fc7"
  top: "fc7_mbox_conf"
  param {
    lr_mult: 1
    decay_mult: 1
  }
  param {
    lr_mult: 2
    decay_mult: 0
  }
  convolution_param {
    num_output: 12
    pad: 1
    kernel_size: 3
    stride: 1
    weight_filler {
      type: "xavier"
    }
    bias_filler {
      type: "constant"
      value: 0
    }
  }
}
layer {
  name: "fc7_mbox_conf_perm"
  type: "Permute"
  bottom: "fc7_mbox_conf"
  top: "fc7_mbox_conf_perm"
  permute_param {
    order: 0
    order: 2
    order: 3
    order: 1
  }
}
layer {
  name: "fc7_mbox_conf_flat"
  type: "Flatten"
  bottom: "fc7_mbox_conf_perm"
  top: "fc7_mbox_conf_flat"
  flatten_param {
    axis: 1
  }
}
layer {
  name: "fc7_mbox_priorbox"
  type: "PriorBox"
  bottom: "fc7"
  bottom: "data"
  top: "fc7_mbox_priorbox"
  prior_box_param {
    min_size: 60
    max_size: 111
    aspect_ratio: 2
    aspect_ratio: 3
    flip: true
    clip: false
    variance: 0.1
    variance: 0.1
    variance: 0.2
    variance: 0.2
    step: 16
    offset: 0.5
  }
}
layer {
  name: "conv6_2_mbox_loc"
  type: "Convolution"
  bottom: "conv6_2"
  top: "conv6_2_mbox_loc"
  param {
    lr_mult: 1
    decay_mult: 1
  }
  param {
    lr_mult: 2
    decay_mult: 0
  }
  convolution_param {
    num_output: 24
    pad: 1
    kernel_size: 3
    stride: 1
    weight_filler {
      type: "xavier"
    }
    bias_filler {
      type: "constant"
      value: 0
    }
  }
}
layer {
  name: "conv6_2_mbox_loc_perm"
  type: "Permute"
  bottom: "conv6_2_mbox_loc"
  top: "conv6_2_mbox_loc_perm"
  permute_param {
    order: 0
    order: 2
    order: 3
    order: 1
  }
}
layer {
  name: "conv6_2_mbox_loc_flat"
  type: "Flatten"
  bottom: "conv6_2_mbox_loc_perm"
  top: "conv6_2_mbox_loc_flat"
  flatten_param {
    axis: 1
  }
}
layer {
  name: "conv6_2_mbox_conf"
  type: "Convolution"
  bottom: "conv6_2"
  top: "conv6_2_mbox_conf"
  param {
    lr_mult: 1
    decay_mult: 1
  }
  param {
    lr_mult: 2
    decay_mult: 0
  }
  convolution_param {
    num_output: 12
    pad: 1
    kernel_size: 3
    stride: 1
    weight_filler {
      type: "xavier"
    }
    bias_filler {
      type: "constant"
      value: 0
    }
  }
}
layer {
  name: "conv6_2_mbox_conf_perm"
  type: "Permute"
  bottom: "conv6_2_mbox_conf"
  top: "conv6_2_mbox_conf_perm"
  permute_param {
    order: 0
    order: 2
    order: 3
    order: 1
  }
}
layer {
  name: "conv6_2_mbox_conf_flat"
  type: "Flatten"
  bottom: "conv6_2_mbox_conf_perm"
  top: "conv6_2_mbox_conf_flat"
  flatten_param {
    axis: 1
  }
}
layer {
  name: "conv6_2_mbox_priorbox"
  type: "PriorBox"
  bottom: "conv6_2"
  bottom: "data"
  top: "conv6_2_mbox_priorbox"
  prior_box_param {
    min_size: 111
    max_size: 162
    aspect_ratio: 2
    aspect_ratio: 3
    flip: true
    clip: false
    variance: 0.1
    variance: 0.1
    variance: 0.2
    variance: 0.2
    step: 32
    offset: 0.5
  }
}
layer {
  name: "conv7_2_mbox_loc"
  type: "Convolution"
  bottom: "conv7_2"
  top: "conv7_2_mbox_loc"
  param {
    lr_mult: 1
    decay_mult: 1
  }
  param {
    lr_mult: 2
    decay_mult: 0
  }
  convolution_param {
    num_output: 24
    pad: 1
    kernel_size: 3
    stride: 1
    weight_filler {
      type: "xavier"
    }
    bias_filler {
      type: "constant"
      value: 0
    }
  }
}
layer {
  name: "conv7_2_mbox_loc_perm"
  type: "Permute"
  bottom: "conv7_2_mbox_loc"
  top: "conv7_2_mbox_loc_perm"
  permute_param {
    order: 0
    order: 2
    order: 3
    order: 1
  }
}
layer {
  name: "conv7_2_mbox_loc_flat"
  type: "Flatten"
  bottom: "conv7_2_mbox_loc_perm"
  top: "conv7_2_mbox_loc_flat"
  flatten_param {
    axis: 1
  }
}
layer {
  name: "conv7_2_mbox_conf"
  type: "Convolution"
  bottom: "conv7_2"
  top: "conv7_2_mbox_conf"
  param {
    lr_mult: 1
    decay_mult: 1
  }
  param {
    lr_mult: 2
    decay_mult: 0
  }
  convolution_param {
    num_output: 12
    pad: 1
    kernel_size: 3
    stride: 1
    weight_filler {
      type: "xavier"
    }
    bias_filler {
      type: "constant"
      value: 0
    }
  }
}
layer {
  name: "conv7_2_mbox_conf_perm"
  type: "Permute"
  bottom: "conv7_2_mbox_conf"
  top: "conv7_2_mbox_conf_perm"
  permute_param {
    order: 0
    order: 2
    order: 3
    order: 1
  }
}
layer {
  name: "conv7_2_mbox_conf_flat"
  type: "Flatten"
  bottom: "conv7_2_mbox_conf_perm"
  top: "conv7_2_mbox_conf_flat"
  flatten_param {
    axis: 1
  }
}
layer {
  name: "conv7_2_mbox_priorbox"
  type: "PriorBox"
  bottom: "conv7_2"
  bottom: "data"
  top: "conv7_2_mbox_priorbox"
  prior_box_param {
    min_size: 162
    max_size: 213
    aspect_ratio: 2
    aspect_ratio: 3
    flip: true
    clip: false
    variance: 0.1
    variance: 0.1
    variance: 0.2
    variance: 0.2
    step: 64
    offset: 0.5
  }
}
layer {
  name: "conv8_2_mbox_loc"
  type: "Convolution"
  bottom: "conv8_2"
  top: "conv8_2_mbox_loc"
  param {
    lr_mult: 1
    decay_mult: 1
  }
  param {
    lr_mult: 2
    decay_mult: 0
  }
  convolution_param {
    num_output: 16
    pad: 1
    kernel_size: 3
    stride: 1
    weight_filler {
      type: "xavier"
    }
    bias_filler {
      type: "constant"
      value: 0
    }
  }
}
layer {
  name: "conv8_2_mbox_loc_perm"
  type: "Permute"
  bottom: "conv8_2_mbox_loc"
  top: "conv8_2_mbox_loc_perm"
  permute_param {
    order: 0
    order: 2
    order: 3
    order: 1
  }
}
layer {
  name: "conv8_2_mbox_loc_flat"
  type: "Flatten"
  bottom: "conv8_2_mbox_loc_perm"
  top: "conv8_2_mbox_loc_flat"
  flatten_param {
    axis: 1
  }
}
layer {
  name: "conv8_2_mbox_conf"
  type: "Convolution"
  bottom: "conv8_2"
  top: "conv8_2_mbox_conf"
  param {
    lr_mult: 1
    decay_mult: 1
  }
  param {
    lr_mult: 2
    decay_mult: 0
  }
  convolution_param {
    num_output: 8
    pad: 1
    kernel_size: 3
    stride: 1
    weight_filler {
      type: "xavier"
    }
    bias_filler {
      type: "constant"
      value: 0
    }
  }
}
layer {
  name: "conv8_2_mbox_conf_perm"
  type: "Permute"
  bottom: "conv8_2_mbox_conf"
  top: "conv8_2_mbox_conf_perm"
  permute_param {
    order: 0
    order: 2
    order: 3
    order: 1
  }
}
layer {
  name: "conv8_2_mbox_conf_flat"
  type: "Flatten"
  bottom: "conv8_2_mbox_conf_perm"
  top: "conv8_2_mbox_conf_flat"
  flatten_param {
    axis: 1
  }
}
layer {
  name: "conv8_2_mbox_priorbox"
  type: "PriorBox"
  bottom: "conv8_2"
  bottom: "data"
  top: "conv8_2_mbox_priorbox"
  prior_box_param {
    min_size: 213
    max_size: 264
    aspect_ratio: 2
    flip: true
    clip: false
    variance: 0.1
    variance: 0.1
    variance: 0.2
    variance: 0.2
    step: 100
    offset: 0.5
  }
}
layer {
  name: "conv9_2_mbox_loc"
  type: "Convolution"
  bottom: "conv9_2"
  top: "conv9_2_mbox_loc"
  param {
    lr_mult: 1
    decay_mult: 1
  }
  param {
    lr_mult: 2
    decay_mult: 0
  }
  convolution_param {
    num_output: 16
    pad: 1
    kernel_size: 3
    stride: 1
    weight_filler {
      type: "xavier"
    }
    bias_filler {
      type: "constant"
      value: 0
    }
  }
}
layer {
  name: "conv9_2_mbox_loc_perm"
  type: "Permute"
  bottom: "conv9_2_mbox_loc"
  top: "conv9_2_mbox_loc_perm"
  permute_param {
    order: 0
    order: 2
    order: 3
    order: 1
  }
}
layer {
  name: "conv9_2_mbox_loc_flat"
  type: "Flatten"
  bottom: "conv9_2_mbox_loc_perm"
  top: "conv9_2_mbox_loc_flat"
  flatten_param {
    axis: 1
  }
}
layer {
  name: "conv9_2_mbox_conf"
  type: "Convolution"
  bottom: "conv9_2"
  top: "conv9_2_mbox_conf"
  param {
    lr_mult: 1
    decay_mult: 1
  }
  param {
    lr_mult: 2
    decay_mult: 0
  }
  convolution_param {
    num_output: 8
    pad: 1
    kernel_size: 3
    stride: 1
    weight_filler {
      type: "xavier"
    }
    bias_filler {
      type: "constant"
      value: 0
    }
  }
}
layer {
  name: "conv9_2_mbox_conf_perm"
  type: "Permute"
  bottom: "conv9_2_mbox_conf"
  top: "conv9_2_mbox_conf_perm"
  permute_param {
    order: 0
    order: 2
    order: 3
    order: 1
  }
}
layer {
  name: "conv9_2_mbox_conf_flat"
  type: "Flatten"
  bottom: "conv9_2_mbox_conf_perm"
  top: "conv9_2_mbox_conf_flat"
  flatten_param {
    axis: 1
  }
}
layer {
  name: "conv9_2_mbox_priorbox"
  type: "PriorBox"
  bottom: "conv9_2"
  bottom: "data"
  top: "conv9_2_mbox_priorbox"
  prior_box_param {
    min_size: 264
    max_size: 315
    aspect_ratio: 2
    flip: true
    clip: false
    variance: 0.1
    variance: 0.1
    variance: 0.2
    variance: 0.2
    step: 300
    offset: 0.5
  }
}
layer {
  name: "mbox_loc"
  type: "Concat"
  bottom: "conv4_3_norm_mbox_loc_flat"
  bottom: "fc7_mbox_loc_flat"
  bottom: "conv6_2_mbox_loc_flat"
  bottom: "conv7_2_mbox_loc_flat"
  bottom: "conv8_2_mbox_loc_flat"
  bottom: "conv9_2_mbox_loc_flat"
  top: "mbox_loc"
  concat_param {
    axis: 1
  }
}
layer {
  name: "mbox_conf"
  type: "Concat"
  bottom: "conv4_3_norm_mbox_conf_flat"
  bottom: "fc7_mbox_conf_flat"
  bottom: "conv6_2_mbox_conf_flat"
  bottom: "conv7_2_mbox_conf_flat"
  bottom: "conv8_2_mbox_conf_flat"
  bottom: "conv9_2_mbox_conf_flat"
  top: "mbox_conf"
  concat_param {
    axis: 1
  }
}
layer {
  name: "mbox_priorbox"
  type: "Concat"
  bottom: "conv4_3_norm_mbox_priorbox"
  bottom: "fc7_mbox_priorbox"
  bottom: "conv6_2_mbox_priorbox"
  bottom: "conv7_2_mbox_priorbox"
  bottom: "conv8_2_mbox_priorbox"
  bottom: "conv9_2_mbox_priorbox"
  top: "mbox_priorbox"
  concat_param {
    axis: 2
  }
}
layer {
  name: "mbox_conf_reshape"
  type: "Reshape"
  bottom: "mbox_conf"
  top: "mbox_conf_reshape"
  reshape_param {
    shape {
      dim: 0
      dim: -1
      dim: 2
    }
  }
}
layer {
  name: "mbox_conf_softmax"
  type: "Softmax"
  bottom: "mbox_conf_reshape"
  top: "mbox_conf_softmax"
  softmax_param {
    axis: 2
  }
}
layer {
  name: "mbox_conf_flatten"
  type: "Flatten"
  bottom: "mbox_conf_softmax"
  top: "mbox_conf_flatten"
  flatten_param {
    axis: 1
  }
}
layer {
  name: "detection_out"
  type: "DetectionOutput"
  bottom: "mbox_loc"
  bottom: "mbox_conf_flatten"
  bottom: "mbox_priorbox"
  top: "detection_out"
  include {
    phase: TEST
  }
  detection_output_param {
    num_classes: 2
    share_location: true
    background_label_id: 0
    nms_param {
      nms_threshold: 0.45
      top_k: 400
    }
    save_output_param {
      output_directory: "/home/shomeb/m/markustp/data/VOCdevkit/results/VOC2007/SSD_300x300/Main"
      output_name_prefix: "comp4_det_test_"
      output_format: "VOC"
      label_map_file: "data/ascend/labelmap.prototxt"
      name_size_file: "data/ascend/test_name_size.txt"
      num_test_image: 901
    }
    code_type: CENTER_SIZE
    keep_top_k: 200
    confidence_threshold: 0.01
  }
}
layer {
  name: "detection_eval"
  type: "DetectionEvaluate"
  bottom: "detection_out"
  bottom: "label"
  top: "detection_eval"
  include {
    phase: TEST
  }
  detection_evaluate_param {
    num_classes: 2
    background_label_id: 0
    overlap_threshold: 0.5
    evaluate_difficult_gt: false
    name_size_file: "data/ascend/test_name_size.txt"
  }
}
I0323 21:20:41.606287 22279 layer_factory.hpp:77] Creating layer data
I0323 21:20:41.606343 22279 net.cpp:100] Creating Layer data
I0323 21:20:41.606353 22279 net.cpp:408] data -> data
I0323 21:20:41.606365 22279 net.cpp:408] data -> label
I0323 21:20:41.607245 22311 db_lmdb.cpp:35] Opened lmdb /localdata/markustp/data/ascend/lmdb/ascend_test_lmdb
I0323 21:20:41.620143 22279 annotated_data_layer.cpp:62] output data size: 2,3,300,300
I0323 21:20:41.624626 22279 net.cpp:150] Setting up data
I0323 21:20:41.624644 22279 net.cpp:157] Top shape: 2 3 300 300 (540000)
I0323 21:20:41.624649 22279 net.cpp:157] Top shape: 1 1 2 8 (16)
I0323 21:20:41.624651 22279 net.cpp:165] Memory required for data: 2160064
I0323 21:20:41.624657 22279 layer_factory.hpp:77] Creating layer data_data_0_split
I0323 21:20:41.624672 22279 net.cpp:100] Creating Layer data_data_0_split
I0323 21:20:41.624677 22279 net.cpp:434] data_data_0_split <- data
I0323 21:20:41.624686 22279 net.cpp:408] data_data_0_split -> data_data_0_split_0
I0323 21:20:41.624698 22279 net.cpp:408] data_data_0_split -> data_data_0_split_1
I0323 21:20:41.624706 22279 net.cpp:408] data_data_0_split -> data_data_0_split_2
I0323 21:20:41.624716 22279 net.cpp:408] data_data_0_split -> data_data_0_split_3
I0323 21:20:41.624722 22279 net.cpp:408] data_data_0_split -> data_data_0_split_4
I0323 21:20:41.624729 22279 net.cpp:408] data_data_0_split -> data_data_0_split_5
I0323 21:20:41.624737 22279 net.cpp:408] data_data_0_split -> data_data_0_split_6
I0323 21:20:41.624852 22279 net.cpp:150] Setting up data_data_0_split
I0323 21:20:41.624858 22279 net.cpp:157] Top shape: 2 3 300 300 (540000)
I0323 21:20:41.624863 22279 net.cpp:157] Top shape: 2 3 300 300 (540000)
I0323 21:20:41.624869 22279 net.cpp:157] Top shape: 2 3 300 300 (540000)
I0323 21:20:41.624874 22279 net.cpp:157] Top shape: 2 3 300 300 (540000)
I0323 21:20:41.624879 22279 net.cpp:157] Top shape: 2 3 300 300 (540000)
I0323 21:20:41.624884 22279 net.cpp:157] Top shape: 2 3 300 300 (540000)
I0323 21:20:41.624891 22279 net.cpp:157] Top shape: 2 3 300 300 (540000)
I0323 21:20:41.624904 22279 net.cpp:165] Memory required for data: 17280064
I0323 21:20:41.624908 22279 layer_factory.hpp:77] Creating layer conv1_1
I0323 21:20:41.624922 22279 net.cpp:100] Creating Layer conv1_1
I0323 21:20:41.624925 22279 net.cpp:434] conv1_1 <- data_data_0_split_0
I0323 21:20:41.624933 22279 net.cpp:408] conv1_1 -> conv1_1
I0323 21:20:41.625181 22279 net.cpp:150] Setting up conv1_1
I0323 21:20:41.625190 22279 net.cpp:157] Top shape: 2 64 300 300 (11520000)
I0323 21:20:41.625192 22279 net.cpp:165] Memory required for data: 63360064
I0323 21:20:41.625203 22279 layer_factory.hpp:77] Creating layer relu1_1
I0323 21:20:41.625211 22279 net.cpp:100] Creating Layer relu1_1
I0323 21:20:41.625214 22279 net.cpp:434] relu1_1 <- conv1_1
I0323 21:20:41.625221 22279 net.cpp:395] relu1_1 -> conv1_1 (in-place)
I0323 21:20:41.625226 22279 net.cpp:150] Setting up relu1_1
I0323 21:20:41.625232 22279 net.cpp:157] Top shape: 2 64 300 300 (11520000)
I0323 21:20:41.625236 22279 net.cpp:165] Memory required for data: 109440064
I0323 21:20:41.625241 22279 layer_factory.hpp:77] Creating layer conv1_2
I0323 21:20:41.625249 22279 net.cpp:100] Creating Layer conv1_2
I0323 21:20:41.625252 22279 net.cpp:434] conv1_2 <- conv1_1
I0323 21:20:41.625258 22279 net.cpp:408] conv1_2 -> conv1_2
I0323 21:20:41.626274 22279 net.cpp:150] Setting up conv1_2
I0323 21:20:41.626286 22279 net.cpp:157] Top shape: 2 64 300 300 (11520000)
I0323 21:20:41.626288 22279 net.cpp:165] Memory required for data: 155520064
I0323 21:20:41.626297 22279 layer_factory.hpp:77] Creating layer relu1_2
I0323 21:20:41.626305 22279 net.cpp:100] Creating Layer relu1_2
I0323 21:20:41.626310 22279 net.cpp:434] relu1_2 <- conv1_2
I0323 21:20:41.626315 22279 net.cpp:395] relu1_2 -> conv1_2 (in-place)
I0323 21:20:41.626323 22279 net.cpp:150] Setting up relu1_2
I0323 21:20:41.626329 22279 net.cpp:157] Top shape: 2 64 300 300 (11520000)
I0323 21:20:41.626333 22279 net.cpp:165] Memory required for data: 201600064
I0323 21:20:41.626337 22279 layer_factory.hpp:77] Creating layer pool1
I0323 21:20:41.626343 22279 net.cpp:100] Creating Layer pool1
I0323 21:20:41.626348 22279 net.cpp:434] pool1 <- conv1_2
I0323 21:20:41.626353 22279 net.cpp:408] pool1 -> pool1
I0323 21:20:41.626385 22279 net.cpp:150] Setting up pool1
I0323 21:20:41.626391 22279 net.cpp:157] Top shape: 2 64 150 150 (2880000)
I0323 21:20:41.626394 22279 net.cpp:165] Memory required for data: 213120064
I0323 21:20:41.626399 22279 layer_factory.hpp:77] Creating layer conv2_1
I0323 21:20:41.626406 22279 net.cpp:100] Creating Layer conv2_1
I0323 21:20:41.626410 22279 net.cpp:434] conv2_1 <- pool1
I0323 21:20:41.626416 22279 net.cpp:408] conv2_1 -> conv2_1
I0323 21:20:41.626902 22279 net.cpp:150] Setting up conv2_1
I0323 21:20:41.626909 22279 net.cpp:157] Top shape: 2 128 150 150 (5760000)
I0323 21:20:41.626912 22279 net.cpp:165] Memory required for data: 236160064
I0323 21:20:41.626921 22279 layer_factory.hpp:77] Creating layer relu2_1
I0323 21:20:41.626929 22279 net.cpp:100] Creating Layer relu2_1
I0323 21:20:41.626934 22279 net.cpp:434] relu2_1 <- conv2_1
I0323 21:20:41.626938 22279 net.cpp:395] relu2_1 -> conv2_1 (in-place)
I0323 21:20:41.626946 22279 net.cpp:150] Setting up relu2_1
I0323 21:20:41.626951 22279 net.cpp:157] Top shape: 2 128 150 150 (5760000)
I0323 21:20:41.626955 22279 net.cpp:165] Memory required for data: 259200064
I0323 21:20:41.626957 22279 layer_factory.hpp:77] Creating layer conv2_2
I0323 21:20:41.626966 22279 net.cpp:100] Creating Layer conv2_2
I0323 21:20:41.626969 22279 net.cpp:434] conv2_2 <- conv2_1
I0323 21:20:41.626976 22279 net.cpp:408] conv2_2 -> conv2_2
I0323 21:20:41.627795 22279 net.cpp:150] Setting up conv2_2
I0323 21:20:41.627804 22279 net.cpp:157] Top shape: 2 128 150 150 (5760000)
I0323 21:20:41.627806 22279 net.cpp:165] Memory required for data: 282240064
I0323 21:20:41.627813 22279 layer_factory.hpp:77] Creating layer relu2_2
I0323 21:20:41.627820 22279 net.cpp:100] Creating Layer relu2_2
I0323 21:20:41.627825 22279 net.cpp:434] relu2_2 <- conv2_2
I0323 21:20:41.627838 22279 net.cpp:395] relu2_2 -> conv2_2 (in-place)
I0323 21:20:41.627846 22279 net.cpp:150] Setting up relu2_2
I0323 21:20:41.627851 22279 net.cpp:157] Top shape: 2 128 150 150 (5760000)
I0323 21:20:41.627856 22279 net.cpp:165] Memory required for data: 305280064
I0323 21:20:41.627858 22279 layer_factory.hpp:77] Creating layer pool2
I0323 21:20:41.627863 22279 net.cpp:100] Creating Layer pool2
I0323 21:20:41.627867 22279 net.cpp:434] pool2 <- conv2_2
I0323 21:20:41.627873 22279 net.cpp:408] pool2 -> pool2
I0323 21:20:41.627904 22279 net.cpp:150] Setting up pool2
I0323 21:20:41.627910 22279 net.cpp:157] Top shape: 2 128 75 75 (1440000)
I0323 21:20:41.627913 22279 net.cpp:165] Memory required for data: 311040064
I0323 21:20:41.627918 22279 layer_factory.hpp:77] Creating layer conv3_1
I0323 21:20:41.627925 22279 net.cpp:100] Creating Layer conv3_1
I0323 21:20:41.627928 22279 net.cpp:434] conv3_1 <- pool2
I0323 21:20:41.627934 22279 net.cpp:408] conv3_1 -> conv3_1
I0323 21:20:41.629978 22279 net.cpp:150] Setting up conv3_1
I0323 21:20:41.629990 22279 net.cpp:157] Top shape: 2 256 75 75 (2880000)
I0323 21:20:41.629993 22279 net.cpp:165] Memory required for data: 322560064
I0323 21:20:41.630003 22279 layer_factory.hpp:77] Creating layer relu3_1
I0323 21:20:41.630010 22279 net.cpp:100] Creating Layer relu3_1
I0323 21:20:41.630015 22279 net.cpp:434] relu3_1 <- conv3_1
I0323 21:20:41.630020 22279 net.cpp:395] relu3_1 -> conv3_1 (in-place)
I0323 21:20:41.630028 22279 net.cpp:150] Setting up relu3_1
I0323 21:20:41.630034 22279 net.cpp:157] Top shape: 2 256 75 75 (2880000)
I0323 21:20:41.630038 22279 net.cpp:165] Memory required for data: 334080064
I0323 21:20:41.630041 22279 layer_factory.hpp:77] Creating layer conv3_2
I0323 21:20:41.630050 22279 net.cpp:100] Creating Layer conv3_2
I0323 21:20:41.630053 22279 net.cpp:434] conv3_2 <- conv3_1
I0323 21:20:41.630064 22279 net.cpp:408] conv3_2 -> conv3_2
I0323 21:20:41.633368 22279 net.cpp:150] Setting up conv3_2
I0323 21:20:41.633383 22279 net.cpp:157] Top shape: 2 256 75 75 (2880000)
I0323 21:20:41.633385 22279 net.cpp:165] Memory required for data: 345600064
I0323 21:20:41.633393 22279 layer_factory.hpp:77] Creating layer relu3_2
I0323 21:20:41.633399 22279 net.cpp:100] Creating Layer relu3_2
I0323 21:20:41.633404 22279 net.cpp:434] relu3_2 <- conv3_2
I0323 21:20:41.633410 22279 net.cpp:395] relu3_2 -> conv3_2 (in-place)
I0323 21:20:41.633419 22279 net.cpp:150] Setting up relu3_2
I0323 21:20:41.633424 22279 net.cpp:157] Top shape: 2 256 75 75 (2880000)
I0323 21:20:41.633429 22279 net.cpp:165] Memory required for data: 357120064
I0323 21:20:41.633432 22279 layer_factory.hpp:77] Creating layer conv3_3
I0323 21:20:41.633443 22279 net.cpp:100] Creating Layer conv3_3
I0323 21:20:41.633447 22279 net.cpp:434] conv3_3 <- conv3_2
I0323 21:20:41.633453 22279 net.cpp:408] conv3_3 -> conv3_3
I0323 21:20:41.636803 22279 net.cpp:150] Setting up conv3_3
I0323 21:20:41.636819 22279 net.cpp:157] Top shape: 2 256 75 75 (2880000)
I0323 21:20:41.636821 22279 net.cpp:165] Memory required for data: 368640064
I0323 21:20:41.636829 22279 layer_factory.hpp:77] Creating layer relu3_3
I0323 21:20:41.636838 22279 net.cpp:100] Creating Layer relu3_3
I0323 21:20:41.636842 22279 net.cpp:434] relu3_3 <- conv3_3
I0323 21:20:41.636849 22279 net.cpp:395] relu3_3 -> conv3_3 (in-place)
I0323 21:20:41.636857 22279 net.cpp:150] Setting up relu3_3
I0323 21:20:41.636863 22279 net.cpp:157] Top shape: 2 256 75 75 (2880000)
I0323 21:20:41.636867 22279 net.cpp:165] Memory required for data: 380160064
I0323 21:20:41.636869 22279 layer_factory.hpp:77] Creating layer pool3
I0323 21:20:41.636875 22279 net.cpp:100] Creating Layer pool3
I0323 21:20:41.636879 22279 net.cpp:434] pool3 <- conv3_3
I0323 21:20:41.636884 22279 net.cpp:408] pool3 -> pool3
I0323 21:20:41.636920 22279 net.cpp:150] Setting up pool3
I0323 21:20:41.636925 22279 net.cpp:157] Top shape: 2 256 38 38 (739328)
I0323 21:20:41.636929 22279 net.cpp:165] Memory required for data: 383117376
I0323 21:20:41.636932 22279 layer_factory.hpp:77] Creating layer conv4_1
I0323 21:20:41.636952 22279 net.cpp:100] Creating Layer conv4_1
I0323 21:20:41.636956 22279 net.cpp:434] conv4_1 <- pool3
I0323 21:20:41.636963 22279 net.cpp:408] conv4_1 -> conv4_1
I0323 21:20:41.643255 22279 net.cpp:150] Setting up conv4_1
I0323 21:20:41.643275 22279 net.cpp:157] Top shape: 2 512 38 38 (1478656)
I0323 21:20:41.643278 22279 net.cpp:165] Memory required for data: 389032000
I0323 21:20:41.643287 22279 layer_factory.hpp:77] Creating layer relu4_1
I0323 21:20:41.643296 22279 net.cpp:100] Creating Layer relu4_1
I0323 21:20:41.643299 22279 net.cpp:434] relu4_1 <- conv4_1
I0323 21:20:41.643306 22279 net.cpp:395] relu4_1 -> conv4_1 (in-place)
I0323 21:20:41.643331 22279 net.cpp:150] Setting up relu4_1
I0323 21:20:41.643337 22279 net.cpp:157] Top shape: 2 512 38 38 (1478656)
I0323 21:20:41.643343 22279 net.cpp:165] Memory required for data: 394946624
I0323 21:20:41.643347 22279 layer_factory.hpp:77] Creating layer conv4_2
I0323 21:20:41.643357 22279 net.cpp:100] Creating Layer conv4_2
I0323 21:20:41.643362 22279 net.cpp:434] conv4_2 <- conv4_1
I0323 21:20:41.643371 22279 net.cpp:408] conv4_2 -> conv4_2
I0323 21:20:41.657104 22279 net.cpp:150] Setting up conv4_2
I0323 21:20:41.657124 22279 net.cpp:157] Top shape: 2 512 38 38 (1478656)
I0323 21:20:41.657126 22279 net.cpp:165] Memory required for data: 400861248
I0323 21:20:41.657140 22279 layer_factory.hpp:77] Creating layer relu4_2
I0323 21:20:41.657150 22279 net.cpp:100] Creating Layer relu4_2
I0323 21:20:41.657156 22279 net.cpp:434] relu4_2 <- conv4_2
I0323 21:20:41.657163 22279 net.cpp:395] relu4_2 -> conv4_2 (in-place)
I0323 21:20:41.657172 22279 net.cpp:150] Setting up relu4_2
I0323 21:20:41.657177 22279 net.cpp:157] Top shape: 2 512 38 38 (1478656)
I0323 21:20:41.657182 22279 net.cpp:165] Memory required for data: 406775872
I0323 21:20:41.657186 22279 layer_factory.hpp:77] Creating layer conv4_3
I0323 21:20:41.657196 22279 net.cpp:100] Creating Layer conv4_3
I0323 21:20:41.657198 22279 net.cpp:434] conv4_3 <- conv4_2
I0323 21:20:41.657205 22279 net.cpp:408] conv4_3 -> conv4_3
I0323 21:20:41.669392 22279 net.cpp:150] Setting up conv4_3
I0323 21:20:41.669414 22279 net.cpp:157] Top shape: 2 512 38 38 (1478656)
I0323 21:20:41.669416 22279 net.cpp:165] Memory required for data: 412690496
I0323 21:20:41.669425 22279 layer_factory.hpp:77] Creating layer relu4_3
I0323 21:20:41.669433 22279 net.cpp:100] Creating Layer relu4_3
I0323 21:20:41.669438 22279 net.cpp:434] relu4_3 <- conv4_3
I0323 21:20:41.669445 22279 net.cpp:395] relu4_3 -> conv4_3 (in-place)
I0323 21:20:41.669456 22279 net.cpp:150] Setting up relu4_3
I0323 21:20:41.669461 22279 net.cpp:157] Top shape: 2 512 38 38 (1478656)
I0323 21:20:41.669463 22279 net.cpp:165] Memory required for data: 418605120
I0323 21:20:41.669466 22279 layer_factory.hpp:77] Creating layer conv4_3_relu4_3_0_split
I0323 21:20:41.669474 22279 net.cpp:100] Creating Layer conv4_3_relu4_3_0_split
I0323 21:20:41.669478 22279 net.cpp:434] conv4_3_relu4_3_0_split <- conv4_3
I0323 21:20:41.669484 22279 net.cpp:408] conv4_3_relu4_3_0_split -> conv4_3_relu4_3_0_split_0
I0323 21:20:41.669492 22279 net.cpp:408] conv4_3_relu4_3_0_split -> conv4_3_relu4_3_0_split_1
I0323 21:20:41.669525 22279 net.cpp:150] Setting up conv4_3_relu4_3_0_split
I0323 21:20:41.669531 22279 net.cpp:157] Top shape: 2 512 38 38 (1478656)
I0323 21:20:41.669536 22279 net.cpp:157] Top shape: 2 512 38 38 (1478656)
I0323 21:20:41.669538 22279 net.cpp:165] Memory required for data: 430434368
I0323 21:20:41.669543 22279 layer_factory.hpp:77] Creating layer pool4
I0323 21:20:41.669550 22279 net.cpp:100] Creating Layer pool4
I0323 21:20:41.669554 22279 net.cpp:434] pool4 <- conv4_3_relu4_3_0_split_0
I0323 21:20:41.669560 22279 net.cpp:408] pool4 -> pool4
I0323 21:20:41.669592 22279 net.cpp:150] Setting up pool4
I0323 21:20:41.669597 22279 net.cpp:157] Top shape: 2 512 19 19 (369664)
I0323 21:20:41.669600 22279 net.cpp:165] Memory required for data: 431913024
I0323 21:20:41.669603 22279 layer_factory.hpp:77] Creating layer conv5_1
I0323 21:20:41.669615 22279 net.cpp:100] Creating Layer conv5_1
I0323 21:20:41.669628 22279 net.cpp:434] conv5_1 <- pool4
I0323 21:20:41.669636 22279 net.cpp:408] conv5_1 -> conv5_1
I0323 21:20:41.681839 22279 net.cpp:150] Setting up conv5_1
I0323 21:20:41.681864 22279 net.cpp:157] Top shape: 2 512 19 19 (369664)
I0323 21:20:41.681867 22279 net.cpp:165] Memory required for data: 433391680
I0323 21:20:41.681875 22279 layer_factory.hpp:77] Creating layer relu5_1
I0323 21:20:41.681885 22279 net.cpp:100] Creating Layer relu5_1
I0323 21:20:41.681890 22279 net.cpp:434] relu5_1 <- conv5_1
I0323 21:20:41.681896 22279 net.cpp:395] relu5_1 -> conv5_1 (in-place)
I0323 21:20:41.681905 22279 net.cpp:150] Setting up relu5_1
I0323 21:20:41.681911 22279 net.cpp:157] Top shape: 2 512 19 19 (369664)
I0323 21:20:41.681915 22279 net.cpp:165] Memory required for data: 434870336
I0323 21:20:41.681918 22279 layer_factory.hpp:77] Creating layer conv5_2
I0323 21:20:41.681928 22279 net.cpp:100] Creating Layer conv5_2
I0323 21:20:41.681931 22279 net.cpp:434] conv5_2 <- conv5_1
I0323 21:20:41.681938 22279 net.cpp:408] conv5_2 -> conv5_2
I0323 21:20:41.694416 22279 net.cpp:150] Setting up conv5_2
I0323 21:20:41.694442 22279 net.cpp:157] Top shape: 2 512 19 19 (369664)
I0323 21:20:41.694444 22279 net.cpp:165] Memory required for data: 436348992
I0323 21:20:41.694453 22279 layer_factory.hpp:77] Creating layer relu5_2
I0323 21:20:41.694463 22279 net.cpp:100] Creating Layer relu5_2
I0323 21:20:41.694469 22279 net.cpp:434] relu5_2 <- conv5_2
I0323 21:20:41.694478 22279 net.cpp:395] relu5_2 -> conv5_2 (in-place)
I0323 21:20:41.694488 22279 net.cpp:150] Setting up relu5_2
I0323 21:20:41.694494 22279 net.cpp:157] Top shape: 2 512 19 19 (369664)
I0323 21:20:41.694497 22279 net.cpp:165] Memory required for data: 437827648
I0323 21:20:41.694500 22279 layer_factory.hpp:77] Creating layer conv5_3
I0323 21:20:41.694510 22279 net.cpp:100] Creating Layer conv5_3
I0323 21:20:41.694514 22279 net.cpp:434] conv5_3 <- conv5_2
I0323 21:20:41.694520 22279 net.cpp:408] conv5_3 -> conv5_3
I0323 21:20:41.706734 22279 net.cpp:150] Setting up conv5_3
I0323 21:20:41.706755 22279 net.cpp:157] Top shape: 2 512 19 19 (369664)
I0323 21:20:41.706758 22279 net.cpp:165] Memory required for data: 439306304
I0323 21:20:41.706766 22279 layer_factory.hpp:77] Creating layer relu5_3
I0323 21:20:41.706780 22279 net.cpp:100] Creating Layer relu5_3
I0323 21:20:41.706785 22279 net.cpp:434] relu5_3 <- conv5_3
I0323 21:20:41.706794 22279 net.cpp:395] relu5_3 -> conv5_3 (in-place)
I0323 21:20:41.706804 22279 net.cpp:150] Setting up relu5_3
I0323 21:20:41.706809 22279 net.cpp:157] Top shape: 2 512 19 19 (369664)
I0323 21:20:41.706812 22279 net.cpp:165] Memory required for data: 440784960
I0323 21:20:41.706815 22279 layer_factory.hpp:77] Creating layer pool5
I0323 21:20:41.706822 22279 net.cpp:100] Creating Layer pool5
I0323 21:20:41.706826 22279 net.cpp:434] pool5 <- conv5_3
I0323 21:20:41.706832 22279 net.cpp:408] pool5 -> pool5
I0323 21:20:41.706866 22279 net.cpp:150] Setting up pool5
I0323 21:20:41.706872 22279 net.cpp:157] Top shape: 2 512 19 19 (369664)
I0323 21:20:41.706876 22279 net.cpp:165] Memory required for data: 442263616
I0323 21:20:41.706879 22279 layer_factory.hpp:77] Creating layer fc6
I0323 21:20:41.706889 22279 net.cpp:100] Creating Layer fc6
I0323 21:20:41.706893 22279 net.cpp:434] fc6 <- pool5
I0323 21:20:41.706899 22279 net.cpp:408] fc6 -> fc6
I0323 21:20:41.731113 22279 net.cpp:150] Setting up fc6
I0323 21:20:41.731137 22279 net.cpp:157] Top shape: 2 1024 19 19 (739328)
I0323 21:20:41.731139 22279 net.cpp:165] Memory required for data: 445220928
I0323 21:20:41.731148 22279 layer_factory.hpp:77] Creating layer relu6
I0323 21:20:41.731156 22279 net.cpp:100] Creating Layer relu6
I0323 21:20:41.731161 22279 net.cpp:434] relu6 <- fc6
I0323 21:20:41.731168 22279 net.cpp:395] relu6 -> fc6 (in-place)
I0323 21:20:41.731178 22279 net.cpp:150] Setting up relu6
I0323 21:20:41.731184 22279 net.cpp:157] Top shape: 2 1024 19 19 (739328)
I0323 21:20:41.731186 22279 net.cpp:165] Memory required for data: 448178240
I0323 21:20:41.731190 22279 layer_factory.hpp:77] Creating layer fc7
I0323 21:20:41.731214 22279 net.cpp:100] Creating Layer fc7
I0323 21:20:41.731217 22279 net.cpp:434] fc7 <- fc6
I0323 21:20:41.731223 22279 net.cpp:408] fc7 -> fc7
I0323 21:20:41.736889 22279 net.cpp:150] Setting up fc7
I0323 21:20:41.736903 22279 net.cpp:157] Top shape: 2 1024 19 19 (739328)
I0323 21:20:41.736907 22279 net.cpp:165] Memory required for data: 451135552
I0323 21:20:41.736913 22279 layer_factory.hpp:77] Creating layer relu7
I0323 21:20:41.736919 22279 net.cpp:100] Creating Layer relu7
I0323 21:20:41.736924 22279 net.cpp:434] relu7 <- fc7
I0323 21:20:41.736932 22279 net.cpp:395] relu7 -> fc7 (in-place)
I0323 21:20:41.736939 22279 net.cpp:150] Setting up relu7
I0323 21:20:41.736945 22279 net.cpp:157] Top shape: 2 1024 19 19 (739328)
I0323 21:20:41.736949 22279 net.cpp:165] Memory required for data: 454092864
I0323 21:20:41.736953 22279 layer_factory.hpp:77] Creating layer fc7_relu7_0_split
I0323 21:20:41.736959 22279 net.cpp:100] Creating Layer fc7_relu7_0_split
I0323 21:20:41.736963 22279 net.cpp:434] fc7_relu7_0_split <- fc7
I0323 21:20:41.736969 22279 net.cpp:408] fc7_relu7_0_split -> fc7_relu7_0_split_0
I0323 21:20:41.736979 22279 net.cpp:408] fc7_relu7_0_split -> fc7_relu7_0_split_1
I0323 21:20:41.736989 22279 net.cpp:408] fc7_relu7_0_split -> fc7_relu7_0_split_2
I0323 21:20:41.736996 22279 net.cpp:408] fc7_relu7_0_split -> fc7_relu7_0_split_3
I0323 21:20:41.737048 22279 net.cpp:150] Setting up fc7_relu7_0_split
I0323 21:20:41.737056 22279 net.cpp:157] Top shape: 2 1024 19 19 (739328)
I0323 21:20:41.737061 22279 net.cpp:157] Top shape: 2 1024 19 19 (739328)
I0323 21:20:41.737066 22279 net.cpp:157] Top shape: 2 1024 19 19 (739328)
I0323 21:20:41.737071 22279 net.cpp:157] Top shape: 2 1024 19 19 (739328)
I0323 21:20:41.737076 22279 net.cpp:165] Memory required for data: 465922112
I0323 21:20:41.737078 22279 layer_factory.hpp:77] Creating layer conv6_1
I0323 21:20:41.737087 22279 net.cpp:100] Creating Layer conv6_1
I0323 21:20:41.737092 22279 net.cpp:434] conv6_1 <- fc7_relu7_0_split_0
I0323 21:20:41.737099 22279 net.cpp:408] conv6_1 -> conv6_1
I0323 21:20:41.738996 22279 net.cpp:150] Setting up conv6_1
I0323 21:20:41.739008 22279 net.cpp:157] Top shape: 2 256 19 19 (184832)
I0323 21:20:41.739012 22279 net.cpp:165] Memory required for data: 466661440
I0323 21:20:41.739019 22279 layer_factory.hpp:77] Creating layer conv6_1_relu
I0323 21:20:41.739027 22279 net.cpp:100] Creating Layer conv6_1_relu
I0323 21:20:41.739032 22279 net.cpp:434] conv6_1_relu <- conv6_1
I0323 21:20:41.739037 22279 net.cpp:395] conv6_1_relu -> conv6_1 (in-place)
I0323 21:20:41.739045 22279 net.cpp:150] Setting up conv6_1_relu
I0323 21:20:41.739050 22279 net.cpp:157] Top shape: 2 256 19 19 (184832)
I0323 21:20:41.739054 22279 net.cpp:165] Memory required for data: 467400768
I0323 21:20:41.739058 22279 layer_factory.hpp:77] Creating layer conv6_2
I0323 21:20:41.739068 22279 net.cpp:100] Creating Layer conv6_2
I0323 21:20:41.739070 22279 net.cpp:434] conv6_2 <- conv6_1
I0323 21:20:41.739076 22279 net.cpp:408] conv6_2 -> conv6_2
I0323 21:20:41.745280 22279 net.cpp:150] Setting up conv6_2
I0323 21:20:41.745297 22279 net.cpp:157] Top shape: 2 512 10 10 (102400)
I0323 21:20:41.745301 22279 net.cpp:165] Memory required for data: 467810368
I0323 21:20:41.745312 22279 layer_factory.hpp:77] Creating layer conv6_2_relu
I0323 21:20:41.745321 22279 net.cpp:100] Creating Layer conv6_2_relu
I0323 21:20:41.745326 22279 net.cpp:434] conv6_2_relu <- conv6_2
I0323 21:20:41.745332 22279 net.cpp:395] conv6_2_relu -> conv6_2 (in-place)
I0323 21:20:41.745342 22279 net.cpp:150] Setting up conv6_2_relu
I0323 21:20:41.745347 22279 net.cpp:157] Top shape: 2 512 10 10 (102400)
I0323 21:20:41.745352 22279 net.cpp:165] Memory required for data: 468219968
I0323 21:20:41.745354 22279 layer_factory.hpp:77] Creating layer conv6_2_conv6_2_relu_0_split
I0323 21:20:41.745360 22279 net.cpp:100] Creating Layer conv6_2_conv6_2_relu_0_split
I0323 21:20:41.745364 22279 net.cpp:434] conv6_2_conv6_2_relu_0_split <- conv6_2
I0323 21:20:41.745384 22279 net.cpp:408] conv6_2_conv6_2_relu_0_split -> conv6_2_conv6_2_relu_0_split_0
I0323 21:20:41.745393 22279 net.cpp:408] conv6_2_conv6_2_relu_0_split -> conv6_2_conv6_2_relu_0_split_1
I0323 21:20:41.745400 22279 net.cpp:408] conv6_2_conv6_2_relu_0_split -> conv6_2_conv6_2_relu_0_split_2
I0323 21:20:41.745407 22279 net.cpp:408] conv6_2_conv6_2_relu_0_split -> conv6_2_conv6_2_relu_0_split_3
I0323 21:20:41.745461 22279 net.cpp:150] Setting up conv6_2_conv6_2_relu_0_split
I0323 21:20:41.745467 22279 net.cpp:157] Top shape: 2 512 10 10 (102400)
I0323 21:20:41.745472 22279 net.cpp:157] Top shape: 2 512 10 10 (102400)
I0323 21:20:41.745476 22279 net.cpp:157] Top shape: 2 512 10 10 (102400)
I0323 21:20:41.745482 22279 net.cpp:157] Top shape: 2 512 10 10 (102400)
I0323 21:20:41.745486 22279 net.cpp:165] Memory required for data: 469858368
I0323 21:20:41.745489 22279 layer_factory.hpp:77] Creating layer conv7_1
I0323 21:20:41.745498 22279 net.cpp:100] Creating Layer conv7_1
I0323 21:20:41.745502 22279 net.cpp:434] conv7_1 <- conv6_2_conv6_2_relu_0_split_0
I0323 21:20:41.745509 22279 net.cpp:408] conv7_1 -> conv7_1
I0323 21:20:41.745971 22279 net.cpp:150] Setting up conv7_1
I0323 21:20:41.745978 22279 net.cpp:157] Top shape: 2 128 10 10 (25600)
I0323 21:20:41.745982 22279 net.cpp:165] Memory required for data: 469960768
I0323 21:20:41.745988 22279 layer_factory.hpp:77] Creating layer conv7_1_relu
I0323 21:20:41.745995 22279 net.cpp:100] Creating Layer conv7_1_relu
I0323 21:20:41.746000 22279 net.cpp:434] conv7_1_relu <- conv7_1
I0323 21:20:41.746006 22279 net.cpp:395] conv7_1_relu -> conv7_1 (in-place)
I0323 21:20:41.746012 22279 net.cpp:150] Setting up conv7_1_relu
I0323 21:20:41.746017 22279 net.cpp:157] Top shape: 2 128 10 10 (25600)
I0323 21:20:41.746021 22279 net.cpp:165] Memory required for data: 470063168
I0323 21:20:41.746026 22279 layer_factory.hpp:77] Creating layer conv7_2
I0323 21:20:41.746032 22279 net.cpp:100] Creating Layer conv7_2
I0323 21:20:41.746037 22279 net.cpp:434] conv7_2 <- conv7_1
I0323 21:20:41.746042 22279 net.cpp:408] conv7_2 -> conv7_2
I0323 21:20:41.748106 22279 net.cpp:150] Setting up conv7_2
I0323 21:20:41.748117 22279 net.cpp:157] Top shape: 2 256 5 5 (12800)
I0323 21:20:41.748121 22279 net.cpp:165] Memory required for data: 470114368
I0323 21:20:41.748127 22279 layer_factory.hpp:77] Creating layer conv7_2_relu
I0323 21:20:41.748136 22279 net.cpp:100] Creating Layer conv7_2_relu
I0323 21:20:41.748141 22279 net.cpp:434] conv7_2_relu <- conv7_2
I0323 21:20:41.748147 22279 net.cpp:395] conv7_2_relu -> conv7_2 (in-place)
I0323 21:20:41.748153 22279 net.cpp:150] Setting up conv7_2_relu
I0323 21:20:41.748159 22279 net.cpp:157] Top shape: 2 256 5 5 (12800)
I0323 21:20:41.748163 22279 net.cpp:165] Memory required for data: 470165568
I0323 21:20:41.748167 22279 layer_factory.hpp:77] Creating layer conv7_2_conv7_2_relu_0_split
I0323 21:20:41.748172 22279 net.cpp:100] Creating Layer conv7_2_conv7_2_relu_0_split
I0323 21:20:41.748178 22279 net.cpp:434] conv7_2_conv7_2_relu_0_split <- conv7_2
I0323 21:20:41.748183 22279 net.cpp:408] conv7_2_conv7_2_relu_0_split -> conv7_2_conv7_2_relu_0_split_0
I0323 21:20:41.748190 22279 net.cpp:408] conv7_2_conv7_2_relu_0_split -> conv7_2_conv7_2_relu_0_split_1
I0323 21:20:41.748198 22279 net.cpp:408] conv7_2_conv7_2_relu_0_split -> conv7_2_conv7_2_relu_0_split_2
I0323 21:20:41.748206 22279 net.cpp:408] conv7_2_conv7_2_relu_0_split -> conv7_2_conv7_2_relu_0_split_3
I0323 21:20:41.748256 22279 net.cpp:150] Setting up conv7_2_conv7_2_relu_0_split
I0323 21:20:41.748262 22279 net.cpp:157] Top shape: 2 256 5 5 (12800)
I0323 21:20:41.748267 22279 net.cpp:157] Top shape: 2 256 5 5 (12800)
I0323 21:20:41.748272 22279 net.cpp:157] Top shape: 2 256 5 5 (12800)
I0323 21:20:41.748277 22279 net.cpp:157] Top shape: 2 256 5 5 (12800)
I0323 21:20:41.748281 22279 net.cpp:165] Memory required for data: 470370368
I0323 21:20:41.748284 22279 layer_factory.hpp:77] Creating layer conv8_1
I0323 21:20:41.748293 22279 net.cpp:100] Creating Layer conv8_1
I0323 21:20:41.748297 22279 net.cpp:434] conv8_1 <- conv7_2_conv7_2_relu_0_split_0
I0323 21:20:41.748313 22279 net.cpp:408] conv8_1 -> conv8_1
I0323 21:20:41.748625 22279 net.cpp:150] Setting up conv8_1
I0323 21:20:41.748633 22279 net.cpp:157] Top shape: 2 128 5 5 (6400)
I0323 21:20:41.748636 22279 net.cpp:165] Memory required for data: 470395968
I0323 21:20:41.748642 22279 layer_factory.hpp:77] Creating layer conv8_1_relu
I0323 21:20:41.748647 22279 net.cpp:100] Creating Layer conv8_1_relu
I0323 21:20:41.748653 22279 net.cpp:434] conv8_1_relu <- conv8_1
I0323 21:20:41.748658 22279 net.cpp:395] conv8_1_relu -> conv8_1 (in-place)
I0323 21:20:41.748666 22279 net.cpp:150] Setting up conv8_1_relu
I0323 21:20:41.748670 22279 net.cpp:157] Top shape: 2 128 5 5 (6400)
I0323 21:20:41.748675 22279 net.cpp:165] Memory required for data: 470421568
I0323 21:20:41.748678 22279 layer_factory.hpp:77] Creating layer conv8_2
I0323 21:20:41.748685 22279 net.cpp:100] Creating Layer conv8_2
I0323 21:20:41.748689 22279 net.cpp:434] conv8_2 <- conv8_1
I0323 21:20:41.748697 22279 net.cpp:408] conv8_2 -> conv8_2
I0323 21:20:41.750732 22279 net.cpp:150] Setting up conv8_2
I0323 21:20:41.750743 22279 net.cpp:157] Top shape: 2 256 3 3 (4608)
I0323 21:20:41.750746 22279 net.cpp:165] Memory required for data: 470440000
I0323 21:20:41.750753 22279 layer_factory.hpp:77] Creating layer conv8_2_relu
I0323 21:20:41.750761 22279 net.cpp:100] Creating Layer conv8_2_relu
I0323 21:20:41.750766 22279 net.cpp:434] conv8_2_relu <- conv8_2
I0323 21:20:41.750772 22279 net.cpp:395] conv8_2_relu -> conv8_2 (in-place)
I0323 21:20:41.750779 22279 net.cpp:150] Setting up conv8_2_relu
I0323 21:20:41.750785 22279 net.cpp:157] Top shape: 2 256 3 3 (4608)
I0323 21:20:41.750789 22279 net.cpp:165] Memory required for data: 470458432
I0323 21:20:41.750792 22279 layer_factory.hpp:77] Creating layer conv8_2_conv8_2_relu_0_split
I0323 21:20:41.750798 22279 net.cpp:100] Creating Layer conv8_2_conv8_2_relu_0_split
I0323 21:20:41.750802 22279 net.cpp:434] conv8_2_conv8_2_relu_0_split <- conv8_2
I0323 21:20:41.750808 22279 net.cpp:408] conv8_2_conv8_2_relu_0_split -> conv8_2_conv8_2_relu_0_split_0
I0323 21:20:41.750816 22279 net.cpp:408] conv8_2_conv8_2_relu_0_split -> conv8_2_conv8_2_relu_0_split_1
I0323 21:20:41.750824 22279 net.cpp:408] conv8_2_conv8_2_relu_0_split -> conv8_2_conv8_2_relu_0_split_2
I0323 21:20:41.750831 22279 net.cpp:408] conv8_2_conv8_2_relu_0_split -> conv8_2_conv8_2_relu_0_split_3
I0323 21:20:41.750883 22279 net.cpp:150] Setting up conv8_2_conv8_2_relu_0_split
I0323 21:20:41.750888 22279 net.cpp:157] Top shape: 2 256 3 3 (4608)
I0323 21:20:41.750895 22279 net.cpp:157] Top shape: 2 256 3 3 (4608)
I0323 21:20:41.750900 22279 net.cpp:157] Top shape: 2 256 3 3 (4608)
I0323 21:20:41.750903 22279 net.cpp:157] Top shape: 2 256 3 3 (4608)
I0323 21:20:41.750907 22279 net.cpp:165] Memory required for data: 470532160
I0323 21:20:41.750911 22279 layer_factory.hpp:77] Creating layer conv9_1
I0323 21:20:41.750921 22279 net.cpp:100] Creating Layer conv9_1
I0323 21:20:41.750924 22279 net.cpp:434] conv9_1 <- conv8_2_conv8_2_relu_0_split_0
I0323 21:20:41.750931 22279 net.cpp:408] conv9_1 -> conv9_1
I0323 21:20:41.751240 22279 net.cpp:150] Setting up conv9_1
I0323 21:20:41.751246 22279 net.cpp:157] Top shape: 2 128 3 3 (2304)
I0323 21:20:41.751250 22279 net.cpp:165] Memory required for data: 470541376
I0323 21:20:41.751255 22279 layer_factory.hpp:77] Creating layer conv9_1_relu
I0323 21:20:41.751262 22279 net.cpp:100] Creating Layer conv9_1_relu
I0323 21:20:41.751266 22279 net.cpp:434] conv9_1_relu <- conv9_1
I0323 21:20:41.751271 22279 net.cpp:395] conv9_1_relu -> conv9_1 (in-place)
I0323 21:20:41.751278 22279 net.cpp:150] Setting up conv9_1_relu
I0323 21:20:41.751284 22279 net.cpp:157] Top shape: 2 128 3 3 (2304)
I0323 21:20:41.751288 22279 net.cpp:165] Memory required for data: 470550592
I0323 21:20:41.751291 22279 layer_factory.hpp:77] Creating layer conv9_2
I0323 21:20:41.751299 22279 net.cpp:100] Creating Layer conv9_2
I0323 21:20:41.751303 22279 net.cpp:434] conv9_2 <- conv9_1
I0323 21:20:41.751308 22279 net.cpp:408] conv9_2 -> conv9_2
I0323 21:20:41.753365 22279 net.cpp:150] Setting up conv9_2
I0323 21:20:41.753376 22279 net.cpp:157] Top shape: 2 256 1 1 (512)
I0323 21:20:41.753381 22279 net.cpp:165] Memory required for data: 470552640
I0323 21:20:41.753387 22279 layer_factory.hpp:77] Creating layer conv9_2_relu
I0323 21:20:41.753394 22279 net.cpp:100] Creating Layer conv9_2_relu
I0323 21:20:41.753398 22279 net.cpp:434] conv9_2_relu <- conv9_2
I0323 21:20:41.753404 22279 net.cpp:395] conv9_2_relu -> conv9_2 (in-place)
I0323 21:20:41.753412 22279 net.cpp:150] Setting up conv9_2_relu
I0323 21:20:41.753417 22279 net.cpp:157] Top shape: 2 256 1 1 (512)
I0323 21:20:41.753420 22279 net.cpp:165] Memory required for data: 470554688
I0323 21:20:41.753425 22279 layer_factory.hpp:77] Creating layer conv9_2_conv9_2_relu_0_split
I0323 21:20:41.753432 22279 net.cpp:100] Creating Layer conv9_2_conv9_2_relu_0_split
I0323 21:20:41.753435 22279 net.cpp:434] conv9_2_conv9_2_relu_0_split <- conv9_2
I0323 21:20:41.753440 22279 net.cpp:408] conv9_2_conv9_2_relu_0_split -> conv9_2_conv9_2_relu_0_split_0
I0323 21:20:41.753449 22279 net.cpp:408] conv9_2_conv9_2_relu_0_split -> conv9_2_conv9_2_relu_0_split_1
I0323 21:20:41.753458 22279 net.cpp:408] conv9_2_conv9_2_relu_0_split -> conv9_2_conv9_2_relu_0_split_2
I0323 21:20:41.753499 22279 net.cpp:150] Setting up conv9_2_conv9_2_relu_0_split
I0323 21:20:41.753504 22279 net.cpp:157] Top shape: 2 256 1 1 (512)
I0323 21:20:41.753509 22279 net.cpp:157] Top shape: 2 256 1 1 (512)
I0323 21:20:41.753515 22279 net.cpp:157] Top shape: 2 256 1 1 (512)
I0323 21:20:41.753517 22279 net.cpp:165] Memory required for data: 470560832
I0323 21:20:41.753520 22279 layer_factory.hpp:77] Creating layer conv4_3_norm
I0323 21:20:41.753530 22279 net.cpp:100] Creating Layer conv4_3_norm
I0323 21:20:41.753533 22279 net.cpp:434] conv4_3_norm <- conv4_3_relu4_3_0_split_1
I0323 21:20:41.753540 22279 net.cpp:408] conv4_3_norm -> conv4_3_norm
I0323 21:20:41.753659 22279 net.cpp:150] Setting up conv4_3_norm
I0323 21:20:41.753666 22279 net.cpp:157] Top shape: 2 512 38 38 (1478656)
I0323 21:20:41.753669 22279 net.cpp:165] Memory required for data: 476475456
I0323 21:20:41.753675 22279 layer_factory.hpp:77] Creating layer conv4_3_norm_conv4_3_norm_0_split
I0323 21:20:41.753681 22279 net.cpp:100] Creating Layer conv4_3_norm_conv4_3_norm_0_split
I0323 21:20:41.753686 22279 net.cpp:434] conv4_3_norm_conv4_3_norm_0_split <- conv4_3_norm
I0323 21:20:41.753692 22279 net.cpp:408] conv4_3_norm_conv4_3_norm_0_split -> conv4_3_norm_conv4_3_norm_0_split_0
I0323 21:20:41.753700 22279 net.cpp:408] conv4_3_norm_conv4_3_norm_0_split -> conv4_3_norm_conv4_3_norm_0_split_1
I0323 21:20:41.753706 22279 net.cpp:408] conv4_3_norm_conv4_3_norm_0_split -> conv4_3_norm_conv4_3_norm_0_split_2
I0323 21:20:41.753746 22279 net.cpp:150] Setting up conv4_3_norm_conv4_3_norm_0_split
I0323 21:20:41.753751 22279 net.cpp:157] Top shape: 2 512 38 38 (1478656)
I0323 21:20:41.753756 22279 net.cpp:157] Top shape: 2 512 38 38 (1478656)
I0323 21:20:41.753760 22279 net.cpp:157] Top shape: 2 512 38 38 (1478656)
I0323 21:20:41.753764 22279 net.cpp:165] Memory required for data: 494219328
I0323 21:20:41.753768 22279 layer_factory.hpp:77] Creating layer conv4_3_norm_mbox_loc
I0323 21:20:41.753777 22279 net.cpp:100] Creating Layer conv4_3_norm_mbox_loc
I0323 21:20:41.753780 22279 net.cpp:434] conv4_3_norm_mbox_loc <- conv4_3_norm_conv4_3_norm_0_split_0
I0323 21:20:41.753787 22279 net.cpp:408] conv4_3_norm_mbox_loc -> conv4_3_norm_mbox_loc
I0323 21:20:41.754276 22279 net.cpp:150] Setting up conv4_3_norm_mbox_loc
I0323 21:20:41.754282 22279 net.cpp:157] Top shape: 2 16 38 38 (46208)
I0323 21:20:41.754286 22279 net.cpp:165] Memory required for data: 494404160
I0323 21:20:41.754292 22279 layer_factory.hpp:77] Creating layer conv4_3_norm_mbox_loc_perm
I0323 21:20:41.754302 22279 net.cpp:100] Creating Layer conv4_3_norm_mbox_loc_perm
I0323 21:20:41.754305 22279 net.cpp:434] conv4_3_norm_mbox_loc_perm <- conv4_3_norm_mbox_loc
I0323 21:20:41.754310 22279 net.cpp:408] conv4_3_norm_mbox_loc_perm -> conv4_3_norm_mbox_loc_perm
I0323 21:20:41.754396 22279 net.cpp:150] Setting up conv4_3_norm_mbox_loc_perm
I0323 21:20:41.754402 22279 net.cpp:157] Top shape: 2 38 38 16 (46208)
I0323 21:20:41.754405 22279 net.cpp:165] Memory required for data: 494588992
I0323 21:20:41.754408 22279 layer_factory.hpp:77] Creating layer conv4_3_norm_mbox_loc_flat
I0323 21:20:41.754416 22279 net.cpp:100] Creating Layer conv4_3_norm_mbox_loc_flat
I0323 21:20:41.754421 22279 net.cpp:434] conv4_3_norm_mbox_loc_flat <- conv4_3_norm_mbox_loc_perm
I0323 21:20:41.754427 22279 net.cpp:408] conv4_3_norm_mbox_loc_flat -> conv4_3_norm_mbox_loc_flat
I0323 21:20:41.754458 22279 net.cpp:150] Setting up conv4_3_norm_mbox_loc_flat
I0323 21:20:41.754465 22279 net.cpp:157] Top shape: 2 23104 (46208)
I0323 21:20:41.754467 22279 net.cpp:165] Memory required for data: 494773824
I0323 21:20:41.754470 22279 layer_factory.hpp:77] Creating layer conv4_3_norm_mbox_conf
I0323 21:20:41.754484 22279 net.cpp:100] Creating Layer conv4_3_norm_mbox_conf
I0323 21:20:41.754488 22279 net.cpp:434] conv4_3_norm_mbox_conf <- conv4_3_norm_conv4_3_norm_0_split_1
I0323 21:20:41.754495 22279 net.cpp:408] conv4_3_norm_mbox_conf -> conv4_3_norm_mbox_conf
I0323 21:20:41.754835 22279 net.cpp:150] Setting up conv4_3_norm_mbox_conf
I0323 21:20:41.754842 22279 net.cpp:157] Top shape: 2 8 38 38 (23104)
I0323 21:20:41.754845 22279 net.cpp:165] Memory required for data: 494866240
I0323 21:20:41.754853 22279 layer_factory.hpp:77] Creating layer conv4_3_norm_mbox_conf_perm
I0323 21:20:41.754863 22279 net.cpp:100] Creating Layer conv4_3_norm_mbox_conf_perm
I0323 21:20:41.754866 22279 net.cpp:434] conv4_3_norm_mbox_conf_perm <- conv4_3_norm_mbox_conf
I0323 21:20:41.754873 22279 net.cpp:408] conv4_3_norm_mbox_conf_perm -> conv4_3_norm_mbox_conf_perm
I0323 21:20:41.754947 22279 net.cpp:150] Setting up conv4_3_norm_mbox_conf_perm
I0323 21:20:41.754954 22279 net.cpp:157] Top shape: 2 38 38 8 (23104)
I0323 21:20:41.754956 22279 net.cpp:165] Memory required for data: 494958656
I0323 21:20:41.754961 22279 layer_factory.hpp:77] Creating layer conv4_3_norm_mbox_conf_flat
I0323 21:20:41.754966 22279 net.cpp:100] Creating Layer conv4_3_norm_mbox_conf_flat
I0323 21:20:41.754971 22279 net.cpp:434] conv4_3_norm_mbox_conf_flat <- conv4_3_norm_mbox_conf_perm
I0323 21:20:41.754976 22279 net.cpp:408] conv4_3_norm_mbox_conf_flat -> conv4_3_norm_mbox_conf_flat
I0323 21:20:41.754998 22279 net.cpp:150] Setting up conv4_3_norm_mbox_conf_flat
I0323 21:20:41.755003 22279 net.cpp:157] Top shape: 2 11552 (23104)
I0323 21:20:41.755007 22279 net.cpp:165] Memory required for data: 495051072
I0323 21:20:41.755009 22279 layer_factory.hpp:77] Creating layer conv4_3_norm_mbox_priorbox
I0323 21:20:41.755018 22279 net.cpp:100] Creating Layer conv4_3_norm_mbox_priorbox
I0323 21:20:41.755023 22279 net.cpp:434] conv4_3_norm_mbox_priorbox <- conv4_3_norm_conv4_3_norm_0_split_2
I0323 21:20:41.755026 22279 net.cpp:434] conv4_3_norm_mbox_priorbox <- data_data_0_split_1
I0323 21:20:41.755034 22279 net.cpp:408] conv4_3_norm_mbox_priorbox -> conv4_3_norm_mbox_priorbox
I0323 21:20:41.755059 22279 net.cpp:150] Setting up conv4_3_norm_mbox_priorbox
I0323 21:20:41.755064 22279 net.cpp:157] Top shape: 1 2 23104 (46208)
I0323 21:20:41.755066 22279 net.cpp:165] Memory required for data: 495235904
I0323 21:20:41.755069 22279 layer_factory.hpp:77] Creating layer fc7_mbox_loc
I0323 21:20:41.755079 22279 net.cpp:100] Creating Layer fc7_mbox_loc
I0323 21:20:41.755082 22279 net.cpp:434] fc7_mbox_loc <- fc7_relu7_0_split_1
I0323 21:20:41.755089 22279 net.cpp:408] fc7_mbox_loc -> fc7_mbox_loc
I0323 21:20:41.756191 22279 net.cpp:150] Setting up fc7_mbox_loc
I0323 21:20:41.756198 22279 net.cpp:157] Top shape: 2 24 19 19 (17328)
I0323 21:20:41.756201 22279 net.cpp:165] Memory required for data: 495305216
I0323 21:20:41.756207 22279 layer_factory.hpp:77] Creating layer fc7_mbox_loc_perm
I0323 21:20:41.756214 22279 net.cpp:100] Creating Layer fc7_mbox_loc_perm
I0323 21:20:41.756219 22279 net.cpp:434] fc7_mbox_loc_perm <- fc7_mbox_loc
I0323 21:20:41.756234 22279 net.cpp:408] fc7_mbox_loc_perm -> fc7_mbox_loc_perm
I0323 21:20:41.756309 22279 net.cpp:150] Setting up fc7_mbox_loc_perm
I0323 21:20:41.756315 22279 net.cpp:157] Top shape: 2 19 19 24 (17328)
I0323 21:20:41.756319 22279 net.cpp:165] Memory required for data: 495374528
I0323 21:20:41.756322 22279 layer_factory.hpp:77] Creating layer fc7_mbox_loc_flat
I0323 21:20:41.756327 22279 net.cpp:100] Creating Layer fc7_mbox_loc_flat
I0323 21:20:41.756331 22279 net.cpp:434] fc7_mbox_loc_flat <- fc7_mbox_loc_perm
I0323 21:20:41.756340 22279 net.cpp:408] fc7_mbox_loc_flat -> fc7_mbox_loc_flat
I0323 21:20:41.756362 22279 net.cpp:150] Setting up fc7_mbox_loc_flat
I0323 21:20:41.756367 22279 net.cpp:157] Top shape: 2 8664 (17328)
I0323 21:20:41.756371 22279 net.cpp:165] Memory required for data: 495443840
I0323 21:20:41.756374 22279 layer_factory.hpp:77] Creating layer fc7_mbox_conf
I0323 21:20:41.756382 22279 net.cpp:100] Creating Layer fc7_mbox_conf
I0323 21:20:41.756386 22279 net.cpp:434] fc7_mbox_conf <- fc7_relu7_0_split_2
I0323 21:20:41.756393 22279 net.cpp:408] fc7_mbox_conf -> fc7_mbox_conf
I0323 21:20:41.757033 22279 net.cpp:150] Setting up fc7_mbox_conf
I0323 21:20:41.757040 22279 net.cpp:157] Top shape: 2 12 19 19 (8664)
I0323 21:20:41.757043 22279 net.cpp:165] Memory required for data: 495478496
I0323 21:20:41.757050 22279 layer_factory.hpp:77] Creating layer fc7_mbox_conf_perm
I0323 21:20:41.757056 22279 net.cpp:100] Creating Layer fc7_mbox_conf_perm
I0323 21:20:41.757061 22279 net.cpp:434] fc7_mbox_conf_perm <- fc7_mbox_conf
I0323 21:20:41.757066 22279 net.cpp:408] fc7_mbox_conf_perm -> fc7_mbox_conf_perm
I0323 21:20:41.757140 22279 net.cpp:150] Setting up fc7_mbox_conf_perm
I0323 21:20:41.757148 22279 net.cpp:157] Top shape: 2 19 19 12 (8664)
I0323 21:20:41.757150 22279 net.cpp:165] Memory required for data: 495513152
I0323 21:20:41.757153 22279 layer_factory.hpp:77] Creating layer fc7_mbox_conf_flat
I0323 21:20:41.757158 22279 net.cpp:100] Creating Layer fc7_mbox_conf_flat
I0323 21:20:41.757164 22279 net.cpp:434] fc7_mbox_conf_flat <- fc7_mbox_conf_perm
I0323 21:20:41.757169 22279 net.cpp:408] fc7_mbox_conf_flat -> fc7_mbox_conf_flat
I0323 21:20:41.757191 22279 net.cpp:150] Setting up fc7_mbox_conf_flat
I0323 21:20:41.757196 22279 net.cpp:157] Top shape: 2 4332 (8664)
I0323 21:20:41.757200 22279 net.cpp:165] Memory required for data: 495547808
I0323 21:20:41.757203 22279 layer_factory.hpp:77] Creating layer fc7_mbox_priorbox
I0323 21:20:41.757210 22279 net.cpp:100] Creating Layer fc7_mbox_priorbox
I0323 21:20:41.757215 22279 net.cpp:434] fc7_mbox_priorbox <- fc7_relu7_0_split_3
I0323 21:20:41.757220 22279 net.cpp:434] fc7_mbox_priorbox <- data_data_0_split_2
I0323 21:20:41.757226 22279 net.cpp:408] fc7_mbox_priorbox -> fc7_mbox_priorbox
I0323 21:20:41.757251 22279 net.cpp:150] Setting up fc7_mbox_priorbox
I0323 21:20:41.757256 22279 net.cpp:157] Top shape: 1 2 8664 (17328)
I0323 21:20:41.757259 22279 net.cpp:165] Memory required for data: 495617120
I0323 21:20:41.757263 22279 layer_factory.hpp:77] Creating layer conv6_2_mbox_loc
I0323 21:20:41.757273 22279 net.cpp:100] Creating Layer conv6_2_mbox_loc
I0323 21:20:41.757277 22279 net.cpp:434] conv6_2_mbox_loc <- conv6_2_conv6_2_relu_0_split_1
I0323 21:20:41.757285 22279 net.cpp:408] conv6_2_mbox_loc -> conv6_2_mbox_loc
I0323 21:20:41.757930 22279 net.cpp:150] Setting up conv6_2_mbox_loc
I0323 21:20:41.757936 22279 net.cpp:157] Top shape: 2 24 10 10 (4800)
I0323 21:20:41.757939 22279 net.cpp:165] Memory required for data: 495636320
I0323 21:20:41.757946 22279 layer_factory.hpp:77] Creating layer conv6_2_mbox_loc_perm
I0323 21:20:41.757953 22279 net.cpp:100] Creating Layer conv6_2_mbox_loc_perm
I0323 21:20:41.757958 22279 net.cpp:434] conv6_2_mbox_loc_perm <- conv6_2_mbox_loc
I0323 21:20:41.757964 22279 net.cpp:408] conv6_2_mbox_loc_perm -> conv6_2_mbox_loc_perm
I0323 21:20:41.758041 22279 net.cpp:150] Setting up conv6_2_mbox_loc_perm
I0323 21:20:41.758047 22279 net.cpp:157] Top shape: 2 10 10 24 (4800)
I0323 21:20:41.758049 22279 net.cpp:165] Memory required for data: 495655520
I0323 21:20:41.758060 22279 layer_factory.hpp:77] Creating layer conv6_2_mbox_loc_flat
I0323 21:20:41.758069 22279 net.cpp:100] Creating Layer conv6_2_mbox_loc_flat
I0323 21:20:41.758072 22279 net.cpp:434] conv6_2_mbox_loc_flat <- conv6_2_mbox_loc_perm
I0323 21:20:41.758078 22279 net.cpp:408] conv6_2_mbox_loc_flat -> conv6_2_mbox_loc_flat
I0323 21:20:41.758100 22279 net.cpp:150] Setting up conv6_2_mbox_loc_flat
I0323 21:20:41.758105 22279 net.cpp:157] Top shape: 2 2400 (4800)
I0323 21:20:41.758108 22279 net.cpp:165] Memory required for data: 495674720
I0323 21:20:41.758111 22279 layer_factory.hpp:77] Creating layer conv6_2_mbox_conf
I0323 21:20:41.758121 22279 net.cpp:100] Creating Layer conv6_2_mbox_conf
I0323 21:20:41.758124 22279 net.cpp:434] conv6_2_mbox_conf <- conv6_2_conv6_2_relu_0_split_2
I0323 21:20:41.758131 22279 net.cpp:408] conv6_2_mbox_conf -> conv6_2_mbox_conf
I0323 21:20:41.758543 22279 net.cpp:150] Setting up conv6_2_mbox_conf
I0323 21:20:41.758549 22279 net.cpp:157] Top shape: 2 12 10 10 (2400)
I0323 21:20:41.758553 22279 net.cpp:165] Memory required for data: 495684320
I0323 21:20:41.758559 22279 layer_factory.hpp:77] Creating layer conv6_2_mbox_conf_perm
I0323 21:20:41.758565 22279 net.cpp:100] Creating Layer conv6_2_mbox_conf_perm
I0323 21:20:41.758570 22279 net.cpp:434] conv6_2_mbox_conf_perm <- conv6_2_mbox_conf
I0323 21:20:41.758576 22279 net.cpp:408] conv6_2_mbox_conf_perm -> conv6_2_mbox_conf_perm
I0323 21:20:41.758651 22279 net.cpp:150] Setting up conv6_2_mbox_conf_perm
I0323 21:20:41.758656 22279 net.cpp:157] Top shape: 2 10 10 12 (2400)
I0323 21:20:41.758659 22279 net.cpp:165] Memory required for data: 495693920
I0323 21:20:41.758662 22279 layer_factory.hpp:77] Creating layer conv6_2_mbox_conf_flat
I0323 21:20:41.758668 22279 net.cpp:100] Creating Layer conv6_2_mbox_conf_flat
I0323 21:20:41.758672 22279 net.cpp:434] conv6_2_mbox_conf_flat <- conv6_2_mbox_conf_perm
I0323 21:20:41.758678 22279 net.cpp:408] conv6_2_mbox_conf_flat -> conv6_2_mbox_conf_flat
I0323 21:20:41.758700 22279 net.cpp:150] Setting up conv6_2_mbox_conf_flat
I0323 21:20:41.758705 22279 net.cpp:157] Top shape: 2 1200 (2400)
I0323 21:20:41.758708 22279 net.cpp:165] Memory required for data: 495703520
I0323 21:20:41.758711 22279 layer_factory.hpp:77] Creating layer conv6_2_mbox_priorbox
I0323 21:20:41.758718 22279 net.cpp:100] Creating Layer conv6_2_mbox_priorbox
I0323 21:20:41.758723 22279 net.cpp:434] conv6_2_mbox_priorbox <- conv6_2_conv6_2_relu_0_split_3
I0323 21:20:41.758728 22279 net.cpp:434] conv6_2_mbox_priorbox <- data_data_0_split_3
I0323 21:20:41.758734 22279 net.cpp:408] conv6_2_mbox_priorbox -> conv6_2_mbox_priorbox
I0323 21:20:41.758759 22279 net.cpp:150] Setting up conv6_2_mbox_priorbox
I0323 21:20:41.758764 22279 net.cpp:157] Top shape: 1 2 2400 (4800)
I0323 21:20:41.758766 22279 net.cpp:165] Memory required for data: 495722720
I0323 21:20:41.758769 22279 layer_factory.hpp:77] Creating layer conv7_2_mbox_loc
I0323 21:20:41.758779 22279 net.cpp:100] Creating Layer conv7_2_mbox_loc
I0323 21:20:41.758782 22279 net.cpp:434] conv7_2_mbox_loc <- conv7_2_conv7_2_relu_0_split_1
I0323 21:20:41.758790 22279 net.cpp:408] conv7_2_mbox_loc -> conv7_2_mbox_loc
I0323 21:20:41.759199 22279 net.cpp:150] Setting up conv7_2_mbox_loc
I0323 21:20:41.759207 22279 net.cpp:157] Top shape: 2 24 5 5 (1200)
I0323 21:20:41.759209 22279 net.cpp:165] Memory required for data: 495727520
I0323 21:20:41.759215 22279 layer_factory.hpp:77] Creating layer conv7_2_mbox_loc_perm
I0323 21:20:41.759222 22279 net.cpp:100] Creating Layer conv7_2_mbox_loc_perm
I0323 21:20:41.759227 22279 net.cpp:434] conv7_2_mbox_loc_perm <- conv7_2_mbox_loc
I0323 21:20:41.759233 22279 net.cpp:408] conv7_2_mbox_loc_perm -> conv7_2_mbox_loc_perm
I0323 21:20:41.759308 22279 net.cpp:150] Setting up conv7_2_mbox_loc_perm
I0323 21:20:41.759315 22279 net.cpp:157] Top shape: 2 5 5 24 (1200)
I0323 21:20:41.759317 22279 net.cpp:165] Memory required for data: 495732320
I0323 21:20:41.759321 22279 layer_factory.hpp:77] Creating layer conv7_2_mbox_loc_flat
I0323 21:20:41.759333 22279 net.cpp:100] Creating Layer conv7_2_mbox_loc_flat
I0323 21:20:41.759337 22279 net.cpp:434] conv7_2_mbox_loc_flat <- conv7_2_mbox_loc_perm
I0323 21:20:41.759344 22279 net.cpp:408] conv7_2_mbox_loc_flat -> conv7_2_mbox_loc_flat
I0323 21:20:41.759371 22279 net.cpp:150] Setting up conv7_2_mbox_loc_flat
I0323 21:20:41.759377 22279 net.cpp:157] Top shape: 2 600 (1200)
I0323 21:20:41.759380 22279 net.cpp:165] Memory required for data: 495737120
I0323 21:20:41.759384 22279 layer_factory.hpp:77] Creating layer conv7_2_mbox_conf
I0323 21:20:41.759393 22279 net.cpp:100] Creating Layer conv7_2_mbox_conf
I0323 21:20:41.759397 22279 net.cpp:434] conv7_2_mbox_conf <- conv7_2_conv7_2_relu_0_split_2
I0323 21:20:41.759404 22279 net.cpp:408] conv7_2_mbox_conf -> conv7_2_mbox_conf
I0323 21:20:41.759699 22279 net.cpp:150] Setting up conv7_2_mbox_conf
I0323 21:20:41.759706 22279 net.cpp:157] Top shape: 2 12 5 5 (600)
I0323 21:20:41.759708 22279 net.cpp:165] Memory required for data: 495739520
I0323 21:20:41.759716 22279 layer_factory.hpp:77] Creating layer conv7_2_mbox_conf_perm
I0323 21:20:41.759722 22279 net.cpp:100] Creating Layer conv7_2_mbox_conf_perm
I0323 21:20:41.759727 22279 net.cpp:434] conv7_2_mbox_conf_perm <- conv7_2_mbox_conf
I0323 21:20:41.759732 22279 net.cpp:408] conv7_2_mbox_conf_perm -> conv7_2_mbox_conf_perm
I0323 21:20:41.759807 22279 net.cpp:150] Setting up conv7_2_mbox_conf_perm
I0323 21:20:41.759814 22279 net.cpp:157] Top shape: 2 5 5 12 (600)
I0323 21:20:41.759815 22279 net.cpp:165] Memory required for data: 495741920
I0323 21:20:41.759819 22279 layer_factory.hpp:77] Creating layer conv7_2_mbox_conf_flat
I0323 21:20:41.759824 22279 net.cpp:100] Creating Layer conv7_2_mbox_conf_flat
I0323 21:20:41.759829 22279 net.cpp:434] conv7_2_mbox_conf_flat <- conv7_2_mbox_conf_perm
I0323 21:20:41.759835 22279 net.cpp:408] conv7_2_mbox_conf_flat -> conv7_2_mbox_conf_flat
I0323 21:20:41.759856 22279 net.cpp:150] Setting up conv7_2_mbox_conf_flat
I0323 21:20:41.759861 22279 net.cpp:157] Top shape: 2 300 (600)
I0323 21:20:41.759865 22279 net.cpp:165] Memory required for data: 495744320
I0323 21:20:41.759868 22279 layer_factory.hpp:77] Creating layer conv7_2_mbox_priorbox
I0323 21:20:41.759874 22279 net.cpp:100] Creating Layer conv7_2_mbox_priorbox
I0323 21:20:41.759888 22279 net.cpp:434] conv7_2_mbox_priorbox <- conv7_2_conv7_2_relu_0_split_3
I0323 21:20:41.759894 22279 net.cpp:434] conv7_2_mbox_priorbox <- data_data_0_split_4
I0323 21:20:41.759902 22279 net.cpp:408] conv7_2_mbox_priorbox -> conv7_2_mbox_priorbox
I0323 21:20:41.759924 22279 net.cpp:150] Setting up conv7_2_mbox_priorbox
I0323 21:20:41.759929 22279 net.cpp:157] Top shape: 1 2 600 (1200)
I0323 21:20:41.759933 22279 net.cpp:165] Memory required for data: 495749120
I0323 21:20:41.759937 22279 layer_factory.hpp:77] Creating layer conv8_2_mbox_loc
I0323 21:20:41.759944 22279 net.cpp:100] Creating Layer conv8_2_mbox_loc
I0323 21:20:41.759948 22279 net.cpp:434] conv8_2_mbox_loc <- conv8_2_conv8_2_relu_0_split_1
I0323 21:20:41.759955 22279 net.cpp:408] conv8_2_mbox_loc -> conv8_2_mbox_loc
I0323 21:20:41.760290 22279 net.cpp:150] Setting up conv8_2_mbox_loc
I0323 21:20:41.760296 22279 net.cpp:157] Top shape: 2 16 3 3 (288)
I0323 21:20:41.760299 22279 net.cpp:165] Memory required for data: 495750272
I0323 21:20:41.760311 22279 layer_factory.hpp:77] Creating layer conv8_2_mbox_loc_perm
I0323 21:20:41.760318 22279 net.cpp:100] Creating Layer conv8_2_mbox_loc_perm
I0323 21:20:41.760324 22279 net.cpp:434] conv8_2_mbox_loc_perm <- conv8_2_mbox_loc
I0323 21:20:41.760329 22279 net.cpp:408] conv8_2_mbox_loc_perm -> conv8_2_mbox_loc_perm
I0323 21:20:41.760407 22279 net.cpp:150] Setting up conv8_2_mbox_loc_perm
I0323 21:20:41.760412 22279 net.cpp:157] Top shape: 2 3 3 16 (288)
I0323 21:20:41.760416 22279 net.cpp:165] Memory required for data: 495751424
I0323 21:20:41.760418 22279 layer_factory.hpp:77] Creating layer conv8_2_mbox_loc_flat
I0323 21:20:41.760424 22279 net.cpp:100] Creating Layer conv8_2_mbox_loc_flat
I0323 21:20:41.760429 22279 net.cpp:434] conv8_2_mbox_loc_flat <- conv8_2_mbox_loc_perm
I0323 21:20:41.760443 22279 net.cpp:408] conv8_2_mbox_loc_flat -> conv8_2_mbox_loc_flat
I0323 21:20:41.760465 22279 net.cpp:150] Setting up conv8_2_mbox_loc_flat
I0323 21:20:41.760471 22279 net.cpp:157] Top shape: 2 144 (288)
I0323 21:20:41.760474 22279 net.cpp:165] Memory required for data: 495752576
I0323 21:20:41.760478 22279 layer_factory.hpp:77] Creating layer conv8_2_mbox_conf
I0323 21:20:41.760485 22279 net.cpp:100] Creating Layer conv8_2_mbox_conf
I0323 21:20:41.760490 22279 net.cpp:434] conv8_2_mbox_conf <- conv8_2_conv8_2_relu_0_split_2
I0323 21:20:41.760498 22279 net.cpp:408] conv8_2_mbox_conf -> conv8_2_mbox_conf
I0323 21:20:41.760751 22279 net.cpp:150] Setting up conv8_2_mbox_conf
I0323 21:20:41.760757 22279 net.cpp:157] Top shape: 2 8 3 3 (144)
I0323 21:20:41.760761 22279 net.cpp:165] Memory required for data: 495753152
I0323 21:20:41.760767 22279 layer_factory.hpp:77] Creating layer conv8_2_mbox_conf_perm
I0323 21:20:41.760774 22279 net.cpp:100] Creating Layer conv8_2_mbox_conf_perm
I0323 21:20:41.760778 22279 net.cpp:434] conv8_2_mbox_conf_perm <- conv8_2_mbox_conf
I0323 21:20:41.760785 22279 net.cpp:408] conv8_2_mbox_conf_perm -> conv8_2_mbox_conf_perm
I0323 21:20:41.760859 22279 net.cpp:150] Setting up conv8_2_mbox_conf_perm
I0323 21:20:41.760864 22279 net.cpp:157] Top shape: 2 3 3 8 (144)
I0323 21:20:41.760867 22279 net.cpp:165] Memory required for data: 495753728
I0323 21:20:41.760871 22279 layer_factory.hpp:77] Creating layer conv8_2_mbox_conf_flat
I0323 21:20:41.760876 22279 net.cpp:100] Creating Layer conv8_2_mbox_conf_flat
I0323 21:20:41.760881 22279 net.cpp:434] conv8_2_mbox_conf_flat <- conv8_2_mbox_conf_perm
I0323 21:20:41.760886 22279 net.cpp:408] conv8_2_mbox_conf_flat -> conv8_2_mbox_conf_flat
I0323 21:20:41.760910 22279 net.cpp:150] Setting up conv8_2_mbox_conf_flat
I0323 21:20:41.760915 22279 net.cpp:157] Top shape: 2 72 (144)
I0323 21:20:41.760916 22279 net.cpp:165] Memory required for data: 495754304
I0323 21:20:41.760920 22279 layer_factory.hpp:77] Creating layer conv8_2_mbox_priorbox
I0323 21:20:41.760927 22279 net.cpp:100] Creating Layer conv8_2_mbox_priorbox
I0323 21:20:41.760931 22279 net.cpp:434] conv8_2_mbox_priorbox <- conv8_2_conv8_2_relu_0_split_3
I0323 21:20:41.760936 22279 net.cpp:434] conv8_2_mbox_priorbox <- data_data_0_split_5
I0323 21:20:41.760943 22279 net.cpp:408] conv8_2_mbox_priorbox -> conv8_2_mbox_priorbox
I0323 21:20:41.760967 22279 net.cpp:150] Setting up conv8_2_mbox_priorbox
I0323 21:20:41.760972 22279 net.cpp:157] Top shape: 1 2 144 (288)
I0323 21:20:41.760975 22279 net.cpp:165] Memory required for data: 495755456
I0323 21:20:41.760978 22279 layer_factory.hpp:77] Creating layer conv9_2_mbox_loc
I0323 21:20:41.760987 22279 net.cpp:100] Creating Layer conv9_2_mbox_loc
I0323 21:20:41.760992 22279 net.cpp:434] conv9_2_mbox_loc <- conv9_2_conv9_2_relu_0_split_0
I0323 21:20:41.760998 22279 net.cpp:408] conv9_2_mbox_loc -> conv9_2_mbox_loc
I0323 21:20:41.761329 22279 net.cpp:150] Setting up conv9_2_mbox_loc
I0323 21:20:41.761337 22279 net.cpp:157] Top shape: 2 16 1 1 (32)
I0323 21:20:41.761338 22279 net.cpp:165] Memory required for data: 495755584
I0323 21:20:41.761344 22279 layer_factory.hpp:77] Creating layer conv9_2_mbox_loc_perm
I0323 21:20:41.761353 22279 net.cpp:100] Creating Layer conv9_2_mbox_loc_perm
I0323 21:20:41.761358 22279 net.cpp:434] conv9_2_mbox_loc_perm <- conv9_2_mbox_loc
I0323 21:20:41.761363 22279 net.cpp:408] conv9_2_mbox_loc_perm -> conv9_2_mbox_loc_perm
I0323 21:20:41.761435 22279 net.cpp:150] Setting up conv9_2_mbox_loc_perm
I0323 21:20:41.761441 22279 net.cpp:157] Top shape: 2 1 1 16 (32)
I0323 21:20:41.761445 22279 net.cpp:165] Memory required for data: 495755712
I0323 21:20:41.761448 22279 layer_factory.hpp:77] Creating layer conv9_2_mbox_loc_flat
I0323 21:20:41.761453 22279 net.cpp:100] Creating Layer conv9_2_mbox_loc_flat
I0323 21:20:41.761457 22279 net.cpp:434] conv9_2_mbox_loc_flat <- conv9_2_mbox_loc_perm
I0323 21:20:41.761464 22279 net.cpp:408] conv9_2_mbox_loc_flat -> conv9_2_mbox_loc_flat
I0323 21:20:41.761492 22279 net.cpp:150] Setting up conv9_2_mbox_loc_flat
I0323 21:20:41.761498 22279 net.cpp:157] Top shape: 2 16 (32)
I0323 21:20:41.761502 22279 net.cpp:165] Memory required for data: 495755840
I0323 21:20:41.761505 22279 layer_factory.hpp:77] Creating layer conv9_2_mbox_conf
I0323 21:20:41.761513 22279 net.cpp:100] Creating Layer conv9_2_mbox_conf
I0323 21:20:41.761518 22279 net.cpp:434] conv9_2_mbox_conf <- conv9_2_conv9_2_relu_0_split_1
I0323 21:20:41.761525 22279 net.cpp:408] conv9_2_mbox_conf -> conv9_2_mbox_conf
I0323 21:20:41.761777 22279 net.cpp:150] Setting up conv9_2_mbox_conf
I0323 21:20:41.761785 22279 net.cpp:157] Top shape: 2 8 1 1 (16)
I0323 21:20:41.761786 22279 net.cpp:165] Memory required for data: 495755904
I0323 21:20:41.761792 22279 layer_factory.hpp:77] Creating layer conv9_2_mbox_conf_perm
I0323 21:20:41.761800 22279 net.cpp:100] Creating Layer conv9_2_mbox_conf_perm
I0323 21:20:41.761803 22279 net.cpp:434] conv9_2_mbox_conf_perm <- conv9_2_mbox_conf
I0323 21:20:41.761809 22279 net.cpp:408] conv9_2_mbox_conf_perm -> conv9_2_mbox_conf_perm
I0323 21:20:41.761883 22279 net.cpp:150] Setting up conv9_2_mbox_conf_perm
I0323 21:20:41.761889 22279 net.cpp:157] Top shape: 2 1 1 8 (16)
I0323 21:20:41.761891 22279 net.cpp:165] Memory required for data: 495755968
I0323 21:20:41.761894 22279 layer_factory.hpp:77] Creating layer conv9_2_mbox_conf_flat
I0323 21:20:41.761900 22279 net.cpp:100] Creating Layer conv9_2_mbox_conf_flat
I0323 21:20:41.761905 22279 net.cpp:434] conv9_2_mbox_conf_flat <- conv9_2_mbox_conf_perm
I0323 21:20:41.761910 22279 net.cpp:408] conv9_2_mbox_conf_flat -> conv9_2_mbox_conf_flat
I0323 21:20:41.761932 22279 net.cpp:150] Setting up conv9_2_mbox_conf_flat
I0323 21:20:41.761937 22279 net.cpp:157] Top shape: 2 8 (16)
I0323 21:20:41.761940 22279 net.cpp:165] Memory required for data: 495756032
I0323 21:20:41.761945 22279 layer_factory.hpp:77] Creating layer conv9_2_mbox_priorbox
I0323 21:20:41.761950 22279 net.cpp:100] Creating Layer conv9_2_mbox_priorbox
I0323 21:20:41.761955 22279 net.cpp:434] conv9_2_mbox_priorbox <- conv9_2_conv9_2_relu_0_split_2
I0323 21:20:41.761960 22279 net.cpp:434] conv9_2_mbox_priorbox <- data_data_0_split_6
I0323 21:20:41.761966 22279 net.cpp:408] conv9_2_mbox_priorbox -> conv9_2_mbox_priorbox
I0323 21:20:41.761989 22279 net.cpp:150] Setting up conv9_2_mbox_priorbox
I0323 21:20:41.761996 22279 net.cpp:157] Top shape: 1 2 16 (32)
I0323 21:20:41.761998 22279 net.cpp:165] Memory required for data: 495756160
I0323 21:20:41.762001 22279 layer_factory.hpp:77] Creating layer mbox_loc
I0323 21:20:41.762009 22279 net.cpp:100] Creating Layer mbox_loc
I0323 21:20:41.762013 22279 net.cpp:434] mbox_loc <- conv4_3_norm_mbox_loc_flat
I0323 21:20:41.762018 22279 net.cpp:434] mbox_loc <- fc7_mbox_loc_flat
I0323 21:20:41.762024 22279 net.cpp:434] mbox_loc <- conv6_2_mbox_loc_flat
I0323 21:20:41.762028 22279 net.cpp:434] mbox_loc <- conv7_2_mbox_loc_flat
I0323 21:20:41.762032 22279 net.cpp:434] mbox_loc <- conv8_2_mbox_loc_flat
I0323 21:20:41.762037 22279 net.cpp:434] mbox_loc <- conv9_2_mbox_loc_flat
I0323 21:20:41.762043 22279 net.cpp:408] mbox_loc -> mbox_loc
I0323 21:20:41.762068 22279 net.cpp:150] Setting up mbox_loc
I0323 21:20:41.762073 22279 net.cpp:157] Top shape: 2 34928 (69856)
I0323 21:20:41.762075 22279 net.cpp:165] Memory required for data: 496035584
I0323 21:20:41.762079 22279 layer_factory.hpp:77] Creating layer mbox_conf
I0323 21:20:41.762085 22279 net.cpp:100] Creating Layer mbox_conf
I0323 21:20:41.762089 22279 net.cpp:434] mbox_conf <- conv4_3_norm_mbox_conf_flat
I0323 21:20:41.762095 22279 net.cpp:434] mbox_conf <- fc7_mbox_conf_flat
I0323 21:20:41.762100 22279 net.cpp:434] mbox_conf <- conv6_2_mbox_conf_flat
I0323 21:20:41.762104 22279 net.cpp:434] mbox_conf <- conv7_2_mbox_conf_flat
I0323 21:20:41.762109 22279 net.cpp:434] mbox_conf <- conv8_2_mbox_conf_flat
I0323 21:20:41.762115 22279 net.cpp:434] mbox_conf <- conv9_2_mbox_conf_flat
I0323 21:20:41.762121 22279 net.cpp:408] mbox_conf -> mbox_conf
I0323 21:20:41.762145 22279 net.cpp:150] Setting up mbox_conf
I0323 21:20:41.762156 22279 net.cpp:157] Top shape: 2 17464 (34928)
I0323 21:20:41.762161 22279 net.cpp:165] Memory required for data: 496175296
I0323 21:20:41.762163 22279 layer_factory.hpp:77] Creating layer mbox_priorbox
I0323 21:20:41.762169 22279 net.cpp:100] Creating Layer mbox_priorbox
I0323 21:20:41.762174 22279 net.cpp:434] mbox_priorbox <- conv4_3_norm_mbox_priorbox
I0323 21:20:41.762181 22279 net.cpp:434] mbox_priorbox <- fc7_mbox_priorbox
I0323 21:20:41.762184 22279 net.cpp:434] mbox_priorbox <- conv6_2_mbox_priorbox
I0323 21:20:41.762188 22279 net.cpp:434] mbox_priorbox <- conv7_2_mbox_priorbox
I0323 21:20:41.762193 22279 net.cpp:434] mbox_priorbox <- conv8_2_mbox_priorbox
I0323 21:20:41.762198 22279 net.cpp:434] mbox_priorbox <- conv9_2_mbox_priorbox
I0323 21:20:41.762203 22279 net.cpp:408] mbox_priorbox -> mbox_priorbox
I0323 21:20:41.762226 22279 net.cpp:150] Setting up mbox_priorbox
I0323 21:20:41.762231 22279 net.cpp:157] Top shape: 1 2 34928 (69856)
I0323 21:20:41.762235 22279 net.cpp:165] Memory required for data: 496454720
I0323 21:20:41.762238 22279 layer_factory.hpp:77] Creating layer mbox_conf_reshape
I0323 21:20:41.762246 22279 net.cpp:100] Creating Layer mbox_conf_reshape
I0323 21:20:41.762250 22279 net.cpp:434] mbox_conf_reshape <- mbox_conf
I0323 21:20:41.762256 22279 net.cpp:408] mbox_conf_reshape -> mbox_conf_reshape
I0323 21:20:41.762285 22279 net.cpp:150] Setting up mbox_conf_reshape
I0323 21:20:41.762291 22279 net.cpp:157] Top shape: 2 8732 2 (34928)
I0323 21:20:41.762295 22279 net.cpp:165] Memory required for data: 496594432
I0323 21:20:41.762298 22279 layer_factory.hpp:77] Creating layer mbox_conf_softmax
I0323 21:20:41.762305 22279 net.cpp:100] Creating Layer mbox_conf_softmax
I0323 21:20:41.762310 22279 net.cpp:434] mbox_conf_softmax <- mbox_conf_reshape
I0323 21:20:41.762315 22279 net.cpp:408] mbox_conf_softmax -> mbox_conf_softmax
I0323 21:20:41.762367 22279 net.cpp:150] Setting up mbox_conf_softmax
I0323 21:20:41.762372 22279 net.cpp:157] Top shape: 2 8732 2 (34928)
I0323 21:20:41.762375 22279 net.cpp:165] Memory required for data: 496734144
I0323 21:20:41.762378 22279 layer_factory.hpp:77] Creating layer mbox_conf_flatten
I0323 21:20:41.762384 22279 net.cpp:100] Creating Layer mbox_conf_flatten
I0323 21:20:41.762389 22279 net.cpp:434] mbox_conf_flatten <- mbox_conf_softmax
I0323 21:20:41.762394 22279 net.cpp:408] mbox_conf_flatten -> mbox_conf_flatten
I0323 21:20:41.762416 22279 net.cpp:150] Setting up mbox_conf_flatten
I0323 21:20:41.762421 22279 net.cpp:157] Top shape: 2 17464 (34928)
I0323 21:20:41.762424 22279 net.cpp:165] Memory required for data: 496873856
I0323 21:20:41.762428 22279 layer_factory.hpp:77] Creating layer detection_out
I0323 21:20:41.762445 22279 net.cpp:100] Creating Layer detection_out
I0323 21:20:41.762449 22279 net.cpp:434] detection_out <- mbox_loc
I0323 21:20:41.762454 22279 net.cpp:434] detection_out <- mbox_conf_flatten
I0323 21:20:41.762459 22279 net.cpp:434] detection_out <- mbox_priorbox
I0323 21:20:41.762466 22279 net.cpp:408] detection_out -> detection_out
I0323 21:20:41.774706 22279 net.cpp:150] Setting up detection_out
I0323 21:20:41.774724 22279 net.cpp:157] Top shape: 1 1 1 7 (7)
I0323 21:20:41.774726 22279 net.cpp:165] Memory required for data: 496873884
I0323 21:20:41.774730 22279 layer_factory.hpp:77] Creating layer detection_eval
I0323 21:20:41.774742 22279 net.cpp:100] Creating Layer detection_eval
I0323 21:20:41.774749 22279 net.cpp:434] detection_eval <- detection_out
I0323 21:20:41.774756 22279 net.cpp:434] detection_eval <- label
I0323 21:20:41.774765 22279 net.cpp:408] detection_eval -> detection_eval
I0323 21:20:41.775027 22279 net.cpp:150] Setting up detection_eval
I0323 21:20:41.775034 22279 net.cpp:157] Top shape: 1 1 2 5 (10)
I0323 21:20:41.775038 22279 net.cpp:165] Memory required for data: 496873924
I0323 21:20:41.775040 22279 net.cpp:228] detection_eval does not need backward computation.
I0323 21:20:41.775045 22279 net.cpp:228] detection_out does not need backward computation.
I0323 21:20:41.775049 22279 net.cpp:228] mbox_conf_flatten does not need backward computation.
I0323 21:20:41.775064 22279 net.cpp:228] mbox_conf_softmax does not need backward computation.
…
