…
      sampler {
        min_scale: 0.3
        max_scale: 1
        min_aspect_ratio: 0.5
        max_aspect_ratio: 2
      }
      sample_constraint {
        min_jaccard_overlap: 0.9
      }
      max_sample: 1
      max_trials: 50
    }
    batch_sampler {
      sampler {
        min_scale: 0.3
        max_scale: 1
        min_aspect_ratio: 0.5
        max_aspect_ratio: 2
      }
      sample_constraint {
        max_jaccard_overlap: 1
      }
      max_sample: 1
      max_trials: 50
    }
    label_map_file: "data/ascend/labelmap.prototxt"
  }
}
layer {
  name: "conv1_1"
  type: "Convolution"
  bottom: "data"
  top: "conv1_1"
  param {
    lr_mult: 1
    decay_mult: 1
  }
  param {
    lr_mult: 2
    decay_mult: 0
  }
  convolution_param {
    num_output: 64
    pad: 1
    kernel_size: 3
    weight_filler {
      type: "xavier"
    }
    bias_filler {
      type: "constant"
      value: 0
    }
  }
}
layer {
  name: "relu1_1"
  type: "ReLU"
  bottom: "conv1_1"
  top: "conv1_1"
}
layer {
  name: "conv1_2"
  type: "Convolution"
  bottom: "conv1_1"
  top: "conv1_2"
  param {
    lr_mult: 1
    decay_mult: 1
  }
  param {
    lr_mult: 2
    decay_mult: 0
  }
  convolution_param {
    num_output: 64
    pad: 1
    kernel_size: 3
    weight_filler {
      type: "xavier"
    }
    bias_filler {
      type: "constant"
      value: 0
    }
  }
}
layer {
  name: "relu1_2"
  type: "ReLU"
  bottom: "conv1_2"
  top: "conv1_2"
}
layer {
  name: "pool1"
  type: "Pooling"
  bottom: "conv1_2"
  top: "pool1"
  pooling_param {
    pool: MAX
    kernel_size: 2
    stride: 2
  }
}
layer {
  name: "conv2_1"
  type: "Convolution"
  bottom: "pool1"
  top: "conv2_1"
  param {
    lr_mult: 1
    decay_mult: 1
  }
  param {
    lr_mult: 2
    decay_mult: 0
  }
  convolution_param {
    num_output: 128
    pad: 1
    kernel_size: 3
    weight_filler {
      type: "xavier"
    }
    bias_filler {
      type: "constant"
      value: 0
    }
  }
}
layer {
  name: "relu2_1"
  type: "ReLU"
  bottom: "conv2_1"
  top: "conv2_1"
}
layer {
  name: "conv2_2"
  type: "Convolution"
  bottom: "conv2_1"
  top: "conv2_2"
  param {
    lr_mult: 1
    decay_mult: 1
  }
  param {
    lr_mult: 2
    decay_mult: 0
  }
  convolution_param {
    num_output: 128
    pad: 1
    kernel_size: 3
    weight_filler {
      type: "xavier"
    }
    bias_filler {
      type: "constant"
      value: 0
    }
  }
}
layer {
  name: "relu2_2"
  type: "ReLU"
  bottom: "conv2_2"
  top: "conv2_2"
}
layer {
  name: "pool2"
  type: "Pooling"
  bottom: "conv2_2"
  top: "pool2"
  pooling_param {
    pool: MAX
    kernel_size: 2
    stride: 2
  }
}
layer {
  name: "conv3_1"
  type: "Convolution"
  bottom: "pool2"
  top: "conv3_1"
  param {
    lr_mult: 1
    decay_mult: 1
  }
  param {
    lr_mult: 2
    decay_mult: 0
  }
  convolution_param {
    num_output: 256
    pad: 1
    kernel_size: 3
    weight_filler {
      type: "xavier"
    }
    bias_filler {
      type: "constant"
      value: 0
    }
  }
}
layer {
  name: "relu3_1"
  type: "ReLU"
  bottom: "conv3_1"
  top: "conv3_1"
}
layer {
  name: "conv3_2"
  type: "Convolution"
  bottom: "conv3_1"
  top: "conv3_2"
  param {
    lr_mult: 1
    decay_mult: 1
  }
  param {
    lr_mult: 2
    decay_mult: 0
  }
  convolution_param {
    num_output: 256
    pad: 1
    kernel_size: 3
    weight_filler {
      type: "xavier"
    }
    bias_filler {
      type: "constant"
      value: 0
    }
  }
}
layer {
  name: "relu3_2"
  type: "ReLU"
  bottom: "conv3_2"
  top: "conv3_2"
}
layer {
  name: "conv3_3"
  type: "Convolution"
  bottom: "conv3_2"
  top: "conv3_3"
  param {
    lr_mult: 1
    decay_mult: 1
  }
  param {
    lr_mult: 2
    decay_mult: 0
  }
  convolution_param {
    num_output: 256
    pad: 1
    kernel_size: 3
    weight_filler {
      type: "xavier"
    }
    bias_filler {
      type: "constant"
      value: 0
    }
  }
}
layer {
  name: "relu3_3"
  type: "ReLU"
  bottom: "conv3_3"
  top: "conv3_3"
}
layer {
  name: "pool3"
  type: "Pooling"
  bottom: "conv3_3"
  top: "pool3"
  pooling_param {
    pool: MAX
    kernel_size: 2
    stride: 2
  }
}
layer {
  name: "conv4_1"
  type: "Convolution"
  bottom: "pool3"
  top: "conv4_1"
  param {
    lr_mult: 1
    decay_mult: 1
  }
  param {
    lr_mult: 2
    decay_mult: 0
  }
  convolution_param {
    num_output: 512
    pad: 1
    kernel_size: 3
    weight_filler {
      type: "xavier"
    }
    bias_filler {
      type: "constant"
      value: 0
    }
  }
}
layer {
  name: "relu4_1"
  type: "ReLU"
  bottom: "conv4_1"
  top: "conv4_1"
}
layer {
  name: "conv4_2"
  type: "Convolution"
  bottom: "conv4_1"
  top: "conv4_2"
  param {
    lr_mult: 1
    decay_mult: 1
  }
  param {
    lr_mult: 2
    decay_mult: 0
  }
  convolution_param {
    num_output: 512
    pad: 1
    kernel_size: 3
    weight_filler {
      type: "xavier"
    }
    bias_filler {
      type: "constant"
      value: 0
    }
  }
}
layer {
  name: "relu4_2"
  type: "ReLU"
  bottom: "conv4_2"
  top: "conv4_2"
}
layer {
  name: "conv4_3"
  type: "Convolution"
  bottom: "conv4_2"
  top: "conv4_3"
  param {
    lr_mult: 1
    decay_mult: 1
  }
  param {
    lr_mult: 2
    decay_mult: 0
  }
  convolution_param {
    num_output: 512
    pad: 1
    kernel_size: 3
    weight_filler {
      type: "xavier"
    }
    bias_filler {
      type: "constant"
      value: 0
    }
  }
}
layer {
  name: "relu4_3"
  type: "ReLU"
  bottom: "conv4_3"
  top: "conv4_3"
}
layer {
  name: "pool4"
  type: "Pooling"
  bottom: "conv4_3"
  top: "pool4"
  pooling_param {
    pool: MAX
    kernel_size: 2
    stride: 2
  }
}
layer {
  name: "conv5_1"
  type: "Convolution"
  bottom: "pool4"
  top: "conv5_1"
  param {
    lr_mult: 1
    decay_mult: 1
  }
  param {
    lr_mult: 2
    decay_mult: 0
  }
  convolution_param {
    num_output: 512
    pad: 1
    kernel_size: 3
    weight_filler {
      type: "xavier"
    }
    bias_filler {
      type: "constant"
      value: 0
    }
    dilation: 1
  }
}
layer {
  name: "relu5_1"
  type: "ReLU"
  bottom: "conv5_1"
  top: "conv5_1"
}
layer {
  name: "conv5_2"
  type: "Convolution"
  bottom: "conv5_1"
  top: "conv5_2"
  param {
    lr_mult: 1
    decay_mult: 1
  }
  param {
    lr_mult: 2
    decay_mult: 0
  }
  convolution_param {
    num_output: 512
    pad: 1
    kernel_size: 3
    weight_filler {
      type: "xavier"
    }
    bias_filler {
      type: "constant"
      value: 0
    }
    dilation: 1
  }
}
layer {
  name: "relu5_2"
  type: "ReLU"
  bottom: "conv5_2"
  top: "conv5_2"
}
layer {
  name: "conv5_3"
  type: "Convolution"
  bottom: "conv5_2"
  top: "conv5_3"
  param {
    lr_mult: 1
    decay_mult: 1
  }
  param {
    lr_mult: 2
    decay_mult: 0
  }
  convolution_param {
    num_output: 512
    pad: 1
    kernel_size: 3
    weight_filler {
      type: "xavier"
    }
    bias_filler {
      type: "constant"
      value: 0
    }
    dilation: 1
  }
}
layer {
  name: "relu5_3"
  type: "ReLU"
  bottom: "conv5_3"
  top: "conv5_3"
}
layer {
  name: "pool5"
  type: "Pooling"
  bottom: "conv5_3"
  top: "pool5"
  pooling_param {
    pool: MAX
    kernel_size: 3
    stride: 1
    pad: 1
  }
}
layer {
  name: "fc6"
  type: "Convolution"
  bottom: "pool5"
  top: "fc6"
  param {
    lr_mult: 1
    decay_mult: 1
  }
  param {
    lr_mult: 2
    decay_mult: 0
  }
  convolution_param {
    num_output: 1024
    pad: 6
    kernel_size: 3
    weight_filler {
      type: "xavier"
    }
    bias_filler {
      type: "constant"
      value: 0
    }
    dilation: 6
  }
}
layer {
  name: "relu6"
  type: "ReLU"
  bottom: "fc6"
  top: "fc6"
}
layer {
  name: "fc7"
  type: "Convolution"
  bottom: "fc6"
  top: "fc7"
  param {
    lr_mult: 1
    decay_mult: 1
  }
  param {
    lr_mult: 2
    decay_mult: 0
  }
  convolution_param {
    num_output: 1024
    kernel_size: 1
    weight_filler {
      type: "xavier"
    }
    bias_filler {
      type: "constant"
      value: 0
    }
  }
}
layer {
  name: "relu7"
  type: "ReLU"
  bottom: "fc7"
  top: "fc7"
}
layer {
  name: "conv6_1"
  type: "Convolution"
  bottom: "fc7"
  top: "conv6_1"
  param {
    lr_mult: 1
    decay_mult: 1
  }
  param {
    lr_mult: 2
    decay_mult: 0
  }
  convolution_param {
    num_output: 256
    pad: 0
    kernel_size: 1
    stride: 1
    weight_filler {
      type: "xavier"
    }
    bias_filler {
      type: "constant"
      value: 0
    }
  }
}
layer {
  name: "conv6_1_relu"
  type: "ReLU"
  bottom: "conv6_1"
  top: "conv6_1"
}
layer {
  name: "conv6_2"
  type: "Convolution"
  bottom: "conv6_1"
  top: "conv6_2"
  param {
    lr_mult: 1
    decay_mult: 1
  }
  param {
    lr_mult: 2
    decay_mult: 0
  }
  convolution_param {
    num_output: 512
    pad: 1
    kernel_size: 3
    stride: 2
    weight_filler {
      type: "xavier"
    }
    bias_filler {
      type: "constant"
      value: 0
    }
  }
}
layer {
  name: "conv6_2_relu"
  type: "ReLU"
  bottom: "conv6_2"
  top: "conv6_2"
}
layer {
  name: "conv7_1"
  type: "Convolution"
  bottom: "conv6_2"
  top: "conv7_1"
  param {
    lr_mult: 1
    decay_mult: 1
  }
  param {
    lr_mult: 2
    decay_mult: 0
  }
  convolution_param {
    num_output: 128
    pad: 0
    kernel_size: 1
    stride: 1
    weight_filler {
      type: "xavier"
    }
    bias_filler {
      type: "constant"
      value: 0
    }
  }
}
layer {
  name: "conv7_1_relu"
  type: "ReLU"
  bottom: "conv7_1"
  top: "conv7_1"
}
layer {
  name: "conv7_2"
  type: "Convolution"
  bottom: "conv7_1"
  top: "conv7_2"
  param {
    lr_mult: 1
    decay_mult: 1
  }
  param {
    lr_mult: 2
    decay_mult: 0
  }
  convolution_param {
    num_output: 256
    pad: 1
    kernel_size: 3
    stride: 2
    weight_filler {
      type: "xavier"
    }
    bias_filler {
      type: "constant"
      value: 0
    }
  }
}
layer {
  name: "conv7_2_relu"
  type: "ReLU"
  bottom: "conv7_2"
  top: "conv7_2"
}
layer {
  name: "conv8_1"
  type: "Convolution"
  bottom: "conv7_2"
  top: "conv8_1"
  param {
    lr_mult: 1
    decay_mult: 1
  }
  param {
    lr_mult: 2
    decay_mult: 0
  }
  convolution_param {
    num_output: 128
    pad: 0
    kernel_size: 1
    stride: 1
    weight_filler {
      type: "xavier"
    }
    bias_filler {
      type: "constant"
      value: 0
    }
  }
}
layer {
  name: "conv8_1_relu"
  type: "ReLU"
  bottom: "conv8_1"
  top: "conv8_1"
}
layer {
  name: "conv8_2"
  type: "Convolution"
  bottom: "conv8_1"
  top: "conv8_2"
  param {
    lr_mult: 1
    decay_mult: 1
  }
  param {
    lr_mult: 2
    decay_mult: 0
  }
  convolution_param {
    num_output: 256
    pad: 0
    kernel_size: 3
    stride: 1
    weight_filler {
      type: "xavier"
    }
    bias_filler {
      type: "constant"
      value: 0
    }
  }
}
layer {
  name: "conv8_2_relu"
  type: "ReLU"
  bottom: "conv8_2"
  top: "conv8_2"
}
layer {
  name: "conv9_1"
  type: "Convolution"
  bottom: "conv8_2"
  top: "conv9_1"
  param {
    lr_mult: 1
    decay_mult: 1
  }
  param {
    lr_mult: 2
    decay_mult: 0
  }
  convolution_param {
    num_output: 128
    pad: 0
    kernel_size: 1
    stride: 1
    weight_filler {
      type: "xavier"
    }
    bias_filler {
      type: "constant"
      value: 0
    }
  }
}
layer {
  name: "conv9_1_relu"
  type: "ReLU"
  bottom: "conv9_1"
  top: "conv9_1"
}
layer {
  name: "conv9_2"
  type: "Convolution"
  bottom: "conv9_1"
  top: "conv9_2"
  param {
    lr_mult: 1
    decay_mult: 1
  }
  param {
    lr_mult: 2
    decay_mult: 0
  }
  convolution_param {
    num_output: 256
    pad: 0
    kernel_size: 3
    stride: 1
    weight_filler {
      type: "xavier"
    }
    bias_filler {
      type: "constant"
      value: 0
    }
  }
}
layer {
  name: "conv9_2_relu"
  type: "ReLU"
  bottom: "conv9_2"
  top: "conv9_2"
}
layer {
  name: "conv4_3_norm"
  type: "Normalize"
  bottom: "conv4_3"
  top: "conv4_3_norm"
  norm_param {
    across_spatial: false
    scale_filler {
      type: "constant"
      value: 20
    }
    channel_shared: false
  }
}
layer {
  name: "conv4_3_norm_mbox_loc"
  type: "Convolution"
  bottom: "conv4_3_norm"
  top: "conv4_3_norm_mbox_loc"
  param {
    lr_mult: 1
    decay_mult: 1
  }
  param {
    lr_mult: 2
    decay_mult: 0
  }
  convolution_param {
    num_output: 16
    pad: 1
    kernel_size: 3
    stride: 1
    weight_filler {
      type: "xavier"
    }
    bias_filler {
      type: "constant"
      value: 0
    }
  }
}
layer {
  name: "conv4_3_norm_mbox_loc_perm"
  type: "Permute"
  bottom: "conv4_3_norm_mbox_loc"
  top: "conv4_3_norm_mbox_loc_perm"
  permute_param {
    order: 0
    order: 2
    order: 3
    order: 1
  }
}
layer {
  name: "conv4_3_norm_mbox_loc_flat"
  type: "Flatten"
  bottom: "conv4_3_norm_mbox_loc_perm"
  top: "conv4_3_norm_mbox_loc_flat"
  flatten_param {
    axis: 1
  }
}
layer {
  name: "conv4_3_norm_mbox_conf"
  type: "Convolution"
  bottom: "conv4_3_norm"
  top: "conv4_3_norm_mbox_conf"
  param {
    lr_mult: 1
    decay_mult: 1
  }
  param {
    lr_mult: 2
    decay_mult: 0
  }
  convolution_param {
    num_output: 8
    pad: 1
    kernel_size: 3
    stride: 1
    weight_filler {
      type: "xavier"
    }
    bias_filler {
      type: "constant"
      value: 0
    }
  }
}
layer {
  name: "conv4_3_norm_mbox_conf_perm"
  type: "Permute"
  bottom: "conv4_3_norm_mbox_conf"
  top: "conv4_3_norm_mbox_conf_perm"
  permute_param {
    order: 0
    order: 2
    order: 3
    order: 1
  }
}
layer {
  name: "conv4_3_norm_mbox_conf_flat"
  type: "Flatten"
  bottom: "conv4_3_norm_mbox_conf_perm"
  top: "conv4_3_norm_mbox_conf_flat"
  flatten_param {
    axis: 1
  }
}
layer {
  name: "conv4_3_norm_mbox_priorbox"
  type: "PriorBox"
  bottom: "conv4_3_norm"
  bottom: "data"
  top: "conv4_3_norm_mbox_priorbox"
  prior_box_param {
    min_size: 30
    max_size: 60
    aspect_ratio: 2
    flip: true
    clip: false
    variance: 0.1
    variance: 0.1
    variance: 0.2
    variance: 0.2
    step: 8
    offset: 0.5
  }
}
layer {
  name: "fc7_mbox_loc"
  type: "Convolution"
  bottom: "fc7"
  top: "fc7_mbox_loc"
  param {
    lr_mult: 1
    decay_mult: 1
  }
  param {
    lr_mult: 2
    decay_mult: 0
  }
  convolution_param {
    num_output: 24
    pad: 1
    kernel_size: 3
    stride: 1
    weight_filler {
      type: "xavier"
    }
    bias_filler {
      type: "constant"
      value: 0
    }
  }
}
layer {
  name: "fc7_mbox_loc_perm"
  type: "Permute"
  bottom: "fc7_mbox_loc"
  top: "fc7_mbox_loc_perm"
  permute_param {
    order: 0
    order: 2
    order: 3
    order: 1
  }
}
layer {
  name: "fc7_mbox_loc_flat"
  type: "Flatten"
  bottom: "fc7_mbox_loc_perm"
  top: "fc7_mbox_loc_flat"
  flatten_param {
    axis: 1
  }
}
layer {
  name: "fc7_mbox_conf"
  type: "Convolution"
  bottom: "fc7"
  top: "fc7_mbox_conf"
  param {
    lr_mult: 1
    decay_mult: 1
  }
  param {
    lr_mult: 2
    decay_mult: 0
  }
  convolution_param {
    num_output: 12
    pad: 1
    kernel_size: 3
    stride: 1
    weight_filler {
      type: "xavier"
    }
    bias_filler {
      type: "constant"
      value: 0
    }
  }
}
layer {
  name: "fc7_mbox_conf_perm"
  type: "Permute"
  bottom: "fc7_mbox_conf"
  top: "fc7_mbox_conf_perm"
  permute_param {
    order: 0
    order: 2
    order: 3
    order: 1
  }
}
layer {
  name: "fc7_mbox_conf_flat"
  type: "Flatten"
  bottom: "fc7_mbox_conf_perm"
  top: "fc7_mbox_conf_flat"
  flatten_param {
    axis: 1
  }
}
layer {
  name: "fc7_mbox_priorbox"
  type: "PriorBox"
  bottom: "fc7"
  bottom: "data"
  top: "fc7_mbox_priorbox"
  prior_box_param {
    min_size: 60
    max_size: 111
    aspect_ratio: 2
    aspect_ratio: 3
    flip: true
    clip: false
    variance: 0.1
    variance: 0.1
    variance: 0.2
    variance: 0.2
    step: 16
    offset: 0.5
  }
}
layer {
  name: "conv6_2_mbox_loc"
  type: "Convolution"
  bottom: "conv6_2"
  top: "conv6_2_mbox_loc"
  param {
    lr_mult: 1
    decay_mult: 1
  }
  param {
    lr_mult: 2
    decay_mult: 0
  }
  convolution_param {
    num_output: 24
    pad: 1
    kernel_size: 3
    stride: 1
    weight_filler {
      type: "xavier"
    }
    bias_filler {
      type: "constant"
      value: 0
    }
  }
}
layer {
  name: "conv6_2_mbox_loc_perm"
  type: "Permute"
  bottom: "conv6_2_mbox_loc"
  top: "conv6_2_mbox_loc_perm"
  permute_param {
    order: 0
    order: 2
    order: 3
    order: 1
  }
}
layer {
  name: "conv6_2_mbox_loc_flat"
  type: "Flatten"
  bottom: "conv6_2_mbox_loc_perm"
  top: "conv6_2_mbox_loc_flat"
  flatten_param {
    axis: 1
  }
}
layer {
  name: "conv6_2_mbox_conf"
  type: "Convolution"
  bottom: "conv6_2"
  top: "conv6_2_mbox_conf"
  param {
    lr_mult: 1
    decay_mult: 1
  }
  param {
    lr_mult: 2
    decay_mult: 0
  }
  convolution_param {
    num_output: 12
    pad: 1
    kernel_size: 3
    stride: 1
    weight_filler {
      type: "xavier"
    }
    bias_filler {
      type: "constant"
      value: 0
    }
  }
}
layer {
  name: "conv6_2_mbox_conf_perm"
  type: "Permute"
  bottom: "conv6_2_mbox_conf"
  top: "conv6_2_mbox_conf_perm"
  permute_param {
    order: 0
    order: 2
    order: 3
    order: 1
  }
}
layer {
  name: "conv6_2_mbox_conf_flat"
  type: "Flatten"
  bottom: "conv6_2_mbox_conf_perm"
  top: "conv6_2_mbox_conf_flat"
  flatten_param {
    axis: 1
  }
}
layer {
  name: "conv6_2_mbox_priorbox"
  type: "PriorBox"
  bottom: "conv6_2"
  bottom: "data"
  top: "conv6_2_mbox_priorbox"
  prior_box_param {
    min_size: 111
    max_size: 162
    aspect_ratio: 2
    aspect_ratio: 3
    flip: true
    clip: false
    variance: 0.1
    variance: 0.1
    variance: 0.2
    variance: 0.2
    step: 32
    offset: 0.5
  }
}
layer {
  name: "conv7_2_mbox_loc"
  type: "Convolution"
  bottom: "conv7_2"
  top: "conv7_2_mbox_loc"
  param {
    lr_mult: 1
    decay_mult: 1
  }
  param {
    lr_mult: 2
    decay_mult: 0
  }
  convolution_param {
    num_output: 24
    pad: 1
    kernel_size: 3
    stride: 1
    weight_filler {
      type: "xavier"
    }
    bias_filler {
      type: "constant"
      value: 0
    }
  }
}
layer {
  name: "conv7_2_mbox_loc_perm"
  type: "Permute"
  bottom: "conv7_2_mbox_loc"
  top: "conv7_2_mbox_loc_perm"
  permute_param {
    order: 0
    order: 2
    order: 3
    order: 1
  }
}
layer {
  name: "conv7_2_mbox_loc_flat"
  type: "Flatten"
  bottom: "conv7_2_mbox_loc_perm"
  top: "conv7_2_mbox_loc_flat"
  flatten_param {
    axis: 1
  }
}
layer {
  name: "conv7_2_mbox_conf"
  type: "Convolution"
  bottom: "conv7_2"
  top: "conv7_2_mbox_conf"
  param {
    lr_mult: 1
    decay_mult: 1
  }
  param {
    lr_mult: 2
    decay_mult: 0
  }
  convolution_param {
    num_output: 12
    pad: 1
    kernel_size: 3
    stride: 1
    weight_filler {
      type: "xavier"
    }
    bias_filler {
      type: "constant"
      value: 0
    }
  }
}
layer {
  name: "conv7_2_mbox_conf_perm"
  type: "Permute"
  bottom: "conv7_2_mbox_conf"
  top: "conv7_2_mbox_conf_perm"
  permute_param {
    order: 0
    order: 2
    order: 3
    order: 1
  }
}
layer {
  name: "conv7_2_mbox_conf_flat"
  type: "Flatten"
  bottom: "conv7_2_mbox_conf_perm"
  top: "conv7_2_mbox_conf_flat"
  flatten_param {
    axis: 1
  }
}
layer {
  name: "conv7_2_mbox_priorbox"
  type: "PriorBox"
  bottom: "conv7_2"
  bottom: "data"
  top: "conv7_2_mbox_priorbox"
  prior_box_param {
    min_size: 162
    max_size: 213
    aspect_ratio: 2
    aspect_ratio: 3
    flip: true
    clip: false
    variance: 0.1
    variance: 0.1
    variance: 0.2
    variance: 0.2
    step: 64
    offset: 0.5
  }
}
layer {
  name: "conv8_2_mbox_loc"
  type: "Convolution"
  bottom: "conv8_2"
  top: "conv8_2_mbox_loc"
  param {
    lr_mult: 1
    decay_mult: 1
  }
  param {
    lr_mult: 2
    decay_mult: 0
  }
  convolution_param {
    num_output: 16
    pad: 1
    kernel_size: 3
    stride: 1
    weight_filler {
      type: "xavier"
    }
    bias_filler {
      type: "constant"
      value: 0
    }
  }
}
layer {
  name: "conv8_2_mbox_loc_perm"
  type: "Permute"
  bottom: "conv8_2_mbox_loc"
  top: "conv8_2_mbox_loc_perm"
  permute_param {
    order: 0
    order: 2
    order: 3
    order: 1
  }
}
layer {
  name: "conv8_2_mbox_loc_flat"
  type: "Flatten"
  bottom: "conv8_2_mbox_loc_perm"
  top: "conv8_2_mbox_loc_flat"
  flatten_param {
    axis: 1
  }
}
layer {
  name: "conv8_2_mbox_conf"
  type: "Convolution"
  bottom: "conv8_2"
  top: "conv8_2_mbox_conf"
  param {
    lr_mult: 1
    decay_mult: 1
  }
  param {
    lr_mult: 2
    decay_mult: 0
  }
  convolution_param {
    num_output: 8
    pad: 1
    kernel_size: 3
    stride: 1
    weight_filler {
      type: "xavier"
    }
    bias_filler {
      type: "constant"
      value: 0
    }
  }
}
layer {
  name: "conv8_2_mbox_conf_perm"
  type: "Permute"
  bottom: "conv8_2_mbox_conf"
  top: "conv8_2_mbox_conf_perm"
  permute_param {
    order: 0
    order: 2
    order: 3
    order: 1
  }
}
layer {
  name: "conv8_2_mbox_conf_flat"
  type: "Flatten"
  bottom: "conv8_2_mbox_conf_perm"
  top: "conv8_2_mbox_conf_flat"
  flatten_param {
    axis: 1
  }
}
layer {
  name: "conv8_2_mbox_priorbox"
  type: "PriorBox"
  bottom: "conv8_2"
  bottom: "data"
  top: "conv8_2_mbox_priorbox"
  prior_box_param {
    min_size: 213
    max_size: 264
    aspect_ratio: 2
    flip: true
    clip: false
    variance: 0.1
    variance: 0.1
    variance: 0.2
    variance: 0.2
    step: 100
    offset: 0.5
  }
}
layer {
  name: "conv9_2_mbox_loc"
  type: "Convolution"
  bottom: "conv9_2"
  top: "conv9_2_mbox_loc"
  param {
    lr_mult: 1
    decay_mult: 1
  }
  param {
    lr_mult: 2
    decay_mult: 0
  }
  convolution_param {
    num_output: 16
    pad: 1
    kernel_size: 3
    stride: 1
    weight_filler {
      type: "xavier"
    }
    bias_filler {
      type: "constant"
      value: 0
    }
  }
}
layer {
  name: "conv9_2_mbox_loc_perm"
  type: "Permute"
  bottom: "conv9_2_mbox_loc"
  top: "conv9_2_mbox_loc_perm"
  permute_param {
    order: 0
    order: 2
    order: 3
    order: 1
  }
}
layer {
  name: "conv9_2_mbox_loc_flat"
  type: "Flatten"
  bottom: "conv9_2_mbox_loc_perm"
  top: "conv9_2_mbox_loc_flat"
  flatten_param {
    axis: 1
  }
}
layer {
  name: "conv9_2_mbox_conf"
  type: "Convolution"
  bottom: "conv9_2"
  top: "conv9_2_mbox_conf"
  param {
    lr_mult: 1
    decay_mult: 1
  }
  param {
    lr_mult: 2
    decay_mult: 0
  }
  convolution_param {
    num_output: 8
    pad: 1
    kernel_size: 3
    stride: 1
    weight_filler {
      type: "xavier"
    }
    bias_filler {
      type: "constant"
      value: 0
    }
  }
}
layer {
  name: "conv9_2_mbox_conf_perm"
  type: "Permute"
  bottom: "conv9_2_mbox_conf"
  top: "conv9_2_mbox_conf_perm"
  permute_param {
    order: 0
    order: 2
    order: 3
    order: 1
  }
}
layer {
  name: "conv9_2_mbox_conf_flat"
  type: "Flatten"
  bottom: "conv9_2_mbox_conf_perm"
  top: "conv9_2_mbox_conf_flat"
  flatten_param {
    axis: 1
  }
}
layer {
  name: "conv9_2_mbox_priorbox"
  type: "PriorBox"
  bottom: "conv9_2"
  bottom: "data"
  top: "conv9_2_mbox_priorbox"
  prior_box_param {
    min_size: 264
    max_size: 315
    aspect_ratio: 2
    flip: true
    clip: false
    variance: 0.1
    variance: 0.1
    variance: 0.2
    variance: 0.2
    step: 300
    offset: 0.5
  }
}
layer {
  name: "mbox_loc"
  type: "Concat"
  bottom: "conv4_3_norm_mbox_loc_flat"
  bottom: "fc7_mbox_loc_flat"
  bottom: "conv6_2_mbox_loc_flat"
  bottom: "conv7_2_mbox_loc_flat"
  bottom: "conv8_2_mbox_loc_flat"
  bottom: "conv9_2_mbox_loc_flat"
  top: "mbox_loc"
  concat_param {
    axis: 1
  }
}
layer {
  name: "mbox_conf"
  type: "Concat"
  bottom: "conv4_3_norm_mbox_conf_flat"
  bottom: "fc7_mbox_conf_flat"
  bottom: "conv6_2_mbox_conf_flat"
  bottom: "conv7_2_mbox_conf_flat"
  bottom: "conv8_2_mbox_conf_flat"
  bottom: "conv9_2_mbox_conf_flat"
  top: "mbox_conf"
  concat_param {
    axis: 1
  }
}
layer {
  name: "mbox_priorbox"
  type: "Concat"
  bottom: "conv4_3_norm_mbox_priorbox"
  bottom: "fc7_mbox_priorbox"
  bottom: "conv6_2_mbox_priorbox"
  bottom: "conv7_2_mbox_priorbox"
  bottom: "conv8_2_mbox_priorbox"
  bottom: "conv9_2_mbox_priorbox"
  top: "mbox_priorbox"
  concat_param {
    axis: 2
  }
}
layer {
  name: "mbox_loss"
  type: "MultiBoxLoss"
  bottom: "mbox_loc"
  bottom: "mbox_conf"
  bottom: "mbox_priorbox"
  bottom: "label"
  top: "mbox_loss"
  include {
    phase: TRAIN
  }
  propagate_down: true
  propagate_down: true
  propagate_down: false
  propagate_down: false
  loss_param {
    normalization: VALID
  }
  multibox_loss_param {
    loc_loss_type: SMOOTH_L1
    conf_loss_type: SOFTMAX
    loc_weight: 1
    num_classes: 2
    share_location: true
    match_type: PER_PREDICTION
    overlap_threshold: 0.5
    use_prior_for_matching: true
    background_label_id: 0
    use_difficult_gt: true
    neg_pos_ratio: 3
    neg_overlap: 0.5
    code_type: CENTER_SIZE
    ignore_cross_boundary_bbox: false
    mining_type: MAX_NEGATIVE
  }
}
I0321 17:50:15.099031  9925 layer_factory.hpp:77] Creating layer data
I0321 17:50:15.099427  9925 net.cpp:100] Creating Layer data
I0321 17:50:15.099442  9925 net.cpp:408] data -> data
I0321 17:50:15.099469  9925 net.cpp:408] data -> label
I0321 17:50:15.100174  9944 db_lmdb.cpp:35] Opened lmdb /localdata/markustp/data/ascend/lmdb/ascend_trainval_lmdb
I0321 17:50:15.122428  9925 annotated_data_layer.cpp:62] output data size: 8,3,512,512
I0321 17:50:15.152248  9925 net.cpp:150] Setting up data
I0321 17:50:15.152269  9925 net.cpp:157] Top shape: 8 3 512 512 (6291456)
I0321 17:50:15.152273  9925 net.cpp:157] Top shape: 1 1 1 8 (8)
I0321 17:50:15.152276  9925 net.cpp:165] Memory required for data: 25165856
I0321 17:50:15.152302  9925 layer_factory.hpp:77] Creating layer data_data_0_split
I0321 17:50:15.152312  9925 net.cpp:100] Creating Layer data_data_0_split
I0321 17:50:15.152318  9925 net.cpp:434] data_data_0_split <- data
I0321 17:50:15.152328  9925 net.cpp:408] data_data_0_split -> data_data_0_split_0
I0321 17:50:15.152339  9925 net.cpp:408] data_data_0_split -> data_data_0_split_1
I0321 17:50:15.152344  9925 net.cpp:408] data_data_0_split -> data_data_0_split_2
I0321 17:50:15.152349  9925 net.cpp:408] data_data_0_split -> data_data_0_split_3
I0321 17:50:15.152354  9925 net.cpp:408] data_data_0_split -> data_data_0_split_4
I0321 17:50:15.152359  9925 net.cpp:408] data_data_0_split -> data_data_0_split_5
I0321 17:50:15.152362  9925 net.cpp:408] data_data_0_split -> data_data_0_split_6
I0321 17:50:15.152464  9925 net.cpp:150] Setting up data_data_0_split
I0321 17:50:15.152470  9925 net.cpp:157] Top shape: 8 3 512 512 (6291456)
I0321 17:50:15.152473  9925 net.cpp:157] Top shape: 8 3 512 512 (6291456)
I0321 17:50:15.152475  9925 net.cpp:157] Top shape: 8 3 512 512 (6291456)
I0321 17:50:15.152478  9925 net.cpp:157] Top shape: 8 3 512 512 (6291456)
I0321 17:50:15.152482  9925 net.cpp:157] Top shape: 8 3 512 512 (6291456)
I0321 17:50:15.152483  9925 net.cpp:157] Top shape: 8 3 512 512 (6291456)
I0321 17:50:15.152487  9925 net.cpp:157] Top shape: 8 3 512 512 (6291456)
I0321 17:50:15.152488  9925 net.cpp:165] Memory required for data: 201326624
I0321 17:50:15.152490  9925 layer_factory.hpp:77] Creating layer conv1_1
I0321 17:50:15.152504  9925 net.cpp:100] Creating Layer conv1_1
I0321 17:50:15.152508  9925 net.cpp:434] conv1_1 <- data_data_0_split_0
I0321 17:50:15.152513  9925 net.cpp:408] conv1_1 -> conv1_1
I0321 17:50:15.154036  9925 net.cpp:150] Setting up conv1_1
I0321 17:50:15.154045  9925 net.cpp:157] Top shape: 8 64 512 512 (134217728)
I0321 17:50:15.154047  9925 net.cpp:165] Memory required for data: 738197536
I0321 17:50:15.154059  9925 layer_factory.hpp:77] Creating layer relu1_1
I0321 17:50:15.154065  9925 net.cpp:100] Creating Layer relu1_1
I0321 17:50:15.154067  9925 net.cpp:434] relu1_1 <- conv1_1
I0321 17:50:15.154072  9925 net.cpp:395] relu1_1 -> conv1_1 (in-place)
I0321 17:50:15.154076  9925 net.cpp:150] Setting up relu1_1
I0321 17:50:15.154079  9925 net.cpp:157] Top shape: 8 64 512 512 (134217728)
I0321 17:50:15.154081  9925 net.cpp:165] Memory required for data: 1275068448
I0321 17:50:15.154083  9925 layer_factory.hpp:77] Creating layer conv1_2
I0321 17:50:15.154090  9925 net.cpp:100] Creating Layer conv1_2
I0321 17:50:15.154095  9925 net.cpp:434] conv1_2 <- conv1_1
I0321 17:50:15.154099  9925 net.cpp:408] conv1_2 -> conv1_2
I0321 17:50:15.155117  9925 net.cpp:150] Setting up conv1_2
I0321 17:50:15.155127  9925 net.cpp:157] Top shape: 8 64 512 512 (134217728)
I0321 17:50:15.155128  9925 net.cpp:165] Memory required for data: 1811939360
I0321 17:50:15.155134  9925 layer_factory.hpp:77] Creating layer relu1_2
I0321 17:50:15.155139  9925 net.cpp:100] Creating Layer relu1_2
I0321 17:50:15.155143  9925 net.cpp:434] relu1_2 <- conv1_2
I0321 17:50:15.155145  9925 net.cpp:395] relu1_2 -> conv1_2 (in-place)
I0321 17:50:15.155150  9925 net.cpp:150] Setting up relu1_2
I0321 17:50:15.155153  9925 net.cpp:157] Top shape: 8 64 512 512 (134217728)
I0321 17:50:15.155155  9925 net.cpp:165] Memory required for data: 2348810272
I0321 17:50:15.155158  9925 layer_factory.hpp:77] Creating layer pool1
I0321 17:50:15.155160  9925 net.cpp:100] Creating Layer pool1
I0321 17:50:15.155163  9925 net.cpp:434] pool1 <- conv1_2
I0321 17:50:15.155165  9925 net.cpp:408] pool1 -> pool1
I0321 17:50:15.155196  9925 net.cpp:150] Setting up pool1
I0321 17:50:15.155201  9925 net.cpp:157] Top shape: 8 64 256 256 (33554432)
I0321 17:50:15.155203  9925 net.cpp:165] Memory required for data: 2483028000
I0321 17:50:15.155206  9925 layer_factory.hpp:77] Creating layer conv2_1
I0321 17:50:15.155211  9925 net.cpp:100] Creating Layer conv2_1
I0321 17:50:15.155213  9925 net.cpp:434] conv2_1 <- pool1
I0321 17:50:15.155217  9925 net.cpp:408] conv2_1 -> conv2_1
I0321 17:50:15.156342  9925 net.cpp:150] Setting up conv2_1
I0321 17:50:15.156352  9925 net.cpp:157] Top shape: 8 128 256 256 (67108864)
I0321 17:50:15.156354  9925 net.cpp:165] Memory required for data: 2751463456
I0321 17:50:15.156360  9925 layer_factory.hpp:77] Creating layer relu2_1
I0321 17:50:15.156366  9925 net.cpp:100] Creating Layer relu2_1
I0321 17:50:15.156368  9925 net.cpp:434] relu2_1 <- conv2_1
I0321 17:50:15.156373  9925 net.cpp:395] relu2_1 -> conv2_1 (in-place)
I0321 17:50:15.156376  9925 net.cpp:150] Setting up relu2_1
I0321 17:50:15.156379  9925 net.cpp:157] Top shape: 8 128 256 256 (67108864)
I0321 17:50:15.156381  9925 net.cpp:165] Memory required for data: 3019898912
I0321 17:50:15.156383  9925 layer_factory.hpp:77] Creating layer conv2_2
I0321 17:50:15.156388  9925 net.cpp:100] Creating Layer conv2_2
I0321 17:50:15.156390  9925 net.cpp:434] conv2_2 <- conv2_1
I0321 17:50:15.156395  9925 net.cpp:408] conv2_2 -> conv2_2
I0321 17:50:15.157140  9925 net.cpp:150] Setting up conv2_2
I0321 17:50:15.157145  9925 net.cpp:157] Top shape: 8 128 256 256 (67108864)
I0321 17:50:15.157147  9925 net.cpp:165] Memory required for data: 3288334368
I0321 17:50:15.157151  9925 layer_factory.hpp:77] Creating layer relu2_2
I0321 17:50:15.157155  9925 net.cpp:100] Creating Layer relu2_2
I0321 17:50:15.157156  9925 net.cpp:434] relu2_2 <- conv2_2
I0321 17:50:15.157160  9925 net.cpp:395] relu2_2 -> conv2_2 (in-place)
I0321 17:50:15.157163  9925 net.cpp:150] Setting up relu2_2
I0321 17:50:15.157166  9925 net.cpp:157] Top shape: 8 128 256 256 (67108864)
I0321 17:50:15.157167  9925 net.cpp:165] Memory required for data: 3556769824
I0321 17:50:15.157169  9925 layer_factory.hpp:77] Creating layer pool2
I0321 17:50:15.157172  9925 net.cpp:100] Creating Layer pool2
I0321 17:50:15.157174  9925 net.cpp:434] pool2 <- conv2_2
I0321 17:50:15.157177  9925 net.cpp:408] pool2 -> pool2
I0321 17:50:15.157201  9925 net.cpp:150] Setting up pool2
I0321 17:50:15.157205  9925 net.cpp:157] Top shape: 8 128 128 128 (16777216)
I0321 17:50:15.157207  9925 net.cpp:165] Memory required for data: 3623878688
I0321 17:50:15.157208  9925 layer_factory.hpp:77] Creating layer conv3_1
I0321 17:50:15.157214  9925 net.cpp:100] Creating Layer conv3_1
I0321 17:50:15.157217  9925 net.cpp:434] conv3_1 <- pool2
I0321 17:50:15.157219  9925 net.cpp:408] conv3_1 -> conv3_1
I0321 17:50:15.159145  9925 net.cpp:150] Setting up conv3_1
I0321 17:50:15.159155  9925 net.cpp:157] Top shape: 8 256 128 128 (33554432)
I0321 17:50:15.159157  9925 net.cpp:165] Memory required for data: 3758096416
I0321 17:50:15.159163  9925 layer_factory.hpp:77] Creating layer relu3_1
I0321 17:50:15.159168  9925 net.cpp:100] Creating Layer relu3_1
I0321 17:50:15.159170  9925 net.cpp:434] relu3_1 <- conv3_1
I0321 17:50:15.159174  9925 net.cpp:395] relu3_1 -> conv3_1 (in-place)
I0321 17:50:15.159179  9925 net.cpp:150] Setting up relu3_1
I0321 17:50:15.159181  9925 net.cpp:157] Top shape: 8 256 128 128 (33554432)
I0321 17:50:15.159184  9925 net.cpp:165] Memory required for data: 3892314144
I0321 17:50:15.159185  9925 layer_factory.hpp:77] Creating layer conv3_2
I0321 17:50:15.159190  9925 net.cpp:100] Creating Layer conv3_2
I0321 17:50:15.159193  9925 net.cpp:434] conv3_2 <- conv3_1
I0321 17:50:15.159196  9925 net.cpp:408] conv3_2 -> conv3_2
I0321 17:50:15.162358  9925 net.cpp:150] Setting up conv3_2
I0321 17:50:15.162369  9925 net.cpp:157] Top shape: 8 256 128 128 (33554432)
I0321 17:50:15.162370  9925 net.cpp:165] Memory required for data: 4026531872
I0321 17:50:15.162375  9925 layer_factory.hpp:77] Creating layer relu3_2
I0321 17:50:15.162379  9925 net.cpp:100] Creating Layer relu3_2
I0321 17:50:15.162381  9925 net.cpp:434] relu3_2 <- conv3_2
I0321 17:50:15.162384  9925 net.cpp:395] relu3_2 -> conv3_2 (in-place)
I0321 17:50:15.162389  9925 net.cpp:150] Setting up relu3_2
I0321 17:50:15.162391  9925 net.cpp:157] Top shape: 8 256 128 128 (33554432)
I0321 17:50:15.162394  9925 net.cpp:165] Memory required for data: 4160749600
I0321 17:50:15.162395  9925 layer_factory.hpp:77] Creating layer conv3_3
I0321 17:50:15.162410  9925 net.cpp:100] Creating Layer conv3_3
I0321 17:50:15.162413  9925 net.cpp:434] conv3_3 <- conv3_2
I0321 17:50:15.162416  9925 net.cpp:408] conv3_3 -> conv3_3
I0321 17:50:15.165838  9925 net.cpp:150] Setting up conv3_3
I0321 17:50:15.165848  9925 net.cpp:157] Top shape: 8 256 128 128 (33554432)
I0321 17:50:15.165849  9925 net.cpp:165] Memory required for data: 4294967328
I0321 17:50:15.165854  9925 layer_factory.hpp:77] Creating layer relu3_3
I0321 17:50:15.165858  9925 net.cpp:100] Creating Layer relu3_3
I0321 17:50:15.165860  9925 net.cpp:434] relu3_3 <- conv3_3
I0321 17:50:15.165864  9925 net.cpp:395] relu3_3 -> conv3_3 (in-place)
I0321 17:50:15.165868  9925 net.cpp:150] Setting up relu3_3
I0321 17:50:15.165871  9925 net.cpp:157] Top shape: 8 256 128 128 (33554432)
I0321 17:50:15.165874  9925 net.cpp:165] Memory required for data: 4429185056
I0321 17:50:15.165875  9925 layer_factory.hpp:77] Creating layer pool3
I0321 17:50:15.165879  9925 net.cpp:100] Creating Layer pool3
I0321 17:50:15.165880  9925 net.cpp:434] pool3 <- conv3_3
I0321 17:50:15.165884  9925 net.cpp:408] pool3 -> pool3
I0321 17:50:15.165908  9925 net.cpp:150] Setting up pool3
I0321 17:50:15.165912  9925 net.cpp:157] Top shape: 8 256 64 64 (8388608)
I0321 17:50:15.165915  9925 net.cpp:165] Memory required for data: 4462739488
I0321 17:50:15.165917  9925 layer_factory.hpp:77] Creating layer conv4_1
I0321 17:50:15.165922  9925 net.cpp:100] Creating Layer conv4_1
I0321 17:50:15.165925  9925 net.cpp:434] conv4_1 <- pool3
I0321 17:50:15.165928  9925 net.cpp:408] conv4_1 -> conv4_1
I0321 17:50:15.172515  9925 net.cpp:150] Setting up conv4_1
I0321 17:50:15.172529  9925 net.cpp:157] Top shape: 8 512 64 64 (16777216)
I0321 17:50:15.172531  9925 net.cpp:165] Memory required for data: 4529848352
I0321 17:50:15.172536  9925 layer_factory.hpp:77] Creating layer relu4_1
I0321 17:50:15.172543  9925 net.cpp:100] Creating Layer relu4_1
I0321 17:50:15.172544  9925 net.cpp:434] relu4_1 <- conv4_1
I0321 17:50:15.172547  9925 net.cpp:395] relu4_1 -> conv4_1 (in-place)
I0321 17:50:15.172554  9925 net.cpp:150] Setting up relu4_1
I0321 17:50:15.172556  9925 net.cpp:157] Top shape: 8 512 64 64 (16777216)
I0321 17:50:15.172559  9925 net.cpp:165] Memory required for data: 4596957216
I0321 17:50:15.172560  9925 layer_factory.hpp:77] Creating layer conv4_2
I0321 17:50:15.172565  9925 net.cpp:100] Creating Layer conv4_2
I0321 17:50:15.172569  9925 net.cpp:434] conv4_2 <- conv4_1
I0321 17:50:15.172571  9925 net.cpp:408] conv4_2 -> conv4_2
I0321 17:50:15.184279  9925 net.cpp:150] Setting up conv4_2
I0321 17:50:15.184298  9925 net.cpp:157] Top shape: 8 512 64 64 (16777216)
I0321 17:50:15.184300  9925 net.cpp:165] Memory required for data: 4664066080
I0321 17:50:15.184310  9925 layer_factory.hpp:77] Creating layer relu4_2
I0321 17:50:15.184316  9925 net.cpp:100] Creating Layer relu4_2
I0321 17:50:15.184319  9925 net.cpp:434] relu4_2 <- conv4_2
I0321 17:50:15.184324  9925 net.cpp:395] relu4_2 -> conv4_2 (in-place)
I0321 17:50:15.184329  9925 net.cpp:150] Setting up relu4_2
I0321 17:50:15.184332  9925 net.cpp:157] Top shape: 8 512 64 64 (16777216)
I0321 17:50:15.184334  9925 net.cpp:165] Memory required for data: 4731174944
I0321 17:50:15.184336  9925 layer_factory.hpp:77] Creating layer conv4_3
I0321 17:50:15.184342  9925 net.cpp:100] Creating Layer conv4_3
I0321 17:50:15.184345  9925 net.cpp:434] conv4_3 <- conv4_2
I0321 17:50:15.184348  9925 net.cpp:408] conv4_3 -> conv4_3
I0321 17:50:15.196079  9925 net.cpp:150] Setting up conv4_3
I0321 17:50:15.196096  9925 net.cpp:157] Top shape: 8 512 64 64 (16777216)
I0321 17:50:15.196099  9925 net.cpp:165] Memory required for data: 4798283808
I0321 17:50:15.196105  9925 layer_factory.hpp:77] Creating layer relu4_3
I0321 17:50:15.196110  9925 net.cpp:100] Creating Layer relu4_3
I0321 17:50:15.196112  9925 net.cpp:434] relu4_3 <- conv4_3
I0321 17:50:15.196117  9925 net.cpp:395] relu4_3 -> conv4_3 (in-place)
I0321 17:50:15.196123  9925 net.cpp:150] Setting up relu4_3
I0321 17:50:15.196126  9925 net.cpp:157] Top shape: 8 512 64 64 (16777216)
I0321 17:50:15.196141  9925 net.cpp:165] Memory required for data: 4865392672
I0321 17:50:15.196143  9925 layer_factory.hpp:77] Creating layer conv4_3_relu4_3_0_split
I0321 17:50:15.196147  9925 net.cpp:100] Creating Layer conv4_3_relu4_3_0_split
I0321 17:50:15.196151  9925 net.cpp:434] conv4_3_relu4_3_0_split <- conv4_3
I0321 17:50:15.196153  9925 net.cpp:408] conv4_3_relu4_3_0_split -> conv4_3_relu4_3_0_split_0
I0321 17:50:15.196158  9925 net.cpp:408] conv4_3_relu4_3_0_split -> conv4_3_relu4_3_0_split_1
I0321 17:50:15.196182  9925 net.cpp:150] Setting up conv4_3_relu4_3_0_split
I0321 17:50:15.196187  9925 net.cpp:157] Top shape: 8 512 64 64 (16777216)
I0321 17:50:15.196190  9925 net.cpp:157] Top shape: 8 512 64 64 (16777216)
I0321 17:50:15.196192  9925 net.cpp:165] Memory required for data: 4999610400
I0321 17:50:15.196193  9925 layer_factory.hpp:77] Creating layer pool4
I0321 17:50:15.196198  9925 net.cpp:100] Creating Layer pool4
I0321 17:50:15.196200  9925 net.cpp:434] pool4 <- conv4_3_relu4_3_0_split_0
I0321 17:50:15.196204  9925 net.cpp:408] pool4 -> pool4
I0321 17:50:15.196225  9925 net.cpp:150] Setting up pool4
I0321 17:50:15.196229  9925 net.cpp:157] Top shape: 8 512 32 32 (4194304)
I0321 17:50:15.196231  9925 net.cpp:165] Memory required for data: 5016387616
I0321 17:50:15.196233  9925 layer_factory.hpp:77] Creating layer conv5_1
I0321 17:50:15.196239  9925 net.cpp:100] Creating Layer conv5_1
I0321 17:50:15.196243  9925 net.cpp:434] conv5_1 <- pool4
I0321 17:50:15.196247  9925 net.cpp:408] conv5_1 -> conv5_1
I0321 17:50:15.208019  9925 net.cpp:150] Setting up conv5_1
I0321 17:50:15.208037  9925 net.cpp:157] Top shape: 8 512 32 32 (4194304)
I0321 17:50:15.208039  9925 net.cpp:165] Memory required for data: 5033164832
I0321 17:50:15.208045  9925 layer_factory.hpp:77] Creating layer relu5_1
I0321 17:50:15.208051  9925 net.cpp:100] Creating Layer relu5_1
I0321 17:50:15.208055  9925 net.cpp:434] relu5_1 <- conv5_1
I0321 17:50:15.208060  9925 net.cpp:395] relu5_1 -> conv5_1 (in-place)
I0321 17:50:15.208065  9925 net.cpp:150] Setting up relu5_1
I0321 17:50:15.208068  9925 net.cpp:157] Top shape: 8 512 32 32 (4194304)
I0321 17:50:15.208070  9925 net.cpp:165] Memory required for data: 5049942048
I0321 17:50:15.208071  9925 layer_factory.hpp:77] Creating layer conv5_2
I0321 17:50:15.208078  9925 net.cpp:100] Creating Layer conv5_2
I0321 17:50:15.208082  9925 net.cpp:434] conv5_2 <- conv5_1
I0321 17:50:15.208086  9925 net.cpp:408] conv5_2 -> conv5_2
I0321 17:50:15.219923  9925 net.cpp:150] Setting up conv5_2
I0321 17:50:15.219943  9925 net.cpp:157] Top shape: 8 512 32 32 (4194304)
I0321 17:50:15.219945  9925 net.cpp:165] Memory required for data: 5066719264
I0321 17:50:15.219951  9925 layer_factory.hpp:77] Creating layer relu5_2
I0321 17:50:15.219959  9925 net.cpp:100] Creating Layer relu5_2
I0321 17:50:15.219962  9925 net.cpp:434] relu5_2 <- conv5_2
I0321 17:50:15.219967  9925 net.cpp:395] relu5_2 -> conv5_2 (in-place)
I0321 17:50:15.219974  9925 net.cpp:150] Setting up relu5_2
I0321 17:50:15.219977  9925 net.cpp:157] Top shape: 8 512 32 32 (4194304)
I0321 17:50:15.219979  9925 net.cpp:165] Memory required for data: 5083496480
I0321 17:50:15.219980  9925 layer_factory.hpp:77] Creating layer conv5_3
I0321 17:50:15.219987  9925 net.cpp:100] Creating Layer conv5_3
I0321 17:50:15.219990  9925 net.cpp:434] conv5_3 <- conv5_2
I0321 17:50:15.219993  9925 net.cpp:408] conv5_3 -> conv5_3
I0321 17:50:15.232012  9925 net.cpp:150] Setting up conv5_3
I0321 17:50:15.232038  9925 net.cpp:157] Top shape: 8 512 32 32 (4194304)
I0321 17:50:15.232040  9925 net.cpp:165] Memory required for data: 5100273696
I0321 17:50:15.232046  9925 layer_factory.hpp:77] Creating layer relu5_3
I0321 17:50:15.232056  9925 net.cpp:100] Creating Layer relu5_3
I0321 17:50:15.232059  9925 net.cpp:434] relu5_3 <- conv5_3
I0321 17:50:15.232065  9925 net.cpp:395] relu5_3 -> conv5_3 (in-place)
I0321 17:50:15.232072  9925 net.cpp:150] Setting up relu5_3
I0321 17:50:15.232075  9925 net.cpp:157] Top shape: 8 512 32 32 (4194304)
I0321 17:50:15.232089  9925 net.cpp:165] Memory required for data: 5117050912
I0321 17:50:15.232092  9925 layer_factory.hpp:77] Creating layer pool5
I0321 17:50:15.232096  9925 net.cpp:100] Creating Layer pool5
I0321 17:50:15.232098  9925 net.cpp:434] pool5 <- conv5_3
I0321 17:50:15.232101  9925 net.cpp:408] pool5 -> pool5
I0321 17:50:15.232131  9925 net.cpp:150] Setting up pool5
I0321 17:50:15.232136  9925 net.cpp:157] Top shape: 8 512 32 32 (4194304)
I0321 17:50:15.232137  9925 net.cpp:165] Memory required for data: 5133828128
I0321 17:50:15.232139  9925 layer_factory.hpp:77] Creating layer fc6
I0321 17:50:15.232146  9925 net.cpp:100] Creating Layer fc6
I0321 17:50:15.232149  9925 net.cpp:434] fc6 <- pool5
I0321 17:50:15.232153  9925 net.cpp:408] fc6 -> fc6
I0321 17:50:15.256371  9925 net.cpp:150] Setting up fc6
I0321 17:50:15.256392  9925 net.cpp:157] Top shape: 8 1024 32 32 (8388608)
I0321 17:50:15.256394  9925 net.cpp:165] Memory required for data: 5167382560
I0321 17:50:15.256402  9925 layer_factory.hpp:77] Creating layer relu6
I0321 17:50:15.256408  9925 net.cpp:100] Creating Layer relu6
I0321 17:50:15.256412  9925 net.cpp:434] relu6 <- fc6
I0321 17:50:15.256417  9925 net.cpp:395] relu6 -> fc6 (in-place)
I0321 17:50:15.256424  9925 net.cpp:150] Setting up relu6
I0321 17:50:15.256429  9925 net.cpp:157] Top shape: 8 1024 32 32 (8388608)
I0321 17:50:15.256431  9925 net.cpp:165] Memory required for data: 5200936992
I0321 17:50:15.256433  9925 layer_factory.hpp:77] Creating layer fc7
I0321 17:50:15.256440  9925 net.cpp:100] Creating Layer fc7
I0321 17:50:15.256443  9925 net.cpp:434] fc7 <- fc6
I0321 17:50:15.256446  9925 net.cpp:408] fc7 -> fc7
I0321 17:50:15.262017  9925 net.cpp:150] Setting up fc7
I0321 17:50:15.262027  9925 net.cpp:157] Top shape: 8 1024 32 32 (8388608)
I0321 17:50:15.262029  9925 net.cpp:165] Memory required for data: 5234491424
I0321 17:50:15.262034  9925 layer_factory.hpp:77] Creating layer relu7
I0321 17:50:15.262038  9925 net.cpp:100] Creating Layer relu7
I0321 17:50:15.262042  9925 net.cpp:434] relu7 <- fc7
I0321 17:50:15.262044  9925 net.cpp:395] relu7 -> fc7 (in-place)
I0321 17:50:15.262049  9925 net.cpp:150] Setting up relu7
I0321 17:50:15.262053  9925 net.cpp:157] Top shape: 8 1024 32 32 (8388608)
I0321 17:50:15.262054  9925 net.cpp:165] Memory required for data: 5268045856
I0321 17:50:15.262056  9925 layer_factory.hpp:77] Creating layer fc7_relu7_0_split
I0321 17:50:15.262061  9925 net.cpp:100] Creating Layer fc7_relu7_0_split
I0321 17:50:15.262063  9925 net.cpp:434] fc7_relu7_0_split <- fc7
I0321 17:50:15.262066  9925 net.cpp:408] fc7_relu7_0_split -> fc7_relu7_0_split_0
I0321 17:50:15.262070  9925 net.cpp:408] fc7_relu7_0_split -> fc7_relu7_0_split_1
I0321 17:50:15.262081  9925 net.cpp:408] fc7_relu7_0_split -> fc7_relu7_0_split_2
I0321 17:50:15.262086  9925 net.cpp:408] fc7_relu7_0_split -> fc7_relu7_0_split_3
I0321 17:50:15.262122  9925 net.cpp:150] Setting up fc7_relu7_0_split
I0321 17:50:15.262127  9925 net.cpp:157] Top shape: 8 1024 32 32 (8388608)
I0321 17:50:15.262130  9925 net.cpp:157] Top shape: 8 1024 32 32 (8388608)
I0321 17:50:15.262133  9925 net.cpp:157] Top shape: 8 1024 32 32 (8388608)
I0321 17:50:15.262135  9925 net.cpp:157] Top shape: 8 1024 32 32 (8388608)
I0321 17:50:15.262137  9925 net.cpp:165] Memory required for data: 5402263584
I0321 17:50:15.262140  9925 layer_factory.hpp:77] Creating layer conv6_1
I0321 17:50:15.262145  9925 net.cpp:100] Creating Layer conv6_1
I0321 17:50:15.262147  9925 net.cpp:434] conv6_1 <- fc7_relu7_0_split_0
I0321 17:50:15.262151  9925 net.cpp:408] conv6_1 -> conv6_1
I0321 17:50:15.263973  9925 net.cpp:150] Setting up conv6_1
I0321 17:50:15.263983  9925 net.cpp:157] Top shape: 8 256 32 32 (2097152)
I0321 17:50:15.263984  9925 net.cpp:165] Memory required for data: 5410652192
I0321 17:50:15.263989  9925 layer_factory.hpp:77] Creating layer conv6_1_relu
I0321 17:50:15.263993  9925 net.cpp:100] Creating Layer conv6_1_relu
I0321 17:50:15.263995  9925 net.cpp:434] conv6_1_relu <- conv6_1
I0321 17:50:15.263999  9925 net.cpp:395] conv6_1_relu -> conv6_1 (in-place)
I0321 17:50:15.264015  9925 net.cpp:150] Setting up conv6_1_relu
I0321 17:50:15.264019  9925 net.cpp:157] Top shape: 8 256 32 32 (2097152)
I0321 17:50:15.264021  9925 net.cpp:165] Memory required for data: 5419040800
I0321 17:50:15.264024  9925 layer_factory.hpp:77] Creating layer conv6_2
I0321 17:50:15.264029  9925 net.cpp:100] Creating Layer conv6_2
I0321 17:50:15.264031  9925 net.cpp:434] conv6_2 <- conv6_1
I0321 17:50:15.264035  9925 net.cpp:408] conv6_2 -> conv6_2
I0321 17:50:15.270136  9925 net.cpp:150] Setting up conv6_2
I0321 17:50:15.270148  9925 net.cpp:157] Top shape: 8 512 16 16 (1048576)
I0321 17:50:15.270149  9925 net.cpp:165] Memory required for data: 5423235104
I0321 17:50:15.270159  9925 layer_factory.hpp:77] Creating layer conv6_2_relu
I0321 17:50:15.270162  9925 net.cpp:100] Creating Layer conv6_2_relu
I0321 17:50:15.270165  9925 net.cpp:434] conv6_2_relu <- conv6_2
I0321 17:50:15.270169  9925 net.cpp:395] conv6_2_relu -> conv6_2 (in-place)
I0321 17:50:15.270174  9925 net.cpp:150] Setting up conv6_2_relu
I0321 17:50:15.270176  9925 net.cpp:157] Top shape: 8 512 16 16 (1048576)
I0321 17:50:15.270179  9925 net.cpp:165] Memory required for data: 5427429408
I0321 17:50:15.270181  9925 layer_factory.hpp:77] Creating layer conv6_2_conv6_2_relu_0_split
I0321 17:50:15.270184  9925 net.cpp:100] Creating Layer conv6_2_conv6_2_relu_0_split
I0321 17:50:15.270186  9925 net.cpp:434] conv6_2_conv6_2_relu_0_split <- conv6_2
I0321 17:50:15.270190  9925 net.cpp:408] conv6_2_conv6_2_relu_0_split -> conv6_2_conv6_2_relu_0_split_0
I0321 17:50:15.270195  9925 net.cpp:408] conv6_2_conv6_2_relu_0_split -> conv6_2_conv6_2_relu_0_split_1
I0321 17:50:15.270198  9925 net.cpp:408] conv6_2_conv6_2_relu_0_split -> conv6_2_conv6_2_relu_0_split_2
I0321 17:50:15.270202  9925 net.cpp:408] conv6_2_conv6_2_relu_0_split -> conv6_2_conv6_2_relu_0_split_3
I0321 17:50:15.270236  9925 net.cpp:150] Setting up conv6_2_conv6_2_relu_0_split
I0321 17:50:15.270241  9925 net.cpp:157] Top shape: 8 512 16 16 (1048576)
I0321 17:50:15.270244  9925 net.cpp:157] Top shape: 8 512 16 16 (1048576)
I0321 17:50:15.270246  9925 net.cpp:157] Top shape: 8 512 16 16 (1048576)
I0321 17:50:15.270249  9925 net.cpp:157] Top shape: 8 512 16 16 (1048576)
I0321 17:50:15.270251  9925 net.cpp:165] Memory required for data: 5444206624
I0321 17:50:15.270252  9925 layer_factory.hpp:77] Creating layer conv7_1
I0321 17:50:15.270258  9925 net.cpp:100] Creating Layer conv7_1
I0321 17:50:15.270262  9925 net.cpp:434] conv7_1 <- conv6_2_conv6_2_relu_0_split_0
I0321 17:50:15.270265  9925 net.cpp:408] conv7_1 -> conv7_1
I0321 17:50:15.270685  9925 net.cpp:150] Setting up conv7_1
I0321 17:50:15.270691  9925 net.cpp:157] Top shape: 8 128 16 16 (262144)
I0321 17:50:15.270692  9925 net.cpp:165] Memory required for data: 5445255200
I0321 17:50:15.270697  9925 layer_factory.hpp:77] Creating layer conv7_1_relu
I0321 17:50:15.270700  9925 net.cpp:100] Creating Layer conv7_1_relu
I0321 17:50:15.270702  9925 net.cpp:434] conv7_1_relu <- conv7_1
I0321 17:50:15.270705  9925 net.cpp:395] conv7_1_relu -> conv7_1 (in-place)
I0321 17:50:15.270709  9925 net.cpp:150] Setting up conv7_1_relu
I0321 17:50:15.270711  9925 net.cpp:157] Top shape: 8 128 16 16 (262144)
I0321 17:50:15.270714  9925 net.cpp:165] Memory required for data: 5446303776
I0321 17:50:15.270715  9925 layer_factory.hpp:77] Creating layer conv7_2
I0321 17:50:15.270720  9925 net.cpp:100] Creating Layer conv7_2
I0321 17:50:15.270722  9925 net.cpp:434] conv7_2 <- conv7_1
I0321 17:50:15.270725  9925 net.cpp:408] conv7_2 -> conv7_2
I0321 17:50:15.272688  9925 net.cpp:150] Setting up conv7_2
I0321 17:50:15.272698  9925 net.cpp:157] Top shape: 8 256 8 8 (131072)
I0321 17:50:15.272701  9925 net.cpp:165] Memory required for data: 5446828064
I0321 17:50:15.272704  9925 layer_factory.hpp:77] Creating layer conv7_2_relu
I0321 17:50:15.272708  9925 net.cpp:100] Creating Layer conv7_2_relu
I0321 17:50:15.272711  9925 net.cpp:434] conv7_2_relu <- conv7_2
I0321 17:50:15.272714  9925 net.cpp:395] conv7_2_relu -> conv7_2 (in-place)
I0321 17:50:15.272729  9925 net.cpp:150] Setting up conv7_2_relu
I0321 17:50:15.272732  9925 net.cpp:157] Top shape: 8 256 8 8 (131072)
I0321 17:50:15.272734  9925 net.cpp:165] Memory required for data: 5447352352
I0321 17:50:15.272737  9925 layer_factory.hpp:77] Creating layer conv7_2_conv7_2_relu_0_split
I0321 17:50:15.272740  9925 net.cpp:100] Creating Layer conv7_2_conv7_2_relu_0_split
I0321 17:50:15.272742  9925 net.cpp:434] conv7_2_conv7_2_relu_0_split <- conv7_2
I0321 17:50:15.272747  9925 net.cpp:408] conv7_2_conv7_2_relu_0_split -> conv7_2_conv7_2_relu_0_split_0
I0321 17:50:15.272752  9925 net.cpp:408] conv7_2_conv7_2_relu_0_split -> conv7_2_conv7_2_relu_0_split_1
I0321 17:50:15.272755  9925 net.cpp:408] conv7_2_conv7_2_relu_0_split -> conv7_2_conv7_2_relu_0_split_2
I0321 17:50:15.272759  9925 net.cpp:408] conv7_2_conv7_2_relu_0_split -> conv7_2_conv7_2_relu_0_split_3
I0321 17:50:15.272796  9925 net.cpp:150] Setting up conv7_2_conv7_2_relu_0_split
I0321 17:50:15.272801  9925 net.cpp:157] Top shape: 8 256 8 8 (131072)
I0321 17:50:15.272804  9925 net.cpp:157] Top shape: 8 256 8 8 (131072)
I0321 17:50:15.272805  9925 net.cpp:157] Top shape: 8 256 8 8 (131072)
I0321 17:50:15.272809  9925 net.cpp:157] Top shape: 8 256 8 8 (131072)
I0321 17:50:15.272810  9925 net.cpp:165] Memory required for data: 5449449504
I0321 17:50:15.272812  9925 layer_factory.hpp:77] Creating layer conv8_1
I0321 17:50:15.272819  9925 net.cpp:100] Creating Layer conv8_1
I0321 17:50:15.272821  9925 net.cpp:434] conv8_1 <- conv7_2_conv7_2_relu_0_split_0
I0321 17:50:15.272826  9925 net.cpp:408] conv8_1 -> conv8_1
I0321 17:50:15.273103  9925 net.cpp:150] Setting up conv8_1
I0321 17:50:15.273109  9925 net.cpp:157] Top shape: 8 128 8 8 (65536)
I0321 17:50:15.273111  9925 net.cpp:165] Memory required for data: 5449711648
I0321 17:50:15.273115  9925 layer_factory.hpp:77] Creating layer conv8_1_relu
I0321 17:50:15.273118  9925 net.cpp:100] Creating Layer conv8_1_relu
I0321 17:50:15.273120  9925 net.cpp:434] conv8_1_relu <- conv8_1
I0321 17:50:15.273124  9925 net.cpp:395] conv8_1_relu -> conv8_1 (in-place)
I0321 17:50:15.273128  9925 net.cpp:150] Setting up conv8_1_relu
I0321 17:50:15.273130  9925 net.cpp:157] Top shape: 8 128 8 8 (65536)
I0321 17:50:15.273133  9925 net.cpp:165] Memory required for data: 5449973792
I0321 17:50:15.273134  9925 layer_factory.hpp:77] Creating layer conv8_2
I0321 17:50:15.273139  9925 net.cpp:100] Creating Layer conv8_2
I0321 17:50:15.273141  9925 net.cpp:434] conv8_2 <- conv8_1
I0321 17:50:15.273144  9925 net.cpp:408] conv8_2 -> conv8_2
I0321 17:50:15.275092  9925 net.cpp:150] Setting up conv8_2
I0321 17:50:15.275100  9925 net.cpp:157] Top shape: 8 256 6 6 (73728)
I0321 17:50:15.275102  9925 net.cpp:165] Memory required for data: 5450268704
I0321 17:50:15.275106  9925 layer_factory.hpp:77] Creating layer conv8_2_relu
I0321 17:50:15.275111  9925 net.cpp:100] Creating Layer conv8_2_relu
I0321 17:50:15.275113  9925 net.cpp:434] conv8_2_relu <- conv8_2
I0321 17:50:15.275116  9925 net.cpp:395] conv8_2_relu -> conv8_2 (in-place)
I0321 17:50:15.275121  9925 net.cpp:150] Setting up conv8_2_relu
I0321 17:50:15.275125  9925 net.cpp:157] Top shape: 8 256 6 6 (73728)
I0321 17:50:15.275126  9925 net.cpp:165] Memory required for data: 5450563616
I0321 17:50:15.275128  9925 layer_factory.hpp:77] Creating layer conv8_2_conv8_2_relu_0_split
I0321 17:50:15.275131  9925 net.cpp:100] Creating Layer conv8_2_conv8_2_relu_0_split
I0321 17:50:15.275135  9925 net.cpp:434] conv8_2_conv8_2_relu_0_split <- conv8_2
I0321 17:50:15.275137  9925 net.cpp:408] conv8_2_conv8_2_relu_0_split -> conv8_2_conv8_2_relu_0_split_0
I0321 17:50:15.275141  9925 net.cpp:408] conv8_2_conv8_2_relu_0_split -> conv8_2_conv8_2_relu_0_split_1
I0321 17:50:15.275146  9925 net.cpp:408] conv8_2_conv8_2_relu_0_split -> conv8_2_conv8_2_relu_0_split_2
I0321 17:50:15.275151  9925 net.cpp:408] conv8_2_conv8_2_relu_0_split -> conv8_2_conv8_2_relu_0_split_3
I0321 17:50:15.275189  9925 net.cpp:150] Setting up conv8_2_conv8_2_relu_0_split
I0321 17:50:15.275194  9925 net.cpp:157] Top shape: 8 256 6 6 (73728)
I0321 17:50:15.275204  9925 net.cpp:157] Top shape: 8 256 6 6 (73728)
I0321 17:50:15.275207  9925 net.cpp:157] Top shape: 8 256 6 6 (73728)
I0321 17:50:15.275209  9925 net.cpp:157] Top shape: 8 256 6 6 (73728)
I0321 17:50:15.275212  9925 net.cpp:165] Memory required for data: 5451743264
I0321 17:50:15.275213  9925 layer_factory.hpp:77] Creating layer conv9_1
I0321 17:50:15.275218  9925 net.cpp:100] Creating Layer conv9_1
I0321 17:50:15.275221  9925 net.cpp:434] conv9_1 <- conv8_2_conv8_2_relu_0_split_0
I0321 17:50:15.275225  9925 net.cpp:408] conv9_1 -> conv9_1
I0321 17:50:15.275512  9925 net.cpp:150] Setting up conv9_1
I0321 17:50:15.275519  9925 net.cpp:157] Top shape: 8 128 6 6 (36864)
I0321 17:50:15.275521  9925 net.cpp:165] Memory required for data: 5451890720
I0321 17:50:15.275526  9925 layer_factory.hpp:77] Creating layer conv9_1_relu
I0321 17:50:15.275528  9925 net.cpp:100] Creating Layer conv9_1_relu
I0321 17:50:15.275532  9925 net.cpp:434] conv9_1_relu <- conv9_1
I0321 17:50:15.275534  9925 net.cpp:395] conv9_1_relu -> conv9_1 (in-place)
I0321 17:50:15.275537  9925 net.cpp:150] Setting up conv9_1_relu
I0321 17:50:15.275540  9925 net.cpp:157] Top shape: 8 128 6 6 (36864)
I0321 17:50:15.275542  9925 net.cpp:165] Memory required for data: 5452038176
I0321 17:50:15.275544  9925 layer_factory.hpp:77] Creating layer conv9_2
I0321 17:50:15.275549  9925 net.cpp:100] Creating Layer conv9_2
I0321 17:50:15.275552  9925 net.cpp:434] conv9_2 <- conv9_1
I0321 17:50:15.275557  9925 net.cpp:408] conv9_2 -> conv9_2
I0321 17:50:15.277508  9925 net.cpp:150] Setting up conv9_2
I0321 17:50:15.277518  9925 net.cpp:157] Top shape: 8 256 4 4 (32768)
I0321 17:50:15.277520  9925 net.cpp:165] Memory required for data: 5452169248
I0321 17:50:15.277525  9925 layer_factory.hpp:77] Creating layer conv9_2_relu
I0321 17:50:15.277529  9925 net.cpp:100] Creating Layer conv9_2_relu
I0321 17:50:15.277532  9925 net.cpp:434] conv9_2_relu <- conv9_2
I0321 17:50:15.277535  9925 net.cpp:395] conv9_2_relu -> conv9_2 (in-place)
I0321 17:50:15.277540  9925 net.cpp:150] Setting up conv9_2_relu
I0321 17:50:15.277544  9925 net.cpp:157] Top shape: 8 256 4 4 (32768)
I0321 17:50:15.277545  9925 net.cpp:165] Memory required for data: 5452300320
I0321 17:50:15.277546  9925 layer_factory.hpp:77] Creating layer conv9_2_conv9_2_relu_0_split
I0321 17:50:15.277550  9925 net.cpp:100] Creating Layer conv9_2_conv9_2_relu_0_split
I0321 17:50:15.277552  9925 net.cpp:434] conv9_2_conv9_2_relu_0_split <- conv9_2
I0321 17:50:15.277556  9925 net.cpp:408] conv9_2_conv9_2_relu_0_split -> conv9_2_conv9_2_relu_0_split_0
I0321 17:50:15.277560  9925 net.cpp:408] conv9_2_conv9_2_relu_0_split -> conv9_2_conv9_2_relu_0_split_1
I0321 17:50:15.277565  9925 net.cpp:408] conv9_2_conv9_2_relu_0_split -> conv9_2_conv9_2_relu_0_split_2
I0321 17:50:15.277597  9925 net.cpp:150] Setting up conv9_2_conv9_2_relu_0_split
I0321 17:50:15.277602  9925 net.cpp:157] Top shape: 8 256 4 4 (32768)
I0321 17:50:15.277606  9925 net.cpp:157] Top shape: 8 256 4 4 (32768)
I0321 17:50:15.277608  9925 net.cpp:157] Top shape: 8 256 4 4 (32768)
I0321 17:50:15.277609  9925 net.cpp:165] Memory required for data: 5452693536
I0321 17:50:15.277611  9925 layer_factory.hpp:77] Creating layer conv4_3_norm
I0321 17:50:15.277616  9925 net.cpp:100] Creating Layer conv4_3_norm
I0321 17:50:15.277619  9925 net.cpp:434] conv4_3_norm <- conv4_3_relu4_3_0_split_1
I0321 17:50:15.277622  9925 net.cpp:408] conv4_3_norm -> conv4_3_norm
I0321 17:50:15.277716  9925 net.cpp:150] Setting up conv4_3_norm
I0321 17:50:15.277721  9925 net.cpp:157] Top shape: 8 512 64 64 (16777216)
I0321 17:50:15.277724  9925 net.cpp:165] Memory required for data: 5519802400
I0321 17:50:15.277726  9925 layer_factory.hpp:77] Creating layer conv4_3_norm_conv4_3_norm_0_split
I0321 17:50:15.277730  9925 net.cpp:100] Creating Layer conv4_3_norm_conv4_3_norm_0_split
I0321 17:50:15.277732  9925 net.cpp:434] conv4_3_norm_conv4_3_norm_0_split <- conv4_3_norm
I0321 17:50:15.277736  9925 net.cpp:408] conv4_3_norm_conv4_3_norm_0_split -> conv4_3_norm_conv4_3_norm_0_split_0
I0321 17:50:15.277750  9925 net.cpp:408] conv4_3_norm_conv4_3_norm_0_split -> conv4_3_norm_conv4_3_norm_0_split_1
I0321 17:50:15.277755  9925 net.cpp:408] conv4_3_norm_conv4_3_norm_0_split -> conv4_3_norm_conv4_3_norm_0_split_2
I0321 17:50:15.277782  9925 net.cpp:150] Setting up conv4_3_norm_conv4_3_norm_0_split
I0321 17:50:15.277787  9925 net.cpp:157] Top shape: 8 512 64 64 (16777216)
I0321 17:50:15.277791  9925 net.cpp:157] Top shape: 8 512 64 64 (16777216)
I0321 17:50:15.277792  9925 net.cpp:157] Top shape: 8 512 64 64 (16777216)
I0321 17:50:15.277794  9925 net.cpp:165] Memory required for data: 5721128992
I0321 17:50:15.277796  9925 layer_factory.hpp:77] Creating layer conv4_3_norm_mbox_loc
I0321 17:50:15.277802  9925 net.cpp:100] Creating Layer conv4_3_norm_mbox_loc
I0321 17:50:15.277804  9925 net.cpp:434] conv4_3_norm_mbox_loc <- conv4_3_norm_conv4_3_norm_0_split_0
I0321 17:50:15.277808  9925 net.cpp:408] conv4_3_norm_mbox_loc -> conv4_3_norm_mbox_loc
I0321 17:50:15.278264  9925 net.cpp:150] Setting up conv4_3_norm_mbox_loc
I0321 17:50:15.278270  9925 net.cpp:157] Top shape: 8 16 64 64 (524288)
I0321 17:50:15.278271  9925 net.cpp:165] Memory required for data: 5723226144
I0321 17:50:15.278275  9925 layer_factory.hpp:77] Creating layer conv4_3_norm_mbox_loc_perm
I0321 17:50:15.278280  9925 net.cpp:100] Creating Layer conv4_3_norm_mbox_loc_perm
I0321 17:50:15.278282  9925 net.cpp:434] conv4_3_norm_mbox_loc_perm <- conv4_3_norm_mbox_loc
I0321 17:50:15.278287  9925 net.cpp:408] conv4_3_norm_mbox_loc_perm -> conv4_3_norm_mbox_loc_perm
I0321 17:50:15.278353  9925 net.cpp:150] Setting up conv4_3_norm_mbox_loc_perm
I0321 17:50:15.278359  9925 net.cpp:157] Top shape: 8 64 64 16 (524288)
I0321 17:50:15.278362  9925 net.cpp:165] Memory required for data: 5725323296
I0321 17:50:15.278363  9925 layer_factory.hpp:77] Creating layer conv4_3_norm_mbox_loc_flat
I0321 17:50:15.278368  9925 net.cpp:100] Creating Layer conv4_3_norm_mbox_loc_flat
I0321 17:50:15.278372  9925 net.cpp:434] conv4_3_norm_mbox_loc_flat <- conv4_3_norm_mbox_loc_perm
I0321 17:50:15.278375  9925 net.cpp:408] conv4_3_norm_mbox_loc_flat -> conv4_3_norm_mbox_loc_flat
I0321 17:50:15.278403  9925 net.cpp:150] Setting up conv4_3_norm_mbox_loc_flat
I0321 17:50:15.278408  9925 net.cpp:157] Top shape: 8 65536 (524288)
I0321 17:50:15.278409  9925 net.cpp:165] Memory required for data: 5727420448
I0321 17:50:15.278411  9925 layer_factory.hpp:77] Creating layer conv4_3_norm_mbox_conf
I0321 17:50:15.278422  9925 net.cpp:100] Creating Layer conv4_3_norm_mbox_conf
I0321 17:50:15.278425  9925 net.cpp:434] conv4_3_norm_mbox_conf <- conv4_3_norm_conv4_3_norm_0_split_1
I0321 17:50:15.278430  9925 net.cpp:408] conv4_3_norm_mbox_conf -> conv4_3_norm_mbox_conf
I0321 17:50:15.278733  9925 net.cpp:150] Setting up conv4_3_norm_mbox_conf
I0321 17:50:15.278738  9925 net.cpp:157] Top shape: 8 8 64 64 (262144)
I0321 17:50:15.278740  9925 net.cpp:165] Memory required for data: 5728469024
I0321 17:50:15.278745  9925 layer_factory.hpp:77] Creating layer conv4_3_norm_mbox_conf_perm
I0321 17:50:15.278749  9925 net.cpp:100] Creating Layer conv4_3_norm_mbox_conf_perm
I0321 17:50:15.278751  9925 net.cpp:434] conv4_3_norm_mbox_conf_perm <- conv4_3_norm_mbox_conf
I0321 17:50:15.278755  9925 net.cpp:408] conv4_3_norm_mbox_conf_perm -> conv4_3_norm_mbox_conf_perm
I0321 17:50:15.278816  9925 net.cpp:150] Setting up conv4_3_norm_mbox_conf_perm
I0321 17:50:15.278820  9925 net.cpp:157] Top shape: 8 64 64 8 (262144)
I0321 17:50:15.278822  9925 net.cpp:165] Memory required for data: 5729517600
I0321 17:50:15.278825  9925 layer_factory.hpp:77] Creating layer conv4_3_norm_mbox_conf_flat
I0321 17:50:15.278828  9925 net.cpp:100] Creating Layer conv4_3_norm_mbox_conf_flat
I0321 17:50:15.278831  9925 net.cpp:434] conv4_3_norm_mbox_conf_flat <- conv4_3_norm_mbox_conf_perm
I0321 17:50:15.278836  9925 net.cpp:408] conv4_3_norm_mbox_conf_flat -> conv4_3_norm_mbox_conf_flat
I0321 17:50:15.278849  9925 net.cpp:150] Setting up conv4_3_norm_mbox_conf_flat
I0321 17:50:15.278854  9925 net.cpp:157] Top shape: 8 32768 (262144)
I0321 17:50:15.278862  9925 net.cpp:165] Memory required for data: 5730566176
I0321 17:50:15.278864  9925 layer_factory.hpp:77] Creating layer conv4_3_norm_mbox_priorbox
I0321 17:50:15.278870  9925 net.cpp:100] Creating Layer conv4_3_norm_mbox_priorbox
I0321 17:50:15.278874  9925 net.cpp:434] conv4_3_norm_mbox_priorbox <- conv4_3_norm_conv4_3_norm_0_split_2
I0321 17:50:15.278877  9925 net.cpp:434] conv4_3_norm_mbox_priorbox <- data_data_0_split_1
I0321 17:50:15.278882  9925 net.cpp:408] conv4_3_norm_mbox_priorbox -> conv4_3_norm_mbox_priorbox
I0321 17:50:15.278901  9925 net.cpp:150] Setting up conv4_3_norm_mbox_priorbox
I0321 17:50:15.278906  9925 net.cpp:157] Top shape: 1 2 65536 (131072)
I0321 17:50:15.278908  9925 net.cpp:165] Memory required for data: 5731090464
I0321 17:50:15.278910  9925 layer_factory.hpp:77] Creating layer fc7_mbox_loc
I0321 17:50:15.278918  9925 net.cpp:100] Creating Layer fc7_mbox_loc
I0321 17:50:15.278921  9925 net.cpp:434] fc7_mbox_loc <- fc7_relu7_0_split_1
I0321 17:50:15.278926  9925 net.cpp:408] fc7_mbox_loc -> fc7_mbox_loc
I0321 17:50:15.279994  9925 net.cpp:150] Setting up fc7_mbox_loc
I0321 17:50:15.280000  9925 net.cpp:157] Top shape: 8 24 32 32 (196608)
I0321 17:50:15.280002  9925 net.cpp:165] Memory required for data: 5731876896
I0321 17:50:15.280006  9925 layer_factory.hpp:77] Creating layer fc7_mbox_loc_perm
I0321 17:50:15.280010  9925 net.cpp:100] Creating Layer fc7_mbox_loc_perm
I0321 17:50:15.280012  9925 net.cpp:434] fc7_mbox_loc_perm <- fc7_mbox_loc
I0321 17:50:15.280017  9925 net.cpp:408] fc7_mbox_loc_perm -> fc7_mbox_loc_perm
I0321 17:50:15.280079  9925 net.cpp:150] Setting up fc7_mbox_loc_perm
I0321 17:50:15.280086  9925 net.cpp:157] Top shape: 8 32 32 24 (196608)
I0321 17:50:15.280086  9925 net.cpp:165] Memory required for data: 5732663328
I0321 17:50:15.280089  9925 layer_factory.hpp:77] Creating layer fc7_mbox_loc_flat
I0321 17:50:15.280092  9925 net.cpp:100] Creating Layer fc7_mbox_loc_flat
I0321 17:50:15.280094  9925 net.cpp:434] fc7_mbox_loc_flat <- fc7_mbox_loc_perm
I0321 17:50:15.280099  9925 net.cpp:408] fc7_mbox_loc_flat -> fc7_mbox_loc_flat
I0321 17:50:15.280115  9925 net.cpp:150] Setting up fc7_mbox_loc_flat
I0321 17:50:15.280120  9925 net.cpp:157] Top shape: 8 24576 (196608)
I0321 17:50:15.280122  9925 net.cpp:165] Memory required for data: 5733449760
I0321 17:50:15.280123  9925 layer_factory.hpp:77] Creating layer fc7_mbox_conf
I0321 17:50:15.280131  9925 net.cpp:100] Creating Layer fc7_mbox_conf
I0321 17:50:15.280134  9925 net.cpp:434] fc7_mbox_conf <- fc7_relu7_0_split_2
I0321 17:50:15.280138  9925 net.cpp:408] fc7_mbox_conf -> fc7_mbox_conf
I0321 17:50:15.280747  9925 net.cpp:150] Setting up fc7_mbox_conf
I0321 17:50:15.280753  9925 net.cpp:157] Top shape: 8 12 32 32 (98304)
I0321 17:50:15.280755  9925 net.cpp:165] Memory required for data: 5733842976
I0321 17:50:15.280758  9925 layer_factory.hpp:77] Creating layer fc7_mbox_conf_perm
I0321 17:50:15.280762  9925 net.cpp:100] Creating Layer fc7_mbox_conf_perm
I0321 17:50:15.280766  9925 net.cpp:434] fc7_mbox_conf_perm <- fc7_mbox_conf
I0321 17:50:15.280769  9925 net.cpp:408] fc7_mbox_conf_perm -> fc7_mbox_conf_perm
I0321 17:50:15.280831  9925 net.cpp:150] Setting up fc7_mbox_conf_perm
I0321 17:50:15.280836  9925 net.cpp:157] Top shape: 8 32 32 12 (98304)
I0321 17:50:15.280838  9925 net.cpp:165] Memory required for data: 5734236192
I0321 17:50:15.280840  9925 layer_factory.hpp:77] Creating layer fc7_mbox_conf_flat
I0321 17:50:15.280844  9925 net.cpp:100] Creating Layer fc7_mbox_conf_flat
I0321 17:50:15.280846  9925 net.cpp:434] fc7_mbox_conf_flat <- fc7_mbox_conf_perm
I0321 17:50:15.280850  9925 net.cpp:408] fc7_mbox_conf_flat -> fc7_mbox_conf_flat
I0321 17:50:15.280866  9925 net.cpp:150] Setting up fc7_mbox_conf_flat
I0321 17:50:15.280870  9925 net.cpp:157] Top shape: 8 12288 (98304)
I0321 17:50:15.280872  9925 net.cpp:165] Memory required for data: 5734629408
I0321 17:50:15.280874  9925 layer_factory.hpp:77] Creating layer fc7_mbox_priorbox
I0321 17:50:15.280879  9925 net.cpp:100] Creating Layer fc7_mbox_priorbox
I0321 17:50:15.280889  9925 net.cpp:434] fc7_mbox_priorbox <- fc7_relu7_0_split_3
I0321 17:50:15.280894  9925 net.cpp:434] fc7_mbox_priorbox <- data_data_0_split_2
I0321 17:50:15.280899  9925 net.cpp:408] fc7_mbox_priorbox -> fc7_mbox_priorbox
I0321 17:50:15.280915  9925 net.cpp:150] Setting up fc7_mbox_priorbox
I0321 17:50:15.280920  9925 net.cpp:157] Top shape: 1 2 24576 (49152)
I0321 17:50:15.280921  9925 net.cpp:165] Memory required for data: 5734826016
I0321 17:50:15.280925  9925 layer_factory.hpp:77] Creating layer conv6_2_mbox_loc
I0321 17:50:15.280931  9925 net.cpp:100] Creating Layer conv6_2_mbox_loc
I0321 17:50:15.280935  9925 net.cpp:434] conv6_2_mbox_loc <- conv6_2_conv6_2_relu_0_split_1
I0321 17:50:15.280938  9925 net.cpp:408] conv6_2_mbox_loc -> conv6_2_mbox_loc
I0321 17:50:15.281545  9925 net.cpp:150] Setting up conv6_2_mbox_loc
I0321 17:50:15.281550  9925 net.cpp:157] Top shape: 8 24 16 16 (49152)
I0321 17:50:15.281553  9925 net.cpp:165] Memory required for data: 5735022624
I0321 17:50:15.281556  9925 layer_factory.hpp:77] Creating layer conv6_2_mbox_loc_perm
I0321 17:50:15.281561  9925 net.cpp:100] Creating Layer conv6_2_mbox_loc_perm
I0321 17:50:15.281564  9925 net.cpp:434] conv6_2_mbox_loc_perm <- conv6_2_mbox_loc
I0321 17:50:15.281568  9925 net.cpp:408] conv6_2_mbox_loc_perm -> conv6_2_mbox_loc_perm
I0321 17:50:15.281626  9925 net.cpp:150] Setting up conv6_2_mbox_loc_perm
I0321 17:50:15.281632  9925 net.cpp:157] Top shape: 8 16 16 24 (49152)
I0321 17:50:15.281635  9925 net.cpp:165] Memory required for data: 5735219232
I0321 17:50:15.281635  9925 layer_factory.hpp:77] Creating layer conv6_2_mbox_loc_flat
I0321 17:50:15.281639  9925 net.cpp:100] Creating Layer conv6_2_mbox_loc_flat
I0321 17:50:15.281642  9925 net.cpp:434] conv6_2_mbox_loc_flat <- conv6_2_mbox_loc_perm
I0321 17:50:15.281646  9925 net.cpp:408] conv6_2_mbox_loc_flat -> conv6_2_mbox_loc_flat
I0321 17:50:15.281661  9925 net.cpp:150] Setting up conv6_2_mbox_loc_flat
I0321 17:50:15.281666  9925 net.cpp:157] Top shape: 8 6144 (49152)
I0321 17:50:15.281668  9925 net.cpp:165] Memory required for data: 5735415840
I0321 17:50:15.281671  9925 layer_factory.hpp:77] Creating layer conv6_2_mbox_conf
I0321 17:50:15.281677  9925 net.cpp:100] Creating Layer conv6_2_mbox_conf
I0321 17:50:15.281680  9925 net.cpp:434] conv6_2_mbox_conf <- conv6_2_conv6_2_relu_0_split_2
I0321 17:50:15.281685  9925 net.cpp:408] conv6_2_mbox_conf -> conv6_2_mbox_conf
I0321 17:50:15.282066  9925 net.cpp:150] Setting up conv6_2_mbox_conf
I0321 17:50:15.282073  9925 net.cpp:157] Top shape: 8 12 16 16 (24576)
I0321 17:50:15.282073  9925 net.cpp:165] Memory required for data: 5735514144
I0321 17:50:15.282078  9925 layer_factory.hpp:77] Creating layer conv6_2_mbox_conf_perm
I0321 17:50:15.282083  9925 net.cpp:100] Creating Layer conv6_2_mbox_conf_perm
I0321 17:50:15.282084  9925 net.cpp:434] conv6_2_mbox_conf_perm <- conv6_2_mbox_conf
I0321 17:50:15.282088  9925 net.cpp:408] conv6_2_mbox_conf_perm -> conv6_2_mbox_conf_perm
I0321 17:50:15.282148  9925 net.cpp:150] Setting up conv6_2_mbox_conf_perm
I0321 17:50:15.282155  9925 net.cpp:157] Top shape: 8 16 16 12 (24576)
I0321 17:50:15.282156  9925 net.cpp:165] Memory required for data: 5735612448
I0321 17:50:15.282157  9925 layer_factory.hpp:77] Creating layer conv6_2_mbox_conf_flat
I0321 17:50:15.282161  9925 net.cpp:100] Creating Layer conv6_2_mbox_conf_flat
I0321 17:50:15.282163  9925 net.cpp:434] conv6_2_mbox_conf_flat <- conv6_2_mbox_conf_perm
I0321 17:50:15.282167  9925 net.cpp:408] conv6_2_mbox_conf_flat -> conv6_2_mbox_conf_flat
I0321 17:50:15.282181  9925 net.cpp:150] Setting up conv6_2_mbox_conf_flat
I0321 17:50:15.282186  9925 net.cpp:157] Top shape: 8 3072 (24576)
I0321 17:50:15.282187  9925 net.cpp:165] Memory required for data: 5735710752
I0321 17:50:15.282189  9925 layer_factory.hpp:77] Creating layer conv6_2_mbox_priorbox
I0321 17:50:15.282194  9925 net.cpp:100] Creating Layer conv6_2_mbox_priorbox
I0321 17:50:15.282198  9925 net.cpp:434] conv6_2_mbox_priorbox <- conv6_2_conv6_2_relu_0_split_3
I0321 17:50:15.282208  9925 net.cpp:434] conv6_2_mbox_priorbox <- data_data_0_split_3
I0321 17:50:15.282213  9925 net.cpp:408] conv6_2_mbox_priorbox -> conv6_2_mbox_priorbox
I0321 17:50:15.282230  9925 net.cpp:150] Setting up conv6_2_mbox_priorbox
I0321 17:50:15.282235  9925 net.cpp:157] Top shape: 1 2 6144 (12288)
I0321 17:50:15.282238  9925 net.cpp:165] Memory required for data: 5735759904
I0321 17:50:15.282239  9925 layer_factory.hpp:77] Creating layer conv7_2_mbox_loc
I0321 17:50:15.282246  9925 net.cpp:100] Creating Layer conv7_2_mbox_loc
I0321 17:50:15.282250  9925 net.cpp:434] conv7_2_mbox_loc <- conv7_2_conv7_2_relu_0_split_1
I0321 17:50:15.282254  9925 net.cpp:408] conv7_2_mbox_loc -> conv7_2_mbox_loc
I0321 17:50:15.282634  9925 net.cpp:150] Setting up conv7_2_mbox_loc
I0321 17:50:15.282639  9925 net.cpp:157] Top shape: 8 24 8 8 (12288)
I0321 17:50:15.282641  9925 net.cpp:165] Memory required for data: 5735809056
I0321 17:50:15.282645  9925 layer_factory.hpp:77] Creating layer conv7_2_mbox_loc_perm
I0321 17:50:15.282650  9925 net.cpp:100] Creating Layer conv7_2_mbox_loc_perm
I0321 17:50:15.282652  9925 net.cpp:434] conv7_2_mbox_loc_perm <- conv7_2_mbox_loc
I0321 17:50:15.282656  9925 net.cpp:408] conv7_2_mbox_loc_perm -> conv7_2_mbox_loc_perm
I0321 17:50:15.282716  9925 net.cpp:150] Setting up conv7_2_mbox_loc_perm
I0321 17:50:15.282721  9925 net.cpp:157] Top shape: 8 8 8 24 (12288)
I0321 17:50:15.282722  9925 net.cpp:165] Memory required for data: 5735858208
I0321 17:50:15.282724  9925 layer_factory.hpp:77] Creating layer conv7_2_mbox_loc_flat
I0321 17:50:15.282727  9925 net.cpp:100] Creating Layer conv7_2_mbox_loc_flat
I0321 17:50:15.282730  9925 net.cpp:434] conv7_2_mbox_loc_flat <- conv7_2_mbox_loc_perm
I0321 17:50:15.282733  9925 net.cpp:408] conv7_2_mbox_loc_flat -> conv7_2_mbox_loc_flat
I0321 17:50:15.282749  9925 net.cpp:150] Setting up conv7_2_mbox_loc_flat
I0321 17:50:15.282752  9925 net.cpp:157] Top shape: 8 1536 (12288)
I0321 17:50:15.282754  9925 net.cpp:165] Memory required for data: 5735907360
I0321 17:50:15.282757  9925 layer_factory.hpp:77] Creating layer conv7_2_mbox_conf
I0321 17:50:15.282763  9925 net.cpp:100] Creating Layer conv7_2_mbox_conf
I0321 17:50:15.282764  9925 net.cpp:434] conv7_2_mbox_conf <- conv7_2_conv7_2_relu_0_split_2
I0321 17:50:15.282769  9925 net.cpp:408] conv7_2_mbox_conf -> conv7_2_mbox_conf
I0321 17:50:15.283032  9925 net.cpp:150] Setting up conv7_2_mbox_conf
I0321 17:50:15.283038  9925 net.cpp:157] Top shape: 8 12 8 8 (6144)
I0321 17:50:15.283041  9925 net.cpp:165] Memory required for data: 5735931936
I0321 17:50:15.283043  9925 layer_factory.hpp:77] Creating layer conv7_2_mbox_conf_perm
I0321 17:50:15.283048  9925 net.cpp:100] Creating Layer conv7_2_mbox_conf_perm
I0321 17:50:15.283051  9925 net.cpp:434] conv7_2_mbox_conf_perm <- conv7_2_mbox_conf
I0321 17:50:15.283056  9925 net.cpp:408] conv7_2_mbox_conf_perm -> conv7_2_mbox_conf_perm
I0321 17:50:15.283114  9925 net.cpp:150] Setting up conv7_2_mbox_conf_perm
I0321 17:50:15.283119  9925 net.cpp:157] Top shape: 8 8 8 12 (6144)
I0321 17:50:15.283121  9925 net.cpp:165] Memory required for data: 5735956512
I0321 17:50:15.283123  9925 layer_factory.hpp:77] Creating layer conv7_2_mbox_conf_flat
I0321 17:50:15.283128  9925 net.cpp:100] Creating Layer conv7_2_mbox_conf_flat
I0321 17:50:15.283129  9925 net.cpp:434] conv7_2_mbox_conf_flat <- conv7_2_mbox_conf_perm
I0321 17:50:15.283133  9925 net.cpp:408] conv7_2_mbox_conf_flat -> conv7_2_mbox_conf_flat
I0321 17:50:15.283148  9925 net.cpp:150] Setting up conv7_2_mbox_conf_flat
I0321 17:50:15.283151  9925 net.cpp:157] Top shape: 8 768 (6144)
I0321 17:50:15.283152  9925 net.cpp:165] Memory required for data: 5735981088
I0321 17:50:15.283154  9925 layer_factory.hpp:77] Creating layer conv7_2_mbox_priorbox
I0321 17:50:15.283159  9925 net.cpp:100] Creating Layer conv7_2_mbox_priorbox
I0321 17:50:15.283161  9925 net.cpp:434] conv7_2_mbox_priorbox <- conv7_2_conv7_2_relu_0_split_3
I0321 17:50:15.283164  9925 net.cpp:434] conv7_2_mbox_priorbox <- data_data_0_split_4
I0321 17:50:15.283175  9925 net.cpp:408] conv7_2_mbox_priorbox -> conv7_2_mbox_priorbox
I0321 17:50:15.283193  9925 net.cpp:150] Setting up conv7_2_mbox_priorbox
I0321 17:50:15.283198  9925 net.cpp:157] Top shape: 1 2 1536 (3072)
I0321 17:50:15.283200  9925 net.cpp:165] Memory required for data: 5735993376
I0321 17:50:15.283201  9925 layer_factory.hpp:77] Creating layer conv8_2_mbox_loc
I0321 17:50:15.283208  9925 net.cpp:100] Creating Layer conv8_2_mbox_loc
I0321 17:50:15.283211  9925 net.cpp:434] conv8_2_mbox_loc <- conv8_2_conv8_2_relu_0_split_1
I0321 17:50:15.283217  9925 net.cpp:408] conv8_2_mbox_loc -> conv8_2_mbox_loc
I0321 17:50:15.283530  9925 net.cpp:150] Setting up conv8_2_mbox_loc
I0321 17:50:15.283535  9925 net.cpp:157] Top shape: 8 16 6 6 (4608)
I0321 17:50:15.283537  9925 net.cpp:165] Memory required for data: 5736011808
I0321 17:50:15.283548  9925 layer_factory.hpp:77] Creating layer conv8_2_mbox_loc_perm
I0321 17:50:15.283555  9925 net.cpp:100] Creating Layer conv8_2_mbox_loc_perm
I0321 17:50:15.283556  9925 net.cpp:434] conv8_2_mbox_loc_perm <- conv8_2_mbox_loc
I0321 17:50:15.283560  9925 net.cpp:408] conv8_2_mbox_loc_perm -> conv8_2_mbox_loc_perm
I0321 17:50:15.283622  9925 net.cpp:150] Setting up conv8_2_mbox_loc_perm
I0321 17:50:15.283627  9925 net.cpp:157] Top shape: 8 6 6 16 (4608)
I0321 17:50:15.283629  9925 net.cpp:165] Memory required for data: 5736030240
I0321 17:50:15.283632  9925 layer_factory.hpp:77] Creating layer conv8_2_mbox_loc_flat
I0321 17:50:15.283635  9925 net.cpp:100] Creating Layer conv8_2_mbox_loc_flat
I0321 17:50:15.283638  9925 net.cpp:434] conv8_2_mbox_loc_flat <- conv8_2_mbox_loc_perm
I0321 17:50:15.283641  9925 net.cpp:408] conv8_2_mbox_loc_flat -> conv8_2_mbox_loc_flat
I0321 17:50:15.283656  9925 net.cpp:150] Setting up conv8_2_mbox_loc_flat
I0321 17:50:15.283660  9925 net.cpp:157] Top shape: 8 576 (4608)
I0321 17:50:15.283663  9925 net.cpp:165] Memory required for data: 5736048672
I0321 17:50:15.283664  9925 layer_factory.hpp:77] Creating layer conv8_2_mbox_conf
I0321 17:50:15.283670  9925 net.cpp:100] Creating Layer conv8_2_mbox_conf
I0321 17:50:15.283673  9925 net.cpp:434] conv8_2_mbox_conf <- conv8_2_conv8_2_relu_0_split_2
I0321 17:50:15.283679  9925 net.cpp:408] conv8_2_mbox_conf -> conv8_2_mbox_conf
I0321 17:50:15.284554  9925 net.cpp:150] Setting up conv8_2_mbox_conf
I0321 17:50:15.284564  9925 net.cpp:157] Top shape: 8 8 6 6 (2304)
I0321 17:50:15.284564  9925 net.cpp:165] Memory required for data: 5736057888
I0321 17:50:15.284569  9925 layer_factory.hpp:77] Creating layer conv8_2_mbox_conf_perm
I0321 17:50:15.284574  9925 net.cpp:100] Creating Layer conv8_2_mbox_conf_perm
I0321 17:50:15.284579  9925 net.cpp:434] conv8_2_mbox_conf_perm <- conv8_2_mbox_conf
I0321 17:50:15.284584  9925 net.cpp:408] conv8_2_mbox_conf_perm -> conv8_2_mbox_conf_perm
I0321 17:50:15.284649  9925 net.cpp:150] Setting up conv8_2_mbox_conf_perm
I0321 17:50:15.284653  9925 net.cpp:157] Top shape: 8 6 6 8 (2304)
I0321 17:50:15.284656  9925 net.cpp:165] Memory required for data: 5736067104
I0321 17:50:15.284657  9925 layer_factory.hpp:77] Creating layer conv8_2_mbox_conf_flat
I0321 17:50:15.284662  9925 net.cpp:100] Creating Layer conv8_2_mbox_conf_flat
I0321 17:50:15.284663  9925 net.cpp:434] conv8_2_mbox_conf_flat <- conv8_2_mbox_conf_perm
I0321 17:50:15.284668  9925 net.cpp:408] conv8_2_mbox_conf_flat -> conv8_2_mbox_conf_flat
I0321 17:50:15.284684  9925 net.cpp:150] Setting up conv8_2_mbox_conf_flat
I0321 17:50:15.284689  9925 net.cpp:157] Top shape: 8 288 (2304)
I0321 17:50:15.284690  9925 net.cpp:165] Memory required for data: 5736076320
I0321 17:50:15.284693  9925 layer_factory.hpp:77] Creating layer conv8_2_mbox_priorbox
I0321 17:50:15.284696  9925 net.cpp:100] Creating Layer conv8_2_mbox_priorbox
I0321 17:50:15.284699  9925 net.cpp:434] conv8_2_mbox_priorbox <- conv8_2_conv8_2_relu_0_split_3
I0321 17:50:15.284703  9925 net.cpp:434] conv8_2_mbox_priorbox <- data_data_0_split_5
I0321 17:50:15.284708  9925 net.cpp:408] conv8_2_mbox_priorbox -> conv8_2_mbox_priorbox
I0321 17:50:15.284724  9925 net.cpp:150] Setting up conv8_2_mbox_priorbox
I0321 17:50:15.284736  9925 net.cpp:157] Top shape: 1 2 576 (1152)
I0321 17:50:15.284739  9925 net.cpp:165] Memory required for data: 5736080928
I0321 17:50:15.284740  9925 layer_factory.hpp:77] Creating layer conv9_2_mbox_loc
I0321 17:50:15.284749  9925 net.cpp:100] Creating Layer conv9_2_mbox_loc
I0321 17:50:15.284752  9925 net.cpp:434] conv9_2_mbox_loc <- conv9_2_conv9_2_relu_0_split_0
I0321 17:50:15.284756  9925 net.cpp:408] conv9_2_mbox_loc -> conv9_2_mbox_loc
I0321 17:50:15.285060  9925 net.cpp:150] Setting up conv9_2_mbox_loc
I0321 17:50:15.285065  9925 net.cpp:157] Top shape: 8 16 4 4 (2048)
I0321 17:50:15.285068  9925 net.cpp:165] Memory required for data: 5736089120
I0321 17:50:15.285071  9925 layer_factory.hpp:77] Creating layer conv9_2_mbox_loc_perm
I0321 17:50:15.285076  9925 net.cpp:100] Creating Layer conv9_2_mbox_loc_perm
I0321 17:50:15.285079  9925 net.cpp:434] conv9_2_mbox_loc_perm <- conv9_2_mbox_loc
I0321 17:50:15.285082  9925 net.cpp:408] conv9_2_mbox_loc_perm -> conv9_2_mbox_loc_perm
I0321 17:50:15.285146  9925 net.cpp:150] Setting up conv9_2_mbox_loc_perm
I0321 17:50:15.285151  9925 net.cpp:157] Top shape: 8 4 4 16 (2048)
I0321 17:50:15.285152  9925 net.cpp:165] Memory required for data: 5736097312
I0321 17:50:15.285154  9925 layer_factory.hpp:77] Creating layer conv9_2_mbox_loc_flat
I0321 17:50:15.285159  9925 net.cpp:100] Creating Layer conv9_2_mbox_loc_flat
I0321 17:50:15.285161  9925 net.cpp:434] conv9_2_mbox_loc_flat <- conv9_2_mbox_loc_perm
I0321 17:50:15.285166  9925 net.cpp:408] conv9_2_mbox_loc_flat -> conv9_2_mbox_loc_flat
I0321 17:50:15.285181  9925 net.cpp:150] Setting up conv9_2_mbox_loc_flat
I0321 17:50:15.285184  9925 net.cpp:157] Top shape: 8 256 (2048)
I0321 17:50:15.285187  9925 net.cpp:165] Memory required for data: 5736105504
I0321 17:50:15.285188  9925 layer_factory.hpp:77] Creating layer conv9_2_mbox_conf
I0321 17:50:15.285194  9925 net.cpp:100] Creating Layer conv9_2_mbox_conf
I0321 17:50:15.285197  9925 net.cpp:434] conv9_2_mbox_conf <- conv9_2_conv9_2_relu_0_split_1
I0321 17:50:15.285202  9925 net.cpp:408] conv9_2_mbox_conf -> conv9_2_mbox_conf
I0321 17:50:15.285421  9925 net.cpp:150] Setting up conv9_2_mbox_conf
I0321 17:50:15.285426  9925 net.cpp:157] Top shape: 8 8 4 4 (1024)
I0321 17:50:15.285429  9925 net.cpp:165] Memory required for data: 5736109600
I0321 17:50:15.285431  9925 layer_factory.hpp:77] Creating layer conv9_2_mbox_conf_perm
I0321 17:50:15.285435  9925 net.cpp:100] Creating Layer conv9_2_mbox_conf_perm
I0321 17:50:15.285439  9925 net.cpp:434] conv9_2_mbox_conf_perm <- conv9_2_mbox_conf
I0321 17:50:15.285442  9925 net.cpp:408] conv9_2_mbox_conf_perm -> conv9_2_mbox_conf_perm
I0321 17:50:15.285506  9925 net.cpp:150] Setting up conv9_2_mbox_conf_perm
I0321 17:50:15.285509  9925 net.cpp:157] Top shape: 8 4 4 8 (1024)
I0321 17:50:15.285511  9925 net.cpp:165] Memory required for data: 5736113696
I0321 17:50:15.285513  9925 layer_factory.hpp:77] Creating layer conv9_2_mbox_conf_flat
I0321 17:50:15.285518  9925 net.cpp:100] Creating Layer conv9_2_mbox_conf_flat
I0321 17:50:15.285521  9925 net.cpp:434] conv9_2_mbox_conf_flat <- conv9_2_mbox_conf_perm
I0321 17:50:15.285526  9925 net.cpp:408] conv9_2_mbox_conf_flat -> conv9_2_mbox_conf_flat
I0321 17:50:15.285538  9925 net.cpp:150] Setting up conv9_2_mbox_conf_flat
I0321 17:50:15.285542  9925 net.cpp:157] Top shape: 8 128 (1024)
I0321 17:50:15.285544  9925 net.cpp:165] Memory required for data: 5736117792
I0321 17:50:15.285547  9925 layer_factory.hpp:77] Creating layer conv9_2_mbox_priorbox
I0321 17:50:15.285552  9925 net.cpp:100] Creating Layer conv9_2_mbox_priorbox
I0321 17:50:15.285553  9925 net.cpp:434] conv9_2_mbox_priorbox <- conv9_2_conv9_2_relu_0_split_2
I0321 17:50:15.285557  9925 net.cpp:434] conv9_2_mbox_priorbox <- data_data_0_split_6
I0321 17:50:15.285562  9925 net.cpp:408] conv9_2_mbox_priorbox -> conv9_2_mbox_priorbox
I0321 17:50:15.285576  9925 net.cpp:150] Setting up conv9_2_mbox_priorbox
I0321 17:50:15.285580  9925 net.cpp:157] Top shape: 1 2 256 (512)
I0321 17:50:15.285589  9925 net.cpp:165] Memory required for data: 5736119840
I0321 17:50:15.285593  9925 layer_factory.hpp:77] Creating layer mbox_loc
I0321 17:50:15.285598  9925 net.cpp:100] Creating Layer mbox_loc
I0321 17:50:15.285600  9925 net.cpp:434] mbox_loc <- conv4_3_norm_mbox_loc_flat
I0321 17:50:15.285604  9925 net.cpp:434] mbox_loc <- fc7_mbox_loc_flat
I0321 17:50:15.285606  9925 net.cpp:434] mbox_loc <- conv6_2_mbox_loc_flat
I0321 17:50:15.285609  9925 net.cpp:434] mbox_loc <- conv7_2_mbox_loc_flat
I0321 17:50:15.285611  9925 net.cpp:434] mbox_loc <- conv8_2_mbox_loc_flat
I0321 17:50:15.285614  9925 net.cpp:434] mbox_loc <- conv9_2_mbox_loc_flat
I0321 17:50:15.285617  9925 net.cpp:408] mbox_loc -> mbox_loc
I0321 17:50:15.285636  9925 net.cpp:150] Setting up mbox_loc
I0321 17:50:15.285641  9925 net.cpp:157] Top shape: 8 98624 (788992)
I0321 17:50:15.285643  9925 net.cpp:165] Memory required for data: 5739275808
I0321 17:50:15.285645  9925 layer_factory.hpp:77] Creating layer mbox_conf
I0321 17:50:15.285650  9925 net.cpp:100] Creating Layer mbox_conf
I0321 17:50:15.285652  9925 net.cpp:434] mbox_conf <- conv4_3_norm_mbox_conf_flat
I0321 17:50:15.285655  9925 net.cpp:434] mbox_conf <- fc7_mbox_conf_flat
I0321 17:50:15.285660  9925 net.cpp:434] mbox_conf <- conv6_2_mbox_conf_flat
I0321 17:50:15.285661  9925 net.cpp:434] mbox_conf <- conv7_2_mbox_conf_flat
I0321 17:50:15.285665  9925 net.cpp:434] mbox_conf <- conv8_2_mbox_conf_flat
I0321 17:50:15.285666  9925 net.cpp:434] mbox_conf <- conv9_2_mbox_conf_flat
I0321 17:50:15.285670  9925 net.cpp:408] mbox_conf -> mbox_conf
I0321 17:50:15.285684  9925 net.cpp:150] Setting up mbox_conf
I0321 17:50:15.285689  9925 net.cpp:157] Top shape: 8 49312 (394496)
I0321 17:50:15.285691  9925 net.cpp:165] Memory required for data: 5740853792
I0321 17:50:15.285693  9925 layer_factory.hpp:77] Creating layer mbox_priorbox
I0321 17:50:15.285697  9925 net.cpp:100] Creating Layer mbox_priorbox
I0321 17:50:15.285699  9925 net.cpp:434] mbox_priorbox <- conv4_3_norm_mbox_priorbox
I0321 17:50:15.285701  9925 net.cpp:434] mbox_priorbox <- fc7_mbox_priorbox
I0321 17:50:15.285704  9925 net.cpp:434] mbox_priorbox <- conv6_2_mbox_priorbox
I0321 17:50:15.285707  9925 net.cpp:434] mbox_priorbox <- conv7_2_mbox_priorbox
I0321 17:50:15.285709  9925 net.cpp:434] mbox_priorbox <- conv8_2_mbox_priorbox
I0321 17:50:15.285712  9925 net.cpp:434] mbox_priorbox <- conv9_2_mbox_priorbox
I0321 17:50:15.285717  9925 net.cpp:408] mbox_priorbox -> mbox_priorbox
I0321 17:50:15.285730  9925 net.cpp:150] Setting up mbox_priorbox
I0321 17:50:15.285734  9925 net.cpp:157] Top shape: 1 2 98624 (197248)
I0321 17:50:15.285737  9925 net.cpp:165] Memory required for data: 5741642784
I0321 17:50:15.285738  9925 layer_factory.hpp:77] Creating layer mbox_loss
I0321 17:50:15.285745  9925 net.cpp:100] Creating Layer mbox_loss
I0321 17:50:15.285748  9925 net.cpp:434] mbox_loss <- mbox_loc
I0321 17:50:15.285751  9925 net.cpp:434] mbox_loss <- mbox_conf
I0321 17:50:15.285754  9925 net.cpp:434] mbox_loss <- mbox_priorbox
…
  phase: TEST
}
layer {
  name: "data"
  type: "AnnotatedData"
  top: "data"
  top: "label"
  include {
    phase: TEST
  }
  transform_param {
    mean_value: 104
    mean_value: 117
    mean_value: 123
    resize_param {
      prob: 1
      resize_mode: WARP
      height: 512
      width: 512
      interp_mode: LINEAR
    }
  }
  data_param {
    source: "/localdata/markustp/data/ascend/lmdb/ascend_test_lmdb"
    batch_size: 2
    backend: LMDB
  }
  annotated_data_param {
    batch_sampler {
    }
    label_map_file: "data/ascend/labelmap.prototxt"
  }
}
layer {
  name: "conv1_1"
  type: "Convolution"
  bottom: "data"
  top: "conv1_1"
  param {
    lr_mult: 1
    decay_mult: 1
  }
  param {
    lr_mult: 2
    decay_mult: 0
  }
  convolution_param {
    num_output: 64
    pad: 1
    kernel_size: 3
    weight_filler {
      type: "xavier"
    }
    bias_filler {
      type: "constant"
      value: 0
    }
  }
}
layer {
  name: "relu1_1"
  type: "ReLU"
  bottom: "conv1_1"
  top: "conv1_1"
}
layer {
  name: "conv1_2"
  type: "Convolution"
  bottom: "conv1_1"
  top: "conv1_2"
  param {
    lr_mult: 1
    decay_mult: 1
  }
  param {
    lr_mult: 2
    decay_mult: 0
  }
  convolution_param {
    num_output: 64
    pad: 1
    kernel_size: 3
    weight_filler {
      type: "xavier"
    }
    bias_filler {
      type: "constant"
      value: 0
    }
  }
}
layer {
  name: "relu1_2"
  type: "ReLU"
  bottom: "conv1_2"
  top: "conv1_2"
}
layer {
  name: "pool1"
  type: "Pooling"
  bottom: "conv1_2"
  top: "pool1"
  pooling_param {
    pool: MAX
    kernel_size: 2
    stride: 2
  }
}
layer {
  name: "conv2_1"
  type: "Convolution"
  bottom: "pool1"
  top: "conv2_1"
  param {
    lr_mult: 1
    decay_mult: 1
  }
  param {
    lr_mult: 2
    decay_mult: 0
  }
  convolution_param {
    num_output: 128
    pad: 1
    kernel_size: 3
    weight_filler {
      type: "xavier"
    }
    bias_filler {
      type: "constant"
      value: 0
    }
  }
}
layer {
  name: "relu2_1"
  type: "ReLU"
  bottom: "conv2_1"
  top: "conv2_1"
}
layer {
  name: "conv2_2"
  type: "Convolution"
  bottom: "conv2_1"
  top: "conv2_2"
  param {
    lr_mult: 1
    decay_mult: 1
  }
  param {
    lr_mult: 2
    decay_mult: 0
  }
  convolution_param {
    num_output: 128
    pad: 1
    kernel_size: 3
    weight_filler {
      type: "xavier"
    }
    bias_filler {
      type: "constant"
      value: 0
    }
  }
}
layer {
  name: "relu2_2"
  type: "ReLU"
  bottom: "conv2_2"
  top: "conv2_2"
}
layer {
  name: "pool2"
  type: "Pooling"
  bottom: "conv2_2"
  top: "pool2"
  pooling_param {
    pool: MAX
    kernel_size: 2
    stride: 2
  }
}
layer {
  name: "conv3_1"
  type: "Convolution"
  bottom: "pool2"
  top: "conv3_1"
  param {
    lr_mult: 1
    decay_mult: 1
  }
  param {
    lr_mult: 2
    decay_mult: 0
  }
  convolution_param {
    num_output: 256
    pad: 1
    kernel_size: 3
    weight_filler {
      type: "xavier"
    }
    bias_filler {
      type: "constant"
      value: 0
    }
  }
}
layer {
  name: "relu3_1"
  type: "ReLU"
  bottom: "conv3_1"
  top: "conv3_1"
}
layer {
  name: "conv3_2"
  type: "Convolution"
  bottom: "conv3_1"
  top: "conv3_2"
  param {
    lr_mult: 1
    decay_mult: 1
  }
  param {
    lr_mult: 2
    decay_mult: 0
  }
  convolution_param {
    num_output: 256
    pad: 1
    kernel_size: 3
    weight_filler {
      type: "xavier"
    }
    bias_filler {
      type: "constant"
      value: 0
    }
  }
}
layer {
  name: "relu3_2"
  type: "ReLU"
  bottom: "conv3_2"
  top: "conv3_2"
}
layer {
  name: "conv3_3"
  type: "Convolution"
  bottom: "conv3_2"
  top: "conv3_3"
  param {
    lr_mult: 1
    decay_mult: 1
  }
  param {
    lr_mult: 2
    decay_mult: 0
  }
  convolution_param {
    num_output: 256
    pad: 1
    kernel_size: 3
    weight_filler {
      type: "xavier"
    }
    bias_filler {
      type: "constant"
      value: 0
    }
  }
}
layer {
  name: "relu3_3"
  type: "ReLU"
  bottom: "conv3_3"
  top: "conv3_3"
}
layer {
  name: "pool3"
  type: "Pooling"
  bottom: "conv3_3"
  top: "pool3"
  pooling_param {
    pool: MAX
    kernel_size: 2
    stride: 2
  }
}
layer {
  name: "conv4_1"
  type: "Convolution"
  bottom: "pool3"
  top: "conv4_1"
  param {
    lr_mult: 1
    decay_mult: 1
  }
  param {
    lr_mult: 2
    decay_mult: 0
  }
  convolution_param {
    num_output: 512
    pad: 1
    kernel_size: 3
    weight_filler {
      type: "xavier"
    }
    bias_filler {
      type: "constant"
      value: 0
    }
  }
}
layer {
  name: "relu4_1"
  type: "ReLU"
  bottom: "conv4_1"
  top: "conv4_1"
}
layer {
  name: "conv4_2"
  type: "Convolution"
  bottom: "conv4_1"
  top: "conv4_2"
  param {
    lr_mult: 1
    decay_mult: 1
  }
  param {
    lr_mult: 2
    decay_mult: 0
  }
  convolution_param {
    num_output: 512
    pad: 1
    kernel_size: 3
    weight_filler {
      type: "xavier"
    }
    bias_filler {
      type: "constant"
      value: 0
    }
  }
}
layer {
  name: "relu4_2"
  type: "ReLU"
  bottom: "conv4_2"
  top: "conv4_2"
}
layer {
  name: "conv4_3"
  type: "Convolution"
  bottom: "conv4_2"
  top: "conv4_3"
  param {
    lr_mult: 1
    decay_mult: 1
  }
  param {
    lr_mult: 2
    decay_mult: 0
  }
  convolution_param {
    num_output: 512
    pad: 1
    kernel_size: 3
    weight_filler {
      type: "xavier"
    }
    bias_filler {
      type: "constant"
      value: 0
    }
  }
}
layer {
  name: "relu4_3"
  type: "ReLU"
  bottom: "conv4_3"
  top: "conv4_3"
}
layer {
  name: "pool4"
  type: "Pooling"
  bottom: "conv4_3"
  top: "pool4"
  pooling_param {
    pool: MAX
    kernel_size: 2
    stride: 2
  }
}
layer {
  name: "conv5_1"
  type: "Convolution"
  bottom: "pool4"
  top: "conv5_1"
  param {
    lr_mult: 1
    decay_mult: 1
  }
  param {
    lr_mult: 2
    decay_mult: 0
  }
  convolution_param {
    num_output: 512
    pad: 1
    kernel_size: 3
    weight_filler {
      type: "xavier"
    }
    bias_filler {
      type: "constant"
      value: 0
    }
    dilation: 1
  }
}
layer {
  name: "relu5_1"
  type: "ReLU"
  bottom: "conv5_1"
  top: "conv5_1"
}
layer {
  name: "conv5_2"
  type: "Convolution"
  bottom: "conv5_1"
  top: "conv5_2"
  param {
    lr_mult: 1
    decay_mult: 1
  }
  param {
    lr_mult: 2
    decay_mult: 0
  }
  convolution_param {
    num_output: 512
    pad: 1
    kernel_size: 3
    weight_filler {
      type: "xavier"
    }
    bias_filler {
      type: "constant"
      value: 0
    }
    dilation: 1
  }
}
layer {
  name: "relu5_2"
  type: "ReLU"
  bottom: "conv5_2"
  top: "conv5_2"
}
layer {
  name: "conv5_3"
  type: "Convolution"
  bottom: "conv5_2"
  top: "conv5_3"
  param {
    lr_mult: 1
    decay_mult: 1
  }
  param {
    lr_mult: 2
    decay_mult: 0
  }
  convolution_param {
    num_output: 512
    pad: 1
    kernel_size: 3
    weight_filler {
      type: "xavier"
    }
    bias_filler {
      type: "constant"
      value: 0
    }
    dilation: 1
  }
}
layer {
  name: "relu5_3"
  type: "ReLU"
  bottom: "conv5_3"
  top: "conv5_3"
}
layer {
  name: "pool5"
  type: "Pooling"
  bottom: "conv5_3"
  top: "pool5"
  pooling_param {
    pool: MAX
    kernel_size: 3
    stride: 1
    pad: 1
  }
}
layer {
  name: "fc6"
  type: "Convolution"
  bottom: "pool5"
  top: "fc6"
  param {
    lr_mult: 1
    decay_mult: 1
  }
  param {
    lr_mult: 2
    decay_mult: 0
  }
  convolution_param {
    num_output: 1024
    pad: 6
    kernel_size: 3
    weight_filler {
      type: "xavier"
    }
    bias_filler {
      type: "constant"
      value: 0
    }
    dilation: 6
  }
}
layer {
  name: "relu6"
  type: "ReLU"
  bottom: "fc6"
  top: "fc6"
}
layer {
  name: "fc7"
  type: "Convolution"
  bottom: "fc6"
  top: "fc7"
  param {
    lr_mult: 1
    decay_mult: 1
  }
  param {
    lr_mult: 2
    decay_mult: 0
  }
  convolution_param {
    num_output: 1024
    kernel_size: 1
    weight_filler {
      type: "xavier"
    }
    bias_filler {
      type: "constant"
      value: 0
    }
  }
}
layer {
  name: "relu7"
  type: "ReLU"
  bottom: "fc7"
  top: "fc7"
}
layer {
  name: "conv6_1"
  type: "Convolution"
  bottom: "fc7"
  top: "conv6_1"
  param {
    lr_mult: 1
    decay_mult: 1
  }
  param {
    lr_mult: 2
    decay_mult: 0
  }
  convolution_param {
    num_output: 256
    pad: 0
    kernel_size: 1
    stride: 1
    weight_filler {
      type: "xavier"
    }
    bias_filler {
      type: "constant"
      value: 0
    }
  }
}
layer {
  name: "conv6_1_relu"
  type: "ReLU"
  bottom: "conv6_1"
  top: "conv6_1"
}
layer {
  name: "conv6_2"
  type: "Convolution"
  bottom: "conv6_1"
  top: "conv6_2"
  param {
    lr_mult: 1
    decay_mult: 1
  }
  param {
    lr_mult: 2
    decay_mult: 0
  }
  convolution_param {
    num_output: 512
    pad: 1
    kernel_size: 3
    stride: 2
    weight_filler {
      type: "xavier"
    }
    bias_filler {
      type: "constant"
      value: 0
    }
  }
}
layer {
  name: "conv6_2_relu"
  type: "ReLU"
  bottom: "conv6_2"
  top: "conv6_2"
}
layer {
  name: "conv7_1"
  type: "Convolution"
  bottom: "conv6_2"
  top: "conv7_1"
  param {
    lr_mult: 1
    decay_mult: 1
  }
  param {
    lr_mult: 2
    decay_mult: 0
  }
  convolution_param {
    num_output: 128
    pad: 0
    kernel_size: 1
    stride: 1
    weight_filler {
      type: "xavier"
    }
    bias_filler {
      type: "constant"
      value: 0
    }
  }
}
layer {
  name: "conv7_1_relu"
  type: "ReLU"
  bottom: "conv7_1"
  top: "conv7_1"
}
layer {
  name: "conv7_2"
  type: "Convolution"
  bottom: "conv7_1"
  top: "conv7_2"
  param {
    lr_mult: 1
    decay_mult: 1
  }
  param {
    lr_mult: 2
    decay_mult: 0
  }
  convolution_param {
    num_output: 256
    pad: 1
    kernel_size: 3
    stride: 2
    weight_filler {
      type: "xavier"
    }
    bias_filler {
      type: "constant"
      value: 0
    }
  }
}
layer {
  name: "conv7_2_relu"
  type: "ReLU"
  bottom: "conv7_2"
  top: "conv7_2"
}
layer {
  name: "conv8_1"
  type: "Convolution"
  bottom: "conv7_2"
  top: "conv8_1"
  param {
    lr_mult: 1
    decay_mult: 1
  }
  param {
    lr_mult: 2
    decay_mult: 0
  }
  convolution_param {
    num_output: 128
    pad: 0
    kernel_size: 1
    stride: 1
    weight_filler {
      type: "xavier"
    }
    bias_filler {
      type: "constant"
      value: 0
    }
  }
}
layer {
  name: "conv8_1_relu"
  type: "ReLU"
  bottom: "conv8_1"
  top: "conv8_1"
}
layer {
  name: "conv8_2"
  type: "Convolution"
  bottom: "conv8_1"
  top: "conv8_2"
  param {
    lr_mult: 1
    decay_mult: 1
  }
  param {
    lr_mult: 2
    decay_mult: 0
  }
  convolution_param {
    num_output: 256
    pad: 0
    kernel_size: 3
    stride: 1
    weight_filler {
      type: "xavier"
    }
    bias_filler {
      type: "constant"
      value: 0
    }
  }
}
layer {
  name: "conv8_2_relu"
  type: "ReLU"
  bottom: "conv8_2"
  top: "conv8_2"
}
layer {
  name: "conv9_1"
  type: "Convolution"
  bottom: "conv8_2"
  top: "conv9_1"
  param {
    lr_mult: 1
    decay_mult: 1
  }
  param {
    lr_mult: 2
    decay_mult: 0
  }
  convolution_param {
    num_output: 128
    pad: 0
    kernel_size: 1
    stride: 1
    weight_filler {
      type: "xavier"
    }
    bias_filler {
      type: "constant"
      value: 0
    }
  }
}
layer {
  name: "conv9_1_relu"
  type: "ReLU"
  bottom: "conv9_1"
  top: "conv9_1"
}
layer {
  name: "conv9_2"
  type: "Convolution"
  bottom: "conv9_1"
  top: "conv9_2"
  param {
    lr_mult: 1
    decay_mult: 1
  }
  param {
    lr_mult: 2
    decay_mult: 0
  }
  convolution_param {
    num_output: 256
    pad: 0
    kernel_size: 3
    stride: 1
    weight_filler {
      type: "xavier"
    }
    bias_filler {
      type: "constant"
      value: 0
    }
  }
}
layer {
  name: "conv9_2_relu"
  type: "ReLU"
  bottom: "conv9_2"
  top: "conv9_2"
}
layer {
  name: "conv4_3_norm"
  type: "Normalize"
  bottom: "conv4_3"
  top: "conv4_3_norm"
  norm_param {
    across_spatial: false
    scale_filler {
      type: "constant"
      value: 20
    }
    channel_shared: false
  }
}
layer {
  name: "conv4_3_norm_mbox_loc"
  type: "Convolution"
  bottom: "conv4_3_norm"
  top: "conv4_3_norm_mbox_loc"
  param {
    lr_mult: 1
    decay_mult: 1
  }
  param {
    lr_mult: 2
    decay_mult: 0
  }
  convolution_param {
    num_output: 16
    pad: 1
    kernel_size: 3
    stride: 1
    weight_filler {
      type: "xavier"
    }
    bias_filler {
      type: "constant"
      value: 0
    }
  }
}
layer {
  name: "conv4_3_norm_mbox_loc_perm"
  type: "Permute"
  bottom: "conv4_3_norm_mbox_loc"
  top: "conv4_3_norm_mbox_loc_perm"
  permute_param {
    order: 0
    order: 2
    order: 3
    order: 1
  }
}
layer {
  name: "conv4_3_norm_mbox_loc_flat"
  type: "Flatten"
  bottom: "conv4_3_norm_mbox_loc_perm"
  top: "conv4_3_norm_mbox_loc_flat"
  flatten_param {
    axis: 1
  }
}
layer {
  name: "conv4_3_norm_mbox_conf"
  type: "Convolution"
  bottom: "conv4_3_norm"
  top: "conv4_3_norm_mbox_conf"
  param {
    lr_mult: 1
    decay_mult: 1
  }
  param {
    lr_mult: 2
    decay_mult: 0
  }
  convolution_param {
    num_output: 8
    pad: 1
    kernel_size: 3
    stride: 1
    weight_filler {
      type: "xavier"
    }
    bias_filler {
      type: "constant"
      value: 0
    }
  }
}
layer {
  name: "conv4_3_norm_mbox_conf_perm"
  type: "Permute"
  bottom: "conv4_3_norm_mbox_conf"
  top: "conv4_3_norm_mbox_conf_perm"
  permute_param {
    order: 0
    order: 2
    order: 3
    order: 1
  }
}
layer {
  name: "conv4_3_norm_mbox_conf_flat"
  type: "Flatten"
  bottom: "conv4_3_norm_mbox_conf_perm"
  top: "conv4_3_norm_mbox_conf_flat"
  flatten_param {
    axis: 1
  }
}
layer {
  name: "conv4_3_norm_mbox_priorbox"
  type: "PriorBox"
  bottom: "conv4_3_norm"
  bottom: "data"
  top: "conv4_3_norm_mbox_priorbox"
  prior_box_param {
    min_size: 30
    max_size: 60
    aspect_ratio: 2
    flip: true
    clip: false
    variance: 0.1
    variance: 0.1
    variance: 0.2
    variance: 0.2
    step: 8
    offset: 0.5
  }
}
layer {
  name: "fc7_mbox_loc"
  type: "Convolution"
  bottom: "fc7"
  top: "fc7_mbox_loc"
  param {
    lr_mult: 1
    decay_mult: 1
  }
  param {
    lr_mult: 2
    decay_mult: 0
  }
  convolution_param {
    num_output: 24
    pad: 1
    kernel_size: 3
    stride: 1
    weight_filler {
      type: "xavier"
    }
    bias_filler {
      type: "constant"
      value: 0
    }
  }
}
layer {
  name: "fc7_mbox_loc_perm"
  type: "Permute"
  bottom: "fc7_mbox_loc"
  top: "fc7_mbox_loc_perm"
  permute_param {
    order: 0
    order: 2
    order: 3
    order: 1
  }
}
layer {
  name: "fc7_mbox_loc_flat"
  type: "Flatten"
  bottom: "fc7_mbox_loc_perm"
  top: "fc7_mbox_loc_flat"
  flatten_param {
    axis: 1
  }
}
layer {
  name: "fc7_mbox_conf"
  type: "Convolution"
  bottom: "fc7"
  top: "fc7_mbox_conf"
  param {
    lr_mult: 1
    decay_mult: 1
  }
  param {
    lr_mult: 2
    decay_mult: 0
  }
  convolution_param {
    num_output: 12
    pad: 1
    kernel_size: 3
    stride: 1
    weight_filler {
      type: "xavier"
    }
    bias_filler {
      type: "constant"
      value: 0
    }
  }
}
layer {
  name: "fc7_mbox_conf_perm"
  type: "Permute"
  bottom: "fc7_mbox_conf"
  top: "fc7_mbox_conf_perm"
  permute_param {
    order: 0
    order: 2
    order: 3
    order: 1
  }
}
layer {
  name: "fc7_mbox_conf_flat"
  type: "Flatten"
  bottom: "fc7_mbox_conf_perm"
  top: "fc7_mbox_conf_flat"
  flatten_param {
    axis: 1
  }
}
layer {
  name: "fc7_mbox_priorbox"
  type: "PriorBox"
  bottom: "fc7"
  bottom: "data"
  top: "fc7_mbox_priorbox"
  prior_box_param {
    min_size: 60
    max_size: 111
    aspect_ratio: 2
    aspect_ratio: 3
    flip: true
    clip: false
    variance: 0.1
    variance: 0.1
    variance: 0.2
    variance: 0.2
    step: 16
    offset: 0.5
  }
}
layer {
  name: "conv6_2_mbox_loc"
  type: "Convolution"
  bottom: "conv6_2"
  top: "conv6_2_mbox_loc"
  param {
    lr_mult: 1
    decay_mult: 1
  }
  param {
    lr_mult: 2
    decay_mult: 0
  }
  convolution_param {
    num_output: 24
    pad: 1
    kernel_size: 3
    stride: 1
    weight_filler {
      type: "xavier"
    }
    bias_filler {
      type: "constant"
      value: 0
    }
  }
}
layer {
  name: "conv6_2_mbox_loc_perm"
  type: "Permute"
  bottom: "conv6_2_mbox_loc"
  top: "conv6_2_mbox_loc_perm"
  permute_param {
    order: 0
    order: 2
    order: 3
    order: 1
  }
}
layer {
  name: "conv6_2_mbox_loc_flat"
  type: "Flatten"
  bottom: "conv6_2_mbox_loc_perm"
  top: "conv6_2_mbox_loc_flat"
  flatten_param {
    axis: 1
  }
}
layer {
  name: "conv6_2_mbox_conf"
  type: "Convolution"
  bottom: "conv6_2"
  top: "conv6_2_mbox_conf"
  param {
    lr_mult: 1
    decay_mult: 1
  }
  param {
    lr_mult: 2
    decay_mult: 0
  }
  convolution_param {
    num_output: 12
    pad: 1
    kernel_size: 3
    stride: 1
    weight_filler {
      type: "xavier"
    }
    bias_filler {
      type: "constant"
      value: 0
    }
  }
}
layer {
  name: "conv6_2_mbox_conf_perm"
  type: "Permute"
  bottom: "conv6_2_mbox_conf"
  top: "conv6_2_mbox_conf_perm"
  permute_param {
    order: 0
    order: 2
    order: 3
    order: 1
  }
}
layer {
  name: "conv6_2_mbox_conf_flat"
  type: "Flatten"
  bottom: "conv6_2_mbox_conf_perm"
  top: "conv6_2_mbox_conf_flat"
  flatten_param {
    axis: 1
  }
}
layer {
  name: "conv6_2_mbox_priorbox"
  type: "PriorBox"
  bottom: "conv6_2"
  bottom: "data"
  top: "conv6_2_mbox_priorbox"
  prior_box_param {
    min_size: 111
    max_size: 162
    aspect_ratio: 2
    aspect_ratio: 3
    flip: true
    clip: false
    variance: 0.1
    variance: 0.1
    variance: 0.2
    variance: 0.2
    step: 32
    offset: 0.5
  }
}
layer {
  name: "conv7_2_mbox_loc"
  type: "Convolution"
  bottom: "conv7_2"
  top: "conv7_2_mbox_loc"
  param {
    lr_mult: 1
    decay_mult: 1
  }
  param {
    lr_mult: 2
    decay_mult: 0
  }
  convolution_param {
    num_output: 24
    pad: 1
    kernel_size: 3
    stride: 1
    weight_filler {
      type: "xavier"
    }
    bias_filler {
      type: "constant"
      value: 0
    }
  }
}
layer {
  name: "conv7_2_mbox_loc_perm"
  type: "Permute"
  bottom: "conv7_2_mbox_loc"
  top: "conv7_2_mbox_loc_perm"
  permute_param {
    order: 0
    order: 2
    order: 3
    order: 1
  }
}
layer {
  name: "conv7_2_mbox_loc_flat"
  type: "Flatten"
  bottom: "conv7_2_mbox_loc_perm"
  top: "conv7_2_mbox_loc_flat"
  flatten_param {
    axis: 1
  }
}
layer {
  name: "conv7_2_mbox_conf"
  type: "Convolution"
  bottom: "conv7_2"
  top: "conv7_2_mbox_conf"
  param {
    lr_mult: 1
    decay_mult: 1
  }
  param {
    lr_mult: 2
    decay_mult: 0
  }
  convolution_param {
    num_output: 12
    pad: 1
    kernel_size: 3
    stride: 1
    weight_filler {
      type: "xavier"
    }
    bias_filler {
      type: "constant"
      value: 0
    }
  }
}
layer {
  name: "conv7_2_mbox_conf_perm"
  type: "Permute"
  bottom: "conv7_2_mbox_conf"
  top: "conv7_2_mbox_conf_perm"
  permute_param {
    order: 0
    order: 2
    order: 3
    order: 1
  }
}
layer {
  name: "conv7_2_mbox_conf_flat"
  type: "Flatten"
  bottom: "conv7_2_mbox_conf_perm"
  top: "conv7_2_mbox_conf_flat"
  flatten_param {
    axis: 1
  }
}
layer {
  name: "conv7_2_mbox_priorbox"
  type: "PriorBox"
  bottom: "conv7_2"
  bottom: "data"
  top: "conv7_2_mbox_priorbox"
  prior_box_param {
    min_size: 162
    max_size: 213
    aspect_ratio: 2
    aspect_ratio: 3
    flip: true
    clip: false
    variance: 0.1
    variance: 0.1
    variance: 0.2
    variance: 0.2
    step: 64
    offset: 0.5
  }
}
layer {
  name: "conv8_2_mbox_loc"
  type: "Convolution"
  bottom: "conv8_2"
  top: "conv8_2_mbox_loc"
  param {
    lr_mult: 1
    decay_mult: 1
  }
  param {
    lr_mult: 2
    decay_mult: 0
  }
  convolution_param {
    num_output: 16
    pad: 1
    kernel_size: 3
    stride: 1
    weight_filler {
      type: "xavier"
    }
    bias_filler {
      type: "constant"
      value: 0
    }
  }
}
layer {
  name: "conv8_2_mbox_loc_perm"
  type: "Permute"
  bottom: "conv8_2_mbox_loc"
  top: "conv8_2_mbox_loc_perm"
  permute_param {
    order: 0
    order: 2
    order: 3
    order: 1
  }
}
layer {
  name: "conv8_2_mbox_loc_flat"
  type: "Flatten"
  bottom: "conv8_2_mbox_loc_perm"
  top: "conv8_2_mbox_loc_flat"
  flatten_param {
    axis: 1
  }
}
layer {
  name: "conv8_2_mbox_conf"
  type: "Convolution"
  bottom: "conv8_2"
  top: "conv8_2_mbox_conf"
  param {
    lr_mult: 1
    decay_mult: 1
  }
  param {
    lr_mult: 2
    decay_mult: 0
  }
  convolution_param {
    num_output: 8
    pad: 1
    kernel_size: 3
    stride: 1
    weight_filler {
      type: "xavier"
    }
    bias_filler {
      type: "constant"
      value: 0
    }
  }
}
layer {
  name: "conv8_2_mbox_conf_perm"
  type: "Permute"
  bottom: "conv8_2_mbox_conf"
  top: "conv8_2_mbox_conf_perm"
  permute_param {
    order: 0
    order: 2
    order: 3
    order: 1
  }
}
layer {
  name: "conv8_2_mbox_conf_flat"
  type: "Flatten"
  bottom: "conv8_2_mbox_conf_perm"
  top: "conv8_2_mbox_conf_flat"
  flatten_param {
    axis: 1
  }
}
layer {
  name: "conv8_2_mbox_priorbox"
  type: "PriorBox"
  bottom: "conv8_2"
  bottom: "data"
  top: "conv8_2_mbox_priorbox"
  prior_box_param {
    min_size: 213
    max_size: 264
    aspect_ratio: 2
    flip: true
    clip: false
    variance: 0.1
    variance: 0.1
    variance: 0.2
    variance: 0.2
    step: 100
    offset: 0.5
  }
}
layer {
  name: "conv9_2_mbox_loc"
  type: "Convolution"
  bottom: "conv9_2"
  top: "conv9_2_mbox_loc"
  param {
    lr_mult: 1
    decay_mult: 1
  }
  param {
    lr_mult: 2
    decay_mult: 0
  }
  convolution_param {
    num_output: 16
    pad: 1
    kernel_size: 3
    stride: 1
    weight_filler {
      type: "xavier"
    }
    bias_filler {
      type: "constant"
      value: 0
    }
  }
}
layer {
  name: "conv9_2_mbox_loc_perm"
  type: "Permute"
  bottom: "conv9_2_mbox_loc"
  top: "conv9_2_mbox_loc_perm"
  permute_param {
    order: 0
    order: 2
    order: 3
    order: 1
  }
}
layer {
  name: "conv9_2_mbox_loc_flat"
  type: "Flatten"
  bottom: "conv9_2_mbox_loc_perm"
  top: "conv9_2_mbox_loc_flat"
  flatten_param {
    axis: 1
  }
}
layer {
  name: "conv9_2_mbox_conf"
  type: "Convolution"
  bottom: "conv9_2"
  top: "conv9_2_mbox_conf"
  param {
    lr_mult: 1
    decay_mult: 1
  }
  param {
    lr_mult: 2
    decay_mult: 0
  }
  convolution_param {
    num_output: 8
    pad: 1
    kernel_size: 3
    stride: 1
    weight_filler {
      type: "xavier"
    }
    bias_filler {
      type: "constant"
      value: 0
    }
  }
}
layer {
  name: "conv9_2_mbox_conf_perm"
  type: "Permute"
  bottom: "conv9_2_mbox_conf"
  top: "conv9_2_mbox_conf_perm"
  permute_param {
    order: 0
    order: 2
    order: 3
    order: 1
  }
}
layer {
  name: "conv9_2_mbox_conf_flat"
  type: "Flatten"
  bottom: "conv9_2_mbox_conf_perm"
  top: "conv9_2_mbox_conf_flat"
  flatten_param {
    axis: 1
  }
}
layer {
  name: "conv9_2_mbox_priorbox"
  type: "PriorBox"
  bottom: "conv9_2"
  bottom: "data"
  top: "conv9_2_mbox_priorbox"
  prior_box_param {
    min_size: 264
    max_size: 315
    aspect_ratio: 2
    flip: true
    clip: false
    variance: 0.1
    variance: 0.1
    variance: 0.2
    variance: 0.2
    step: 300
    offset: 0.5
  }
}
layer {
  name: "mbox_loc"
  type: "Concat"
  bottom: "conv4_3_norm_mbox_loc_flat"
  bottom: "fc7_mbox_loc_flat"
  bottom: "conv6_2_mbox_loc_flat"
  bottom: "conv7_2_mbox_loc_flat"
  bottom: "conv8_2_mbox_loc_flat"
  bottom: "conv9_2_mbox_loc_flat"
  top: "mbox_loc"
  concat_param {
    axis: 1
  }
}
layer {
  name: "mbox_conf"
  type: "Concat"
  bottom: "conv4_3_norm_mbox_conf_flat"
  bottom: "fc7_mbox_conf_flat"
  bottom: "conv6_2_mbox_conf_flat"
  bottom: "conv7_2_mbox_conf_flat"
  bottom: "conv8_2_mbox_conf_flat"
  bottom: "conv9_2_mbox_conf_flat"
  top: "mbox_conf"
  concat_param {
    axis: 1
  }
}
layer {
  name: "mbox_priorbox"
  type: "Concat"
  bottom: "conv4_3_norm_mbox_priorbox"
  bottom: "fc7_mbox_priorbox"
  bottom: "conv6_2_mbox_priorbox"
  bottom: "conv7_2_mbox_priorbox"
  bottom: "conv8_2_mbox_priorbox"
  bottom: "conv9_2_mbox_priorbox"
  top: "mbox_priorbox"
  concat_param {
    axis: 2
  }
}
layer {
  name: "mbox_conf_reshape"
  type: "Reshape"
  bottom: "mbox_conf"
  top: "mbox_conf_reshape"
  reshape_param {
    shape {
      dim: 0
      dim: -1
      dim: 2
    }
  }
}
layer {
  name: "mbox_conf_softmax"
  type: "Softmax"
  bottom: "mbox_conf_reshape"
  top: "mbox_conf_softmax"
  softmax_param {
    axis: 2
  }
}
layer {
  name: "mbox_conf_flatten"
  type: "Flatten"
  bottom: "mbox_conf_softmax"
  top: "mbox_conf_flatten"
  flatten_param {
    axis: 1
  }
}
layer {
  name: "detection_out"
  type: "DetectionOutput"
  bottom: "mbox_loc"
  bottom: "mbox_conf_flatten"
  bottom: "mbox_priorbox"
  top: "detection_out"
  include {
    phase: TEST
  }
  detection_output_param {
    num_classes: 2
    share_location: true
    background_label_id: 0
    nms_param {
      nms_threshold: 0.45
      top_k: 400
    }
    save_output_param {
      output_directory: "/home/shomeb/m/markustp/data/VOCdevkit/results/VOC2007/SSD_512x512/Main"
      output_name_prefix: "comp4_det_test_"
      output_format: "VOC"
      label_map_file: "data/ascend/labelmap.prototxt"
      name_size_file: "data/ascend/test_name_size.txt"
      num_test_image: 834
    }
    code_type: CENTER_SIZE
    keep_top_k: 200
    confidence_threshold: 0.01
  }
}
layer {
  name: "detection_eval"
  type: "DetectionEvaluate"
  bottom: "detection_out"
  bottom: "label"
  top: "detection_eval"
  include {
    phase: TEST
  }
  detection_evaluate_param {
    num_classes: 2
    background_label_id: 0
    overlap_threshold: 0.5
    evaluate_difficult_gt: false
    name_size_file: "data/ascend/test_name_size.txt"
  }
}
I0321 17:50:15.287955  9925 layer_factory.hpp:77] Creating layer data
I0321 17:50:15.288003  9925 net.cpp:100] Creating Layer data
I0321 17:50:15.288017  9925 net.cpp:408] data -> data
I0321 17:50:15.288025  9925 net.cpp:408] data -> label
I0321 17:50:15.288580  9957 db_lmdb.cpp:35] Opened lmdb /localdata/markustp/data/ascend/lmdb/ascend_test_lmdb
I0321 17:50:15.303172  9925 annotated_data_layer.cpp:62] output data size: 2,3,512,512
I0321 17:50:15.311367  9925 net.cpp:150] Setting up data
I0321 17:50:15.311394  9925 net.cpp:157] Top shape: 2 3 512 512 (1572864)
I0321 17:50:15.311398  9925 net.cpp:157] Top shape: 1 1 1 8 (8)
I0321 17:50:15.311399  9925 net.cpp:165] Memory required for data: 6291488
I0321 17:50:15.311404  9925 layer_factory.hpp:77] Creating layer data_data_0_split
I0321 17:50:15.311416  9925 net.cpp:100] Creating Layer data_data_0_split
I0321 17:50:15.311419  9925 net.cpp:434] data_data_0_split <- data
I0321 17:50:15.311425  9925 net.cpp:408] data_data_0_split -> data_data_0_split_0
I0321 17:50:15.311434  9925 net.cpp:408] data_data_0_split -> data_data_0_split_1
I0321 17:50:15.311440  9925 net.cpp:408] data_data_0_split -> data_data_0_split_2
I0321 17:50:15.311445  9925 net.cpp:408] data_data_0_split -> data_data_0_split_3
I0321 17:50:15.311450  9925 net.cpp:408] data_data_0_split -> data_data_0_split_4
I0321 17:50:15.311453  9925 net.cpp:408] data_data_0_split -> data_data_0_split_5
I0321 17:50:15.311460  9925 net.cpp:408] data_data_0_split -> data_data_0_split_6
I0321 17:50:15.311542  9925 net.cpp:150] Setting up data_data_0_split
I0321 17:50:15.311547  9925 net.cpp:157] Top shape: 2 3 512 512 (1572864)
I0321 17:50:15.311548  9925 net.cpp:157] Top shape: 2 3 512 512 (1572864)
I0321 17:50:15.311553  9925 net.cpp:157] Top shape: 2 3 512 512 (1572864)
I0321 17:50:15.311554  9925 net.cpp:157] Top shape: 2 3 512 512 (1572864)
I0321 17:50:15.311556  9925 net.cpp:157] Top shape: 2 3 512 512 (1572864)
I0321 17:50:15.311558  9925 net.cpp:157] Top shape: 2 3 512 512 (1572864)
I0321 17:50:15.311561  9925 net.cpp:157] Top shape: 2 3 512 512 (1572864)
I0321 17:50:15.311563  9925 net.cpp:165] Memory required for data: 50331680
I0321 17:50:15.311576  9925 layer_factory.hpp:77] Creating layer conv1_1
I0321 17:50:15.311588  9925 net.cpp:100] Creating Layer conv1_1
I0321 17:50:15.311590  9925 net.cpp:434] conv1_1 <- data_data_0_split_0
I0321 17:50:15.311594  9925 net.cpp:408] conv1_1 -> conv1_1
I0321 17:50:15.311933  9925 net.cpp:150] Setting up conv1_1
I0321 17:50:15.311939  9925 net.cpp:157] Top shape: 2 64 512 512 (33554432)
I0321 17:50:15.311942  9925 net.cpp:165] Memory required for data: 184549408
I0321 17:50:15.311949  9925 layer_factory.hpp:77] Creating layer relu1_1
I0321 17:50:15.311955  9925 net.cpp:100] Creating Layer relu1_1
I0321 17:50:15.311959  9925 net.cpp:434] relu1_1 <- conv1_1
I0321 17:50:15.311961  9925 net.cpp:395] relu1_1 -> conv1_1 (in-place)
I0321 17:50:15.311965  9925 net.cpp:150] Setting up relu1_1
I0321 17:50:15.311969  9925 net.cpp:157] Top shape: 2 64 512 512 (33554432)
I0321 17:50:15.311970  9925 net.cpp:165] Memory required for data: 318767136
I0321 17:50:15.311972  9925 layer_factory.hpp:77] Creating layer conv1_2
I0321 17:50:15.311978  9925 net.cpp:100] Creating Layer conv1_2
I0321 17:50:15.311981  9925 net.cpp:434] conv1_2 <- conv1_1
I0321 17:50:15.311985  9925 net.cpp:408] conv1_2 -> conv1_2
I0321 17:50:15.313056  9925 net.cpp:150] Setting up conv1_2
I0321 17:50:15.313066  9925 net.cpp:157] Top shape: 2 64 512 512 (33554432)
I0321 17:50:15.313068  9925 net.cpp:165] Memory required for data: 452984864
I0321 17:50:15.313074  9925 layer_factory.hpp:77] Creating layer relu1_2
I0321 17:50:15.313081  9925 net.cpp:100] Creating Layer relu1_2
I0321 17:50:15.313083  9925 net.cpp:434] relu1_2 <- conv1_2
I0321 17:50:15.313086  9925 net.cpp:395] relu1_2 -> conv1_2 (in-place)
I0321 17:50:15.313091  9925 net.cpp:150] Setting up relu1_2
I0321 17:50:15.313094  9925 net.cpp:157] Top shape: 2 64 512 512 (33554432)
I0321 17:50:15.313097  9925 net.cpp:165] Memory required for data: 587202592
I0321 17:50:15.313098  9925 layer_factory.hpp:77] Creating layer pool1
I0321 17:50:15.313102  9925 net.cpp:100] Creating Layer pool1
I0321 17:50:15.313104  9925 net.cpp:434] pool1 <- conv1_2
I0321 17:50:15.313107  9925 net.cpp:408] pool1 -> pool1
I0321 17:50:15.313139  9925 net.cpp:150] Setting up pool1
I0321 17:50:15.313144  9925 net.cpp:157] Top shape: 2 64 256 256 (8388608)
I0321 17:50:15.313146  9925 net.cpp:165] Memory required for data: 620757024
I0321 17:50:15.313148  9925 layer_factory.hpp:77] Creating layer conv2_1
I0321 17:50:15.313153  9925 net.cpp:100] Creating Layer conv2_1
I0321 17:50:15.313158  9925 net.cpp:434] conv2_1 <- pool1
I0321 17:50:15.313161  9925 net.cpp:408] conv2_1 -> conv2_1
I0321 17:50:15.313652  9925 net.cpp:150] Setting up conv2_1
I0321 17:50:15.313658  9925 net.cpp:157] Top shape: 2 128 256 256 (16777216)
I0321 17:50:15.313660  9925 net.cpp:165] Memory required for data: 687865888
I0321 17:50:15.313666  9925 layer_factory.hpp:77] Creating layer relu2_1
I0321 17:50:15.313670  9925 net.cpp:100] Creating Layer relu2_1
I0321 17:50:15.313674  9925 net.cpp:434] relu2_1 <- conv2_1
I0321 17:50:15.313678  9925 net.cpp:395] relu2_1 -> conv2_1 (in-place)
I0321 17:50:15.313681  9925 net.cpp:150] Setting up relu2_1
I0321 17:50:15.313684  9925 net.cpp:157] Top shape: 2 128 256 256 (16777216)
I0321 17:50:15.313685  9925 net.cpp:165] Memory required for data: 754974752
I0321 17:50:15.313688  9925 layer_factory.hpp:77] Creating layer conv2_2
I0321 17:50:15.313693  9925 net.cpp:100] Creating Layer conv2_2
I0321 17:50:15.313694  9925 net.cpp:434] conv2_2 <- conv2_1
I0321 17:50:15.313699  9925 net.cpp:408] conv2_2 -> conv2_2
I0321 17:50:15.314493  9925 net.cpp:150] Setting up conv2_2
I0321 17:50:15.314499  9925 net.cpp:157] Top shape: 2 128 256 256 (16777216)
I0321 17:50:15.314502  9925 net.cpp:165] Memory required for data: 822083616
I0321 17:50:15.314505  9925 layer_factory.hpp:77] Creating layer relu2_2
I0321 17:50:15.314508  9925 net.cpp:100] Creating Layer relu2_2
I0321 17:50:15.314512  9925 net.cpp:434] relu2_2 <- conv2_2
I0321 17:50:15.314513  9925 net.cpp:395] relu2_2 -> conv2_2 (in-place)
I0321 17:50:15.314517  9925 net.cpp:150] Setting up relu2_2
I0321 17:50:15.314528  9925 net.cpp:157] Top shape: 2 128 256 256 (16777216)
I0321 17:50:15.314532  9925 net.cpp:165] Memory required for data: 889192480
I0321 17:50:15.314533  9925 layer_factory.hpp:77] Creating layer pool2
I0321 17:50:15.314537  9925 net.cpp:100] Creating Layer pool2
I0321 17:50:15.314538  9925 net.cpp:434] pool2 <- conv2_2
I0321 17:50:15.314543  9925 net.cpp:408] pool2 -> pool2
I0321 17:50:15.314569  9925 net.cpp:150] Setting up pool2
I0321 17:50:15.314574  9925 net.cpp:157] Top shape: 2 128 128 128 (4194304)
I0321 17:50:15.314575  9925 net.cpp:165] Memory required for data: 905969696
I0321 17:50:15.314579  9925 layer_factory.hpp:77] Creating layer conv3_1
I0321 17:50:15.314584  9925 net.cpp:100] Creating Layer conv3_1
I0321 17:50:15.314585  9925 net.cpp:434] conv3_1 <- pool2
I0321 17:50:15.314589  9925 net.cpp:408] conv3_1 -> conv3_1
I0321 17:50:15.316614  9925 net.cpp:150] Setting up conv3_1
I0321 17:50:15.316624  9925 net.cpp:157] Top shape: 2 256 128 128 (8388608)
I0321 17:50:15.316627  9925 net.cpp:165] Memory required for data: 939524128
I0321 17:50:15.316633  9925 layer_factory.hpp:77] Creating layer relu3_1
I0321 17:50:15.316639  9925 net.cpp:100] Creating Layer relu3_1
I0321 17:50:15.316642  9925 net.cpp:434] relu3_1 <- conv3_1
I0321 17:50:15.316645  9925 net.cpp:395] relu3_1 -> conv3_1 (in-place)
I0321 17:50:15.316649  9925 net.cpp:150] Setting up relu3_1
I0321 17:50:15.316653  9925 net.cpp:157] Top shape: 2 256 128 128 (8388608)
I0321 17:50:15.316654  9925 net.cpp:165] Memory required for data: 973078560
I0321 17:50:15.316658  9925 layer_factory.hpp:77] Creating layer conv3_2
I0321 17:50:15.316663  9925 net.cpp:100] Creating Layer conv3_2
I0321 17:50:15.316665  9925 net.cpp:434] conv3_2 <- conv3_1
I0321 17:50:15.316669  9925 net.cpp:408] conv3_2 -> conv3_2
I0321 17:50:15.319936  9925 net.cpp:150] Setting up conv3_2
I0321 17:50:15.319947  9925 net.cpp:157] Top shape: 2 256 128 128 (8388608)
I0321 17:50:15.319949  9925 net.cpp:165] Memory required for data: 1006632992
I0321 17:50:15.319953  9925 layer_factory.hpp:77] Creating layer relu3_2
I0321 17:50:15.319957  9925 net.cpp:100] Creating Layer relu3_2
I0321 17:50:15.319960  9925 net.cpp:434] relu3_2 <- conv3_2
I0321 17:50:15.319964  9925 net.cpp:395] relu3_2 -> conv3_2 (in-place)
I0321 17:50:15.319968  9925 net.cpp:150] Setting up relu3_2
I0321 17:50:15.319972  9925 net.cpp:157] Top shape: 2 256 128 128 (8388608)
I0321 17:50:15.319973  9925 net.cpp:165] Memory required for data: 1040187424
I0321 17:50:15.319975  9925 layer_factory.hpp:77] Creating layer conv3_3
I0321 17:50:15.319983  9925 net.cpp:100] Creating Layer conv3_3
I0321 17:50:15.319985  9925 net.cpp:434] conv3_3 <- conv3_2
I0321 17:50:15.319988  9925 net.cpp:408] conv3_3 -> conv3_3
I0321 17:50:15.323235  9925 net.cpp:150] Setting up conv3_3
I0321 17:50:15.323246  9925 net.cpp:157] Top shape: 2 256 128 128 (8388608)
I0321 17:50:15.323247  9925 net.cpp:165] Memory required for data: 1073741856
I0321 17:50:15.323251  9925 layer_factory.hpp:77] Creating layer relu3_3
I0321 17:50:15.323256  9925 net.cpp:100] Creating Layer relu3_3
I0321 17:50:15.323258  9925 net.cpp:434] relu3_3 <- conv3_3
I0321 17:50:15.323261  9925 net.cpp:395] relu3_3 -> conv3_3 (in-place)
I0321 17:50:15.323266  9925 net.cpp:150] Setting up relu3_3
I0321 17:50:15.323269  9925 net.cpp:157] Top shape: 2 256 128 128 (8388608)
I0321 17:50:15.323271  9925 net.cpp:165] Memory required for data: 1107296288
I0321 17:50:15.323273  9925 layer_factory.hpp:77] Creating layer pool3
I0321 17:50:15.323276  9925 net.cpp:100] Creating Layer pool3
I0321 17:50:15.323278  9925 net.cpp:434] pool3 <- conv3_3
I0321 17:50:15.323282  9925 net.cpp:408] pool3 -> pool3
I0321 17:50:15.323309  9925 net.cpp:150] Setting up pool3
I0321 17:50:15.323313  9925 net.cpp:157] Top shape: 2 256 64 64 (2097152)
I0321 17:50:15.323317  9925 net.cpp:165] Memory required for data: 1115684896
I0321 17:50:15.323318  9925 layer_factory.hpp:77] Creating layer conv4_1
I0321 17:50:15.323323  9925 net.cpp:100] Creating Layer conv4_1
I0321 17:50:15.323336  9925 net.cpp:434] conv4_1 <- pool3
I0321 17:50:15.323341  9925 net.cpp:408] conv4_1 -> conv4_1
I0321 17:50:15.329529  9925 net.cpp:150] Setting up conv4_1
I0321 17:50:15.329546  9925 net.cpp:157] Top shape: 2 512 64 64 (4194304)
I0321 17:50:15.329548  9925 net.cpp:165] Memory required for data: 1132462112
I0321 17:50:15.329555  9925 layer_factory.hpp:77] Creating layer relu4_1
I0321 17:50:15.329562  9925 net.cpp:100] Creating Layer relu4_1
I0321 17:50:15.329565  9925 net.cpp:434] relu4_1 <- conv4_1
I0321 17:50:15.329569  9925 net.cpp:395] relu4_1 -> conv4_1 (in-place)
I0321 17:50:15.329576  9925 net.cpp:150] Setting up relu4_1
I0321 17:50:15.329581  9925 net.cpp:157] Top shape: 2 512 64 64 (4194304)
I0321 17:50:15.329582  9925 net.cpp:165] Memory required for data: 1149239328
I0321 17:50:15.329584  9925 layer_factory.hpp:77] Creating layer conv4_2
I0321 17:50:15.329591  9925 net.cpp:100] Creating Layer conv4_2
I0321 17:50:15.329593  9925 net.cpp:434] conv4_2 <- conv4_1
I0321 17:50:15.329597  9925 net.cpp:408] conv4_2 -> conv4_2
I0321 17:50:15.341742  9925 net.cpp:150] Setting up conv4_2
I0321 17:50:15.341764  9925 net.cpp:157] Top shape: 2 512 64 64 (4194304)
I0321 17:50:15.341766  9925 net.cpp:165] Memory required for data: 1166016544
I0321 17:50:15.341778  9925 layer_factory.hpp:77] Creating layer relu4_2
I0321 17:50:15.341786  9925 net.cpp:100] Creating Layer relu4_2
I0321 17:50:15.341791  9925 net.cpp:434] relu4_2 <- conv4_2
I0321 17:50:15.341795  9925 net.cpp:395] relu4_2 -> conv4_2 (in-place)
I0321 17:50:15.341804  9925 net.cpp:150] Setting up relu4_2
I0321 17:50:15.341807  9925 net.cpp:157] Top shape: 2 512 64 64 (4194304)
I0321 17:50:15.341809  9925 net.cpp:165] Memory required for data: 1182793760
I0321 17:50:15.341811  9925 layer_factory.hpp:77] Creating layer conv4_3
I0321 17:50:15.341817  9925 net.cpp:100] Creating Layer conv4_3
I0321 17:50:15.341820  9925 net.cpp:434] conv4_3 <- conv4_2
I0321 17:50:15.341825  9925 net.cpp:408] conv4_3 -> conv4_3
I0321 17:50:15.354077  9925 net.cpp:150] Setting up conv4_3
I0321 17:50:15.354097  9925 net.cpp:157] Top shape: 2 512 64 64 (4194304)
I0321 17:50:15.354100  9925 net.cpp:165] Memory required for data: 1199570976
I0321 17:50:15.354107  9925 layer_factory.hpp:77] Creating layer relu4_3
I0321 17:50:15.354115  9925 net.cpp:100] Creating Layer relu4_3
I0321 17:50:15.354120  9925 net.cpp:434] relu4_3 <- conv4_3
I0321 17:50:15.354125  9925 net.cpp:395] relu4_3 -> conv4_3 (in-place)
I0321 17:50:15.354135  9925 net.cpp:150] Setting up relu4_3
I0321 17:50:15.354137  9925 net.cpp:157] Top shape: 2 512 64 64 (4194304)
I0321 17:50:15.354140  9925 net.cpp:165] Memory required for data: 1216348192
I0321 17:50:15.354141  9925 layer_factory.hpp:77] Creating layer conv4_3_relu4_3_0_split
I0321 17:50:15.354146  9925 net.cpp:100] Creating Layer conv4_3_relu4_3_0_split
I0321 17:50:15.354147  9925 net.cpp:434] conv4_3_relu4_3_0_split <- conv4_3
I0321 17:50:15.354151  9925 net.cpp:408] conv4_3_relu4_3_0_split -> conv4_3_relu4_3_0_split_0
I0321 17:50:15.354156  9925 net.cpp:408] conv4_3_relu4_3_0_split -> conv4_3_relu4_3_0_split_1
I0321 17:50:15.354184  9925 net.cpp:150] Setting up conv4_3_relu4_3_0_split
I0321 17:50:15.354189  9925 net.cpp:157] Top shape: 2 512 64 64 (4194304)
I0321 17:50:15.354192  9925 net.cpp:157] Top shape: 2 512 64 64 (4194304)
I0321 17:50:15.354194  9925 net.cpp:165] Memory required for data: 1249902624
I0321 17:50:15.354197  9925 layer_factory.hpp:77] Creating layer pool4
I0321 17:50:15.354200  9925 net.cpp:100] Creating Layer pool4
I0321 17:50:15.354203  9925 net.cpp:434] pool4 <- conv4_3_relu4_3_0_split_0
I0321 17:50:15.354207  9925 net.cpp:408] pool4 -> pool4
I0321 17:50:15.354231  9925 net.cpp:150] Setting up pool4
I0321 17:50:15.354236  9925 net.cpp:157] Top shape: 2 512 32 32 (1048576)
I0321 17:50:15.354238  9925 net.cpp:165] Memory required for data: 1254096928
I0321 17:50:15.354239  9925 layer_factory.hpp:77] Creating layer conv5_1
I0321 17:50:15.354246  9925 net.cpp:100] Creating Layer conv5_1
I0321 17:50:15.354249  9925 net.cpp:434] conv5_1 <- pool4
I0321 17:50:15.354266  9925 net.cpp:408] conv5_1 -> conv5_1
I0321 17:50:15.366386  9925 net.cpp:150] Setting up conv5_1
I0321 17:50:15.366406  9925 net.cpp:157] Top shape: 2 512 32 32 (1048576)
I0321 17:50:15.366408  9925 net.cpp:165] Memory required for data: 1258291232
I0321 17:50:15.366415  9925 layer_factory.hpp:77] Creating layer relu5_1
I0321 17:50:15.366422  9925 net.cpp:100] Creating Layer relu5_1
I0321 17:50:15.366426  9925 net.cpp:434] relu5_1 <- conv5_1
I0321 17:50:15.366430  9925 net.cpp:395] relu5_1 -> conv5_1 (in-place)
I0321 17:50:15.366437  9925 net.cpp:150] Setting up relu5_1
I0321 17:50:15.366441  9925 net.cpp:157] Top shape: 2 512 32 32 (1048576)
I0321 17:50:15.366443  9925 net.cpp:165] Memory required for data: 1262485536
I0321 17:50:15.366446  9925 layer_factory.hpp:77] Creating layer conv5_2
I0321 17:50:15.366452  9925 net.cpp:100] Creating Layer conv5_2
I0321 17:50:15.366456  9925 net.cpp:434] conv5_2 <- conv5_1
I0321 17:50:15.366459  9925 net.cpp:408] conv5_2 -> conv5_2
I0321 17:50:15.378515  9925 net.cpp:150] Setting up conv5_2
I0321 17:50:15.378540  9925 net.cpp:157] Top shape: 2 512 32 32 (1048576)
I0321 17:50:15.378541  9925 net.cpp:165] Memory required for data: 1266679840
I0321 17:50:15.378548  9925 layer_factory.hpp:77] Creating layer relu5_2
I0321 17:50:15.378556  9925 net.cpp:100] Creating Layer relu5_2
I0321 17:50:15.378558  9925 net.cpp:434] relu5_2 <- conv5_2
I0321 17:50:15.378563  9925 net.cpp:395] relu5_2 -> conv5_2 (in-place)
I0321 17:50:15.378571  9925 net.cpp:150] Setting up relu5_2
I0321 17:50:15.378574  9925 net.cpp:157] Top shape: 2 512 32 32 (1048576)
I0321 17:50:15.378576  9925 net.cpp:165] Memory required for data: 1270874144
I0321 17:50:15.378578  9925 layer_factory.hpp:77] Creating layer conv5_3
I0321 17:50:15.378587  9925 net.cpp:100] Creating Layer conv5_3
I0321 17:50:15.378588  9925 net.cpp:434] conv5_3 <- conv5_2
I0321 17:50:15.378592  9925 net.cpp:408] conv5_3 -> conv5_3
I0321 17:50:15.390664  9925 net.cpp:150] Setting up conv5_3
I0321 17:50:15.390686  9925 net.cpp:157] Top shape: 2 512 32 32 (1048576)
I0321 17:50:15.390687  9925 net.cpp:165] Memory required for data: 1275068448
I0321 17:50:15.390694  9925 layer_factory.hpp:77] Creating layer relu5_3
I0321 17:50:15.390703  9925 net.cpp:100] Creating Layer relu5_3
I0321 17:50:15.390707  9925 net.cpp:434] relu5_3 <- conv5_3
I0321 17:50:15.390712  9925 net.cpp:395] relu5_3 -> conv5_3 (in-place)
I0321 17:50:15.390718  9925 net.cpp:150] Setting up relu5_3
I0321 17:50:15.390722  9925 net.cpp:157] Top shape: 2 512 32 32 (1048576)
I0321 17:50:15.390724  9925 net.cpp:165] Memory required for data: 1279262752
I0321 17:50:15.390727  9925 layer_factory.hpp:77] Creating layer pool5
I0321 17:50:15.390732  9925 net.cpp:100] Creating Layer pool5
I0321 17:50:15.390733  9925 net.cpp:434] pool5 <- conv5_3
I0321 17:50:15.390736  9925 net.cpp:408] pool5 -> pool5
I0321 17:50:15.390766  9925 net.cpp:150] Setting up pool5
I0321 17:50:15.390771  9925 net.cpp:157] Top shape: 2 512 32 32 (1048576)
I0321 17:50:15.390774  9925 net.cpp:165] Memory required for data: 1283457056
I0321 17:50:15.390775  9925 layer_factory.hpp:77] Creating layer fc6
I0321 17:50:15.390782  9925 net.cpp:100] Creating Layer fc6
I0321 17:50:15.390784  9925 net.cpp:434] fc6 <- pool5
I0321 17:50:15.390787  9925 net.cpp:408] fc6 -> fc6
I0321 17:50:15.414963  9925 net.cpp:150] Setting up fc6
I0321 17:50:15.414984  9925 net.cpp:157] Top shape: 2 1024 32 32 (2097152)
I0321 17:50:15.414988  9925 net.cpp:165] Memory required for data: 1291845664
I0321 17:50:15.414994  9925 layer_factory.hpp:77] Creating layer relu6
I0321 17:50:15.415001  9925 net.cpp:100] Creating Layer relu6
I0321 17:50:15.415004  9925 net.cpp:434] relu6 <- fc6
I0321 17:50:15.415010  9925 net.cpp:395] relu6 -> fc6 (in-place)
I0321 17:50:15.415017  9925 net.cpp:150] Setting up relu6
I0321 17:50:15.415021  9925 net.cpp:157] Top shape: 2 1024 32 32 (2097152)
I0321 17:50:15.415024  9925 net.cpp:165] Memory required for data: 1300234272
I0321 17:50:15.415024  9925 layer_factory.hpp:77] Creating layer fc7
I0321 17:50:15.415045  9925 net.cpp:100] Creating Layer fc7
I0321 17:50:15.415050  9925 net.cpp:434] fc7 <- fc6
I0321 17:50:15.415053  9925 net.cpp:408] fc7 -> fc7
I0321 17:50:15.420693  9925 net.cpp:150] Setting up fc7
I0321 17:50:15.420707  9925 net.cpp:157] Top shape: 2 1024 32 32 (2097152)
I0321 17:50:15.420711  9925 net.cpp:165] Memory required for data: 1308622880
I0321 17:50:15.420717  9925 layer_factory.hpp:77] Creating layer relu7
I0321 17:50:15.420722  9925 net.cpp:100] Creating Layer relu7
I0321 17:50:15.420724  9925 net.cpp:434] relu7 <- fc7
I0321 17:50:15.420729  9925 net.cpp:395] relu7 -> fc7 (in-place)
I0321 17:50:15.420737  9925 net.cpp:150] Setting up relu7
I0321 17:50:15.420740  9925 net.cpp:157] Top shape: 2 1024 32 32 (2097152)
I0321 17:50:15.420742  9925 net.cpp:165] Memory required for data: 1317011488
I0321 17:50:15.420744  9925 layer_factory.hpp:77] Creating layer fc7_relu7_0_split
I0321 17:50:15.420748  9925 net.cpp:100] Creating Layer fc7_relu7_0_split
I0321 17:50:15.420750  9925 net.cpp:434] fc7_relu7_0_split <- fc7
I0321 17:50:15.420753  9925 net.cpp:408] fc7_relu7_0_split -> fc7_relu7_0_split_0
I0321 17:50:15.420759  9925 net.cpp:408] fc7_relu7_0_split -> fc7_relu7_0_split_1
I0321 17:50:15.420768  9925 net.cpp:408] fc7_relu7_0_split -> fc7_relu7_0_split_2
I0321 17:50:15.420773  9925 net.cpp:408] fc7_relu7_0_split -> fc7_relu7_0_split_3
I0321 17:50:15.420816  9925 net.cpp:150] Setting up fc7_relu7_0_split
I0321 17:50:15.420821  9925 net.cpp:157] Top shape: 2 1024 32 32 (2097152)
I0321 17:50:15.420825  9925 net.cpp:157] Top shape: 2 1024 32 32 (2097152)
I0321 17:50:15.420827  9925 net.cpp:157] Top shape: 2 1024 32 32 (2097152)
I0321 17:50:15.420830  9925 net.cpp:157] Top shape: 2 1024 32 32 (2097152)
I0321 17:50:15.420831  9925 net.cpp:165] Memory required for data: 1350565920
I0321 17:50:15.420833  9925 layer_factory.hpp:77] Creating layer conv6_1
I0321 17:50:15.420840  9925 net.cpp:100] Creating Layer conv6_1
I0321 17:50:15.420843  9925 net.cpp:434] conv6_1 <- fc7_relu7_0_split_0
I0321 17:50:15.420848  9925 net.cpp:408] conv6_1 -> conv6_1
I0321 17:50:15.422760  9925 net.cpp:150] Setting up conv6_1
I0321 17:50:15.422770  9925 net.cpp:157] Top shape: 2 256 32 32 (524288)
I0321 17:50:15.422772  9925 net.cpp:165] Memory required for data: 1352663072
I0321 17:50:15.422777  9925 layer_factory.hpp:77] Creating layer conv6_1_relu
I0321 17:50:15.422781  9925 net.cpp:100] Creating Layer conv6_1_relu
I0321 17:50:15.422783  9925 net.cpp:434] conv6_1_relu <- conv6_1
I0321 17:50:15.422787  9925 net.cpp:395] conv6_1_relu -> conv6_1 (in-place)
I0321 17:50:15.422794  9925 net.cpp:150] Setting up conv6_1_relu
I0321 17:50:15.422797  9925 net.cpp:157] Top shape: 2 256 32 32 (524288)
I0321 17:50:15.422799  9925 net.cpp:165] Memory required for data: 1354760224
I0321 17:50:15.422801  9925 layer_factory.hpp:77] Creating layer conv6_2
I0321 17:50:15.422807  9925 net.cpp:100] Creating Layer conv6_2
I0321 17:50:15.422809  9925 net.cpp:434] conv6_2 <- conv6_1
I0321 17:50:15.422813  9925 net.cpp:408] conv6_2 -> conv6_2
I0321 17:50:15.428954  9925 net.cpp:150] Setting up conv6_2
I0321 17:50:15.428970  9925 net.cpp:157] Top shape: 2 512 16 16 (262144)
I0321 17:50:15.428972  9925 net.cpp:165] Memory required for data: 1355808800
I0321 17:50:15.428982  9925 layer_factory.hpp:77] Creating layer conv6_2_relu
I0321 17:50:15.428987  9925 net.cpp:100] Creating Layer conv6_2_relu
I0321 17:50:15.428990  9925 net.cpp:434] conv6_2_relu <- conv6_2
I0321 17:50:15.428994  9925 net.cpp:395] conv6_2_relu -> conv6_2 (in-place)
I0321 17:50:15.428999  9925 net.cpp:150] Setting up conv6_2_relu
I0321 17:50:15.429003  9925 net.cpp:157] Top shape: 2 512 16 16 (262144)
I0321 17:50:15.429005  9925 net.cpp:165] Memory required for data: 1356857376
I0321 17:50:15.429008  9925 layer_factory.hpp:77] Creating layer conv6_2_conv6_2_relu_0_split
I0321 17:50:15.429013  9925 net.cpp:100] Creating Layer conv6_2_conv6_2_relu_0_split
I0321 17:50:15.429013  9925 net.cpp:434] conv6_2_conv6_2_relu_0_split <- conv6_2
I0321 17:50:15.429018  9925 net.cpp:408] conv6_2_conv6_2_relu_0_split -> conv6_2_conv6_2_relu_0_split_0
I0321 17:50:15.429035  9925 net.cpp:408] conv6_2_conv6_2_relu_0_split -> conv6_2_conv6_2_relu_0_split_1
I0321 17:50:15.429040  9925 net.cpp:408] conv6_2_conv6_2_relu_0_split -> conv6_2_conv6_2_relu_0_split_2
I0321 17:50:15.429044  9925 net.cpp:408] conv6_2_conv6_2_relu_0_split -> conv6_2_conv6_2_relu_0_split_3
I0321 17:50:15.429086  9925 net.cpp:150] Setting up conv6_2_conv6_2_relu_0_split
I0321 17:50:15.429091  9925 net.cpp:157] Top shape: 2 512 16 16 (262144)
I0321 17:50:15.429095  9925 net.cpp:157] Top shape: 2 512 16 16 (262144)
I0321 17:50:15.429096  9925 net.cpp:157] Top shape: 2 512 16 16 (262144)
I0321 17:50:15.429100  9925 net.cpp:157] Top shape: 2 512 16 16 (262144)
I0321 17:50:15.429100  9925 net.cpp:165] Memory required for data: 1361051680
I0321 17:50:15.429103  9925 layer_factory.hpp:77] Creating layer conv7_1
I0321 17:50:15.429110  9925 net.cpp:100] Creating Layer conv7_1
I0321 17:50:15.429113  9925 net.cpp:434] conv7_1 <- conv6_2_conv6_2_relu_0_split_0
I0321 17:50:15.429117  9925 net.cpp:408] conv7_1 -> conv7_1
I0321 17:50:15.429560  9925 net.cpp:150] Setting up conv7_1
I0321 17:50:15.429566  9925 net.cpp:157] Top shape: 2 128 16 16 (65536)
I0321 17:50:15.429569  9925 net.cpp:165] Memory required for data: 1361313824
I0321 17:50:15.429572  9925 layer_factory.hpp:77] Creating layer conv7_1_relu
I0321 17:50:15.429575  9925 net.cpp:100] Creating Layer conv7_1_relu
I0321 17:50:15.429579  9925 net.cpp:434] conv7_1_relu <- conv7_1
I0321 17:50:15.429581  9925 net.cpp:395] conv7_1_relu -> conv7_1 (in-place)
I0321 17:50:15.429584  9925 net.cpp:150] Setting up conv7_1_relu
I0321 17:50:15.429587  9925 net.cpp:157] Top shape: 2 128 16 16 (65536)
I0321 17:50:15.429589  9925 net.cpp:165] Memory required for data: 1361575968
I0321 17:50:15.429591  9925 layer_factory.hpp:77] Creating layer conv7_2
I0321 17:50:15.429595  9925 net.cpp:100] Creating Layer conv7_2
I0321 17:50:15.429599  9925 net.cpp:434] conv7_2 <- conv7_1
I0321 17:50:15.429601  9925 net.cpp:408] conv7_2 -> conv7_2
I0321 17:50:15.431648  9925 net.cpp:150] Setting up conv7_2
I0321 17:50:15.431658  9925 net.cpp:157] Top shape: 2 256 8 8 (32768)
I0321 17:50:15.431659  9925 net.cpp:165] Memory required for data: 1361707040
I0321 17:50:15.431664  9925 layer_factory.hpp:77] Creating layer conv7_2_relu
I0321 17:50:15.431668  9925 net.cpp:100] Creating Layer conv7_2_relu
I0321 17:50:15.431671  9925 net.cpp:434] conv7_2_relu <- conv7_2
I0321 17:50:15.431674  9925 net.cpp:395] conv7_2_relu -> conv7_2 (in-place)
I0321 17:50:15.431684  9925 net.cpp:150] Setting up conv7_2_relu
I0321 17:50:15.431689  9925 net.cpp:157] Top shape: 2 256 8 8 (32768)
I0321 17:50:15.431690  9925 net.cpp:165] Memory required for data: 1361838112
I0321 17:50:15.431692  9925 layer_factory.hpp:77] Creating layer conv7_2_conv7_2_relu_0_split
I0321 17:50:15.431696  9925 net.cpp:100] Creating Layer conv7_2_conv7_2_relu_0_split
I0321 17:50:15.431699  9925 net.cpp:434] conv7_2_conv7_2_relu_0_split <- conv7_2
I0321 17:50:15.431701  9925 net.cpp:408] conv7_2_conv7_2_relu_0_split -> conv7_2_conv7_2_relu_0_split_0
I0321 17:50:15.431706  9925 net.cpp:408] conv7_2_conv7_2_relu_0_split -> conv7_2_conv7_2_relu_0_split_1
I0321 17:50:15.431710  9925 net.cpp:408] conv7_2_conv7_2_relu_0_split -> conv7_2_conv7_2_relu_0_split_2
I0321 17:50:15.431715  9925 net.cpp:408] conv7_2_conv7_2_relu_0_split -> conv7_2_conv7_2_relu_0_split_3
I0321 17:50:15.431756  9925 net.cpp:150] Setting up conv7_2_conv7_2_relu_0_split
I0321 17:50:15.431761  9925 net.cpp:157] Top shape: 2 256 8 8 (32768)
I0321 17:50:15.431764  9925 net.cpp:157] Top shape: 2 256 8 8 (32768)
I0321 17:50:15.431767  9925 net.cpp:157] Top shape: 2 256 8 8 (32768)
I0321 17:50:15.431769  9925 net.cpp:157] Top shape: 2 256 8 8 (32768)
I0321 17:50:15.431771  9925 net.cpp:165] Memory required for data: 1362362400
I0321 17:50:15.431773  9925 layer_factory.hpp:77] Creating layer conv8_1
I0321 17:50:15.431779  9925 net.cpp:100] Creating Layer conv8_1
I0321 17:50:15.431782  9925 net.cpp:434] conv8_1 <- conv7_2_conv7_2_relu_0_split_0
I0321 17:50:15.431797  9925 net.cpp:408] conv8_1 -> conv8_1
I0321 17:50:15.432095  9925 net.cpp:150] Setting up conv8_1
I0321 17:50:15.432101  9925 net.cpp:157] Top shape: 2 128 8 8 (16384)
I0321 17:50:15.432102  9925 net.cpp:165] Memory required for data: 1362427936
I0321 17:50:15.432106  9925 layer_factory.hpp:77] Creating layer conv8_1_relu
I0321 17:50:15.432109  9925 net.cpp:100] Creating Layer conv8_1_relu
I0321 17:50:15.432111  9925 net.cpp:434] conv8_1_relu <- conv8_1
I0321 17:50:15.432114  9925 net.cpp:395] conv8_1_relu -> conv8_1 (in-place)
I0321 17:50:15.432118  9925 net.cpp:150] Setting up conv8_1_relu
I0321 17:50:15.432121  9925 net.cpp:157] Top shape: 2 128 8 8 (16384)
I0321 17:50:15.432123  9925 net.cpp:165] Memory required for data: 1362493472
I0321 17:50:15.432124  9925 layer_factory.hpp:77] Creating layer conv8_2
I0321 17:50:15.432129  9925 net.cpp:100] Creating Layer conv8_2
I0321 17:50:15.432132  9925 net.cpp:434] conv8_2 <- conv8_1
I0321 17:50:15.432135  9925 net.cpp:408] conv8_2 -> conv8_2
I0321 17:50:15.434141  9925 net.cpp:150] Setting up conv8_2
I0321 17:50:15.434151  9925 net.cpp:157] Top shape: 2 256 6 6 (18432)
I0321 17:50:15.434154  9925 net.cpp:165] Memory required for data: 1362567200
I0321 17:50:15.434159  9925 layer_factory.hpp:77] Creating layer conv8_2_relu
I0321 17:50:15.434164  9925 net.cpp:100] Creating Layer conv8_2_relu
I0321 17:50:15.434165  9925 net.cpp:434] conv8_2_relu <- conv8_2
I0321 17:50:15.434170  9925 net.cpp:395] conv8_2_relu -> conv8_2 (in-place)
I0321 17:50:15.434175  9925 net.cpp:150] Setting up conv8_2_relu
I0321 17:50:15.434178  9925 net.cpp:157] Top shape: 2 256 6 6 (18432)
I0321 17:50:15.434180  9925 net.cpp:165] Memory required for data: 1362640928
I0321 17:50:15.434182  9925 layer_factory.hpp:77] Creating layer conv8_2_conv8_2_relu_0_split
I0321 17:50:15.434186  9925 net.cpp:100] Creating Layer conv8_2_conv8_2_relu_0_split
I0321 17:50:15.434188  9925 net.cpp:434] conv8_2_conv8_2_relu_0_split <- conv8_2
I0321 17:50:15.434191  9925 net.cpp:408] conv8_2_conv8_2_relu_0_split -> conv8_2_conv8_2_relu_0_split_0
I0321 17:50:15.434196  9925 net.cpp:408] conv8_2_conv8_2_relu_0_split -> conv8_2_conv8_2_relu_0_split_1
I0321 17:50:15.434201  9925 net.cpp:408] conv8_2_conv8_2_relu_0_split -> conv8_2_conv8_2_relu_0_split_2
I0321 17:50:15.434206  9925 net.cpp:408] conv8_2_conv8_2_relu_0_split -> conv8_2_conv8_2_relu_0_split_3
I0321 17:50:15.434250  9925 net.cpp:150] Setting up conv8_2_conv8_2_relu_0_split
I0321 17:50:15.434254  9925 net.cpp:157] Top shape: 2 256 6 6 (18432)
I0321 17:50:15.434257  9925 net.cpp:157] Top shape: 2 256 6 6 (18432)
I0321 17:50:15.434259  9925 net.cpp:157] Top shape: 2 256 6 6 (18432)
I0321 17:50:15.434262  9925 net.cpp:157] Top shape: 2 256 6 6 (18432)
I0321 17:50:15.434264  9925 net.cpp:165] Memory required for data: 1362935840
I0321 17:50:15.434267  9925 layer_factory.hpp:77] Creating layer conv9_1
I0321 17:50:15.434273  9925 net.cpp:100] Creating Layer conv9_1
I0321 17:50:15.434274  9925 net.cpp:434] conv9_1 <- conv8_2_conv8_2_relu_0_split_0
I0321 17:50:15.434278  9925 net.cpp:408] conv9_1 -> conv9_1
I0321 17:50:15.434578  9925 net.cpp:150] Setting up conv9_1
I0321 17:50:15.434583  9925 net.cpp:157] Top shape: 2 128 6 6 (9216)
I0321 17:50:15.434586  9925 net.cpp:165] Memory required for data: 1362972704
I0321 17:50:15.434589  9925 layer_factory.hpp:77] Creating layer conv9_1_relu
I0321 17:50:15.434593  9925 net.cpp:100] Creating Layer conv9_1_relu
I0321 17:50:15.434595  9925 net.cpp:434] conv9_1_relu <- conv9_1
I0321 17:50:15.434598  9925 net.cpp:395] conv9_1_relu -> conv9_1 (in-place)
I0321 17:50:15.434602  9925 net.cpp:150] Setting up conv9_1_relu
I0321 17:50:15.434605  9925 net.cpp:157] Top shape: 2 128 6 6 (9216)
I0321 17:50:15.434607  9925 net.cpp:165] Memory required for data: 1363009568
I0321 17:50:15.434608  9925 layer_factory.hpp:77] Creating layer conv9_2
I0321 17:50:15.434613  9925 net.cpp:100] Creating Layer conv9_2
I0321 17:50:15.434615  9925 net.cpp:434] conv9_2 <- conv9_1
I0321 17:50:15.434618  9925 net.cpp:408] conv9_2 -> conv9_2
I0321 17:50:15.436672  9925 net.cpp:150] Setting up conv9_2
I0321 17:50:15.436683  9925 net.cpp:157] Top shape: 2 256 4 4 (8192)
I0321 17:50:15.436686  9925 net.cpp:165] Memory required for data: 1363042336
I0321 17:50:15.436691  9925 layer_factory.hpp:77] Creating layer conv9_2_relu
I0321 17:50:15.436695  9925 net.cpp:100] Creating Layer conv9_2_relu
I0321 17:50:15.436699  9925 net.cpp:434] conv9_2_relu <- conv9_2
I0321 17:50:15.436704  9925 net.cpp:395] conv9_2_relu -> conv9_2 (in-place)
I0321 17:50:15.436708  9925 net.cpp:150] Setting up conv9_2_relu
I0321 17:50:15.436712  9925 net.cpp:157] Top shape: 2 256 4 4 (8192)
I0321 17:50:15.436713  9925 net.cpp:165] Memory required for data: 1363075104
I0321 17:50:15.436715  9925 layer_factory.hpp:77] Creating layer conv9_2_conv9_2_relu_0_split
I0321 17:50:15.436718  9925 net.cpp:100] Creating Layer conv9_2_conv9_2_relu_0_split
I0321 17:50:15.436720  9925 net.cpp:434] conv9_2_conv9_2_relu_0_split <- conv9_2
I0321 17:50:15.436723  9925 net.cpp:408] conv9_2_conv9_2_relu_0_split -> conv9_2_conv9_2_relu_0_split_0
I0321 17:50:15.436728  9925 net.cpp:408] conv9_2_conv9_2_relu_0_split -> conv9_2_conv9_2_relu_0_split_1
I0321 17:50:15.436733  9925 net.cpp:408] conv9_2_conv9_2_relu_0_split -> conv9_2_conv9_2_relu_0_split_2
I0321 17:50:15.436772  9925 net.cpp:150] Setting up conv9_2_conv9_2_relu_0_split
I0321 17:50:15.436776  9925 net.cpp:157] Top shape: 2 256 4 4 (8192)
I0321 17:50:15.436779  9925 net.cpp:157] Top shape: 2 256 4 4 (8192)
I0321 17:50:15.436782  9925 net.cpp:157] Top shape: 2 256 4 4 (8192)
I0321 17:50:15.436784  9925 net.cpp:165] Memory required for data: 1363173408
I0321 17:50:15.436785  9925 layer_factory.hpp:77] Creating layer conv4_3_norm
I0321 17:50:15.436790  9925 net.cpp:100] Creating Layer conv4_3_norm
I0321 17:50:15.436794  9925 net.cpp:434] conv4_3_norm <- conv4_3_relu4_3_0_split_1
I0321 17:50:15.436797  9925 net.cpp:408] conv4_3_norm -> conv4_3_norm
I0321 17:50:15.436902  9925 net.cpp:150] Setting up conv4_3_norm
I0321 17:50:15.436908  9925 net.cpp:157] Top shape: 2 512 64 64 (4194304)
I0321 17:50:15.436909  9925 net.cpp:165] Memory required for data: 1379950624
I0321 17:50:15.436913  9925 layer_factory.hpp:77] Creating layer conv4_3_norm_conv4_3_norm_0_split
I0321 17:50:15.436916  9925 net.cpp:100] Creating Layer conv4_3_norm_conv4_3_norm_0_split
I0321 17:50:15.436918  9925 net.cpp:434] conv4_3_norm_conv4_3_norm_0_split <- conv4_3_norm
I0321 17:50:15.436921  9925 net.cpp:408] conv4_3_norm_conv4_3_norm_0_split -> conv4_3_norm_conv4_3_norm_0_split_0
I0321 17:50:15.436925  9925 net.cpp:408] conv4_3_norm_conv4_3_norm_0_split -> conv4_3_norm_conv4_3_norm_0_split_1
I0321 17:50:15.436929  9925 net.cpp:408] conv4_3_norm_conv4_3_norm_0_split -> conv4_3_norm_conv4_3_norm_0_split_2
I0321 17:50:15.436961  9925 net.cpp:150] Setting up conv4_3_norm_conv4_3_norm_0_split
I0321 17:50:15.436965  9925 net.cpp:157] Top shape: 2 512 64 64 (4194304)
I0321 17:50:15.436969  9925 net.cpp:157] Top shape: 2 512 64 64 (4194304)
I0321 17:50:15.436970  9925 net.cpp:157] Top shape: 2 512 64 64 (4194304)
I0321 17:50:15.436972  9925 net.cpp:165] Memory required for data: 1430282272
I0321 17:50:15.436975  9925 layer_factory.hpp:77] Creating layer conv4_3_norm_mbox_loc
I0321 17:50:15.436980  9925 net.cpp:100] Creating Layer conv4_3_norm_mbox_loc
I0321 17:50:15.436982  9925 net.cpp:434] conv4_3_norm_mbox_loc <- conv4_3_norm_conv4_3_norm_0_split_0
I0321 17:50:15.436987  9925 net.cpp:408] conv4_3_norm_mbox_loc -> conv4_3_norm_mbox_loc
I0321 17:50:15.437458  9925 net.cpp:150] Setting up conv4_3_norm_mbox_loc
I0321 17:50:15.437463  9925 net.cpp:157] Top shape: 2 16 64 64 (131072)
I0321 17:50:15.437465  9925 net.cpp:165] Memory required for data: 1430806560
I0321 17:50:15.437469  9925 layer_factory.hpp:77] Creating layer conv4_3_norm_mbox_loc_perm
I0321 17:50:15.437474  9925 net.cpp:100] Creating Layer conv4_3_norm_mbox_loc_perm
I0321 17:50:15.437477  9925 net.cpp:434] conv4_3_norm_mbox_loc_perm <- conv4_3_norm_mbox_loc
I0321 17:50:15.437480  9925 net.cpp:408] conv4_3_norm_mbox_loc_perm -> conv4_3_norm_mbox_loc_perm
I0321 17:50:15.437559  9925 net.cpp:150] Setting up conv4_3_norm_mbox_loc_perm
I0321 17:50:15.437564  9925 net.cpp:157] Top shape: 2 64 64 16 (131072)
I0321 17:50:15.437566  9925 net.cpp:165] Memory required for data: 1431330848
I0321 17:50:15.437567  9925 layer_factory.hpp:77] Creating layer conv4_3_norm_mbox_loc_flat
I0321 17:50:15.437572  9925 net.cpp:100] Creating Layer conv4_3_norm_mbox_loc_flat
I0321 17:50:15.437575  9925 net.cpp:434] conv4_3_norm_mbox_loc_flat <- conv4_3_norm_mbox_loc_perm
I0321 17:50:15.437578  9925 net.cpp:408] conv4_3_norm_mbox_loc_flat -> conv4_3_norm_mbox_loc_flat
I0321 17:50:15.437602  9925 net.cpp:150] Setting up conv4_3_norm_mbox_loc_flat
I0321 17:50:15.437608  9925 net.cpp:157] Top shape: 2 65536 (131072)
I0321 17:50:15.437609  9925 net.cpp:165] Memory required for data: 1431855136
I0321 17:50:15.437611  9925 layer_factory.hpp:77] Creating layer conv4_3_norm_mbox_conf
I0321 17:50:15.437623  9925 net.cpp:100] Creating Layer conv4_3_norm_mbox_conf
I0321 17:50:15.437625  9925 net.cpp:434] conv4_3_norm_mbox_conf <- conv4_3_norm_conv4_3_norm_0_split_1
I0321 17:50:15.437629  9925 net.cpp:408] conv4_3_norm_mbox_conf -> conv4_3_norm_mbox_conf
I0321 17:50:15.437957  9925 net.cpp:150] Setting up conv4_3_norm_mbox_conf
I0321 17:50:15.437961  9925 net.cpp:157] Top shape: 2 8 64 64 (65536)
I0321 17:50:15.437964  9925 net.cpp:165] Memory required for data: 1432117280
I0321 17:50:15.437968  9925 layer_factory.hpp:77] Creating layer conv4_3_norm_mbox_conf_perm
I0321 17:50:15.437971  9925 net.cpp:100] Creating Layer conv4_3_norm_mbox_conf_perm
I0321 17:50:15.437975  9925 net.cpp:434] conv4_3_norm_mbox_conf_perm <- conv4_3_norm_mbox_conf
I0321 17:50:15.437979  9925 net.cpp:408] conv4_3_norm_mbox_conf_perm -> conv4_3_norm_mbox_conf_perm
I0321 17:50:15.438045  9925 net.cpp:150] Setting up conv4_3_norm_mbox_conf_perm
I0321 17:50:15.438050  9925 net.cpp:157] Top shape: 2 64 64 8 (65536)
I0321 17:50:15.438051  9925 net.cpp:165] Memory required for data: 1432379424
I0321 17:50:15.438055  9925 layer_factory.hpp:77] Creating layer conv4_3_norm_mbox_conf_flat
I0321 17:50:15.438057  9925 net.cpp:100] Creating Layer conv4_3_norm_mbox_conf_flat
I0321 17:50:15.438060  9925 net.cpp:434] conv4_3_norm_mbox_conf_flat <- conv4_3_norm_mbox_conf_perm
I0321 17:50:15.438063  9925 net.cpp:408] conv4_3_norm_mbox_conf_flat -> conv4_3_norm_mbox_conf_flat
I0321 17:50:15.438079  9925 net.cpp:150] Setting up conv4_3_norm_mbox_conf_flat
I0321 17:50:15.438083  9925 net.cpp:157] Top shape: 2 32768 (65536)
I0321 17:50:15.438084  9925 net.cpp:165] Memory required for data: 1432641568
I0321 17:50:15.438086  9925 layer_factory.hpp:77] Creating layer conv4_3_norm_mbox_priorbox
I0321 17:50:15.438092  9925 net.cpp:100] Creating Layer conv4_3_norm_mbox_priorbox
I0321 17:50:15.438096  9925 net.cpp:434] conv4_3_norm_mbox_priorbox <- conv4_3_norm_conv4_3_norm_0_split_2
I0321 17:50:15.438098  9925 net.cpp:434] conv4_3_norm_mbox_priorbox <- data_data_0_split_1
I0321 17:50:15.438102  9925 net.cpp:408] conv4_3_norm_mbox_priorbox -> conv4_3_norm_mbox_priorbox
I0321 17:50:15.438122  9925 net.cpp:150] Setting up conv4_3_norm_mbox_priorbox
I0321 17:50:15.438125  9925 net.cpp:157] Top shape: 1 2 65536 (131072)
I0321 17:50:15.438127  9925 net.cpp:165] Memory required for data: 1433165856
I0321 17:50:15.438128  9925 layer_factory.hpp:77] Creating layer fc7_mbox_loc
I0321 17:50:15.438135  9925 net.cpp:100] Creating Layer fc7_mbox_loc
I0321 17:50:15.438139  9925 net.cpp:434] fc7_mbox_loc <- fc7_relu7_0_split_1
I0321 17:50:15.438143  9925 net.cpp:408] fc7_mbox_loc -> fc7_mbox_loc
I0321 17:50:15.439232  9925 net.cpp:150] Setting up fc7_mbox_loc
I0321 17:50:15.439239  9925 net.cpp:157] Top shape: 2 24 32 32 (49152)
I0321 17:50:15.439240  9925 net.cpp:165] Memory required for data: 1433362464
I0321 17:50:15.439244  9925 layer_factory.hpp:77] Creating layer fc7_mbox_loc_perm
I0321 17:50:15.439249  9925 net.cpp:100] Creating Layer fc7_mbox_loc_perm
I0321 17:50:15.439251  9925 net.cpp:434] fc7_mbox_loc_perm <- fc7_mbox_loc
I0321 17:50:15.439262  9925 net.cpp:408] fc7_mbox_loc_perm -> fc7_mbox_loc_perm
I0321 17:50:15.439329  9925 net.cpp:150] Setting up fc7_mbox_loc_perm
I0321 17:50:15.439334  9925 net.cpp:157] Top shape: 2 32 32 24 (49152)
I0321 17:50:15.439337  9925 net.cpp:165] Memory required for data: 1433559072
I0321 17:50:15.439338  9925 layer_factory.hpp:77] Creating layer fc7_mbox_loc_flat
I0321 17:50:15.439342  9925 net.cpp:100] Creating Layer fc7_mbox_loc_flat
I0321 17:50:15.439344  9925 net.cpp:434] fc7_mbox_loc_flat <- fc7_mbox_loc_perm
I0321 17:50:15.439348  9925 net.cpp:408] fc7_mbox_loc_flat -> fc7_mbox_loc_flat
I0321 17:50:15.439363  9925 net.cpp:150] Setting up fc7_mbox_loc_flat
I0321 17:50:15.439373  9925 net.cpp:157] Top shape: 2 24576 (49152)
I0321 17:50:15.439374  9925 net.cpp:165] Memory required for data: 1433755680
I0321 17:50:15.439376  9925 layer_factory.hpp:77] Creating layer fc7_mbox_conf
I0321 17:50:15.439383  9925 net.cpp:100] Creating Layer fc7_mbox_conf
I0321 17:50:15.439385  9925 net.cpp:434] fc7_mbox_conf <- fc7_relu7_0_split_2
I0321 17:50:15.439389  9925 net.cpp:408] fc7_mbox_conf -> fc7_mbox_conf
I0321 17:50:15.440016  9925 net.cpp:150] Setting up fc7_mbox_conf
I0321 17:50:15.440021  9925 net.cpp:157] Top shape: 2 12 32 32 (24576)
I0321 17:50:15.440023  9925 net.cpp:165] Memory required for data: 1433853984
I0321 17:50:15.440026  9925 layer_factory.hpp:77] Creating layer fc7_mbox_conf_perm
I0321 17:50:15.440031  9925 net.cpp:100] Creating Layer fc7_mbox_conf_perm
I0321 17:50:15.440033  9925 net.cpp:434] fc7_mbox_conf_perm <- fc7_mbox_conf
I0321 17:50:15.440037  9925 net.cpp:408] fc7_mbox_conf_perm -> fc7_mbox_conf_perm
I0321 17:50:15.440102  9925 net.cpp:150] Setting up fc7_mbox_conf_perm
I0321 17:50:15.440106  9925 net.cpp:157] Top shape: 2 32 32 12 (24576)
I0321 17:50:15.440109  9925 net.cpp:165] Memory required for data: 1433952288
I0321 17:50:15.440110  9925 layer_factory.hpp:77] Creating layer fc7_mbox_conf_flat
I0321 17:50:15.440114  9925 net.cpp:100] Creating Layer fc7_mbox_conf_flat
I0321 17:50:15.440116  9925 net.cpp:434] fc7_mbox_conf_flat <- fc7_mbox_conf_perm
I0321 17:50:15.440120  9925 net.cpp:408] fc7_mbox_conf_flat -> fc7_mbox_conf_flat
I0321 17:50:15.440136  9925 net.cpp:150] Setting up fc7_mbox_conf_flat
I0321 17:50:15.440140  9925 net.cpp:157] Top shape: 2 12288 (24576)
I0321 17:50:15.440141  9925 net.cpp:165] Memory required for data: 1434050592
I0321 17:50:15.440143  9925 layer_factory.hpp:77] Creating layer fc7_mbox_priorbox
I0321 17:50:15.440147  9925 net.cpp:100] Creating Layer fc7_mbox_priorbox
I0321 17:50:15.440150  9925 net.cpp:434] fc7_mbox_priorbox <- fc7_relu7_0_split_3
I0321 17:50:15.440153  9925 net.cpp:434] fc7_mbox_priorbox <- data_data_0_split_2
I0321 17:50:15.440157  9925 net.cpp:408] fc7_mbox_priorbox -> fc7_mbox_priorbox
I0321 17:50:15.440174  9925 net.cpp:150] Setting up fc7_mbox_priorbox
I0321 17:50:15.440178  9925 net.cpp:157] Top shape: 1 2 24576 (49152)
I0321 17:50:15.440181  9925 net.cpp:165] Memory required for data: 1434247200
I0321 17:50:15.440182  9925 layer_factory.hpp:77] Creating layer conv6_2_mbox_loc
I0321 17:50:15.440188  9925 net.cpp:100] Creating Layer conv6_2_mbox_loc
I0321 17:50:15.440191  9925 net.cpp:434] conv6_2_mbox_loc <- conv6_2_conv6_2_relu_0_split_1
I0321 17:50:15.440196  9925 net.cpp:408] conv6_2_mbox_loc -> conv6_2_mbox_loc
I0321 17:50:15.440825  9925 net.cpp:150] Setting up conv6_2_mbox_loc
I0321 17:50:15.440831  9925 net.cpp:157] Top shape: 2 24 16 16 (12288)
I0321 17:50:15.440832  9925 net.cpp:165] Memory required for data: 1434296352
I0321 17:50:15.440836  9925 layer_factory.hpp:77] Creating layer conv6_2_mbox_loc_perm
I0321 17:50:15.440841  9925 net.cpp:100] Creating Layer conv6_2_mbox_loc_perm
I0321 17:50:15.440843  9925 net.cpp:434] conv6_2_mbox_loc_perm <- conv6_2_mbox_loc
I0321 17:50:15.440846  9925 net.cpp:408] conv6_2_mbox_loc_perm -> conv6_2_mbox_loc_perm
I0321 17:50:15.440910  9925 net.cpp:150] Setting up conv6_2_mbox_loc_perm
I0321 17:50:15.440915  9925 net.cpp:157] Top shape: 2 16 16 24 (12288)
I0321 17:50:15.440917  9925 net.cpp:165] Memory required for data: 1434345504
I0321 17:50:15.440925  9925 layer_factory.hpp:77] Creating layer conv6_2_mbox_loc_flat
I0321 17:50:15.440929  9925 net.cpp:100] Creating Layer conv6_2_mbox_loc_flat
I0321 17:50:15.440932  9925 net.cpp:434] conv6_2_mbox_loc_flat <- conv6_2_mbox_loc_perm
I0321 17:50:15.440937  9925 net.cpp:408] conv6_2_mbox_loc_flat -> conv6_2_mbox_loc_flat
I0321 17:50:15.440953  9925 net.cpp:150] Setting up conv6_2_mbox_loc_flat
I0321 17:50:15.440956  9925 net.cpp:157] Top shape: 2 6144 (12288)
I0321 17:50:15.440959  9925 net.cpp:165] Memory required for data: 1434394656
I0321 17:50:15.440960  9925 layer_factory.hpp:77] Creating layer conv6_2_mbox_conf
I0321 17:50:15.440966  9925 net.cpp:100] Creating Layer conv6_2_mbox_conf
I0321 17:50:15.440968  9925 net.cpp:434] conv6_2_mbox_conf <- conv6_2_conv6_2_relu_0_split_2
I0321 17:50:15.440973  9925 net.cpp:408] conv6_2_mbox_conf -> conv6_2_mbox_conf
I0321 17:50:15.441375  9925 net.cpp:150] Setting up conv6_2_mbox_conf
I0321 17:50:15.441380  9925 net.cpp:157] Top shape: 2 12 16 16 (6144)
I0321 17:50:15.441381  9925 net.cpp:165] Memory required for data: 1434419232
I0321 17:50:15.441385  9925 layer_factory.hpp:77] Creating layer conv6_2_mbox_conf_perm
I0321 17:50:15.441390  9925 net.cpp:100] Creating Layer conv6_2_mbox_conf_perm
I0321 17:50:15.441391  9925 net.cpp:434] conv6_2_mbox_conf_perm <- conv6_2_mbox_conf
I0321 17:50:15.441395  9925 net.cpp:408] conv6_2_mbox_conf_perm -> conv6_2_mbox_conf_perm
I0321 17:50:15.441459  9925 net.cpp:150] Setting up conv6_2_mbox_conf_perm
I0321 17:50:15.441464  9925 net.cpp:157] Top shape: 2 16 16 12 (6144)
I0321 17:50:15.441465  9925 net.cpp:165] Memory required for data: 1434443808
I0321 17:50:15.441468  9925 layer_factory.hpp:77] Creating layer conv6_2_mbox_conf_flat
I0321 17:50:15.441471  9925 net.cpp:100] Creating Layer conv6_2_mbox_conf_flat
I0321 17:50:15.441473  9925 net.cpp:434] conv6_2_mbox_conf_flat <- conv6_2_mbox_conf_perm
I0321 17:50:15.441478  9925 net.cpp:408] conv6_2_mbox_conf_flat -> conv6_2_mbox_conf_flat
I0321 17:50:15.441493  9925 net.cpp:150] Setting up conv6_2_mbox_conf_flat
I0321 17:50:15.441496  9925 net.cpp:157] Top shape: 2 3072 (6144)
I0321 17:50:15.441498  9925 net.cpp:165] Memory required for data: 1434468384
I0321 17:50:15.441500  9925 layer_factory.hpp:77] Creating layer conv6_2_mbox_priorbox
I0321 17:50:15.441504  9925 net.cpp:100] Creating Layer conv6_2_mbox_priorbox
I0321 17:50:15.441506  9925 net.cpp:434] conv6_2_mbox_priorbox <- conv6_2_conv6_2_relu_0_split_3
I0321 17:50:15.441509  9925 net.cpp:434] conv6_2_mbox_priorbox <- data_data_0_split_3
I0321 17:50:15.441514  9925 net.cpp:408] conv6_2_mbox_priorbox -> conv6_2_mbox_priorbox
I0321 17:50:15.441530  9925 net.cpp:150] Setting up conv6_2_mbox_priorbox
I0321 17:50:15.441534  9925 net.cpp:157] Top shape: 1 2 6144 (12288)
I0321 17:50:15.441536  9925 net.cpp:165] Memory required for data: 1434517536
I0321 17:50:15.441539  9925 layer_factory.hpp:77] Creating layer conv7_2_mbox_loc
I0321 17:50:15.441543  9925 net.cpp:100] Creating Layer conv7_2_mbox_loc
I0321 17:50:15.441546  9925 net.cpp:434] conv7_2_mbox_loc <- conv7_2_conv7_2_relu_0_split_1
I0321 17:50:15.441550  9925 net.cpp:408] conv7_2_mbox_loc -> conv7_2_mbox_loc
I0321 17:50:15.441951  9925 net.cpp:150] Setting up conv7_2_mbox_loc
I0321 17:50:15.441956  9925 net.cpp:157] Top shape: 2 24 8 8 (3072)
I0321 17:50:15.441958  9925 net.cpp:165] Memory required for data: 1434529824
I0321 17:50:15.441962  9925 layer_factory.hpp:77] Creating layer conv7_2_mbox_loc_perm
I0321 17:50:15.441967  9925 net.cpp:100] Creating Layer conv7_2_mbox_loc_perm
I0321 17:50:15.441968  9925 net.cpp:434] conv7_2_mbox_loc_perm <- conv7_2_mbox_loc
I0321 17:50:15.441972  9925 net.cpp:408] conv7_2_mbox_loc_perm -> conv7_2_mbox_loc_perm
I0321 17:50:15.442039  9925 net.cpp:150] Setting up conv7_2_mbox_loc_perm
I0321 17:50:15.442042  9925 net.cpp:157] Top shape: 2 8 8 24 (3072)
I0321 17:50:15.442044  9925 net.cpp:165] Memory required for data: 1434542112
I0321 17:50:15.442046  9925 layer_factory.hpp:77] Creating layer conv7_2_mbox_loc_flat
I0321 17:50:15.442059  9925 net.cpp:100] Creating Layer conv7_2_mbox_loc_flat
I0321 17:50:15.442061  9925 net.cpp:434] conv7_2_mbox_loc_flat <- conv7_2_mbox_loc_perm
I0321 17:50:15.442065  9925 net.cpp:408] conv7_2_mbox_loc_flat -> conv7_2_mbox_loc_flat
I0321 17:50:15.442082  9925 net.cpp:150] Setting up conv7_2_mbox_loc_flat
I0321 17:50:15.442086  9925 net.cpp:157] Top shape: 2 1536 (3072)
I0321 17:50:15.442087  9925 net.cpp:165] Memory required for data: 1434554400
I0321 17:50:15.442090  9925 layer_factory.hpp:77] Creating layer conv7_2_mbox_conf
I0321 17:50:15.442095  9925 net.cpp:100] Creating Layer conv7_2_mbox_conf
I0321 17:50:15.442097  9925 net.cpp:434] conv7_2_mbox_conf <- conv7_2_conv7_2_relu_0_split_2
I0321 17:50:15.442101  9925 net.cpp:408] conv7_2_mbox_conf -> conv7_2_mbox_conf
I0321 17:50:15.443182  9925 net.cpp:150] Setting up conv7_2_mbox_conf
I0321 17:50:15.443192  9925 net.cpp:157] Top shape: 2 12 8 8 (1536)
I0321 17:50:15.443193  9925 net.cpp:165] Memory required for data: 1434560544
I0321 17:50:15.443198  9925 layer_factory.hpp:77] Creating layer conv7_2_mbox_conf_perm
I0321 17:50:15.443204  9925 net.cpp:100] Creating Layer conv7_2_mbox_conf_perm
I0321 17:50:15.443209  9925 net.cpp:434] conv7_2_mbox_conf_perm <- conv7_2_mbox_conf
I0321 17:50:15.443213  9925 net.cpp:408] conv7_2_mbox_conf_perm -> conv7_2_mbox_conf_perm
I0321 17:50:15.443282  9925 net.cpp:150] Setting up conv7_2_mbox_conf_perm
I0321 17:50:15.443287  9925 net.cpp:157] Top shape: 2 8 8 12 (1536)
I0321 17:50:15.443289  9925 net.cpp:165] Memory required for data: 1434566688
I0321 17:50:15.443291  9925 layer_factory.hpp:77] Creating layer conv7_2_mbox_conf_flat
I0321 17:50:15.443295  9925 net.cpp:100] Creating Layer conv7_2_mbox_conf_flat
I0321 17:50:15.443297  9925 net.cpp:434] conv7_2_mbox_conf_flat <- conv7_2_mbox_conf_perm
I0321 17:50:15.443301  9925 net.cpp:408] conv7_2_mbox_conf_flat -> conv7_2_mbox_conf_flat
I0321 17:50:15.443317  9925 net.cpp:150] Setting up conv7_2_mbox_conf_flat
I0321 17:50:15.443321  9925 net.cpp:157] Top shape: 2 768 (1536)
I0321 17:50:15.443322  9925 net.cpp:165] Memory required for data: 1434572832
I0321 17:50:15.443325  9925 layer_factory.hpp:77] Creating layer conv7_2_mbox_priorbox
I0321 17:50:15.443330  9925 net.cpp:100] Creating Layer conv7_2_mbox_priorbox
I0321 17:50:15.443331  9925 net.cpp:434] conv7_2_mbox_priorbox <- conv7_2_conv7_2_relu_0_split_3
I0321 17:50:15.443334  9925 net.cpp:434] conv7_2_mbox_priorbox <- data_data_0_split_4
I0321 17:50:15.443338  9925 net.cpp:408] conv7_2_mbox_priorbox -> conv7_2_mbox_priorbox
I0321 17:50:15.443356  9925 net.cpp:150] Setting up conv7_2_mbox_priorbox
I0321 17:50:15.443361  9925 net.cpp:157] Top shape: 1 2 1536 (3072)
I0321 17:50:15.443362  9925 net.cpp:165] Memory required for data: 1434585120
I0321 17:50:15.443364  9925 layer_factory.hpp:77] Creating layer conv8_2_mbox_loc
I0321 17:50:15.443385  9925 net.cpp:100] Creating Layer conv8_2_mbox_loc
I0321 17:50:15.443388  9925 net.cpp:434] conv8_2_mbox_loc <- conv8_2_conv8_2_relu_0_split_1
I0321 17:50:15.443392  9925 net.cpp:408] conv8_2_mbox_loc -> conv8_2_mbox_loc
I0321 17:50:15.443718  9925 net.cpp:150] Setting up conv8_2_mbox_loc
I0321 17:50:15.443724  9925 net.cpp:157] Top shape: 2 16 6 6 (1152)
I0321 17:50:15.443725  9925 net.cpp:165] Memory required for data: 1434589728
I0321 17:50:15.443735  9925 layer_factory.hpp:77] Creating layer conv8_2_mbox_loc_perm
I0321 17:50:15.443742  9925 net.cpp:100] Creating Layer conv8_2_mbox_loc_perm
I0321 17:50:15.443743  9925 net.cpp:434] conv8_2_mbox_loc_perm <- conv8_2_mbox_loc
I0321 17:50:15.443747  9925 net.cpp:408] conv8_2_mbox_loc_perm -> conv8_2_mbox_loc_perm
I0321 17:50:15.443815  9925 net.cpp:150] Setting up conv8_2_mbox_loc_perm
I0321 17:50:15.443820  9925 net.cpp:157] Top shape: 2 6 6 16 (1152)
I0321 17:50:15.443822  9925 net.cpp:165] Memory required for data: 1434594336
I0321 17:50:15.443823  9925 layer_factory.hpp:77] Creating layer conv8_2_mbox_loc_flat
I0321 17:50:15.443827  9925 net.cpp:100] Creating Layer conv8_2_mbox_loc_flat
I0321 17:50:15.443840  9925 net.cpp:434] conv8_2_mbox_loc_flat <- conv8_2_mbox_loc_perm
I0321 17:50:15.443843  9925 net.cpp:408] conv8_2_mbox_loc_flat -> conv8_2_mbox_loc_flat
I0321 17:50:15.443861  9925 net.cpp:150] Setting up conv8_2_mbox_loc_flat
I0321 17:50:15.443864  9925 net.cpp:157] Top shape: 2 576 (1152)
I0321 17:50:15.443866  9925 net.cpp:165] Memory required for data: 1434598944
I0321 17:50:15.443868  9925 layer_factory.hpp:77] Creating layer conv8_2_mbox_conf
I0321 17:50:15.443874  9925 net.cpp:100] Creating Layer conv8_2_mbox_conf
I0321 17:50:15.443877  9925 net.cpp:434] conv8_2_mbox_conf <- conv8_2_conv8_2_relu_0_split_2
I0321 17:50:15.443882  9925 net.cpp:408] conv8_2_mbox_conf -> conv8_2_mbox_conf
I0321 17:50:15.444123  9925 net.cpp:150] Setting up conv8_2_mbox_conf
I0321 17:50:15.444128  9925 net.cpp:157] Top shape: 2 8 6 6 (576)
I0321 17:50:15.444129  9925 net.cpp:165] Memory required for data: 1434601248
I0321 17:50:15.444133  9925 layer_factory.hpp:77] Creating layer conv8_2_mbox_conf_perm
I0321 17:50:15.444138  9925 net.cpp:100] Creating Layer conv8_2_mbox_conf_perm
I0321 17:50:15.444139  9925 net.cpp:434] conv8_2_mbox_conf_perm <- conv8_2_mbox_conf
I0321 17:50:15.444142  9925 net.cpp:408] conv8_2_mbox_conf_perm -> conv8_2_mbox_conf_perm
I0321 17:50:15.444207  9925 net.cpp:150] Setting up conv8_2_mbox_conf_perm
I0321 17:50:15.444212  9925 net.cpp:157] Top shape: 2 6 6 8 (576)
I0321 17:50:15.444213  9925 net.cpp:165] Memory required for data: 1434603552
I0321 17:50:15.444216  9925 layer_factory.hpp:77] Creating layer conv8_2_mbox_conf_flat
I0321 17:50:15.444219  9925 net.cpp:100] Creating Layer conv8_2_mbox_conf_flat
I0321 17:50:15.444221  9925 net.cpp:434] conv8_2_mbox_conf_flat <- conv8_2_mbox_conf_perm
I0321 17:50:15.444224  9925 net.cpp:408] conv8_2_mbox_conf_flat -> conv8_2_mbox_conf_flat
I0321 17:50:15.444239  9925 net.cpp:150] Setting up conv8_2_mbox_conf_flat
I0321 17:50:15.444244  9925 net.cpp:157] Top shape: 2 288 (576)
I0321 17:50:15.444245  9925 net.cpp:165] Memory required for data: 1434605856
I0321 17:50:15.444247  9925 layer_factory.hpp:77] Creating layer conv8_2_mbox_priorbox
I0321 17:50:15.444252  9925 net.cpp:100] Creating Layer conv8_2_mbox_priorbox
I0321 17:50:15.444254  9925 net.cpp:434] conv8_2_mbox_priorbox <- conv8_2_conv8_2_relu_0_split_3
I0321 17:50:15.444257  9925 net.cpp:434] conv8_2_mbox_priorbox <- data_data_0_split_5
I0321 17:50:15.444262  9925 net.cpp:408] conv8_2_mbox_priorbox -> conv8_2_mbox_priorbox
I0321 17:50:15.444278  9925 net.cpp:150] Setting up conv8_2_mbox_priorbox
I0321 17:50:15.444283  9925 net.cpp:157] Top shape: 1 2 576 (1152)
I0321 17:50:15.444283  9925 net.cpp:165] Memory required for data: 1434610464
I0321 17:50:15.444285  9925 layer_factory.hpp:77] Creating layer conv9_2_mbox_loc
I0321 17:50:15.444290  9925 net.cpp:100] Creating Layer conv9_2_mbox_loc
I0321 17:50:15.444295  9925 net.cpp:434] conv9_2_mbox_loc <- conv9_2_conv9_2_relu_0_split_0
I0321 17:50:15.444299  9925 net.cpp:408] conv9_2_mbox_loc -> conv9_2_mbox_loc
I0321 17:50:15.444612  9925 net.cpp:150] Setting up conv9_2_mbox_loc
I0321 17:50:15.444617  9925 net.cpp:157] Top shape: 2 16 4 4 (512)
I0321 17:50:15.444619  9925 net.cpp:165] Memory required for data: 1434612512
I0321 17:50:15.444623  9925 layer_factory.hpp:77] Creating layer conv9_2_mbox_loc_perm
I0321 17:50:15.444628  9925 net.cpp:100] Creating Layer conv9_2_mbox_loc_perm
I0321 17:50:15.444631  9925 net.cpp:434] conv9_2_mbox_loc_perm <- conv9_2_mbox_loc
I0321 17:50:15.444635  9925 net.cpp:408] conv9_2_mbox_loc_perm -> conv9_2_mbox_loc_perm
I0321 17:50:15.444700  9925 net.cpp:150] Setting up conv9_2_mbox_loc_perm
I0321 17:50:15.444705  9925 net.cpp:157] Top shape: 2 4 4 16 (512)
I0321 17:50:15.444706  9925 net.cpp:165] Memory required for data: 1434614560
I0321 17:50:15.444708  9925 layer_factory.hpp:77] Creating layer conv9_2_mbox_loc_flat
I0321 17:50:15.444712  9925 net.cpp:100] Creating Layer conv9_2_mbox_loc_flat
I0321 17:50:15.444715  9925 net.cpp:434] conv9_2_mbox_loc_flat <- conv9_2_mbox_loc_perm
I0321 17:50:15.444718  9925 net.cpp:408] conv9_2_mbox_loc_flat -> conv9_2_mbox_loc_flat
I0321 17:50:15.444742  9925 net.cpp:150] Setting up conv9_2_mbox_loc_flat
I0321 17:50:15.444746  9925 net.cpp:157] Top shape: 2 256 (512)
I0321 17:50:15.444748  9925 net.cpp:165] Memory required for data: 1434616608
I0321 17:50:15.444749  9925 layer_factory.hpp:77] Creating layer conv9_2_mbox_conf
I0321 17:50:15.444756  9925 net.cpp:100] Creating Layer conv9_2_mbox_conf
I0321 17:50:15.444758  9925 net.cpp:434] conv9_2_mbox_conf <- conv9_2_conv9_2_relu_0_split_1
I0321 17:50:15.444763  9925 net.cpp:408] conv9_2_mbox_conf -> conv9_2_mbox_conf
I0321 17:50:15.444999  9925 net.cpp:150] Setting up conv9_2_mbox_conf
I0321 17:50:15.445005  9925 net.cpp:157] Top shape: 2 8 4 4 (256)
I0321 17:50:15.445006  9925 net.cpp:165] Memory required for data: 1434617632
I0321 17:50:15.445010  9925 layer_factory.hpp:77] Creating layer conv9_2_mbox_conf_perm
I0321 17:50:15.445014  9925 net.cpp:100] Creating Layer conv9_2_mbox_conf_perm
I0321 17:50:15.445016  9925 net.cpp:434] conv9_2_mbox_conf_perm <- conv9_2_mbox_conf
I0321 17:50:15.445020  9925 net.cpp:408] conv9_2_mbox_conf_perm -> conv9_2_mbox_conf_perm
I0321 17:50:15.445086  9925 net.cpp:150] Setting up conv9_2_mbox_conf_perm
I0321 17:50:15.445089  9925 net.cpp:157] Top shape: 2 4 4 8 (256)
I0321 17:50:15.445092  9925 net.cpp:165] Memory required for data: 1434618656
I0321 17:50:15.445093  9925 layer_factory.hpp:77] Creating layer conv9_2_mbox_conf_flat
I0321 17:50:15.445097  9925 net.cpp:100] Creating Layer conv9_2_mbox_conf_flat
I0321 17:50:15.445099  9925 net.cpp:434] conv9_2_mbox_conf_flat <- conv9_2_mbox_conf_perm
I0321 17:50:15.445103  9925 net.cpp:408] conv9_2_mbox_conf_flat -> conv9_2_mbox_conf_flat
I0321 17:50:15.445118  9925 net.cpp:150] Setting up conv9_2_mbox_conf_flat
I0321 17:50:15.445122  9925 net.cpp:157] Top shape: 2 128 (256)
I0321 17:50:15.445123  9925 net.cpp:165] Memory required for data: 1434619680
I0321 17:50:15.445125  9925 layer_factory.hpp:77] Creating layer conv9_2_mbox_priorbox
I0321 17:50:15.445129  9925 net.cpp:100] Creating Layer conv9_2_mbox_priorbox
I0321 17:50:15.445132  9925 net.cpp:434] conv9_2_mbox_priorbox <- conv9_2_conv9_2_relu_0_split_2
I0321 17:50:15.445134  9925 net.cpp:434] conv9_2_mbox_priorbox <- data_data_0_split_6
I0321 17:50:15.445138  9925 net.cpp:408] conv9_2_mbox_priorbox -> conv9_2_mbox_priorbox
I0321 17:50:15.445155  9925 net.cpp:150] Setting up conv9_2_mbox_priorbox
I0321 17:50:15.445159  9925 net.cpp:157] Top shape: 1 2 256 (512)
I0321 17:50:15.445160  9925 net.cpp:165] Memory required for data: 1434621728
I0321 17:50:15.445163  9925 layer_factory.hpp:77] Creating layer mbox_loc
I0321 17:50:15.445168  9925 net.cpp:100] Creating Layer mbox_loc
I0321 17:50:15.445170  9925 net.cpp:434] mbox_loc <- conv4_3_norm_mbox_loc_flat
I0321 17:50:15.445173  9925 net.cpp:434] mbox_loc <- fc7_mbox_loc_flat
I0321 17:50:15.445176  9925 net.cpp:434] mbox_loc <- conv6_2_mbox_loc_flat
I0321 17:50:15.445179  9925 net.cpp:434] mbox_loc <- conv7_2_mbox_loc_flat
I0321 17:50:15.445181  9925 net.cpp:434] mbox_loc <- conv8_2_mbox_loc_flat
I0321 17:50:15.445184  9925 net.cpp:434] mbox_loc <- conv9_2_mbox_loc_flat
I0321 17:50:15.445188  9925 net.cpp:408] mbox_loc -> mbox_loc
I0321 17:50:15.445205  9925 net.cpp:150] Setting up mbox_loc
I0321 17:50:15.445209  9925 net.cpp:157] Top shape: 2 98624 (197248)
I0321 17:50:15.445211  9925 net.cpp:165] Memory required for data: 1435410720
I0321 17:50:15.445214  9925 layer_factory.hpp:77] Creating layer mbox_conf
I0321 17:50:15.445216  9925 net.cpp:100] Creating Layer mbox_conf
I0321 17:50:15.445219  9925 net.cpp:434] mbox_conf <- conv4_3_norm_mbox_conf_flat
I0321 17:50:15.445222  9925 net.cpp:434] mbox_conf <- fc7_mbox_conf_flat
I0321 17:50:15.445225  9925 net.cpp:434] mbox_conf <- conv6_2_mbox_conf_flat
I0321 17:50:15.445227  9925 net.cpp:434] mbox_conf <- conv7_2_mbox_conf_flat
I0321 17:50:15.445230  9925 net.cpp:434] mbox_conf <- conv8_2_mbox_conf_flat
I0321 17:50:15.445232  9925 net.cpp:434] mbox_conf <- conv9_2_mbox_conf_flat
I0321 17:50:15.445236  9925 net.cpp:408] mbox_conf -> mbox_conf
I0321 17:50:15.445261  9925 net.cpp:150] Setting up mbox_conf
I0321 17:50:15.445264  9925 net.cpp:157] Top shape: 2 49312 (98624)
I0321 17:50:15.445266  9925 net.cpp:165] Memory required for data: 1435805216
I0321 17:50:15.445268  9925 layer_factory.hpp:77] Creating layer mbox_priorbox
I0321 17:50:15.445271  9925 net.cpp:100] Creating Layer mbox_priorbox
I0321 17:50:15.445274  9925 net.cpp:434] mbox_priorbox <- conv4_3_norm_mbox_priorbox
I0321 17:50:15.445277  9925 net.cpp:434] mbox_priorbox <- fc7_mbox_priorbox
I0321 17:50:15.445281  9925 net.cpp:434] mbox_priorbox <- conv6_2_mbox_priorbox
I0321 17:50:15.445283  9925 net.cpp:434] mbox_priorbox <- conv7_2_mbox_priorbox
I0321 17:50:15.445286  9925 net.cpp:434] mbox_priorbox <- conv8_2_mbox_priorbox
I0321 17:50:15.445287  9925 net.cpp:434] mbox_priorbox <- conv9_2_mbox_priorbox
I0321 17:50:15.445291  9925 net.cpp:408] mbox_priorbox -> mbox_priorbox
I0321 17:50:15.445307  9925 net.cpp:150] Setting up mbox_priorbox
I0321 17:50:15.445310  9925 net.cpp:157] Top shape: 1 2 98624 (197248)
I0321 17:50:15.445312  9925 net.cpp:165] Memory required for data: 1436594208
I0321 17:50:15.445314  9925 layer_factory.hpp:77] Creating layer mbox_conf_reshape
I0321 17:50:15.445319  9925 net.cpp:100] Creating Layer mbox_conf_reshape
I0321 17:50:15.445322  9925 net.cpp:434] mbox_conf_reshape <- mbox_conf
I0321 17:50:15.445327  9925 net.cpp:408] mbox_conf_reshape -> mbox_conf_reshape
I0321 17:50:15.445348  9925 net.cpp:150] Setting up mbox_conf_reshape
I0321 17:50:15.445353  9925 net.cpp:157] Top shape: 2 24656 2 (98624)
I0321 17:50:15.445355  9925 net.cpp:165] Memory required for data: 1436988704
I0321 17:50:15.445356  9925 layer_factory.hpp:77] Creating layer mbox_conf_softmax
I0321 17:50:15.445361  9925 net.cpp:100] Creating Layer mbox_conf_softmax
I0321 17:50:15.445363  9925 net.cpp:434] mbox_conf_softmax <- mbox_conf_reshape
I0321 17:50:15.445368  9925 net.cpp:408] mbox_conf_softmax -> mbox_conf_softmax
I0321 17:50:15.445407  9925 net.cpp:150] Setting up mbox_conf_softmax
I0321 17:50:15.445412  9925 net.cpp:157] Top shape: 2 24656 2 (98624)
I0321 17:50:15.445415  9925 net.cpp:165] Memory required for data: 1437383200
I0321 17:50:15.445416  9925 layer_factory.hpp:77] Creating layer mbox_conf_flatten
I0321 17:50:15.445420  9925 net.cpp:100] Creating Layer mbox_conf_flatten
I0321 17:50:15.445422  9925 net.cpp:434] mbox_conf_flatten <- mbox_conf_softmax
I0321 17:50:15.445425  9925 net.cpp:408] mbox_conf_flatten -> mbox_conf_flatten
I0321 17:50:15.445441  9925 net.cpp:150] Setting up mbox_conf_flatten
I0321 17:50:15.445443  9925 net.cpp:157] Top shape: 2 49312 (98624)
I0321 17:50:15.445446  9925 net.cpp:165] Memory required for data: 1437777696
I0321 17:50:15.445447  9925 layer_factory.hpp:77] Creating layer detection_out
I0321 17:50:15.445456  9925 net.cpp:100] Creating Layer detection_out
I0321 17:50:15.445459  9925 net.cpp:434] detection_out <- mbox_loc
I0321 17:50:15.445463  9925 net.cpp:434] detection_out <- mbox_conf_flatten
I0321 17:50:15.445466  9925 net.cpp:434] detection_out <- mbox_priorbox
I0321 17:50:15.445471  9925 net.cpp:408] detection_out -> detection_out
I0321 17:50:15.452553  9925 net.cpp:150] Setting up detection_out
I0321 17:50:15.452564  9925 net.cpp:157] Top shape: 1 1 1 7 (7)
I0321 17:50:15.452567  9925 net.cpp:165] Memory required for data: 1437777724
I0321 17:50:15.452569  9925 layer_factory.hpp:77] Creating layer detection_eval
I0321 17:50:15.452576  9925 net.cpp:100] Creating Layer detection_eval
I0321 17:50:15.452584  9925 net.cpp:434] detection_eval <- detection_out
I0321 17:50:15.452587  9925 net.cpp:434] detection_eval <- label
I0321 17:50:15.452591  9925 net.cpp:408] detection_eval -> detection_eval
I0321 17:50:15.452827  9925 net.cpp:150] Setting up detection_eval
I0321 17:50:15.452833  9925 net.cpp:157] Top shape: 1 1 2 5 (10)
I0321 17:50:15.452836  9925 net.cpp:165] Memory required for data: 1437777764
I0321 17:50:15.452837  9925 net.cpp:228] detection_eval does not need backward computation.
I0321 17:50:15.452841  9925 net.cpp:228] detection_out does not need backward computation.
I0321 17:50:15.452853  9925 net.cpp:228] mbox_conf_flatten does not need backward computation.
I0321 17:50:15.452857  9925 net.cpp:228] mbox_conf_softmax does not need backward computation.
…
