…
      sampler {
        min_scale: 0.3
        max_scale: 1
        min_aspect_ratio: 0.5
        max_aspect_ratio: 2
      }
      sample_constraint {
        min_jaccard_overlap: 0.9
      }
      max_sample: 1
      max_trials: 50
    }
    batch_sampler {
      sampler {
        min_scale: 0.3
        max_scale: 1
        min_aspect_ratio: 0.5
        max_aspect_ratio: 2
      }
      sample_constraint {
        max_jaccard_overlap: 1
      }
      max_sample: 1
      max_trials: 50
    }
    label_map_file: "data/ascend/labelmap.prototxt"
  }
}
layer {
  name: "conv1_1"
  type: "Convolution"
  bottom: "data"
  top: "conv1_1"
  param {
    lr_mult: 1
    decay_mult: 1
  }
  param {
    lr_mult: 2
    decay_mult: 0
  }
  convolution_param {
    num_output: 64
    pad: 1
    kernel_size: 3
    weight_filler {
      type: "xavier"
    }
    bias_filler {
      type: "constant"
      value: 0
    }
  }
}
layer {
  name: "relu1_1"
  type: "ReLU"
  bottom: "conv1_1"
  top: "conv1_1"
}
layer {
  name: "conv1_2"
  type: "Convolution"
  bottom: "conv1_1"
  top: "conv1_2"
  param {
    lr_mult: 1
    decay_mult: 1
  }
  param {
    lr_mult: 2
    decay_mult: 0
  }
  convolution_param {
    num_output: 64
    pad: 1
    kernel_size: 3
    weight_filler {
      type: "xavier"
    }
    bias_filler {
      type: "constant"
      value: 0
    }
  }
}
layer {
  name: "relu1_2"
  type: "ReLU"
  bottom: "conv1_2"
  top: "conv1_2"
}
layer {
  name: "pool1"
  type: "Pooling"
  bottom: "conv1_2"
  top: "pool1"
  pooling_param {
    pool: MAX
    kernel_size: 2
    stride: 2
  }
}
layer {
  name: "conv2_1"
  type: "Convolution"
  bottom: "pool1"
  top: "conv2_1"
  param {
    lr_mult: 1
    decay_mult: 1
  }
  param {
    lr_mult: 2
    decay_mult: 0
  }
  convolution_param {
    num_output: 128
    pad: 1
    kernel_size: 3
    weight_filler {
      type: "xavier"
    }
    bias_filler {
      type: "constant"
      value: 0
    }
  }
}
layer {
  name: "relu2_1"
  type: "ReLU"
  bottom: "conv2_1"
  top: "conv2_1"
}
layer {
  name: "conv2_2"
  type: "Convolution"
  bottom: "conv2_1"
  top: "conv2_2"
  param {
    lr_mult: 1
    decay_mult: 1
  }
  param {
    lr_mult: 2
    decay_mult: 0
  }
  convolution_param {
    num_output: 128
    pad: 1
    kernel_size: 3
    weight_filler {
      type: "xavier"
    }
    bias_filler {
      type: "constant"
      value: 0
    }
  }
}
layer {
  name: "relu2_2"
  type: "ReLU"
  bottom: "conv2_2"
  top: "conv2_2"
}
layer {
  name: "pool2"
  type: "Pooling"
  bottom: "conv2_2"
  top: "pool2"
  pooling_param {
    pool: MAX
    kernel_size: 2
    stride: 2
  }
}
layer {
  name: "conv3_1"
  type: "Convolution"
  bottom: "pool2"
  top: "conv3_1"
  param {
    lr_mult: 1
    decay_mult: 1
  }
  param {
    lr_mult: 2
    decay_mult: 0
  }
  convolution_param {
    num_output: 256
    pad: 1
    kernel_size: 3
    weight_filler {
      type: "xavier"
    }
    bias_filler {
      type: "constant"
      value: 0
    }
  }
}
layer {
  name: "relu3_1"
  type: "ReLU"
  bottom: "conv3_1"
  top: "conv3_1"
}
layer {
  name: "conv3_2"
  type: "Convolution"
  bottom: "conv3_1"
  top: "conv3_2"
  param {
    lr_mult: 1
    decay_mult: 1
  }
  param {
    lr_mult: 2
    decay_mult: 0
  }
  convolution_param {
    num_output: 256
    pad: 1
    kernel_size: 3
    weight_filler {
      type: "xavier"
    }
    bias_filler {
      type: "constant"
      value: 0
    }
  }
}
layer {
  name: "relu3_2"
  type: "ReLU"
  bottom: "conv3_2"
  top: "conv3_2"
}
layer {
  name: "conv3_3"
  type: "Convolution"
  bottom: "conv3_2"
  top: "conv3_3"
  param {
    lr_mult: 1
    decay_mult: 1
  }
  param {
    lr_mult: 2
    decay_mult: 0
  }
  convolution_param {
    num_output: 256
    pad: 1
    kernel_size: 3
    weight_filler {
      type: "xavier"
    }
    bias_filler {
      type: "constant"
      value: 0
    }
  }
}
layer {
  name: "relu3_3"
  type: "ReLU"
  bottom: "conv3_3"
  top: "conv3_3"
}
layer {
  name: "pool3"
  type: "Pooling"
  bottom: "conv3_3"
  top: "pool3"
  pooling_param {
    pool: MAX
    kernel_size: 2
    stride: 2
  }
}
layer {
  name: "conv4_1"
  type: "Convolution"
  bottom: "pool3"
  top: "conv4_1"
  param {
    lr_mult: 1
    decay_mult: 1
  }
  param {
    lr_mult: 2
    decay_mult: 0
  }
  convolution_param {
    num_output: 512
    pad: 1
    kernel_size: 3
    weight_filler {
      type: "xavier"
    }
    bias_filler {
      type: "constant"
      value: 0
    }
  }
}
layer {
  name: "relu4_1"
  type: "ReLU"
  bottom: "conv4_1"
  top: "conv4_1"
}
layer {
  name: "conv4_2"
  type: "Convolution"
  bottom: "conv4_1"
  top: "conv4_2"
  param {
    lr_mult: 1
    decay_mult: 1
  }
  param {
    lr_mult: 2
    decay_mult: 0
  }
  convolution_param {
    num_output: 512
    pad: 1
    kernel_size: 3
    weight_filler {
      type: "xavier"
    }
    bias_filler {
      type: "constant"
      value: 0
    }
  }
}
layer {
  name: "relu4_2"
  type: "ReLU"
  bottom: "conv4_2"
  top: "conv4_2"
}
layer {
  name: "conv4_3"
  type: "Convolution"
  bottom: "conv4_2"
  top: "conv4_3"
  param {
    lr_mult: 1
    decay_mult: 1
  }
  param {
    lr_mult: 2
    decay_mult: 0
  }
  convolution_param {
    num_output: 512
    pad: 1
    kernel_size: 3
    weight_filler {
      type: "xavier"
    }
    bias_filler {
      type: "constant"
      value: 0
    }
  }
}
layer {
  name: "relu4_3"
  type: "ReLU"
  bottom: "conv4_3"
  top: "conv4_3"
}
layer {
  name: "pool4"
  type: "Pooling"
  bottom: "conv4_3"
  top: "pool4"
  pooling_param {
    pool: MAX
    kernel_size: 2
    stride: 2
  }
}
layer {
  name: "conv5_1"
  type: "Convolution"
  bottom: "pool4"
  top: "conv5_1"
  param {
    lr_mult: 1
    decay_mult: 1
  }
  param {
    lr_mult: 2
    decay_mult: 0
  }
  convolution_param {
    num_output: 512
    pad: 1
    kernel_size: 3
    weight_filler {
      type: "xavier"
    }
    bias_filler {
      type: "constant"
      value: 0
    }
    dilation: 1
  }
}
layer {
  name: "relu5_1"
  type: "ReLU"
  bottom: "conv5_1"
  top: "conv5_1"
}
layer {
  name: "conv5_2"
  type: "Convolution"
  bottom: "conv5_1"
  top: "conv5_2"
  param {
    lr_mult: 1
    decay_mult: 1
  }
  param {
    lr_mult: 2
    decay_mult: 0
  }
  convolution_param {
    num_output: 512
    pad: 1
    kernel_size: 3
    weight_filler {
      type: "xavier"
    }
    bias_filler {
      type: "constant"
      value: 0
    }
    dilation: 1
  }
}
layer {
  name: "relu5_2"
  type: "ReLU"
  bottom: "conv5_2"
  top: "conv5_2"
}
layer {
  name: "conv5_3"
  type: "Convolution"
  bottom: "conv5_2"
  top: "conv5_3"
  param {
    lr_mult: 1
    decay_mult: 1
  }
  param {
    lr_mult: 2
    decay_mult: 0
  }
  convolution_param {
    num_output: 512
    pad: 1
    kernel_size: 3
    weight_filler {
      type: "xavier"
    }
    bias_filler {
      type: "constant"
      value: 0
    }
    dilation: 1
  }
}
layer {
  name: "relu5_3"
  type: "ReLU"
  bottom: "conv5_3"
  top: "conv5_3"
}
layer {
  name: "pool5"
  type: "Pooling"
  bottom: "conv5_3"
  top: "pool5"
  pooling_param {
    pool: MAX
    kernel_size: 3
    stride: 1
    pad: 1
  }
}
layer {
  name: "fc6"
  type: "Convolution"
  bottom: "pool5"
  top: "fc6"
  param {
    lr_mult: 1
    decay_mult: 1
  }
  param {
    lr_mult: 2
    decay_mult: 0
  }
  convolution_param {
    num_output: 1024
    pad: 6
    kernel_size: 3
    weight_filler {
      type: "xavier"
    }
    bias_filler {
      type: "constant"
      value: 0
    }
    dilation: 6
  }
}
layer {
  name: "relu6"
  type: "ReLU"
  bottom: "fc6"
  top: "fc6"
}
layer {
  name: "fc7"
  type: "Convolution"
  bottom: "fc6"
  top: "fc7"
  param {
    lr_mult: 1
    decay_mult: 1
  }
  param {
    lr_mult: 2
    decay_mult: 0
  }
  convolution_param {
    num_output: 1024
    kernel_size: 1
    weight_filler {
      type: "xavier"
    }
    bias_filler {
      type: "constant"
      value: 0
    }
  }
}
layer {
  name: "relu7"
  type: "ReLU"
  bottom: "fc7"
  top: "fc7"
}
layer {
  name: "conv6_1"
  type: "Convolution"
  bottom: "fc7"
  top: "conv6_1"
  param {
    lr_mult: 1
    decay_mult: 1
  }
  param {
    lr_mult: 2
    decay_mult: 0
  }
  convolution_param {
    num_output: 256
    pad: 0
    kernel_size: 1
    stride: 1
    weight_filler {
      type: "xavier"
    }
    bias_filler {
      type: "constant"
      value: 0
    }
  }
}
layer {
  name: "conv6_1_relu"
  type: "ReLU"
  bottom: "conv6_1"
  top: "conv6_1"
}
layer {
  name: "conv6_2"
  type: "Convolution"
  bottom: "conv6_1"
  top: "conv6_2"
  param {
    lr_mult: 1
    decay_mult: 1
  }
  param {
    lr_mult: 2
    decay_mult: 0
  }
  convolution_param {
    num_output: 512
    pad: 1
    kernel_size: 3
    stride: 2
    weight_filler {
      type: "xavier"
    }
    bias_filler {
      type: "constant"
      value: 0
    }
  }
}
layer {
  name: "conv6_2_relu"
  type: "ReLU"
  bottom: "conv6_2"
  top: "conv6_2"
}
layer {
  name: "conv7_1"
  type: "Convolution"
  bottom: "conv6_2"
  top: "conv7_1"
  param {
    lr_mult: 1
    decay_mult: 1
  }
  param {
    lr_mult: 2
    decay_mult: 0
  }
  convolution_param {
    num_output: 128
    pad: 0
    kernel_size: 1
    stride: 1
    weight_filler {
      type: "xavier"
    }
    bias_filler {
      type: "constant"
      value: 0
    }
  }
}
layer {
  name: "conv7_1_relu"
  type: "ReLU"
  bottom: "conv7_1"
  top: "conv7_1"
}
layer {
  name: "conv7_2"
  type: "Convolution"
  bottom: "conv7_1"
  top: "conv7_2"
  param {
    lr_mult: 1
    decay_mult: 1
  }
  param {
    lr_mult: 2
    decay_mult: 0
  }
  convolution_param {
    num_output: 256
    pad: 1
    kernel_size: 3
    stride: 2
    weight_filler {
      type: "xavier"
    }
    bias_filler {
      type: "constant"
      value: 0
    }
  }
}
layer {
  name: "conv7_2_relu"
  type: "ReLU"
  bottom: "conv7_2"
  top: "conv7_2"
}
layer {
  name: "conv8_1"
  type: "Convolution"
  bottom: "conv7_2"
  top: "conv8_1"
  param {
    lr_mult: 1
    decay_mult: 1
  }
  param {
    lr_mult: 2
    decay_mult: 0
  }
  convolution_param {
    num_output: 128
    pad: 0
    kernel_size: 1
    stride: 1
    weight_filler {
      type: "xavier"
    }
    bias_filler {
      type: "constant"
      value: 0
    }
  }
}
layer {
  name: "conv8_1_relu"
  type: "ReLU"
  bottom: "conv8_1"
  top: "conv8_1"
}
layer {
  name: "conv8_2"
  type: "Convolution"
  bottom: "conv8_1"
  top: "conv8_2"
  param {
    lr_mult: 1
    decay_mult: 1
  }
  param {
    lr_mult: 2
    decay_mult: 0
  }
  convolution_param {
    num_output: 256
    pad: 0
    kernel_size: 3
    stride: 1
    weight_filler {
      type: "xavier"
    }
    bias_filler {
      type: "constant"
      value: 0
    }
  }
}
layer {
  name: "conv8_2_relu"
  type: "ReLU"
  bottom: "conv8_2"
  top: "conv8_2"
}
layer {
  name: "conv9_1"
  type: "Convolution"
  bottom: "conv8_2"
  top: "conv9_1"
  param {
    lr_mult: 1
    decay_mult: 1
  }
  param {
    lr_mult: 2
    decay_mult: 0
  }
  convolution_param {
    num_output: 128
    pad: 0
    kernel_size: 1
    stride: 1
    weight_filler {
      type: "xavier"
    }
    bias_filler {
      type: "constant"
      value: 0
    }
  }
}
layer {
  name: "conv9_1_relu"
  type: "ReLU"
  bottom: "conv9_1"
  top: "conv9_1"
}
layer {
  name: "conv9_2"
  type: "Convolution"
  bottom: "conv9_1"
  top: "conv9_2"
  param {
    lr_mult: 1
    decay_mult: 1
  }
  param {
    lr_mult: 2
    decay_mult: 0
  }
  convolution_param {
    num_output: 256
    pad: 0
    kernel_size: 3
    stride: 1
    weight_filler {
      type: "xavier"
    }
    bias_filler {
      type: "constant"
      value: 0
    }
  }
}
layer {
  name: "conv9_2_relu"
  type: "ReLU"
  bottom: "conv9_2"
  top: "conv9_2"
}
layer {
  name: "conv4_3_norm"
  type: "Normalize"
  bottom: "conv4_3"
  top: "conv4_3_norm"
  norm_param {
    across_spatial: false
    scale_filler {
      type: "constant"
      value: 20
    }
    channel_shared: false
  }
}
layer {
  name: "conv4_3_norm_mbox_loc"
  type: "Convolution"
  bottom: "conv4_3_norm"
  top: "conv4_3_norm_mbox_loc"
  param {
    lr_mult: 1
    decay_mult: 1
  }
  param {
    lr_mult: 2
    decay_mult: 0
  }
  convolution_param {
    num_output: 16
    pad: 1
    kernel_size: 3
    stride: 1
    weight_filler {
      type: "xavier"
    }
    bias_filler {
      type: "constant"
      value: 0
    }
  }
}
layer {
  name: "conv4_3_norm_mbox_loc_perm"
  type: "Permute"
  bottom: "conv4_3_norm_mbox_loc"
  top: "conv4_3_norm_mbox_loc_perm"
  permute_param {
    order: 0
    order: 2
    order: 3
    order: 1
  }
}
layer {
  name: "conv4_3_norm_mbox_loc_flat"
  type: "Flatten"
  bottom: "conv4_3_norm_mbox_loc_perm"
  top: "conv4_3_norm_mbox_loc_flat"
  flatten_param {
    axis: 1
  }
}
layer {
  name: "conv4_3_norm_mbox_conf"
  type: "Convolution"
  bottom: "conv4_3_norm"
  top: "conv4_3_norm_mbox_conf"
  param {
    lr_mult: 1
    decay_mult: 1
  }
  param {
    lr_mult: 2
    decay_mult: 0
  }
  convolution_param {
    num_output: 16
    pad: 1
    kernel_size: 3
    stride: 1
    weight_filler {
      type: "xavier"
    }
    bias_filler {
      type: "constant"
      value: 0
    }
  }
}
layer {
  name: "conv4_3_norm_mbox_conf_perm"
  type: "Permute"
  bottom: "conv4_3_norm_mbox_conf"
  top: "conv4_3_norm_mbox_conf_perm"
  permute_param {
    order: 0
    order: 2
    order: 3
    order: 1
  }
}
layer {
  name: "conv4_3_norm_mbox_conf_flat"
  type: "Flatten"
  bottom: "conv4_3_norm_mbox_conf_perm"
  top: "conv4_3_norm_mbox_conf_flat"
  flatten_param {
    axis: 1
  }
}
layer {
  name: "conv4_3_norm_mbox_priorbox"
  type: "PriorBox"
  bottom: "conv4_3_norm"
  bottom: "data"
  top: "conv4_3_norm_mbox_priorbox"
  prior_box_param {
    min_size: 30
    max_size: 60
    aspect_ratio: 2
    flip: true
    clip: false
    variance: 0.1
    variance: 0.1
    variance: 0.2
    variance: 0.2
    step: 8
    offset: 0.5
  }
}
layer {
  name: "fc7_mbox_loc"
  type: "Convolution"
  bottom: "fc7"
  top: "fc7_mbox_loc"
  param {
    lr_mult: 1
    decay_mult: 1
  }
  param {
    lr_mult: 2
    decay_mult: 0
  }
  convolution_param {
    num_output: 24
    pad: 1
    kernel_size: 3
    stride: 1
    weight_filler {
      type: "xavier"
    }
    bias_filler {
      type: "constant"
      value: 0
    }
  }
}
layer {
  name: "fc7_mbox_loc_perm"
  type: "Permute"
  bottom: "fc7_mbox_loc"
  top: "fc7_mbox_loc_perm"
  permute_param {
    order: 0
    order: 2
    order: 3
    order: 1
  }
}
layer {
  name: "fc7_mbox_loc_flat"
  type: "Flatten"
  bottom: "fc7_mbox_loc_perm"
  top: "fc7_mbox_loc_flat"
  flatten_param {
    axis: 1
  }
}
layer {
  name: "fc7_mbox_conf"
  type: "Convolution"
  bottom: "fc7"
  top: "fc7_mbox_conf"
  param {
    lr_mult: 1
    decay_mult: 1
  }
  param {
    lr_mult: 2
    decay_mult: 0
  }
  convolution_param {
    num_output: 24
    pad: 1
    kernel_size: 3
    stride: 1
    weight_filler {
      type: "xavier"
    }
    bias_filler {
      type: "constant"
      value: 0
    }
  }
}
layer {
  name: "fc7_mbox_conf_perm"
  type: "Permute"
  bottom: "fc7_mbox_conf"
  top: "fc7_mbox_conf_perm"
  permute_param {
    order: 0
    order: 2
    order: 3
    order: 1
  }
}
layer {
  name: "fc7_mbox_conf_flat"
  type: "Flatten"
  bottom: "fc7_mbox_conf_perm"
  top: "fc7_mbox_conf_flat"
  flatten_param {
    axis: 1
  }
}
layer {
  name: "fc7_mbox_priorbox"
  type: "PriorBox"
  bottom: "fc7"
  bottom: "data"
  top: "fc7_mbox_priorbox"
  prior_box_param {
    min_size: 60
    max_size: 111
    aspect_ratio: 2
    aspect_ratio: 3
    flip: true
    clip: false
    variance: 0.1
    variance: 0.1
    variance: 0.2
    variance: 0.2
    step: 16
    offset: 0.5
  }
}
layer {
  name: "conv6_2_mbox_loc"
  type: "Convolution"
  bottom: "conv6_2"
  top: "conv6_2_mbox_loc"
  param {
    lr_mult: 1
    decay_mult: 1
  }
  param {
    lr_mult: 2
    decay_mult: 0
  }
  convolution_param {
    num_output: 24
    pad: 1
    kernel_size: 3
    stride: 1
    weight_filler {
      type: "xavier"
    }
    bias_filler {
      type: "constant"
      value: 0
    }
  }
}
layer {
  name: "conv6_2_mbox_loc_perm"
  type: "Permute"
  bottom: "conv6_2_mbox_loc"
  top: "conv6_2_mbox_loc_perm"
  permute_param {
    order: 0
    order: 2
    order: 3
    order: 1
  }
}
layer {
  name: "conv6_2_mbox_loc_flat"
  type: "Flatten"
  bottom: "conv6_2_mbox_loc_perm"
  top: "conv6_2_mbox_loc_flat"
  flatten_param {
    axis: 1
  }
}
layer {
  name: "conv6_2_mbox_conf"
  type: "Convolution"
  bottom: "conv6_2"
  top: "conv6_2_mbox_conf"
  param {
    lr_mult: 1
    decay_mult: 1
  }
  param {
    lr_mult: 2
    decay_mult: 0
  }
  convolution_param {
    num_output: 24
    pad: 1
    kernel_size: 3
    stride: 1
    weight_filler {
      type: "xavier"
    }
    bias_filler {
      type: "constant"
      value: 0
    }
  }
}
layer {
  name: "conv6_2_mbox_conf_perm"
  type: "Permute"
  bottom: "conv6_2_mbox_conf"
  top: "conv6_2_mbox_conf_perm"
  permute_param {
    order: 0
    order: 2
    order: 3
    order: 1
  }
}
layer {
  name: "conv6_2_mbox_conf_flat"
  type: "Flatten"
  bottom: "conv6_2_mbox_conf_perm"
  top: "conv6_2_mbox_conf_flat"
  flatten_param {
    axis: 1
  }
}
layer {
  name: "conv6_2_mbox_priorbox"
  type: "PriorBox"
  bottom: "conv6_2"
  bottom: "data"
  top: "conv6_2_mbox_priorbox"
  prior_box_param {
    min_size: 111
    max_size: 162
    aspect_ratio: 2
    aspect_ratio: 3
    flip: true
    clip: false
    variance: 0.1
    variance: 0.1
    variance: 0.2
    variance: 0.2
    step: 32
    offset: 0.5
  }
}
layer {
  name: "conv7_2_mbox_loc"
  type: "Convolution"
  bottom: "conv7_2"
  top: "conv7_2_mbox_loc"
  param {
    lr_mult: 1
    decay_mult: 1
  }
  param {
    lr_mult: 2
    decay_mult: 0
  }
  convolution_param {
    num_output: 24
    pad: 1
    kernel_size: 3
    stride: 1
    weight_filler {
      type: "xavier"
    }
    bias_filler {
      type: "constant"
      value: 0
    }
  }
}
layer {
  name: "conv7_2_mbox_loc_perm"
  type: "Permute"
  bottom: "conv7_2_mbox_loc"
  top: "conv7_2_mbox_loc_perm"
  permute_param {
    order: 0
    order: 2
    order: 3
    order: 1
  }
}
layer {
  name: "conv7_2_mbox_loc_flat"
  type: "Flatten"
  bottom: "conv7_2_mbox_loc_perm"
  top: "conv7_2_mbox_loc_flat"
  flatten_param {
    axis: 1
  }
}
layer {
  name: "conv7_2_mbox_conf"
  type: "Convolution"
  bottom: "conv7_2"
  top: "conv7_2_mbox_conf"
  param {
    lr_mult: 1
    decay_mult: 1
  }
  param {
    lr_mult: 2
    decay_mult: 0
  }
  convolution_param {
    num_output: 24
    pad: 1
    kernel_size: 3
    stride: 1
    weight_filler {
      type: "xavier"
    }
    bias_filler {
      type: "constant"
      value: 0
    }
  }
}
layer {
  name: "conv7_2_mbox_conf_perm"
  type: "Permute"
  bottom: "conv7_2_mbox_conf"
  top: "conv7_2_mbox_conf_perm"
  permute_param {
    order: 0
    order: 2
    order: 3
    order: 1
  }
}
layer {
  name: "conv7_2_mbox_conf_flat"
  type: "Flatten"
  bottom: "conv7_2_mbox_conf_perm"
  top: "conv7_2_mbox_conf_flat"
  flatten_param {
    axis: 1
  }
}
layer {
  name: "conv7_2_mbox_priorbox"
  type: "PriorBox"
  bottom: "conv7_2"
  bottom: "data"
  top: "conv7_2_mbox_priorbox"
  prior_box_param {
    min_size: 162
    max_size: 213
    aspect_ratio: 2
    aspect_ratio: 3
    flip: true
    clip: false
    variance: 0.1
    variance: 0.1
    variance: 0.2
    variance: 0.2
    step: 64
    offset: 0.5
  }
}
layer {
  name: "conv8_2_mbox_loc"
  type: "Convolution"
  bottom: "conv8_2"
  top: "conv8_2_mbox_loc"
  param {
    lr_mult: 1
    decay_mult: 1
  }
  param {
    lr_mult: 2
    decay_mult: 0
  }
  convolution_param {
    num_output: 16
    pad: 1
    kernel_size: 3
    stride: 1
    weight_filler {
      type: "xavier"
    }
    bias_filler {
      type: "constant"
      value: 0
    }
  }
}
layer {
  name: "conv8_2_mbox_loc_perm"
  type: "Permute"
  bottom: "conv8_2_mbox_loc"
  top: "conv8_2_mbox_loc_perm"
  permute_param {
    order: 0
    order: 2
    order: 3
    order: 1
  }
}
layer {
  name: "conv8_2_mbox_loc_flat"
  type: "Flatten"
  bottom: "conv8_2_mbox_loc_perm"
  top: "conv8_2_mbox_loc_flat"
  flatten_param {
    axis: 1
  }
}
layer {
  name: "conv8_2_mbox_conf"
  type: "Convolution"
  bottom: "conv8_2"
  top: "conv8_2_mbox_conf"
  param {
    lr_mult: 1
    decay_mult: 1
  }
  param {
    lr_mult: 2
    decay_mult: 0
  }
  convolution_param {
    num_output: 16
    pad: 1
    kernel_size: 3
    stride: 1
    weight_filler {
      type: "xavier"
    }
    bias_filler {
      type: "constant"
      value: 0
    }
  }
}
layer {
  name: "conv8_2_mbox_conf_perm"
  type: "Permute"
  bottom: "conv8_2_mbox_conf"
  top: "conv8_2_mbox_conf_perm"
  permute_param {
    order: 0
    order: 2
    order: 3
    order: 1
  }
}
layer {
  name: "conv8_2_mbox_conf_flat"
  type: "Flatten"
  bottom: "conv8_2_mbox_conf_perm"
  top: "conv8_2_mbox_conf_flat"
  flatten_param {
    axis: 1
  }
}
layer {
  name: "conv8_2_mbox_priorbox"
  type: "PriorBox"
  bottom: "conv8_2"
  bottom: "data"
  top: "conv8_2_mbox_priorbox"
  prior_box_param {
    min_size: 213
    max_size: 264
    aspect_ratio: 2
    flip: true
    clip: false
    variance: 0.1
    variance: 0.1
    variance: 0.2
    variance: 0.2
    step: 100
    offset: 0.5
  }
}
layer {
  name: "conv9_2_mbox_loc"
  type: "Convolution"
  bottom: "conv9_2"
  top: "conv9_2_mbox_loc"
  param {
    lr_mult: 1
    decay_mult: 1
  }
  param {
    lr_mult: 2
    decay_mult: 0
  }
  convolution_param {
    num_output: 16
    pad: 1
    kernel_size: 3
    stride: 1
    weight_filler {
      type: "xavier"
    }
    bias_filler {
      type: "constant"
      value: 0
    }
  }
}
layer {
  name: "conv9_2_mbox_loc_perm"
  type: "Permute"
  bottom: "conv9_2_mbox_loc"
  top: "conv9_2_mbox_loc_perm"
  permute_param {
    order: 0
    order: 2
    order: 3
    order: 1
  }
}
layer {
  name: "conv9_2_mbox_loc_flat"
  type: "Flatten"
  bottom: "conv9_2_mbox_loc_perm"
  top: "conv9_2_mbox_loc_flat"
  flatten_param {
    axis: 1
  }
}
layer {
  name: "conv9_2_mbox_conf"
  type: "Convolution"
  bottom: "conv9_2"
  top: "conv9_2_mbox_conf"
  param {
    lr_mult: 1
    decay_mult: 1
  }
  param {
    lr_mult: 2
    decay_mult: 0
  }
  convolution_param {
    num_output: 16
    pad: 1
    kernel_size: 3
    stride: 1
    weight_filler {
      type: "xavier"
    }
    bias_filler {
      type: "constant"
      value: 0
    }
  }
}
layer {
  name: "conv9_2_mbox_conf_perm"
  type: "Permute"
  bottom: "conv9_2_mbox_conf"
  top: "conv9_2_mbox_conf_perm"
  permute_param {
    order: 0
    order: 2
    order: 3
    order: 1
  }
}
layer {
  name: "conv9_2_mbox_conf_flat"
  type: "Flatten"
  bottom: "conv9_2_mbox_conf_perm"
  top: "conv9_2_mbox_conf_flat"
  flatten_param {
    axis: 1
  }
}
layer {
  name: "conv9_2_mbox_priorbox"
  type: "PriorBox"
  bottom: "conv9_2"
  bottom: "data"
  top: "conv9_2_mbox_priorbox"
  prior_box_param {
    min_size: 264
    max_size: 315
    aspect_ratio: 2
    flip: true
    clip: false
    variance: 0.1
    variance: 0.1
    variance: 0.2
    variance: 0.2
    step: 300
    offset: 0.5
  }
}
layer {
  name: "mbox_loc"
  type: "Concat"
  bottom: "conv4_3_norm_mbox_loc_flat"
  bottom: "fc7_mbox_loc_flat"
  bottom: "conv6_2_mbox_loc_flat"
  bottom: "conv7_2_mbox_loc_flat"
  bottom: "conv8_2_mbox_loc_flat"
  bottom: "conv9_2_mbox_loc_flat"
  top: "mbox_loc"
  concat_param {
    axis: 1
  }
}
layer {
  name: "mbox_conf"
  type: "Concat"
  bottom: "conv4_3_norm_mbox_conf_flat"
  bottom: "fc7_mbox_conf_flat"
  bottom: "conv6_2_mbox_conf_flat"
  bottom: "conv7_2_mbox_conf_flat"
  bottom: "conv8_2_mbox_conf_flat"
  bottom: "conv9_2_mbox_conf_flat"
  top: "mbox_conf"
  concat_param {
    axis: 1
  }
}
layer {
  name: "mbox_priorbox"
  type: "Concat"
  bottom: "conv4_3_norm_mbox_priorbox"
  bottom: "fc7_mbox_priorbox"
  bottom: "conv6_2_mbox_priorbox"
  bottom: "conv7_2_mbox_priorbox"
  bottom: "conv8_2_mbox_priorbox"
  bottom: "conv9_2_mbox_priorbox"
  top: "mbox_priorbox"
  concat_param {
    axis: 2
  }
}
layer {
  name: "mbox_loss"
  type: "MultiBoxLoss"
  bottom: "mbox_loc"
  bottom: "mbox_conf"
  bottom: "mbox_priorbox"
  bottom: "label"
  top: "mbox_loss"
  include {
    phase: TRAIN
  }
  propagate_down: true
  propagate_down: true
  propagate_down: false
  propagate_down: false
  loss_param {
    normalization: VALID
  }
  multibox_loss_param {
    loc_loss_type: SMOOTH_L1
    conf_loss_type: SOFTMAX
    loc_weight: 1
    num_classes: 4
    share_location: true
    match_type: PER_PREDICTION
    overlap_threshold: 0.5
    use_prior_for_matching: true
    background_label_id: 0
    use_difficult_gt: true
    neg_pos_ratio: 3
    neg_overlap: 0.5
    code_type: CENTER_SIZE
    ignore_cross_boundary_bbox: false
    mining_type: MAX_NEGATIVE
  }
}
I0426 15:02:21.539780 20643 layer_factory.hpp:77] Creating layer data
I0426 15:02:21.540408 20643 net.cpp:100] Creating Layer data
I0426 15:02:21.540421 20643 net.cpp:408] data -> data
I0426 15:02:21.540452 20643 net.cpp:408] data -> label
I0426 15:02:21.541385 20662 db_lmdb.cpp:35] Opened lmdb /localdata/markustp/data/ascend/lmdb/ascend_trainval_lmdb
I0426 15:02:21.567649 20643 annotated_data_layer.cpp:62] output data size: 8,3,512,512
I0426 15:02:21.599442 20643 net.cpp:150] Setting up data
I0426 15:02:21.599467 20643 net.cpp:157] Top shape: 8 3 512 512 (6291456)
I0426 15:02:21.599470 20643 net.cpp:157] Top shape: 1 1 5 8 (40)
I0426 15:02:21.599493 20643 net.cpp:165] Memory required for data: 25165984
I0426 15:02:21.599503 20643 layer_factory.hpp:77] Creating layer data_data_0_split
I0426 15:02:21.599515 20643 net.cpp:100] Creating Layer data_data_0_split
I0426 15:02:21.599520 20643 net.cpp:434] data_data_0_split <- data
I0426 15:02:21.599530 20643 net.cpp:408] data_data_0_split -> data_data_0_split_0
I0426 15:02:21.599539 20643 net.cpp:408] data_data_0_split -> data_data_0_split_1
I0426 15:02:21.599545 20643 net.cpp:408] data_data_0_split -> data_data_0_split_2
I0426 15:02:21.599550 20643 net.cpp:408] data_data_0_split -> data_data_0_split_3
I0426 15:02:21.599555 20643 net.cpp:408] data_data_0_split -> data_data_0_split_4
I0426 15:02:21.599558 20643 net.cpp:408] data_data_0_split -> data_data_0_split_5
I0426 15:02:21.599562 20643 net.cpp:408] data_data_0_split -> data_data_0_split_6
I0426 15:02:21.599676 20643 net.cpp:150] Setting up data_data_0_split
I0426 15:02:21.599683 20643 net.cpp:157] Top shape: 8 3 512 512 (6291456)
I0426 15:02:21.599685 20643 net.cpp:157] Top shape: 8 3 512 512 (6291456)
I0426 15:02:21.599689 20643 net.cpp:157] Top shape: 8 3 512 512 (6291456)
I0426 15:02:21.599691 20643 net.cpp:157] Top shape: 8 3 512 512 (6291456)
I0426 15:02:21.599694 20643 net.cpp:157] Top shape: 8 3 512 512 (6291456)
I0426 15:02:21.599696 20643 net.cpp:157] Top shape: 8 3 512 512 (6291456)
I0426 15:02:21.599699 20643 net.cpp:157] Top shape: 8 3 512 512 (6291456)
I0426 15:02:21.599701 20643 net.cpp:165] Memory required for data: 201326752
I0426 15:02:21.599704 20643 layer_factory.hpp:77] Creating layer conv1_1
I0426 15:02:21.599717 20643 net.cpp:100] Creating Layer conv1_1
I0426 15:02:21.599721 20643 net.cpp:434] conv1_1 <- data_data_0_split_0
I0426 15:02:21.599726 20643 net.cpp:408] conv1_1 -> conv1_1
I0426 15:02:21.601336 20643 net.cpp:150] Setting up conv1_1
I0426 15:02:21.601346 20643 net.cpp:157] Top shape: 8 64 512 512 (134217728)
I0426 15:02:21.601348 20643 net.cpp:165] Memory required for data: 738197664
I0426 15:02:21.601361 20643 layer_factory.hpp:77] Creating layer relu1_1
I0426 15:02:21.601366 20643 net.cpp:100] Creating Layer relu1_1
I0426 15:02:21.601368 20643 net.cpp:434] relu1_1 <- conv1_1
I0426 15:02:21.601372 20643 net.cpp:395] relu1_1 -> conv1_1 (in-place)
I0426 15:02:21.601377 20643 net.cpp:150] Setting up relu1_1
I0426 15:02:21.601380 20643 net.cpp:157] Top shape: 8 64 512 512 (134217728)
I0426 15:02:21.601382 20643 net.cpp:165] Memory required for data: 1275068576
I0426 15:02:21.601384 20643 layer_factory.hpp:77] Creating layer conv1_2
I0426 15:02:21.601392 20643 net.cpp:100] Creating Layer conv1_2
I0426 15:02:21.601393 20643 net.cpp:434] conv1_2 <- conv1_1
I0426 15:02:21.601397 20643 net.cpp:408] conv1_2 -> conv1_2
I0426 15:02:21.602489 20643 net.cpp:150] Setting up conv1_2
I0426 15:02:21.602500 20643 net.cpp:157] Top shape: 8 64 512 512 (134217728)
I0426 15:02:21.602502 20643 net.cpp:165] Memory required for data: 1811939488
I0426 15:02:21.602509 20643 layer_factory.hpp:77] Creating layer relu1_2
I0426 15:02:21.602512 20643 net.cpp:100] Creating Layer relu1_2
I0426 15:02:21.602515 20643 net.cpp:434] relu1_2 <- conv1_2
I0426 15:02:21.602519 20643 net.cpp:395] relu1_2 -> conv1_2 (in-place)
I0426 15:02:21.602522 20643 net.cpp:150] Setting up relu1_2
I0426 15:02:21.602525 20643 net.cpp:157] Top shape: 8 64 512 512 (134217728)
I0426 15:02:21.602527 20643 net.cpp:165] Memory required for data: 2348810400
I0426 15:02:21.602530 20643 layer_factory.hpp:77] Creating layer pool1
I0426 15:02:21.602535 20643 net.cpp:100] Creating Layer pool1
I0426 15:02:21.602536 20643 net.cpp:434] pool1 <- conv1_2
I0426 15:02:21.602540 20643 net.cpp:408] pool1 -> pool1
I0426 15:02:21.602574 20643 net.cpp:150] Setting up pool1
I0426 15:02:21.602579 20643 net.cpp:157] Top shape: 8 64 256 256 (33554432)
I0426 15:02:21.602581 20643 net.cpp:165] Memory required for data: 2483028128
I0426 15:02:21.602583 20643 layer_factory.hpp:77] Creating layer conv2_1
I0426 15:02:21.602589 20643 net.cpp:100] Creating Layer conv2_1
I0426 15:02:21.602591 20643 net.cpp:434] conv2_1 <- pool1
I0426 15:02:21.602605 20643 net.cpp:408] conv2_1 -> conv2_1
I0426 15:02:21.603816 20643 net.cpp:150] Setting up conv2_1
I0426 15:02:21.603828 20643 net.cpp:157] Top shape: 8 128 256 256 (67108864)
I0426 15:02:21.603832 20643 net.cpp:165] Memory required for data: 2751463584
I0426 15:02:21.603840 20643 layer_factory.hpp:77] Creating layer relu2_1
I0426 15:02:21.603849 20643 net.cpp:100] Creating Layer relu2_1
I0426 15:02:21.603853 20643 net.cpp:434] relu2_1 <- conv2_1
I0426 15:02:21.603860 20643 net.cpp:395] relu2_1 -> conv2_1 (in-place)
I0426 15:02:21.603868 20643 net.cpp:150] Setting up relu2_1
I0426 15:02:21.603873 20643 net.cpp:157] Top shape: 8 128 256 256 (67108864)
I0426 15:02:21.603875 20643 net.cpp:165] Memory required for data: 3019899040
I0426 15:02:21.603878 20643 layer_factory.hpp:77] Creating layer conv2_2
I0426 15:02:21.603886 20643 net.cpp:100] Creating Layer conv2_2
I0426 15:02:21.603890 20643 net.cpp:434] conv2_2 <- conv2_1
I0426 15:02:21.603895 20643 net.cpp:408] conv2_2 -> conv2_2
I0426 15:02:21.605031 20643 net.cpp:150] Setting up conv2_2
I0426 15:02:21.605039 20643 net.cpp:157] Top shape: 8 128 256 256 (67108864)
I0426 15:02:21.605042 20643 net.cpp:165] Memory required for data: 3288334496
I0426 15:02:21.605046 20643 layer_factory.hpp:77] Creating layer relu2_2
I0426 15:02:21.605051 20643 net.cpp:100] Creating Layer relu2_2
I0426 15:02:21.605052 20643 net.cpp:434] relu2_2 <- conv2_2
I0426 15:02:21.605056 20643 net.cpp:395] relu2_2 -> conv2_2 (in-place)
I0426 15:02:21.605059 20643 net.cpp:150] Setting up relu2_2
I0426 15:02:21.605062 20643 net.cpp:157] Top shape: 8 128 256 256 (67108864)
I0426 15:02:21.605063 20643 net.cpp:165] Memory required for data: 3556769952
I0426 15:02:21.605065 20643 layer_factory.hpp:77] Creating layer pool2
I0426 15:02:21.605068 20643 net.cpp:100] Creating Layer pool2
I0426 15:02:21.605070 20643 net.cpp:434] pool2 <- conv2_2
I0426 15:02:21.605073 20643 net.cpp:408] pool2 -> pool2
I0426 15:02:21.605098 20643 net.cpp:150] Setting up pool2
I0426 15:02:21.605100 20643 net.cpp:157] Top shape: 8 128 128 128 (16777216)
I0426 15:02:21.605103 20643 net.cpp:165] Memory required for data: 3623878816
I0426 15:02:21.605103 20643 layer_factory.hpp:77] Creating layer conv3_1
I0426 15:02:21.605109 20643 net.cpp:100] Creating Layer conv3_1
I0426 15:02:21.605111 20643 net.cpp:434] conv3_1 <- pool2
I0426 15:02:21.605115 20643 net.cpp:408] conv3_1 -> conv3_1
I0426 15:02:21.607177 20643 net.cpp:150] Setting up conv3_1
I0426 15:02:21.607188 20643 net.cpp:157] Top shape: 8 256 128 128 (33554432)
I0426 15:02:21.607190 20643 net.cpp:165] Memory required for data: 3758096544
I0426 15:02:21.607197 20643 layer_factory.hpp:77] Creating layer relu3_1
I0426 15:02:21.607201 20643 net.cpp:100] Creating Layer relu3_1
I0426 15:02:21.607204 20643 net.cpp:434] relu3_1 <- conv3_1
I0426 15:02:21.607208 20643 net.cpp:395] relu3_1 -> conv3_1 (in-place)
I0426 15:02:21.607213 20643 net.cpp:150] Setting up relu3_1
I0426 15:02:21.607214 20643 net.cpp:157] Top shape: 8 256 128 128 (33554432)
I0426 15:02:21.607216 20643 net.cpp:165] Memory required for data: 3892314272
I0426 15:02:21.607219 20643 layer_factory.hpp:77] Creating layer conv3_2
I0426 15:02:21.607224 20643 net.cpp:100] Creating Layer conv3_2
I0426 15:02:21.607226 20643 net.cpp:434] conv3_2 <- conv3_1
I0426 15:02:21.607230 20643 net.cpp:408] conv3_2 -> conv3_2
I0426 15:02:21.610541 20643 net.cpp:150] Setting up conv3_2
I0426 15:02:21.610568 20643 net.cpp:157] Top shape: 8 256 128 128 (33554432)
I0426 15:02:21.610569 20643 net.cpp:165] Memory required for data: 4026532000
I0426 15:02:21.610574 20643 layer_factory.hpp:77] Creating layer relu3_2
I0426 15:02:21.610579 20643 net.cpp:100] Creating Layer relu3_2
I0426 15:02:21.610580 20643 net.cpp:434] relu3_2 <- conv3_2
I0426 15:02:21.610584 20643 net.cpp:395] relu3_2 -> conv3_2 (in-place)
I0426 15:02:21.610589 20643 net.cpp:150] Setting up relu3_2
I0426 15:02:21.610591 20643 net.cpp:157] Top shape: 8 256 128 128 (33554432)
I0426 15:02:21.610592 20643 net.cpp:165] Memory required for data: 4160749728
I0426 15:02:21.610605 20643 layer_factory.hpp:77] Creating layer conv3_3
I0426 15:02:21.610613 20643 net.cpp:100] Creating Layer conv3_3
I0426 15:02:21.610615 20643 net.cpp:434] conv3_3 <- conv3_2
I0426 15:02:21.610620 20643 net.cpp:408] conv3_3 -> conv3_3
I0426 15:02:21.613926 20643 net.cpp:150] Setting up conv3_3
I0426 15:02:21.613937 20643 net.cpp:157] Top shape: 8 256 128 128 (33554432)
I0426 15:02:21.613940 20643 net.cpp:165] Memory required for data: 4294967456
I0426 15:02:21.613950 20643 layer_factory.hpp:77] Creating layer relu3_3
I0426 15:02:21.613953 20643 net.cpp:100] Creating Layer relu3_3
I0426 15:02:21.613955 20643 net.cpp:434] relu3_3 <- conv3_3
I0426 15:02:21.613958 20643 net.cpp:395] relu3_3 -> conv3_3 (in-place)
I0426 15:02:21.613962 20643 net.cpp:150] Setting up relu3_3
I0426 15:02:21.613965 20643 net.cpp:157] Top shape: 8 256 128 128 (33554432)
I0426 15:02:21.613967 20643 net.cpp:165] Memory required for data: 4429185184
I0426 15:02:21.613970 20643 layer_factory.hpp:77] Creating layer pool3
I0426 15:02:21.613973 20643 net.cpp:100] Creating Layer pool3
I0426 15:02:21.613976 20643 net.cpp:434] pool3 <- conv3_3
I0426 15:02:21.613978 20643 net.cpp:408] pool3 -> pool3
I0426 15:02:21.614002 20643 net.cpp:150] Setting up pool3
I0426 15:02:21.614012 20643 net.cpp:157] Top shape: 8 256 64 64 (8388608)
I0426 15:02:21.614012 20643 net.cpp:165] Memory required for data: 4462739616
I0426 15:02:21.614015 20643 layer_factory.hpp:77] Creating layer conv4_1
I0426 15:02:21.614020 20643 net.cpp:100] Creating Layer conv4_1
I0426 15:02:21.614022 20643 net.cpp:434] conv4_1 <- pool3
I0426 15:02:21.614027 20643 net.cpp:408] conv4_1 -> conv4_1
I0426 15:02:21.620764 20643 net.cpp:150] Setting up conv4_1
I0426 15:02:21.620776 20643 net.cpp:157] Top shape: 8 512 64 64 (16777216)
I0426 15:02:21.620795 20643 net.cpp:165] Memory required for data: 4529848480
I0426 15:02:21.620798 20643 layer_factory.hpp:77] Creating layer relu4_1
I0426 15:02:21.620803 20643 net.cpp:100] Creating Layer relu4_1
I0426 15:02:21.620806 20643 net.cpp:434] relu4_1 <- conv4_1
I0426 15:02:21.620810 20643 net.cpp:395] relu4_1 -> conv4_1 (in-place)
I0426 15:02:21.620815 20643 net.cpp:150] Setting up relu4_1
I0426 15:02:21.620817 20643 net.cpp:157] Top shape: 8 512 64 64 (16777216)
I0426 15:02:21.620818 20643 net.cpp:165] Memory required for data: 4596957344
I0426 15:02:21.620820 20643 layer_factory.hpp:77] Creating layer conv4_2
I0426 15:02:21.620826 20643 net.cpp:100] Creating Layer conv4_2
I0426 15:02:21.620828 20643 net.cpp:434] conv4_2 <- conv4_1
I0426 15:02:21.620831 20643 net.cpp:408] conv4_2 -> conv4_2
I0426 15:02:21.632777 20643 net.cpp:150] Setting up conv4_2
I0426 15:02:21.632810 20643 net.cpp:157] Top shape: 8 512 64 64 (16777216)
I0426 15:02:21.632812 20643 net.cpp:165] Memory required for data: 4664066208
I0426 15:02:21.632822 20643 layer_factory.hpp:77] Creating layer relu4_2
I0426 15:02:21.632828 20643 net.cpp:100] Creating Layer relu4_2
I0426 15:02:21.632832 20643 net.cpp:434] relu4_2 <- conv4_2
I0426 15:02:21.632835 20643 net.cpp:395] relu4_2 -> conv4_2 (in-place)
I0426 15:02:21.632840 20643 net.cpp:150] Setting up relu4_2
I0426 15:02:21.632843 20643 net.cpp:157] Top shape: 8 512 64 64 (16777216)
I0426 15:02:21.632844 20643 net.cpp:165] Memory required for data: 4731175072
I0426 15:02:21.632848 20643 layer_factory.hpp:77] Creating layer conv4_3
I0426 15:02:21.632858 20643 net.cpp:100] Creating Layer conv4_3
I0426 15:02:21.632859 20643 net.cpp:434] conv4_3 <- conv4_2
I0426 15:02:21.632863 20643 net.cpp:408] conv4_3 -> conv4_3
I0426 15:02:21.645905 20643 net.cpp:150] Setting up conv4_3
I0426 15:02:21.645938 20643 net.cpp:157] Top shape: 8 512 64 64 (16777216)
I0426 15:02:21.645941 20643 net.cpp:165] Memory required for data: 4798283936
I0426 15:02:21.645947 20643 layer_factory.hpp:77] Creating layer relu4_3
I0426 15:02:21.645956 20643 net.cpp:100] Creating Layer relu4_3
I0426 15:02:21.645958 20643 net.cpp:434] relu4_3 <- conv4_3
I0426 15:02:21.645962 20643 net.cpp:395] relu4_3 -> conv4_3 (in-place)
I0426 15:02:21.645969 20643 net.cpp:150] Setting up relu4_3
I0426 15:02:21.645990 20643 net.cpp:157] Top shape: 8 512 64 64 (16777216)
I0426 15:02:21.645992 20643 net.cpp:165] Memory required for data: 4865392800
I0426 15:02:21.645993 20643 layer_factory.hpp:77] Creating layer conv4_3_relu4_3_0_split
I0426 15:02:21.645998 20643 net.cpp:100] Creating Layer conv4_3_relu4_3_0_split
I0426 15:02:21.646000 20643 net.cpp:434] conv4_3_relu4_3_0_split <- conv4_3
I0426 15:02:21.646003 20643 net.cpp:408] conv4_3_relu4_3_0_split -> conv4_3_relu4_3_0_split_0
I0426 15:02:21.646008 20643 net.cpp:408] conv4_3_relu4_3_0_split -> conv4_3_relu4_3_0_split_1
I0426 15:02:21.646033 20643 net.cpp:150] Setting up conv4_3_relu4_3_0_split
I0426 15:02:21.646040 20643 net.cpp:157] Top shape: 8 512 64 64 (16777216)
I0426 15:02:21.646044 20643 net.cpp:157] Top shape: 8 512 64 64 (16777216)
I0426 15:02:21.646045 20643 net.cpp:165] Memory required for data: 4999610528
I0426 15:02:21.646047 20643 layer_factory.hpp:77] Creating layer pool4
I0426 15:02:21.646052 20643 net.cpp:100] Creating Layer pool4
I0426 15:02:21.646054 20643 net.cpp:434] pool4 <- conv4_3_relu4_3_0_split_0
I0426 15:02:21.646057 20643 net.cpp:408] pool4 -> pool4
I0426 15:02:21.646080 20643 net.cpp:150] Setting up pool4
I0426 15:02:21.646085 20643 net.cpp:157] Top shape: 8 512 32 32 (4194304)
I0426 15:02:21.646085 20643 net.cpp:165] Memory required for data: 5016387744
I0426 15:02:21.646087 20643 layer_factory.hpp:77] Creating layer conv5_1
I0426 15:02:21.646095 20643 net.cpp:100] Creating Layer conv5_1
I0426 15:02:21.646097 20643 net.cpp:434] conv5_1 <- pool4
I0426 15:02:21.646100 20643 net.cpp:408] conv5_1 -> conv5_1
I0426 15:02:21.658295 20643 net.cpp:150] Setting up conv5_1
I0426 15:02:21.658313 20643 net.cpp:157] Top shape: 8 512 32 32 (4194304)
I0426 15:02:21.658315 20643 net.cpp:165] Memory required for data: 5033164960
I0426 15:02:21.658320 20643 layer_factory.hpp:77] Creating layer relu5_1
I0426 15:02:21.658327 20643 net.cpp:100] Creating Layer relu5_1
I0426 15:02:21.658330 20643 net.cpp:434] relu5_1 <- conv5_1
I0426 15:02:21.658334 20643 net.cpp:395] relu5_1 -> conv5_1 (in-place)
I0426 15:02:21.658340 20643 net.cpp:150] Setting up relu5_1
I0426 15:02:21.658344 20643 net.cpp:157] Top shape: 8 512 32 32 (4194304)
I0426 15:02:21.658346 20643 net.cpp:165] Memory required for data: 5049942176
I0426 15:02:21.658349 20643 layer_factory.hpp:77] Creating layer conv5_2
I0426 15:02:21.658355 20643 net.cpp:100] Creating Layer conv5_2
I0426 15:02:21.658357 20643 net.cpp:434] conv5_2 <- conv5_1
I0426 15:02:21.658360 20643 net.cpp:408] conv5_2 -> conv5_2
I0426 15:02:21.670228 20643 net.cpp:150] Setting up conv5_2
I0426 15:02:21.670260 20643 net.cpp:157] Top shape: 8 512 32 32 (4194304)
I0426 15:02:21.670262 20643 net.cpp:165] Memory required for data: 5066719392
I0426 15:02:21.670269 20643 layer_factory.hpp:77] Creating layer relu5_2
I0426 15:02:21.670275 20643 net.cpp:100] Creating Layer relu5_2
I0426 15:02:21.670279 20643 net.cpp:434] relu5_2 <- conv5_2
I0426 15:02:21.670282 20643 net.cpp:395] relu5_2 -> conv5_2 (in-place)
I0426 15:02:21.670289 20643 net.cpp:150] Setting up relu5_2
I0426 15:02:21.670291 20643 net.cpp:157] Top shape: 8 512 32 32 (4194304)
I0426 15:02:21.670292 20643 net.cpp:165] Memory required for data: 5083496608
I0426 15:02:21.670295 20643 layer_factory.hpp:77] Creating layer conv5_3
I0426 15:02:21.670301 20643 net.cpp:100] Creating Layer conv5_3
I0426 15:02:21.670303 20643 net.cpp:434] conv5_3 <- conv5_2
I0426 15:02:21.670307 20643 net.cpp:408] conv5_3 -> conv5_3
I0426 15:02:21.684010 20643 net.cpp:150] Setting up conv5_3
I0426 15:02:21.684048 20643 net.cpp:157] Top shape: 8 512 32 32 (4194304)
I0426 15:02:21.684051 20643 net.cpp:165] Memory required for data: 5100273824
I0426 15:02:21.684058 20643 layer_factory.hpp:77] Creating layer relu5_3
I0426 15:02:21.684069 20643 net.cpp:100] Creating Layer relu5_3
I0426 15:02:21.684073 20643 net.cpp:434] relu5_3 <- conv5_3
I0426 15:02:21.684078 20643 net.cpp:395] relu5_3 -> conv5_3 (in-place)
I0426 15:02:21.684085 20643 net.cpp:150] Setting up relu5_3
I0426 15:02:21.684104 20643 net.cpp:157] Top shape: 8 512 32 32 (4194304)
I0426 15:02:21.684105 20643 net.cpp:165] Memory required for data: 5117051040
I0426 15:02:21.684108 20643 layer_factory.hpp:77] Creating layer pool5
I0426 15:02:21.684113 20643 net.cpp:100] Creating Layer pool5
I0426 15:02:21.684114 20643 net.cpp:434] pool5 <- conv5_3
I0426 15:02:21.684118 20643 net.cpp:408] pool5 -> pool5
I0426 15:02:21.684145 20643 net.cpp:150] Setting up pool5
I0426 15:02:21.684151 20643 net.cpp:157] Top shape: 8 512 32 32 (4194304)
I0426 15:02:21.684152 20643 net.cpp:165] Memory required for data: 5133828256
I0426 15:02:21.684154 20643 layer_factory.hpp:77] Creating layer fc6
I0426 15:02:21.684162 20643 net.cpp:100] Creating Layer fc6
I0426 15:02:21.684165 20643 net.cpp:434] fc6 <- pool5
I0426 15:02:21.684167 20643 net.cpp:408] fc6 -> fc6
I0426 15:02:21.708904 20643 net.cpp:150] Setting up fc6
I0426 15:02:21.708926 20643 net.cpp:157] Top shape: 8 1024 32 32 (8388608)
I0426 15:02:21.708931 20643 net.cpp:165] Memory required for data: 5167382688
I0426 15:02:21.708938 20643 layer_factory.hpp:77] Creating layer relu6
I0426 15:02:21.708945 20643 net.cpp:100] Creating Layer relu6
I0426 15:02:21.708950 20643 net.cpp:434] relu6 <- fc6
I0426 15:02:21.708956 20643 net.cpp:395] relu6 -> fc6 (in-place)
I0426 15:02:21.708962 20643 net.cpp:150] Setting up relu6
I0426 15:02:21.708964 20643 net.cpp:157] Top shape: 8 1024 32 32 (8388608)
I0426 15:02:21.708966 20643 net.cpp:165] Memory required for data: 5200937120
I0426 15:02:21.708968 20643 layer_factory.hpp:77] Creating layer fc7
I0426 15:02:21.708976 20643 net.cpp:100] Creating Layer fc7
I0426 15:02:21.708977 20643 net.cpp:434] fc7 <- fc6
I0426 15:02:21.708981 20643 net.cpp:408] fc7 -> fc7
I0426 15:02:21.715350 20643 net.cpp:150] Setting up fc7
I0426 15:02:21.715363 20643 net.cpp:157] Top shape: 8 1024 32 32 (8388608)
I0426 15:02:21.715381 20643 net.cpp:165] Memory required for data: 5234491552
I0426 15:02:21.715386 20643 layer_factory.hpp:77] Creating layer relu7
I0426 15:02:21.715392 20643 net.cpp:100] Creating Layer relu7
I0426 15:02:21.715395 20643 net.cpp:434] relu7 <- fc7
I0426 15:02:21.715399 20643 net.cpp:395] relu7 -> fc7 (in-place)
I0426 15:02:21.715405 20643 net.cpp:150] Setting up relu7
I0426 15:02:21.715409 20643 net.cpp:157] Top shape: 8 1024 32 32 (8388608)
I0426 15:02:21.715409 20643 net.cpp:165] Memory required for data: 5268045984
I0426 15:02:21.715411 20643 layer_factory.hpp:77] Creating layer fc7_relu7_0_split
I0426 15:02:21.715415 20643 net.cpp:100] Creating Layer fc7_relu7_0_split
I0426 15:02:21.715417 20643 net.cpp:434] fc7_relu7_0_split <- fc7
I0426 15:02:21.715420 20643 net.cpp:408] fc7_relu7_0_split -> fc7_relu7_0_split_0
I0426 15:02:21.715425 20643 net.cpp:408] fc7_relu7_0_split -> fc7_relu7_0_split_1
I0426 15:02:21.715435 20643 net.cpp:408] fc7_relu7_0_split -> fc7_relu7_0_split_2
I0426 15:02:21.715438 20643 net.cpp:408] fc7_relu7_0_split -> fc7_relu7_0_split_3
I0426 15:02:21.715474 20643 net.cpp:150] Setting up fc7_relu7_0_split
I0426 15:02:21.715479 20643 net.cpp:157] Top shape: 8 1024 32 32 (8388608)
I0426 15:02:21.715483 20643 net.cpp:157] Top shape: 8 1024 32 32 (8388608)
I0426 15:02:21.715486 20643 net.cpp:157] Top shape: 8 1024 32 32 (8388608)
I0426 15:02:21.715487 20643 net.cpp:157] Top shape: 8 1024 32 32 (8388608)
I0426 15:02:21.715490 20643 net.cpp:165] Memory required for data: 5402263712
I0426 15:02:21.715492 20643 layer_factory.hpp:77] Creating layer conv6_1
I0426 15:02:21.715499 20643 net.cpp:100] Creating Layer conv6_1
I0426 15:02:21.715502 20643 net.cpp:434] conv6_1 <- fc7_relu7_0_split_0
I0426 15:02:21.715507 20643 net.cpp:408] conv6_1 -> conv6_1
I0426 15:02:21.717418 20643 net.cpp:150] Setting up conv6_1
I0426 15:02:21.717428 20643 net.cpp:157] Top shape: 8 256 32 32 (2097152)
I0426 15:02:21.717430 20643 net.cpp:165] Memory required for data: 5410652320
I0426 15:02:21.717434 20643 layer_factory.hpp:77] Creating layer conv6_1_relu
I0426 15:02:21.717439 20643 net.cpp:100] Creating Layer conv6_1_relu
I0426 15:02:21.717442 20643 net.cpp:434] conv6_1_relu <- conv6_1
I0426 15:02:21.717458 20643 net.cpp:395] conv6_1_relu -> conv6_1 (in-place)
I0426 15:02:21.717463 20643 net.cpp:150] Setting up conv6_1_relu
I0426 15:02:21.717466 20643 net.cpp:157] Top shape: 8 256 32 32 (2097152)
I0426 15:02:21.717468 20643 net.cpp:165] Memory required for data: 5419040928
I0426 15:02:21.717469 20643 layer_factory.hpp:77] Creating layer conv6_2
I0426 15:02:21.717475 20643 net.cpp:100] Creating Layer conv6_2
I0426 15:02:21.717478 20643 net.cpp:434] conv6_2 <- conv6_1
I0426 15:02:21.717481 20643 net.cpp:408] conv6_2 -> conv6_2
I0426 15:02:21.723687 20643 net.cpp:150] Setting up conv6_2
I0426 15:02:21.723698 20643 net.cpp:157] Top shape: 8 512 16 16 (1048576)
I0426 15:02:21.723701 20643 net.cpp:165] Memory required for data: 5423235232
I0426 15:02:21.723709 20643 layer_factory.hpp:77] Creating layer conv6_2_relu
I0426 15:02:21.723714 20643 net.cpp:100] Creating Layer conv6_2_relu
I0426 15:02:21.723719 20643 net.cpp:434] conv6_2_relu <- conv6_2
I0426 15:02:21.723723 20643 net.cpp:395] conv6_2_relu -> conv6_2 (in-place)
I0426 15:02:21.723728 20643 net.cpp:150] Setting up conv6_2_relu
I0426 15:02:21.723731 20643 net.cpp:157] Top shape: 8 512 16 16 (1048576)
I0426 15:02:21.723733 20643 net.cpp:165] Memory required for data: 5427429536
I0426 15:02:21.723736 20643 layer_factory.hpp:77] Creating layer conv6_2_conv6_2_relu_0_split
I0426 15:02:21.723745 20643 net.cpp:100] Creating Layer conv6_2_conv6_2_relu_0_split
I0426 15:02:21.723747 20643 net.cpp:434] conv6_2_conv6_2_relu_0_split <- conv6_2
I0426 15:02:21.723750 20643 net.cpp:408] conv6_2_conv6_2_relu_0_split -> conv6_2_conv6_2_relu_0_split_0
I0426 15:02:21.723755 20643 net.cpp:408] conv6_2_conv6_2_relu_0_split -> conv6_2_conv6_2_relu_0_split_1
I0426 15:02:21.723759 20643 net.cpp:408] conv6_2_conv6_2_relu_0_split -> conv6_2_conv6_2_relu_0_split_2
I0426 15:02:21.723763 20643 net.cpp:408] conv6_2_conv6_2_relu_0_split -> conv6_2_conv6_2_relu_0_split_3
I0426 15:02:21.723798 20643 net.cpp:150] Setting up conv6_2_conv6_2_relu_0_split
I0426 15:02:21.723803 20643 net.cpp:157] Top shape: 8 512 16 16 (1048576)
I0426 15:02:21.723805 20643 net.cpp:157] Top shape: 8 512 16 16 (1048576)
I0426 15:02:21.723808 20643 net.cpp:157] Top shape: 8 512 16 16 (1048576)
I0426 15:02:21.723810 20643 net.cpp:157] Top shape: 8 512 16 16 (1048576)
I0426 15:02:21.723812 20643 net.cpp:165] Memory required for data: 5444206752
I0426 15:02:21.723814 20643 layer_factory.hpp:77] Creating layer conv7_1
I0426 15:02:21.723819 20643 net.cpp:100] Creating Layer conv7_1
I0426 15:02:21.723821 20643 net.cpp:434] conv7_1 <- conv6_2_conv6_2_relu_0_split_0
I0426 15:02:21.723826 20643 net.cpp:408] conv7_1 -> conv7_1
I0426 15:02:21.724248 20643 net.cpp:150] Setting up conv7_1
I0426 15:02:21.724254 20643 net.cpp:157] Top shape: 8 128 16 16 (262144)
I0426 15:02:21.724256 20643 net.cpp:165] Memory required for data: 5445255328
I0426 15:02:21.724261 20643 layer_factory.hpp:77] Creating layer conv7_1_relu
I0426 15:02:21.724263 20643 net.cpp:100] Creating Layer conv7_1_relu
I0426 15:02:21.724265 20643 net.cpp:434] conv7_1_relu <- conv7_1
I0426 15:02:21.724268 20643 net.cpp:395] conv7_1_relu -> conv7_1 (in-place)
I0426 15:02:21.724272 20643 net.cpp:150] Setting up conv7_1_relu
I0426 15:02:21.724274 20643 net.cpp:157] Top shape: 8 128 16 16 (262144)
I0426 15:02:21.724277 20643 net.cpp:165] Memory required for data: 5446303904
I0426 15:02:21.724278 20643 layer_factory.hpp:77] Creating layer conv7_2
I0426 15:02:21.724282 20643 net.cpp:100] Creating Layer conv7_2
I0426 15:02:21.724284 20643 net.cpp:434] conv7_2 <- conv7_1
I0426 15:02:21.724287 20643 net.cpp:408] conv7_2 -> conv7_2
I0426 15:02:21.726292 20643 net.cpp:150] Setting up conv7_2
I0426 15:02:21.726303 20643 net.cpp:157] Top shape: 8 256 8 8 (131072)
I0426 15:02:21.726305 20643 net.cpp:165] Memory required for data: 5446828192
I0426 15:02:21.726308 20643 layer_factory.hpp:77] Creating layer conv7_2_relu
I0426 15:02:21.726312 20643 net.cpp:100] Creating Layer conv7_2_relu
I0426 15:02:21.726315 20643 net.cpp:434] conv7_2_relu <- conv7_2
I0426 15:02:21.726330 20643 net.cpp:395] conv7_2_relu -> conv7_2 (in-place)
I0426 15:02:21.726333 20643 net.cpp:150] Setting up conv7_2_relu
I0426 15:02:21.726336 20643 net.cpp:157] Top shape: 8 256 8 8 (131072)
I0426 15:02:21.726338 20643 net.cpp:165] Memory required for data: 5447352480
I0426 15:02:21.726341 20643 layer_factory.hpp:77] Creating layer conv7_2_conv7_2_relu_0_split
I0426 15:02:21.726343 20643 net.cpp:100] Creating Layer conv7_2_conv7_2_relu_0_split
I0426 15:02:21.726346 20643 net.cpp:434] conv7_2_conv7_2_relu_0_split <- conv7_2
I0426 15:02:21.726349 20643 net.cpp:408] conv7_2_conv7_2_relu_0_split -> conv7_2_conv7_2_relu_0_split_0
I0426 15:02:21.726353 20643 net.cpp:408] conv7_2_conv7_2_relu_0_split -> conv7_2_conv7_2_relu_0_split_1
I0426 15:02:21.726357 20643 net.cpp:408] conv7_2_conv7_2_relu_0_split -> conv7_2_conv7_2_relu_0_split_2
I0426 15:02:21.726361 20643 net.cpp:408] conv7_2_conv7_2_relu_0_split -> conv7_2_conv7_2_relu_0_split_3
I0426 15:02:21.726398 20643 net.cpp:150] Setting up conv7_2_conv7_2_relu_0_split
I0426 15:02:21.726403 20643 net.cpp:157] Top shape: 8 256 8 8 (131072)
I0426 15:02:21.726407 20643 net.cpp:157] Top shape: 8 256 8 8 (131072)
I0426 15:02:21.726408 20643 net.cpp:157] Top shape: 8 256 8 8 (131072)
I0426 15:02:21.726411 20643 net.cpp:157] Top shape: 8 256 8 8 (131072)
I0426 15:02:21.726413 20643 net.cpp:165] Memory required for data: 5449449632
I0426 15:02:21.726414 20643 layer_factory.hpp:77] Creating layer conv8_1
I0426 15:02:21.726420 20643 net.cpp:100] Creating Layer conv8_1
I0426 15:02:21.726423 20643 net.cpp:434] conv8_1 <- conv7_2_conv7_2_relu_0_split_0
I0426 15:02:21.726426 20643 net.cpp:408] conv8_1 -> conv8_1
I0426 15:02:21.726708 20643 net.cpp:150] Setting up conv8_1
I0426 15:02:21.726714 20643 net.cpp:157] Top shape: 8 128 8 8 (65536)
I0426 15:02:21.726716 20643 net.cpp:165] Memory required for data: 5449711776
I0426 15:02:21.726721 20643 layer_factory.hpp:77] Creating layer conv8_1_relu
I0426 15:02:21.726724 20643 net.cpp:100] Creating Layer conv8_1_relu
I0426 15:02:21.726727 20643 net.cpp:434] conv8_1_relu <- conv8_1
I0426 15:02:21.726729 20643 net.cpp:395] conv8_1_relu -> conv8_1 (in-place)
I0426 15:02:21.726732 20643 net.cpp:150] Setting up conv8_1_relu
I0426 15:02:21.726735 20643 net.cpp:157] Top shape: 8 128 8 8 (65536)
I0426 15:02:21.726737 20643 net.cpp:165] Memory required for data: 5449973920
I0426 15:02:21.726738 20643 layer_factory.hpp:77] Creating layer conv8_2
I0426 15:02:21.726743 20643 net.cpp:100] Creating Layer conv8_2
I0426 15:02:21.726745 20643 net.cpp:434] conv8_2 <- conv8_1
I0426 15:02:21.726748 20643 net.cpp:408] conv8_2 -> conv8_2
I0426 15:02:21.728730 20643 net.cpp:150] Setting up conv8_2
I0426 15:02:21.728740 20643 net.cpp:157] Top shape: 8 256 6 6 (73728)
I0426 15:02:21.728742 20643 net.cpp:165] Memory required for data: 5450268832
I0426 15:02:21.728746 20643 layer_factory.hpp:77] Creating layer conv8_2_relu
I0426 15:02:21.728750 20643 net.cpp:100] Creating Layer conv8_2_relu
I0426 15:02:21.728752 20643 net.cpp:434] conv8_2_relu <- conv8_2
I0426 15:02:21.728756 20643 net.cpp:395] conv8_2_relu -> conv8_2 (in-place)
I0426 15:02:21.728760 20643 net.cpp:150] Setting up conv8_2_relu
I0426 15:02:21.728763 20643 net.cpp:157] Top shape: 8 256 6 6 (73728)
I0426 15:02:21.728765 20643 net.cpp:165] Memory required for data: 5450563744
I0426 15:02:21.728766 20643 layer_factory.hpp:77] Creating layer conv8_2_conv8_2_relu_0_split
I0426 15:02:21.728770 20643 net.cpp:100] Creating Layer conv8_2_conv8_2_relu_0_split
I0426 15:02:21.728771 20643 net.cpp:434] conv8_2_conv8_2_relu_0_split <- conv8_2
I0426 15:02:21.728775 20643 net.cpp:408] conv8_2_conv8_2_relu_0_split -> conv8_2_conv8_2_relu_0_split_0
I0426 15:02:21.728780 20643 net.cpp:408] conv8_2_conv8_2_relu_0_split -> conv8_2_conv8_2_relu_0_split_1
I0426 15:02:21.728783 20643 net.cpp:408] conv8_2_conv8_2_relu_0_split -> conv8_2_conv8_2_relu_0_split_2
I0426 15:02:21.728788 20643 net.cpp:408] conv8_2_conv8_2_relu_0_split -> conv8_2_conv8_2_relu_0_split_3
I0426 15:02:21.728826 20643 net.cpp:150] Setting up conv8_2_conv8_2_relu_0_split
I0426 15:02:21.728840 20643 net.cpp:157] Top shape: 8 256 6 6 (73728)
I0426 15:02:21.728842 20643 net.cpp:157] Top shape: 8 256 6 6 (73728)
I0426 15:02:21.728845 20643 net.cpp:157] Top shape: 8 256 6 6 (73728)
I0426 15:02:21.728847 20643 net.cpp:157] Top shape: 8 256 6 6 (73728)
I0426 15:02:21.728849 20643 net.cpp:165] Memory required for data: 5451743392
I0426 15:02:21.728852 20643 layer_factory.hpp:77] Creating layer conv9_1
I0426 15:02:21.728863 20643 net.cpp:100] Creating Layer conv9_1
I0426 15:02:21.728865 20643 net.cpp:434] conv9_1 <- conv8_2_conv8_2_relu_0_split_0
I0426 15:02:21.728869 20643 net.cpp:408] conv9_1 -> conv9_1
I0426 15:02:21.729156 20643 net.cpp:150] Setting up conv9_1
I0426 15:02:21.729161 20643 net.cpp:157] Top shape: 8 128 6 6 (36864)
I0426 15:02:21.729163 20643 net.cpp:165] Memory required for data: 5451890848
I0426 15:02:21.729167 20643 layer_factory.hpp:77] Creating layer conv9_1_relu
I0426 15:02:21.729171 20643 net.cpp:100] Creating Layer conv9_1_relu
I0426 15:02:21.729173 20643 net.cpp:434] conv9_1_relu <- conv9_1
I0426 15:02:21.729176 20643 net.cpp:395] conv9_1_relu -> conv9_1 (in-place)
I0426 15:02:21.729179 20643 net.cpp:150] Setting up conv9_1_relu
I0426 15:02:21.729182 20643 net.cpp:157] Top shape: 8 128 6 6 (36864)
I0426 15:02:21.729183 20643 net.cpp:165] Memory required for data: 5452038304
I0426 15:02:21.729185 20643 layer_factory.hpp:77] Creating layer conv9_2
I0426 15:02:21.729189 20643 net.cpp:100] Creating Layer conv9_2
I0426 15:02:21.729192 20643 net.cpp:434] conv9_2 <- conv9_1
I0426 15:02:21.729195 20643 net.cpp:408] conv9_2 -> conv9_2
I0426 15:02:21.731180 20643 net.cpp:150] Setting up conv9_2
I0426 15:02:21.731189 20643 net.cpp:157] Top shape: 8 256 4 4 (32768)
I0426 15:02:21.731191 20643 net.cpp:165] Memory required for data: 5452169376
I0426 15:02:21.731195 20643 layer_factory.hpp:77] Creating layer conv9_2_relu
I0426 15:02:21.731199 20643 net.cpp:100] Creating Layer conv9_2_relu
I0426 15:02:21.731202 20643 net.cpp:434] conv9_2_relu <- conv9_2
I0426 15:02:21.731206 20643 net.cpp:395] conv9_2_relu -> conv9_2 (in-place)
I0426 15:02:21.731210 20643 net.cpp:150] Setting up conv9_2_relu
I0426 15:02:21.731214 20643 net.cpp:157] Top shape: 8 256 4 4 (32768)
I0426 15:02:21.731215 20643 net.cpp:165] Memory required for data: 5452300448
I0426 15:02:21.731216 20643 layer_factory.hpp:77] Creating layer conv9_2_conv9_2_relu_0_split
I0426 15:02:21.731220 20643 net.cpp:100] Creating Layer conv9_2_conv9_2_relu_0_split
I0426 15:02:21.731222 20643 net.cpp:434] conv9_2_conv9_2_relu_0_split <- conv9_2
I0426 15:02:21.731225 20643 net.cpp:408] conv9_2_conv9_2_relu_0_split -> conv9_2_conv9_2_relu_0_split_0
I0426 15:02:21.731230 20643 net.cpp:408] conv9_2_conv9_2_relu_0_split -> conv9_2_conv9_2_relu_0_split_1
I0426 15:02:21.731233 20643 net.cpp:408] conv9_2_conv9_2_relu_0_split -> conv9_2_conv9_2_relu_0_split_2
I0426 15:02:21.731264 20643 net.cpp:150] Setting up conv9_2_conv9_2_relu_0_split
I0426 15:02:21.731269 20643 net.cpp:157] Top shape: 8 256 4 4 (32768)
I0426 15:02:21.731271 20643 net.cpp:157] Top shape: 8 256 4 4 (32768)
I0426 15:02:21.731274 20643 net.cpp:157] Top shape: 8 256 4 4 (32768)
I0426 15:02:21.731276 20643 net.cpp:165] Memory required for data: 5452693664
I0426 15:02:21.731277 20643 layer_factory.hpp:77] Creating layer conv4_3_norm
I0426 15:02:21.731282 20643 net.cpp:100] Creating Layer conv4_3_norm
I0426 15:02:21.731286 20643 net.cpp:434] conv4_3_norm <- conv4_3_relu4_3_0_split_1
I0426 15:02:21.731288 20643 net.cpp:408] conv4_3_norm -> conv4_3_norm
I0426 15:02:21.731380 20643 net.cpp:150] Setting up conv4_3_norm
I0426 15:02:21.731385 20643 net.cpp:157] Top shape: 8 512 64 64 (16777216)
I0426 15:02:21.731387 20643 net.cpp:165] Memory required for data: 5519802528
I0426 15:02:21.731390 20643 layer_factory.hpp:77] Creating layer conv4_3_norm_conv4_3_norm_0_split
I0426 15:02:21.731393 20643 net.cpp:100] Creating Layer conv4_3_norm_conv4_3_norm_0_split
I0426 15:02:21.731395 20643 net.cpp:434] conv4_3_norm_conv4_3_norm_0_split <- conv4_3_norm
I0426 15:02:21.731400 20643 net.cpp:408] conv4_3_norm_conv4_3_norm_0_split -> conv4_3_norm_conv4_3_norm_0_split_0
I0426 15:02:21.731412 20643 net.cpp:408] conv4_3_norm_conv4_3_norm_0_split -> conv4_3_norm_conv4_3_norm_0_split_1
I0426 15:02:21.731416 20643 net.cpp:408] conv4_3_norm_conv4_3_norm_0_split -> conv4_3_norm_conv4_3_norm_0_split_2
I0426 15:02:21.731444 20643 net.cpp:150] Setting up conv4_3_norm_conv4_3_norm_0_split
I0426 15:02:21.731449 20643 net.cpp:157] Top shape: 8 512 64 64 (16777216)
I0426 15:02:21.731452 20643 net.cpp:157] Top shape: 8 512 64 64 (16777216)
I0426 15:02:21.731454 20643 net.cpp:157] Top shape: 8 512 64 64 (16777216)
I0426 15:02:21.731456 20643 net.cpp:165] Memory required for data: 5721129120
I0426 15:02:21.731458 20643 layer_factory.hpp:77] Creating layer conv4_3_norm_mbox_loc
I0426 15:02:21.731464 20643 net.cpp:100] Creating Layer conv4_3_norm_mbox_loc
I0426 15:02:21.731467 20643 net.cpp:434] conv4_3_norm_mbox_loc <- conv4_3_norm_conv4_3_norm_0_split_0
I0426 15:02:21.731470 20643 net.cpp:408] conv4_3_norm_mbox_loc -> conv4_3_norm_mbox_loc
I0426 15:02:21.731926 20643 net.cpp:150] Setting up conv4_3_norm_mbox_loc
I0426 15:02:21.731931 20643 net.cpp:157] Top shape: 8 16 64 64 (524288)
I0426 15:02:21.731933 20643 net.cpp:165] Memory required for data: 5723226272
I0426 15:02:21.731936 20643 layer_factory.hpp:77] Creating layer conv4_3_norm_mbox_loc_perm
I0426 15:02:21.731942 20643 net.cpp:100] Creating Layer conv4_3_norm_mbox_loc_perm
I0426 15:02:21.731945 20643 net.cpp:434] conv4_3_norm_mbox_loc_perm <- conv4_3_norm_mbox_loc
I0426 15:02:21.731948 20643 net.cpp:408] conv4_3_norm_mbox_loc_perm -> conv4_3_norm_mbox_loc_perm
I0426 15:02:21.732012 20643 net.cpp:150] Setting up conv4_3_norm_mbox_loc_perm
I0426 15:02:21.732017 20643 net.cpp:157] Top shape: 8 64 64 16 (524288)
I0426 15:02:21.732018 20643 net.cpp:165] Memory required for data: 5725323424
I0426 15:02:21.732020 20643 layer_factory.hpp:77] Creating layer conv4_3_norm_mbox_loc_flat
I0426 15:02:21.732024 20643 net.cpp:100] Creating Layer conv4_3_norm_mbox_loc_flat
I0426 15:02:21.732028 20643 net.cpp:434] conv4_3_norm_mbox_loc_flat <- conv4_3_norm_mbox_loc_perm
I0426 15:02:21.732031 20643 net.cpp:408] conv4_3_norm_mbox_loc_flat -> conv4_3_norm_mbox_loc_flat
I0426 15:02:21.732056 20643 net.cpp:150] Setting up conv4_3_norm_mbox_loc_flat
I0426 15:02:21.732061 20643 net.cpp:157] Top shape: 8 65536 (524288)
I0426 15:02:21.732064 20643 net.cpp:165] Memory required for data: 5727420576
I0426 15:02:21.732065 20643 layer_factory.hpp:77] Creating layer conv4_3_norm_mbox_conf
I0426 15:02:21.732079 20643 net.cpp:100] Creating Layer conv4_3_norm_mbox_conf
I0426 15:02:21.732082 20643 net.cpp:434] conv4_3_norm_mbox_conf <- conv4_3_norm_conv4_3_norm_0_split_1
I0426 15:02:21.732086 20643 net.cpp:408] conv4_3_norm_mbox_conf -> conv4_3_norm_mbox_conf
I0426 15:02:21.732540 20643 net.cpp:150] Setting up conv4_3_norm_mbox_conf
I0426 15:02:21.732547 20643 net.cpp:157] Top shape: 8 16 64 64 (524288)
I0426 15:02:21.732547 20643 net.cpp:165] Memory required for data: 5729517728
I0426 15:02:21.732552 20643 layer_factory.hpp:77] Creating layer conv4_3_norm_mbox_conf_perm
I0426 15:02:21.732558 20643 net.cpp:100] Creating Layer conv4_3_norm_mbox_conf_perm
I0426 15:02:21.732559 20643 net.cpp:434] conv4_3_norm_mbox_conf_perm <- conv4_3_norm_mbox_conf
I0426 15:02:21.732563 20643 net.cpp:408] conv4_3_norm_mbox_conf_perm -> conv4_3_norm_mbox_conf_perm
I0426 15:02:21.732633 20643 net.cpp:150] Setting up conv4_3_norm_mbox_conf_perm
I0426 15:02:21.732637 20643 net.cpp:157] Top shape: 8 64 64 16 (524288)
I0426 15:02:21.732640 20643 net.cpp:165] Memory required for data: 5731614880
I0426 15:02:21.732641 20643 layer_factory.hpp:77] Creating layer conv4_3_norm_mbox_conf_flat
I0426 15:02:21.732645 20643 net.cpp:100] Creating Layer conv4_3_norm_mbox_conf_flat
I0426 15:02:21.732647 20643 net.cpp:434] conv4_3_norm_mbox_conf_flat <- conv4_3_norm_mbox_conf_perm
I0426 15:02:21.732651 20643 net.cpp:408] conv4_3_norm_mbox_conf_flat -> conv4_3_norm_mbox_conf_flat
I0426 15:02:21.732666 20643 net.cpp:150] Setting up conv4_3_norm_mbox_conf_flat
I0426 15:02:21.732677 20643 net.cpp:157] Top shape: 8 65536 (524288)
I0426 15:02:21.732679 20643 net.cpp:165] Memory required for data: 5733712032
I0426 15:02:21.732681 20643 layer_factory.hpp:77] Creating layer conv4_3_norm_mbox_priorbox
I0426 15:02:21.732686 20643 net.cpp:100] Creating Layer conv4_3_norm_mbox_priorbox
I0426 15:02:21.732688 20643 net.cpp:434] conv4_3_norm_mbox_priorbox <- conv4_3_norm_conv4_3_norm_0_split_2
I0426 15:02:21.732692 20643 net.cpp:434] conv4_3_norm_mbox_priorbox <- data_data_0_split_1
I0426 15:02:21.732697 20643 net.cpp:408] conv4_3_norm_mbox_priorbox -> conv4_3_norm_mbox_priorbox
I0426 15:02:21.732715 20643 net.cpp:150] Setting up conv4_3_norm_mbox_priorbox
I0426 15:02:21.732722 20643 net.cpp:157] Top shape: 1 2 65536 (131072)
I0426 15:02:21.732723 20643 net.cpp:165] Memory required for data: 5734236320
I0426 15:02:21.732725 20643 layer_factory.hpp:77] Creating layer fc7_mbox_loc
I0426 15:02:21.732731 20643 net.cpp:100] Creating Layer fc7_mbox_loc
I0426 15:02:21.732734 20643 net.cpp:434] fc7_mbox_loc <- fc7_relu7_0_split_1
I0426 15:02:21.732739 20643 net.cpp:408] fc7_mbox_loc -> fc7_mbox_loc
I0426 15:02:21.733821 20643 net.cpp:150] Setting up fc7_mbox_loc
I0426 15:02:21.733827 20643 net.cpp:157] Top shape: 8 24 32 32 (196608)
I0426 15:02:21.733829 20643 net.cpp:165] Memory required for data: 5735022752
I0426 15:02:21.733834 20643 layer_factory.hpp:77] Creating layer fc7_mbox_loc_perm
I0426 15:02:21.733837 20643 net.cpp:100] Creating Layer fc7_mbox_loc_perm
I0426 15:02:21.733840 20643 net.cpp:434] fc7_mbox_loc_perm <- fc7_mbox_loc
I0426 15:02:21.733844 20643 net.cpp:408] fc7_mbox_loc_perm -> fc7_mbox_loc_perm
I0426 15:02:21.733906 20643 net.cpp:150] Setting up fc7_mbox_loc_perm
I0426 15:02:21.733911 20643 net.cpp:157] Top shape: 8 32 32 24 (196608)
I0426 15:02:21.733913 20643 net.cpp:165] Memory required for data: 5735809184
I0426 15:02:21.733916 20643 layer_factory.hpp:77] Creating layer fc7_mbox_loc_flat
I0426 15:02:21.733918 20643 net.cpp:100] Creating Layer fc7_mbox_loc_flat
I0426 15:02:21.733921 20643 net.cpp:434] fc7_mbox_loc_flat <- fc7_mbox_loc_perm
I0426 15:02:21.733924 20643 net.cpp:408] fc7_mbox_loc_flat -> fc7_mbox_loc_flat
I0426 15:02:21.733939 20643 net.cpp:150] Setting up fc7_mbox_loc_flat
I0426 15:02:21.733943 20643 net.cpp:157] Top shape: 8 24576 (196608)
I0426 15:02:21.733945 20643 net.cpp:165] Memory required for data: 5736595616
I0426 15:02:21.733947 20643 layer_factory.hpp:77] Creating layer fc7_mbox_conf
I0426 15:02:21.733954 20643 net.cpp:100] Creating Layer fc7_mbox_conf
I0426 15:02:21.733956 20643 net.cpp:434] fc7_mbox_conf <- fc7_relu7_0_split_2
I0426 15:02:21.733960 20643 net.cpp:408] fc7_mbox_conf -> fc7_mbox_conf
I0426 15:02:21.735041 20643 net.cpp:150] Setting up fc7_mbox_conf
I0426 15:02:21.735047 20643 net.cpp:157] Top shape: 8 24 32 32 (196608)
I0426 15:02:21.735049 20643 net.cpp:165] Memory required for data: 5737382048
I0426 15:02:21.735052 20643 layer_factory.hpp:77] Creating layer fc7_mbox_conf_perm
I0426 15:02:21.735056 20643 net.cpp:100] Creating Layer fc7_mbox_conf_perm
I0426 15:02:21.735059 20643 net.cpp:434] fc7_mbox_conf_perm <- fc7_mbox_conf
I0426 15:02:21.735064 20643 net.cpp:408] fc7_mbox_conf_perm -> fc7_mbox_conf_perm
I0426 15:02:21.735127 20643 net.cpp:150] Setting up fc7_mbox_conf_perm
I0426 15:02:21.735131 20643 net.cpp:157] Top shape: 8 32 32 24 (196608)
I0426 15:02:21.735134 20643 net.cpp:165] Memory required for data: 5738168480
I0426 15:02:21.735136 20643 layer_factory.hpp:77] Creating layer fc7_mbox_conf_flat
I0426 15:02:21.735139 20643 net.cpp:100] Creating Layer fc7_mbox_conf_flat
I0426 15:02:21.735141 20643 net.cpp:434] fc7_mbox_conf_flat <- fc7_mbox_conf_perm
I0426 15:02:21.735146 20643 net.cpp:408] fc7_mbox_conf_flat -> fc7_mbox_conf_flat
I0426 15:02:21.735159 20643 net.cpp:150] Setting up fc7_mbox_conf_flat
I0426 15:02:21.735163 20643 net.cpp:157] Top shape: 8 24576 (196608)
I0426 15:02:21.735164 20643 net.cpp:165] Memory required for data: 5738954912
I0426 15:02:21.735167 20643 layer_factory.hpp:77] Creating layer fc7_mbox_priorbox
I0426 15:02:21.735179 20643 net.cpp:100] Creating Layer fc7_mbox_priorbox
I0426 15:02:21.735182 20643 net.cpp:434] fc7_mbox_priorbox <- fc7_relu7_0_split_3
I0426 15:02:21.735184 20643 net.cpp:434] fc7_mbox_priorbox <- data_data_0_split_2
I0426 15:02:21.735189 20643 net.cpp:408] fc7_mbox_priorbox -> fc7_mbox_priorbox
I0426 15:02:21.735206 20643 net.cpp:150] Setting up fc7_mbox_priorbox
I0426 15:02:21.735210 20643 net.cpp:157] Top shape: 1 2 24576 (49152)
I0426 15:02:21.735213 20643 net.cpp:165] Memory required for data: 5739151520
I0426 15:02:21.735214 20643 layer_factory.hpp:77] Creating layer conv6_2_mbox_loc
I0426 15:02:21.735220 20643 net.cpp:100] Creating Layer conv6_2_mbox_loc
I0426 15:02:21.735222 20643 net.cpp:434] conv6_2_mbox_loc <- conv6_2_conv6_2_relu_0_split_1
I0426 15:02:21.735227 20643 net.cpp:408] conv6_2_mbox_loc -> conv6_2_mbox_loc
I0426 15:02:21.735847 20643 net.cpp:150] Setting up conv6_2_mbox_loc
I0426 15:02:21.735852 20643 net.cpp:157] Top shape: 8 24 16 16 (49152)
I0426 15:02:21.735854 20643 net.cpp:165] Memory required for data: 5739348128
I0426 15:02:21.735857 20643 layer_factory.hpp:77] Creating layer conv6_2_mbox_loc_perm
I0426 15:02:21.735862 20643 net.cpp:100] Creating Layer conv6_2_mbox_loc_perm
I0426 15:02:21.735864 20643 net.cpp:434] conv6_2_mbox_loc_perm <- conv6_2_mbox_loc
I0426 15:02:21.735867 20643 net.cpp:408] conv6_2_mbox_loc_perm -> conv6_2_mbox_loc_perm
I0426 15:02:21.735927 20643 net.cpp:150] Setting up conv6_2_mbox_loc_perm
I0426 15:02:21.735932 20643 net.cpp:157] Top shape: 8 16 16 24 (49152)
I0426 15:02:21.735934 20643 net.cpp:165] Memory required for data: 5739544736
I0426 15:02:21.735935 20643 layer_factory.hpp:77] Creating layer conv6_2_mbox_loc_flat
I0426 15:02:21.735939 20643 net.cpp:100] Creating Layer conv6_2_mbox_loc_flat
I0426 15:02:21.735941 20643 net.cpp:434] conv6_2_mbox_loc_flat <- conv6_2_mbox_loc_perm
I0426 15:02:21.735945 20643 net.cpp:408] conv6_2_mbox_loc_flat -> conv6_2_mbox_loc_flat
I0426 15:02:21.735960 20643 net.cpp:150] Setting up conv6_2_mbox_loc_flat
I0426 15:02:21.735965 20643 net.cpp:157] Top shape: 8 6144 (49152)
I0426 15:02:21.735966 20643 net.cpp:165] Memory required for data: 5739741344
I0426 15:02:21.735968 20643 layer_factory.hpp:77] Creating layer conv6_2_mbox_conf
I0426 15:02:21.735975 20643 net.cpp:100] Creating Layer conv6_2_mbox_conf
I0426 15:02:21.735976 20643 net.cpp:434] conv6_2_mbox_conf <- conv6_2_conv6_2_relu_0_split_2
I0426 15:02:21.735981 20643 net.cpp:408] conv6_2_mbox_conf -> conv6_2_mbox_conf
I0426 15:02:21.736603 20643 net.cpp:150] Setting up conv6_2_mbox_conf
I0426 15:02:21.736608 20643 net.cpp:157] Top shape: 8 24 16 16 (49152)
I0426 15:02:21.736609 20643 net.cpp:165] Memory required for data: 5739937952
I0426 15:02:21.736613 20643 layer_factory.hpp:77] Creating layer conv6_2_mbox_conf_perm
I0426 15:02:21.736618 20643 net.cpp:100] Creating Layer conv6_2_mbox_conf_perm
I0426 15:02:21.736620 20643 net.cpp:434] conv6_2_mbox_conf_perm <- conv6_2_mbox_conf
I0426 15:02:21.736624 20643 net.cpp:408] conv6_2_mbox_conf_perm -> conv6_2_mbox_conf_perm
I0426 15:02:21.736686 20643 net.cpp:150] Setting up conv6_2_mbox_conf_perm
I0426 15:02:21.736691 20643 net.cpp:157] Top shape: 8 16 16 24 (49152)
I0426 15:02:21.736692 20643 net.cpp:165] Memory required for data: 5740134560
I0426 15:02:21.736695 20643 layer_factory.hpp:77] Creating layer conv6_2_mbox_conf_flat
I0426 15:02:21.736698 20643 net.cpp:100] Creating Layer conv6_2_mbox_conf_flat
I0426 15:02:21.736701 20643 net.cpp:434] conv6_2_mbox_conf_flat <- conv6_2_mbox_conf_perm
I0426 15:02:21.736704 20643 net.cpp:408] conv6_2_mbox_conf_flat -> conv6_2_mbox_conf_flat
I0426 15:02:21.736718 20643 net.cpp:150] Setting up conv6_2_mbox_conf_flat
I0426 15:02:21.736723 20643 net.cpp:157] Top shape: 8 6144 (49152)
I0426 15:02:21.736724 20643 net.cpp:165] Memory required for data: 5740331168
I0426 15:02:21.736726 20643 layer_factory.hpp:77] Creating layer conv6_2_mbox_priorbox
I0426 15:02:21.736730 20643 net.cpp:100] Creating Layer conv6_2_mbox_priorbox
I0426 15:02:21.736732 20643 net.cpp:434] conv6_2_mbox_priorbox <- conv6_2_conv6_2_relu_0_split_3
I0426 15:02:21.736742 20643 net.cpp:434] conv6_2_mbox_priorbox <- data_data_0_split_3
I0426 15:02:21.736747 20643 net.cpp:408] conv6_2_mbox_priorbox -> conv6_2_mbox_priorbox
I0426 15:02:21.736763 20643 net.cpp:150] Setting up conv6_2_mbox_priorbox
I0426 15:02:21.736768 20643 net.cpp:157] Top shape: 1 2 6144 (12288)
I0426 15:02:21.736770 20643 net.cpp:165] Memory required for data: 5740380320
I0426 15:02:21.736773 20643 layer_factory.hpp:77] Creating layer conv7_2_mbox_loc
I0426 15:02:21.736778 20643 net.cpp:100] Creating Layer conv7_2_mbox_loc
I0426 15:02:21.736781 20643 net.cpp:434] conv7_2_mbox_loc <- conv7_2_conv7_2_relu_0_split_1
I0426 15:02:21.736785 20643 net.cpp:408] conv7_2_mbox_loc -> conv7_2_mbox_loc
I0426 15:02:21.737176 20643 net.cpp:150] Setting up conv7_2_mbox_loc
I0426 15:02:21.737182 20643 net.cpp:157] Top shape: 8 24 8 8 (12288)
I0426 15:02:21.737185 20643 net.cpp:165] Memory required for data: 5740429472
I0426 15:02:21.737187 20643 layer_factory.hpp:77] Creating layer conv7_2_mbox_loc_perm
I0426 15:02:21.737191 20643 net.cpp:100] Creating Layer conv7_2_mbox_loc_perm
I0426 15:02:21.737193 20643 net.cpp:434] conv7_2_mbox_loc_perm <- conv7_2_mbox_loc
I0426 15:02:21.737197 20643 net.cpp:408] conv7_2_mbox_loc_perm -> conv7_2_mbox_loc_perm
I0426 15:02:21.737259 20643 net.cpp:150] Setting up conv7_2_mbox_loc_perm
I0426 15:02:21.737264 20643 net.cpp:157] Top shape: 8 8 8 24 (12288)
I0426 15:02:21.737267 20643 net.cpp:165] Memory required for data: 5740478624
I0426 15:02:21.737268 20643 layer_factory.hpp:77] Creating layer conv7_2_mbox_loc_flat
I0426 15:02:21.737272 20643 net.cpp:100] Creating Layer conv7_2_mbox_loc_flat
I0426 15:02:21.737275 20643 net.cpp:434] conv7_2_mbox_loc_flat <- conv7_2_mbox_loc_perm
I0426 15:02:21.737278 20643 net.cpp:408] conv7_2_mbox_loc_flat -> conv7_2_mbox_loc_flat
I0426 15:02:21.737293 20643 net.cpp:150] Setting up conv7_2_mbox_loc_flat
I0426 15:02:21.737296 20643 net.cpp:157] Top shape: 8 1536 (12288)
I0426 15:02:21.737298 20643 net.cpp:165] Memory required for data: 5740527776
I0426 15:02:21.737300 20643 layer_factory.hpp:77] Creating layer conv7_2_mbox_conf
I0426 15:02:21.737306 20643 net.cpp:100] Creating Layer conv7_2_mbox_conf
I0426 15:02:21.737308 20643 net.cpp:434] conv7_2_mbox_conf <- conv7_2_conv7_2_relu_0_split_2
I0426 15:02:21.737313 20643 net.cpp:408] conv7_2_mbox_conf -> conv7_2_mbox_conf
I0426 15:02:21.737696 20643 net.cpp:150] Setting up conv7_2_mbox_conf
I0426 15:02:21.737702 20643 net.cpp:157] Top shape: 8 24 8 8 (12288)
I0426 15:02:21.737704 20643 net.cpp:165] Memory required for data: 5740576928
I0426 15:02:21.737707 20643 layer_factory.hpp:77] Creating layer conv7_2_mbox_conf_perm
I0426 15:02:21.737711 20643 net.cpp:100] Creating Layer conv7_2_mbox_conf_perm
I0426 15:02:21.737713 20643 net.cpp:434] conv7_2_mbox_conf_perm <- conv7_2_mbox_conf
I0426 15:02:21.737717 20643 net.cpp:408] conv7_2_mbox_conf_perm -> conv7_2_mbox_conf_perm
I0426 15:02:21.737778 20643 net.cpp:150] Setting up conv7_2_mbox_conf_perm
I0426 15:02:21.737784 20643 net.cpp:157] Top shape: 8 8 8 24 (12288)
I0426 15:02:21.737787 20643 net.cpp:165] Memory required for data: 5740626080
I0426 15:02:21.737788 20643 layer_factory.hpp:77] Creating layer conv7_2_mbox_conf_flat
I0426 15:02:21.737792 20643 net.cpp:100] Creating Layer conv7_2_mbox_conf_flat
I0426 15:02:21.737793 20643 net.cpp:434] conv7_2_mbox_conf_flat <- conv7_2_mbox_conf_perm
I0426 15:02:21.737798 20643 net.cpp:408] conv7_2_mbox_conf_flat -> conv7_2_mbox_conf_flat
I0426 15:02:21.737810 20643 net.cpp:150] Setting up conv7_2_mbox_conf_flat
I0426 15:02:21.737814 20643 net.cpp:157] Top shape: 8 1536 (12288)
I0426 15:02:21.737817 20643 net.cpp:165] Memory required for data: 5740675232
I0426 15:02:21.737818 20643 layer_factory.hpp:77] Creating layer conv7_2_mbox_priorbox
I0426 15:02:21.737823 20643 net.cpp:100] Creating Layer conv7_2_mbox_priorbox
I0426 15:02:21.737824 20643 net.cpp:434] conv7_2_mbox_priorbox <- conv7_2_conv7_2_relu_0_split_3
I0426 15:02:21.737826 20643 net.cpp:434] conv7_2_mbox_priorbox <- data_data_0_split_4
I0426 15:02:21.737839 20643 net.cpp:408] conv7_2_mbox_priorbox -> conv7_2_mbox_priorbox
I0426 15:02:21.737855 20643 net.cpp:150] Setting up conv7_2_mbox_priorbox
I0426 15:02:21.737861 20643 net.cpp:157] Top shape: 1 2 1536 (3072)
I0426 15:02:21.737862 20643 net.cpp:165] Memory required for data: 5740687520
I0426 15:02:21.737865 20643 layer_factory.hpp:77] Creating layer conv8_2_mbox_loc
I0426 15:02:21.737872 20643 net.cpp:100] Creating Layer conv8_2_mbox_loc
I0426 15:02:21.737875 20643 net.cpp:434] conv8_2_mbox_loc <- conv8_2_conv8_2_relu_0_split_1
I0426 15:02:21.737879 20643 net.cpp:408] conv8_2_mbox_loc -> conv8_2_mbox_loc
I0426 15:02:21.738188 20643 net.cpp:150] Setting up conv8_2_mbox_loc
I0426 15:02:21.738193 20643 net.cpp:157] Top shape: 8 16 6 6 (4608)
I0426 15:02:21.738195 20643 net.cpp:165] Memory required for data: 5740705952
I0426 15:02:21.738205 20643 layer_factory.hpp:77] Creating layer conv8_2_mbox_loc_perm
I0426 15:02:21.738214 20643 net.cpp:100] Creating Layer conv8_2_mbox_loc_perm
I0426 15:02:21.738216 20643 net.cpp:434] conv8_2_mbox_loc_perm <- conv8_2_mbox_loc
I0426 15:02:21.738219 20643 net.cpp:408] conv8_2_mbox_loc_perm -> conv8_2_mbox_loc_perm
I0426 15:02:21.738282 20643 net.cpp:150] Setting up conv8_2_mbox_loc_perm
I0426 15:02:21.738288 20643 net.cpp:157] Top shape: 8 6 6 16 (4608)
I0426 15:02:21.738291 20643 net.cpp:165] Memory required for data: 5740724384
I0426 15:02:21.738292 20643 layer_factory.hpp:77] Creating layer conv8_2_mbox_loc_flat
I0426 15:02:21.738296 20643 net.cpp:100] Creating Layer conv8_2_mbox_loc_flat
I0426 15:02:21.738297 20643 net.cpp:434] conv8_2_mbox_loc_flat <- conv8_2_mbox_loc_perm
I0426 15:02:21.738301 20643 net.cpp:408] conv8_2_mbox_loc_flat -> conv8_2_mbox_loc_flat
I0426 15:02:21.738315 20643 net.cpp:150] Setting up conv8_2_mbox_loc_flat
I0426 15:02:21.738319 20643 net.cpp:157] Top shape: 8 576 (4608)
I0426 15:02:21.738322 20643 net.cpp:165] Memory required for data: 5740742816
I0426 15:02:21.738323 20643 layer_factory.hpp:77] Creating layer conv8_2_mbox_conf
I0426 15:02:21.738329 20643 net.cpp:100] Creating Layer conv8_2_mbox_conf
I0426 15:02:21.738332 20643 net.cpp:434] conv8_2_mbox_conf <- conv8_2_conv8_2_relu_0_split_2
I0426 15:02:21.738337 20643 net.cpp:408] conv8_2_mbox_conf -> conv8_2_mbox_conf
I0426 15:02:21.738639 20643 net.cpp:150] Setting up conv8_2_mbox_conf
I0426 15:02:21.738644 20643 net.cpp:157] Top shape: 8 16 6 6 (4608)
I0426 15:02:21.738646 20643 net.cpp:165] Memory required for data: 5740761248
I0426 15:02:21.738649 20643 layer_factory.hpp:77] Creating layer conv8_2_mbox_conf_perm
I0426 15:02:21.738653 20643 net.cpp:100] Creating Layer conv8_2_mbox_conf_perm
I0426 15:02:21.738656 20643 net.cpp:434] conv8_2_mbox_conf_perm <- conv8_2_mbox_conf
I0426 15:02:21.738659 20643 net.cpp:408] conv8_2_mbox_conf_perm -> conv8_2_mbox_conf_perm
I0426 15:02:21.738723 20643 net.cpp:150] Setting up conv8_2_mbox_conf_perm
I0426 15:02:21.738728 20643 net.cpp:157] Top shape: 8 6 6 16 (4608)
I0426 15:02:21.738729 20643 net.cpp:165] Memory required for data: 5740779680
I0426 15:02:21.738731 20643 layer_factory.hpp:77] Creating layer conv8_2_mbox_conf_flat
I0426 15:02:21.738735 20643 net.cpp:100] Creating Layer conv8_2_mbox_conf_flat
I0426 15:02:21.738737 20643 net.cpp:434] conv8_2_mbox_conf_flat <- conv8_2_mbox_conf_perm
I0426 15:02:21.738741 20643 net.cpp:408] conv8_2_mbox_conf_flat -> conv8_2_mbox_conf_flat
I0426 15:02:21.738754 20643 net.cpp:150] Setting up conv8_2_mbox_conf_flat
I0426 15:02:21.738759 20643 net.cpp:157] Top shape: 8 576 (4608)
I0426 15:02:21.738760 20643 net.cpp:165] Memory required for data: 5740798112
I0426 15:02:21.738762 20643 layer_factory.hpp:77] Creating layer conv8_2_mbox_priorbox
I0426 15:02:21.738767 20643 net.cpp:100] Creating Layer conv8_2_mbox_priorbox
I0426 15:02:21.738770 20643 net.cpp:434] conv8_2_mbox_priorbox <- conv8_2_conv8_2_relu_0_split_3
I0426 15:02:21.738772 20643 net.cpp:434] conv8_2_mbox_priorbox <- data_data_0_split_5
I0426 15:02:21.738776 20643 net.cpp:408] conv8_2_mbox_priorbox -> conv8_2_mbox_priorbox
I0426 15:02:21.738801 20643 net.cpp:150] Setting up conv8_2_mbox_priorbox
I0426 15:02:21.738806 20643 net.cpp:157] Top shape: 1 2 576 (1152)
I0426 15:02:21.738807 20643 net.cpp:165] Memory required for data: 5740802720
I0426 15:02:21.738808 20643 layer_factory.hpp:77] Creating layer conv9_2_mbox_loc
I0426 15:02:21.738816 20643 net.cpp:100] Creating Layer conv9_2_mbox_loc
I0426 15:02:21.738819 20643 net.cpp:434] conv9_2_mbox_loc <- conv9_2_conv9_2_relu_0_split_0
I0426 15:02:21.738823 20643 net.cpp:408] conv9_2_mbox_loc -> conv9_2_mbox_loc
I0426 15:02:21.739130 20643 net.cpp:150] Setting up conv9_2_mbox_loc
I0426 15:02:21.739135 20643 net.cpp:157] Top shape: 8 16 4 4 (2048)
I0426 15:02:21.739138 20643 net.cpp:165] Memory required for data: 5740810912
I0426 15:02:21.739141 20643 layer_factory.hpp:77] Creating layer conv9_2_mbox_loc_perm
I0426 15:02:21.739146 20643 net.cpp:100] Creating Layer conv9_2_mbox_loc_perm
I0426 15:02:21.739148 20643 net.cpp:434] conv9_2_mbox_loc_perm <- conv9_2_mbox_loc
I0426 15:02:21.739151 20643 net.cpp:408] conv9_2_mbox_loc_perm -> conv9_2_mbox_loc_perm
I0426 15:02:21.739213 20643 net.cpp:150] Setting up conv9_2_mbox_loc_perm
I0426 15:02:21.739218 20643 net.cpp:157] Top shape: 8 4 4 16 (2048)
I0426 15:02:21.739219 20643 net.cpp:165] Memory required for data: 5740819104
I0426 15:02:21.739222 20643 layer_factory.hpp:77] Creating layer conv9_2_mbox_loc_flat
I0426 15:02:21.739225 20643 net.cpp:100] Creating Layer conv9_2_mbox_loc_flat
I0426 15:02:21.739228 20643 net.cpp:434] conv9_2_mbox_loc_flat <- conv9_2_mbox_loc_perm
I0426 15:02:21.739231 20643 net.cpp:408] conv9_2_mbox_loc_flat -> conv9_2_mbox_loc_flat
I0426 15:02:21.739245 20643 net.cpp:150] Setting up conv9_2_mbox_loc_flat
I0426 15:02:21.739249 20643 net.cpp:157] Top shape: 8 256 (2048)
I0426 15:02:21.739251 20643 net.cpp:165] Memory required for data: 5740827296
I0426 15:02:21.739253 20643 layer_factory.hpp:77] Creating layer conv9_2_mbox_conf
I0426 15:02:21.739259 20643 net.cpp:100] Creating Layer conv9_2_mbox_conf
I0426 15:02:21.739261 20643 net.cpp:434] conv9_2_mbox_conf <- conv9_2_conv9_2_relu_0_split_1
I0426 15:02:21.739266 20643 net.cpp:408] conv9_2_mbox_conf -> conv9_2_mbox_conf
I0426 15:02:21.740238 20643 net.cpp:150] Setting up conv9_2_mbox_conf
I0426 15:02:21.740248 20643 net.cpp:157] Top shape: 8 16 4 4 (2048)
I0426 15:02:21.740249 20643 net.cpp:165] Memory required for data: 5740835488
I0426 15:02:21.740254 20643 layer_factory.hpp:77] Creating layer conv9_2_mbox_conf_perm
I0426 15:02:21.740258 20643 net.cpp:100] Creating Layer conv9_2_mbox_conf_perm
I0426 15:02:21.740262 20643 net.cpp:434] conv9_2_mbox_conf_perm <- conv9_2_mbox_conf
I0426 15:02:21.740267 20643 net.cpp:408] conv9_2_mbox_conf_perm -> conv9_2_mbox_conf_perm
I0426 15:02:21.740332 20643 net.cpp:150] Setting up conv9_2_mbox_conf_perm
I0426 15:02:21.740337 20643 net.cpp:157] Top shape: 8 4 4 16 (2048)
I0426 15:02:21.740339 20643 net.cpp:165] Memory required for data: 5740843680
I0426 15:02:21.740341 20643 layer_factory.hpp:77] Creating layer conv9_2_mbox_conf_flat
I0426 15:02:21.740345 20643 net.cpp:100] Creating Layer conv9_2_mbox_conf_flat
I0426 15:02:21.740347 20643 net.cpp:434] conv9_2_mbox_conf_flat <- conv9_2_mbox_conf_perm
I0426 15:02:21.740351 20643 net.cpp:408] conv9_2_mbox_conf_flat -> conv9_2_mbox_conf_flat
I0426 15:02:21.740365 20643 net.cpp:150] Setting up conv9_2_mbox_conf_flat
I0426 15:02:21.740370 20643 net.cpp:157] Top shape: 8 256 (2048)
I0426 15:02:21.740371 20643 net.cpp:165] Memory required for data: 5740851872
I0426 15:02:21.740373 20643 layer_factory.hpp:77] Creating layer conv9_2_mbox_priorbox
I0426 15:02:21.740378 20643 net.cpp:100] Creating Layer conv9_2_mbox_priorbox
I0426 15:02:21.740381 20643 net.cpp:434] conv9_2_mbox_priorbox <- conv9_2_conv9_2_relu_0_split_2
I0426 15:02:21.740383 20643 net.cpp:434] conv9_2_mbox_priorbox <- data_data_0_split_6
I0426 15:02:21.740388 20643 net.cpp:408] conv9_2_mbox_priorbox -> conv9_2_mbox_priorbox
I0426 15:02:21.740404 20643 net.cpp:150] Setting up conv9_2_mbox_priorbox
I0426 15:02:21.740416 20643 net.cpp:157] Top shape: 1 2 256 (512)
I0426 15:02:21.740418 20643 net.cpp:165] Memory required for data: 5740853920
I0426 15:02:21.740420 20643 layer_factory.hpp:77] Creating layer mbox_loc
I0426 15:02:21.740427 20643 net.cpp:100] Creating Layer mbox_loc
I0426 15:02:21.740428 20643 net.cpp:434] mbox_loc <- conv4_3_norm_mbox_loc_flat
I0426 15:02:21.740432 20643 net.cpp:434] mbox_loc <- fc7_mbox_loc_flat
I0426 15:02:21.740435 20643 net.cpp:434] mbox_loc <- conv6_2_mbox_loc_flat
I0426 15:02:21.740437 20643 net.cpp:434] mbox_loc <- conv7_2_mbox_loc_flat
I0426 15:02:21.740440 20643 net.cpp:434] mbox_loc <- conv8_2_mbox_loc_flat
I0426 15:02:21.740442 20643 net.cpp:434] mbox_loc <- conv9_2_mbox_loc_flat
I0426 15:02:21.740447 20643 net.cpp:408] mbox_loc -> mbox_loc
I0426 15:02:21.740465 20643 net.cpp:150] Setting up mbox_loc
I0426 15:02:21.740470 20643 net.cpp:157] Top shape: 8 98624 (788992)
I0426 15:02:21.740473 20643 net.cpp:165] Memory required for data: 5744009888
I0426 15:02:21.740474 20643 layer_factory.hpp:77] Creating layer mbox_conf
I0426 15:02:21.740479 20643 net.cpp:100] Creating Layer mbox_conf
I0426 15:02:21.740481 20643 net.cpp:434] mbox_conf <- conv4_3_norm_mbox_conf_flat
I0426 15:02:21.740484 20643 net.cpp:434] mbox_conf <- fc7_mbox_conf_flat
I0426 15:02:21.740487 20643 net.cpp:434] mbox_conf <- conv6_2_mbox_conf_flat
I0426 15:02:21.740490 20643 net.cpp:434] mbox_conf <- conv7_2_mbox_conf_flat
I0426 15:02:21.740494 20643 net.cpp:434] mbox_conf <- conv8_2_mbox_conf_flat
I0426 15:02:21.740495 20643 net.cpp:434] mbox_conf <- conv9_2_mbox_conf_flat
I0426 15:02:21.740499 20643 net.cpp:408] mbox_conf -> mbox_conf
I0426 15:02:21.740514 20643 net.cpp:150] Setting up mbox_conf
I0426 15:02:21.740519 20643 net.cpp:157] Top shape: 8 98624 (788992)
I0426 15:02:21.740520 20643 net.cpp:165] Memory required for data: 5747165856
I0426 15:02:21.740522 20643 layer_factory.hpp:77] Creating layer mbox_priorbox
I0426 15:02:21.740526 20643 net.cpp:100] Creating Layer mbox_priorbox
I0426 15:02:21.740528 20643 net.cpp:434] mbox_priorbox <- conv4_3_norm_mbox_priorbox
I0426 15:02:21.740532 20643 net.cpp:434] mbox_priorbox <- fc7_mbox_priorbox
I0426 15:02:21.740535 20643 net.cpp:434] mbox_priorbox <- conv6_2_mbox_priorbox
I0426 15:02:21.740538 20643 net.cpp:434] mbox_priorbox <- conv7_2_mbox_priorbox
I0426 15:02:21.740540 20643 net.cpp:434] mbox_priorbox <- conv8_2_mbox_priorbox
I0426 15:02:21.740542 20643 net.cpp:434] mbox_priorbox <- conv9_2_mbox_priorbox
I0426 15:02:21.740545 20643 net.cpp:408] mbox_priorbox -> mbox_priorbox
I0426 15:02:21.740559 20643 net.cpp:150] Setting up mbox_priorbox
I0426 15:02:21.740562 20643 net.cpp:157] Top shape: 1 2 98624 (197248)
I0426 15:02:21.740564 20643 net.cpp:165] Memory required for data: 5747954848
I0426 15:02:21.740567 20643 layer_factory.hpp:77] Creating layer mbox_loss
I0426 15:02:21.740576 20643 net.cpp:100] Creating Layer mbox_loss
I0426 15:02:21.740578 20643 net.cpp:434] mbox_loss <- mbox_loc
I0426 15:02:21.740581 20643 net.cpp:434] mbox_loss <- mbox_conf
I0426 15:02:21.740584 20643 net.cpp:434] mbox_loss <- mbox_priorbox
…
  phase: TEST
}
layer {
  name: "data"
  type: "AnnotatedData"
  top: "data"
  top: "label"
  include {
    phase: TEST
  }
  transform_param {
    mean_value: 104
    mean_value: 117
    mean_value: 123
    resize_param {
      prob: 1
      resize_mode: WARP
      height: 512
      width: 512
      interp_mode: LINEAR
    }
  }
  data_param {
    source: "/localdata/markustp/data/ascend/lmdb/ascend_test_lmdb"
    batch_size: 2
    backend: LMDB
  }
  annotated_data_param {
    batch_sampler {
    }
    label_map_file: "data/ascend/labelmap.prototxt"
  }
}
layer {
  name: "conv1_1"
  type: "Convolution"
  bottom: "data"
  top: "conv1_1"
  param {
    lr_mult: 1
    decay_mult: 1
  }
  param {
    lr_mult: 2
    decay_mult: 0
  }
  convolution_param {
    num_output: 64
    pad: 1
    kernel_size: 3
    weight_filler {
      type: "xavier"
    }
    bias_filler {
      type: "constant"
      value: 0
    }
  }
}
layer {
  name: "relu1_1"
  type: "ReLU"
  bottom: "conv1_1"
  top: "conv1_1"
}
layer {
  name: "conv1_2"
  type: "Convolution"
  bottom: "conv1_1"
  top: "conv1_2"
  param {
    lr_mult: 1
    decay_mult: 1
  }
  param {
    lr_mult: 2
    decay_mult: 0
  }
  convolution_param {
    num_output: 64
    pad: 1
    kernel_size: 3
    weight_filler {
      type: "xavier"
    }
    bias_filler {
      type: "constant"
      value: 0
    }
  }
}
layer {
  name: "relu1_2"
  type: "ReLU"
  bottom: "conv1_2"
  top: "conv1_2"
}
layer {
  name: "pool1"
  type: "Pooling"
  bottom: "conv1_2"
  top: "pool1"
  pooling_param {
    pool: MAX
    kernel_size: 2
    stride: 2
  }
}
layer {
  name: "conv2_1"
  type: "Convolution"
  bottom: "pool1"
  top: "conv2_1"
  param {
    lr_mult: 1
    decay_mult: 1
  }
  param {
    lr_mult: 2
    decay_mult: 0
  }
  convolution_param {
    num_output: 128
    pad: 1
    kernel_size: 3
    weight_filler {
      type: "xavier"
    }
    bias_filler {
      type: "constant"
      value: 0
    }
  }
}
layer {
  name: "relu2_1"
  type: "ReLU"
  bottom: "conv2_1"
  top: "conv2_1"
}
layer {
  name: "conv2_2"
  type: "Convolution"
  bottom: "conv2_1"
  top: "conv2_2"
  param {
    lr_mult: 1
    decay_mult: 1
  }
  param {
    lr_mult: 2
    decay_mult: 0
  }
  convolution_param {
    num_output: 128
    pad: 1
    kernel_size: 3
    weight_filler {
      type: "xavier"
    }
    bias_filler {
      type: "constant"
      value: 0
    }
  }
}
layer {
  name: "relu2_2"
  type: "ReLU"
  bottom: "conv2_2"
  top: "conv2_2"
}
layer {
  name: "pool2"
  type: "Pooling"
  bottom: "conv2_2"
  top: "pool2"
  pooling_param {
    pool: MAX
    kernel_size: 2
    stride: 2
  }
}
layer {
  name: "conv3_1"
  type: "Convolution"
  bottom: "pool2"
  top: "conv3_1"
  param {
    lr_mult: 1
    decay_mult: 1
  }
  param {
    lr_mult: 2
    decay_mult: 0
  }
  convolution_param {
    num_output: 256
    pad: 1
    kernel_size: 3
    weight_filler {
      type: "xavier"
    }
    bias_filler {
      type: "constant"
      value: 0
    }
  }
}
layer {
  name: "relu3_1"
  type: "ReLU"
  bottom: "conv3_1"
  top: "conv3_1"
}
layer {
  name: "conv3_2"
  type: "Convolution"
  bottom: "conv3_1"
  top: "conv3_2"
  param {
    lr_mult: 1
    decay_mult: 1
  }
  param {
    lr_mult: 2
    decay_mult: 0
  }
  convolution_param {
    num_output: 256
    pad: 1
    kernel_size: 3
    weight_filler {
      type: "xavier"
    }
    bias_filler {
      type: "constant"
      value: 0
    }
  }
}
layer {
  name: "relu3_2"
  type: "ReLU"
  bottom: "conv3_2"
  top: "conv3_2"
}
layer {
  name: "conv3_3"
  type: "Convolution"
  bottom: "conv3_2"
  top: "conv3_3"
  param {
    lr_mult: 1
    decay_mult: 1
  }
  param {
    lr_mult: 2
    decay_mult: 0
  }
  convolution_param {
    num_output: 256
    pad: 1
    kernel_size: 3
    weight_filler {
      type: "xavier"
    }
    bias_filler {
      type: "constant"
      value: 0
    }
  }
}
layer {
  name: "relu3_3"
  type: "ReLU"
  bottom: "conv3_3"
  top: "conv3_3"
}
layer {
  name: "pool3"
  type: "Pooling"
  bottom: "conv3_3"
  top: "pool3"
  pooling_param {
    pool: MAX
    kernel_size: 2
    stride: 2
  }
}
layer {
  name: "conv4_1"
  type: "Convolution"
  bottom: "pool3"
  top: "conv4_1"
  param {
    lr_mult: 1
    decay_mult: 1
  }
  param {
    lr_mult: 2
    decay_mult: 0
  }
  convolution_param {
    num_output: 512
    pad: 1
    kernel_size: 3
    weight_filler {
      type: "xavier"
    }
    bias_filler {
      type: "constant"
      value: 0
    }
  }
}
layer {
  name: "relu4_1"
  type: "ReLU"
  bottom: "conv4_1"
  top: "conv4_1"
}
layer {
  name: "conv4_2"
  type: "Convolution"
  bottom: "conv4_1"
  top: "conv4_2"
  param {
    lr_mult: 1
    decay_mult: 1
  }
  param {
    lr_mult: 2
    decay_mult: 0
  }
  convolution_param {
    num_output: 512
    pad: 1
    kernel_size: 3
    weight_filler {
      type: "xavier"
    }
    bias_filler {
      type: "constant"
      value: 0
    }
  }
}
layer {
  name: "relu4_2"
  type: "ReLU"
  bottom: "conv4_2"
  top: "conv4_2"
}
layer {
  name: "conv4_3"
  type: "Convolution"
  bottom: "conv4_2"
  top: "conv4_3"
  param {
    lr_mult: 1
    decay_mult: 1
  }
  param {
    lr_mult: 2
    decay_mult: 0
  }
  convolution_param {
    num_output: 512
    pad: 1
    kernel_size: 3
    weight_filler {
      type: "xavier"
    }
    bias_filler {
      type: "constant"
      value: 0
    }
  }
}
layer {
  name: "relu4_3"
  type: "ReLU"
  bottom: "conv4_3"
  top: "conv4_3"
}
layer {
  name: "pool4"
  type: "Pooling"
  bottom: "conv4_3"
  top: "pool4"
  pooling_param {
    pool: MAX
    kernel_size: 2
    stride: 2
  }
}
layer {
  name: "conv5_1"
  type: "Convolution"
  bottom: "pool4"
  top: "conv5_1"
  param {
    lr_mult: 1
    decay_mult: 1
  }
  param {
    lr_mult: 2
    decay_mult: 0
  }
  convolution_param {
    num_output: 512
    pad: 1
    kernel_size: 3
    weight_filler {
      type: "xavier"
    }
    bias_filler {
      type: "constant"
      value: 0
    }
    dilation: 1
  }
}
layer {
  name: "relu5_1"
  type: "ReLU"
  bottom: "conv5_1"
  top: "conv5_1"
}
layer {
  name: "conv5_2"
  type: "Convolution"
  bottom: "conv5_1"
  top: "conv5_2"
  param {
    lr_mult: 1
    decay_mult: 1
  }
  param {
    lr_mult: 2
    decay_mult: 0
  }
  convolution_param {
    num_output: 512
    pad: 1
    kernel_size: 3
    weight_filler {
      type: "xavier"
    }
    bias_filler {
      type: "constant"
      value: 0
    }
    dilation: 1
  }
}
layer {
  name: "relu5_2"
  type: "ReLU"
  bottom: "conv5_2"
  top: "conv5_2"
}
layer {
  name: "conv5_3"
  type: "Convolution"
  bottom: "conv5_2"
  top: "conv5_3"
  param {
    lr_mult: 1
    decay_mult: 1
  }
  param {
    lr_mult: 2
    decay_mult: 0
  }
  convolution_param {
    num_output: 512
    pad: 1
    kernel_size: 3
    weight_filler {
      type: "xavier"
    }
    bias_filler {
      type: "constant"
      value: 0
    }
    dilation: 1
  }
}
layer {
  name: "relu5_3"
  type: "ReLU"
  bottom: "conv5_3"
  top: "conv5_3"
}
layer {
  name: "pool5"
  type: "Pooling"
  bottom: "conv5_3"
  top: "pool5"
  pooling_param {
    pool: MAX
    kernel_size: 3
    stride: 1
    pad: 1
  }
}
layer {
  name: "fc6"
  type: "Convolution"
  bottom: "pool5"
  top: "fc6"
  param {
    lr_mult: 1
    decay_mult: 1
  }
  param {
    lr_mult: 2
    decay_mult: 0
  }
  convolution_param {
    num_output: 1024
    pad: 6
    kernel_size: 3
    weight_filler {
      type: "xavier"
    }
    bias_filler {
      type: "constant"
      value: 0
    }
    dilation: 6
  }
}
layer {
  name: "relu6"
  type: "ReLU"
  bottom: "fc6"
  top: "fc6"
}
layer {
  name: "fc7"
  type: "Convolution"
  bottom: "fc6"
  top: "fc7"
  param {
    lr_mult: 1
    decay_mult: 1
  }
  param {
    lr_mult: 2
    decay_mult: 0
  }
  convolution_param {
    num_output: 1024
    kernel_size: 1
    weight_filler {
      type: "xavier"
    }
    bias_filler {
      type: "constant"
      value: 0
    }
  }
}
layer {
  name: "relu7"
  type: "ReLU"
  bottom: "fc7"
  top: "fc7"
}
layer {
  name: "conv6_1"
  type: "Convolution"
  bottom: "fc7"
  top: "conv6_1"
  param {
    lr_mult: 1
    decay_mult: 1
  }
  param {
    lr_mult: 2
    decay_mult: 0
  }
  convolution_param {
    num_output: 256
    pad: 0
    kernel_size: 1
    stride: 1
    weight_filler {
      type: "xavier"
    }
    bias_filler {
      type: "constant"
      value: 0
    }
  }
}
layer {
  name: "conv6_1_relu"
  type: "ReLU"
  bottom: "conv6_1"
  top: "conv6_1"
}
layer {
  name: "conv6_2"
  type: "Convolution"
  bottom: "conv6_1"
  top: "conv6_2"
  param {
    lr_mult: 1
    decay_mult: 1
  }
  param {
    lr_mult: 2
    decay_mult: 0
  }
  convolution_param {
    num_output: 512
    pad: 1
    kernel_size: 3
    stride: 2
    weight_filler {
      type: "xavier"
    }
    bias_filler {
      type: "constant"
      value: 0
    }
  }
}
layer {
  name: "conv6_2_relu"
  type: "ReLU"
  bottom: "conv6_2"
  top: "conv6_2"
}
layer {
  name: "conv7_1"
  type: "Convolution"
  bottom: "conv6_2"
  top: "conv7_1"
  param {
    lr_mult: 1
    decay_mult: 1
  }
  param {
    lr_mult: 2
    decay_mult: 0
  }
  convolution_param {
    num_output: 128
    pad: 0
    kernel_size: 1
    stride: 1
    weight_filler {
      type: "xavier"
    }
    bias_filler {
      type: "constant"
      value: 0
    }
  }
}
layer {
  name: "conv7_1_relu"
  type: "ReLU"
  bottom: "conv7_1"
  top: "conv7_1"
}
layer {
  name: "conv7_2"
  type: "Convolution"
  bottom: "conv7_1"
  top: "conv7_2"
  param {
    lr_mult: 1
    decay_mult: 1
  }
  param {
    lr_mult: 2
    decay_mult: 0
  }
  convolution_param {
    num_output: 256
    pad: 1
    kernel_size: 3
    stride: 2
    weight_filler {
      type: "xavier"
    }
    bias_filler {
      type: "constant"
      value: 0
    }
  }
}
layer {
  name: "conv7_2_relu"
  type: "ReLU"
  bottom: "conv7_2"
  top: "conv7_2"
}
layer {
  name: "conv8_1"
  type: "Convolution"
  bottom: "conv7_2"
  top: "conv8_1"
  param {
    lr_mult: 1
    decay_mult: 1
  }
  param {
    lr_mult: 2
    decay_mult: 0
  }
  convolution_param {
    num_output: 128
    pad: 0
    kernel_size: 1
    stride: 1
    weight_filler {
      type: "xavier"
    }
    bias_filler {
      type: "constant"
      value: 0
    }
  }
}
layer {
  name: "conv8_1_relu"
  type: "ReLU"
  bottom: "conv8_1"
  top: "conv8_1"
}
layer {
  name: "conv8_2"
  type: "Convolution"
  bottom: "conv8_1"
  top: "conv8_2"
  param {
    lr_mult: 1
    decay_mult: 1
  }
  param {
    lr_mult: 2
    decay_mult: 0
  }
  convolution_param {
    num_output: 256
    pad: 0
    kernel_size: 3
    stride: 1
    weight_filler {
      type: "xavier"
    }
    bias_filler {
      type: "constant"
      value: 0
    }
  }
}
layer {
  name: "conv8_2_relu"
  type: "ReLU"
  bottom: "conv8_2"
  top: "conv8_2"
}
layer {
  name: "conv9_1"
  type: "Convolution"
  bottom: "conv8_2"
  top: "conv9_1"
  param {
    lr_mult: 1
    decay_mult: 1
  }
  param {
    lr_mult: 2
    decay_mult: 0
  }
  convolution_param {
    num_output: 128
    pad: 0
    kernel_size: 1
    stride: 1
    weight_filler {
      type: "xavier"
    }
    bias_filler {
      type: "constant"
      value: 0
    }
  }
}
layer {
  name: "conv9_1_relu"
  type: "ReLU"
  bottom: "conv9_1"
  top: "conv9_1"
}
layer {
  name: "conv9_2"
  type: "Convolution"
  bottom: "conv9_1"
  top: "conv9_2"
  param {
    lr_mult: 1
    decay_mult: 1
  }
  param {
    lr_mult: 2
    decay_mult: 0
  }
  convolution_param {
    num_output: 256
    pad: 0
    kernel_size: 3
    stride: 1
    weight_filler {
      type: "xavier"
    }
    bias_filler {
      type: "constant"
      value: 0
    }
  }
}
layer {
  name: "conv9_2_relu"
  type: "ReLU"
  bottom: "conv9_2"
  top: "conv9_2"
}
layer {
  name: "conv4_3_norm"
  type: "Normalize"
  bottom: "conv4_3"
  top: "conv4_3_norm"
  norm_param {
    across_spatial: false
    scale_filler {
      type: "constant"
      value: 20
    }
    channel_shared: false
  }
}
layer {
  name: "conv4_3_norm_mbox_loc"
  type: "Convolution"
  bottom: "conv4_3_norm"
  top: "conv4_3_norm_mbox_loc"
  param {
    lr_mult: 1
    decay_mult: 1
  }
  param {
    lr_mult: 2
    decay_mult: 0
  }
  convolution_param {
    num_output: 16
    pad: 1
    kernel_size: 3
    stride: 1
    weight_filler {
      type: "xavier"
    }
    bias_filler {
      type: "constant"
      value: 0
    }
  }
}
layer {
  name: "conv4_3_norm_mbox_loc_perm"
  type: "Permute"
  bottom: "conv4_3_norm_mbox_loc"
  top: "conv4_3_norm_mbox_loc_perm"
  permute_param {
    order: 0
    order: 2
    order: 3
    order: 1
  }
}
layer {
  name: "conv4_3_norm_mbox_loc_flat"
  type: "Flatten"
  bottom: "conv4_3_norm_mbox_loc_perm"
  top: "conv4_3_norm_mbox_loc_flat"
  flatten_param {
    axis: 1
  }
}
layer {
  name: "conv4_3_norm_mbox_conf"
  type: "Convolution"
  bottom: "conv4_3_norm"
  top: "conv4_3_norm_mbox_conf"
  param {
    lr_mult: 1
    decay_mult: 1
  }
  param {
    lr_mult: 2
    decay_mult: 0
  }
  convolution_param {
    num_output: 16
    pad: 1
    kernel_size: 3
    stride: 1
    weight_filler {
      type: "xavier"
    }
    bias_filler {
      type: "constant"
      value: 0
    }
  }
}
layer {
  name: "conv4_3_norm_mbox_conf_perm"
  type: "Permute"
  bottom: "conv4_3_norm_mbox_conf"
  top: "conv4_3_norm_mbox_conf_perm"
  permute_param {
    order: 0
    order: 2
    order: 3
    order: 1
  }
}
layer {
  name: "conv4_3_norm_mbox_conf_flat"
  type: "Flatten"
  bottom: "conv4_3_norm_mbox_conf_perm"
  top: "conv4_3_norm_mbox_conf_flat"
  flatten_param {
    axis: 1
  }
}
layer {
  name: "conv4_3_norm_mbox_priorbox"
  type: "PriorBox"
  bottom: "conv4_3_norm"
  bottom: "data"
  top: "conv4_3_norm_mbox_priorbox"
  prior_box_param {
    min_size: 30
    max_size: 60
    aspect_ratio: 2
    flip: true
    clip: false
    variance: 0.1
    variance: 0.1
    variance: 0.2
    variance: 0.2
    step: 8
    offset: 0.5
  }
}
layer {
  name: "fc7_mbox_loc"
  type: "Convolution"
  bottom: "fc7"
  top: "fc7_mbox_loc"
  param {
    lr_mult: 1
    decay_mult: 1
  }
  param {
    lr_mult: 2
    decay_mult: 0
  }
  convolution_param {
    num_output: 24
    pad: 1
    kernel_size: 3
    stride: 1
    weight_filler {
      type: "xavier"
    }
    bias_filler {
      type: "constant"
      value: 0
    }
  }
}
layer {
  name: "fc7_mbox_loc_perm"
  type: "Permute"
  bottom: "fc7_mbox_loc"
  top: "fc7_mbox_loc_perm"
  permute_param {
    order: 0
    order: 2
    order: 3
    order: 1
  }
}
layer {
  name: "fc7_mbox_loc_flat"
  type: "Flatten"
  bottom: "fc7_mbox_loc_perm"
  top: "fc7_mbox_loc_flat"
  flatten_param {
    axis: 1
  }
}
layer {
  name: "fc7_mbox_conf"
  type: "Convolution"
  bottom: "fc7"
  top: "fc7_mbox_conf"
  param {
    lr_mult: 1
    decay_mult: 1
  }
  param {
    lr_mult: 2
    decay_mult: 0
  }
  convolution_param {
    num_output: 24
    pad: 1
    kernel_size: 3
    stride: 1
    weight_filler {
      type: "xavier"
    }
    bias_filler {
      type: "constant"
      value: 0
    }
  }
}
layer {
  name: "fc7_mbox_conf_perm"
  type: "Permute"
  bottom: "fc7_mbox_conf"
  top: "fc7_mbox_conf_perm"
  permute_param {
    order: 0
    order: 2
    order: 3
    order: 1
  }
}
layer {
  name: "fc7_mbox_conf_flat"
  type: "Flatten"
  bottom: "fc7_mbox_conf_perm"
  top: "fc7_mbox_conf_flat"
  flatten_param {
    axis: 1
  }
}
layer {
  name: "fc7_mbox_priorbox"
  type: "PriorBox"
  bottom: "fc7"
  bottom: "data"
  top: "fc7_mbox_priorbox"
  prior_box_param {
    min_size: 60
    max_size: 111
    aspect_ratio: 2
    aspect_ratio: 3
    flip: true
    clip: false
    variance: 0.1
    variance: 0.1
    variance: 0.2
    variance: 0.2
    step: 16
    offset: 0.5
  }
}
layer {
  name: "conv6_2_mbox_loc"
  type: "Convolution"
  bottom: "conv6_2"
  top: "conv6_2_mbox_loc"
  param {
    lr_mult: 1
    decay_mult: 1
  }
  param {
    lr_mult: 2
    decay_mult: 0
  }
  convolution_param {
    num_output: 24
    pad: 1
    kernel_size: 3
    stride: 1
    weight_filler {
      type: "xavier"
    }
    bias_filler {
      type: "constant"
      value: 0
    }
  }
}
layer {
  name: "conv6_2_mbox_loc_perm"
  type: "Permute"
  bottom: "conv6_2_mbox_loc"
  top: "conv6_2_mbox_loc_perm"
  permute_param {
    order: 0
    order: 2
    order: 3
    order: 1
  }
}
layer {
  name: "conv6_2_mbox_loc_flat"
  type: "Flatten"
  bottom: "conv6_2_mbox_loc_perm"
  top: "conv6_2_mbox_loc_flat"
  flatten_param {
    axis: 1
  }
}
layer {
  name: "conv6_2_mbox_conf"
  type: "Convolution"
  bottom: "conv6_2"
  top: "conv6_2_mbox_conf"
  param {
    lr_mult: 1
    decay_mult: 1
  }
  param {
    lr_mult: 2
    decay_mult: 0
  }
  convolution_param {
    num_output: 24
    pad: 1
    kernel_size: 3
    stride: 1
    weight_filler {
      type: "xavier"
    }
    bias_filler {
      type: "constant"
      value: 0
    }
  }
}
layer {
  name: "conv6_2_mbox_conf_perm"
  type: "Permute"
  bottom: "conv6_2_mbox_conf"
  top: "conv6_2_mbox_conf_perm"
  permute_param {
    order: 0
    order: 2
    order: 3
    order: 1
  }
}
layer {
  name: "conv6_2_mbox_conf_flat"
  type: "Flatten"
  bottom: "conv6_2_mbox_conf_perm"
  top: "conv6_2_mbox_conf_flat"
  flatten_param {
    axis: 1
  }
}
layer {
  name: "conv6_2_mbox_priorbox"
  type: "PriorBox"
  bottom: "conv6_2"
  bottom: "data"
  top: "conv6_2_mbox_priorbox"
  prior_box_param {
    min_size: 111
    max_size: 162
    aspect_ratio: 2
    aspect_ratio: 3
    flip: true
    clip: false
    variance: 0.1
    variance: 0.1
    variance: 0.2
    variance: 0.2
    step: 32
    offset: 0.5
  }
}
layer {
  name: "conv7_2_mbox_loc"
  type: "Convolution"
  bottom: "conv7_2"
  top: "conv7_2_mbox_loc"
  param {
    lr_mult: 1
    decay_mult: 1
  }
  param {
    lr_mult: 2
    decay_mult: 0
  }
  convolution_param {
    num_output: 24
    pad: 1
    kernel_size: 3
    stride: 1
    weight_filler {
      type: "xavier"
    }
    bias_filler {
      type: "constant"
      value: 0
    }
  }
}
layer {
  name: "conv7_2_mbox_loc_perm"
  type: "Permute"
  bottom: "conv7_2_mbox_loc"
  top: "conv7_2_mbox_loc_perm"
  permute_param {
    order: 0
    order: 2
    order: 3
    order: 1
  }
}
layer {
  name: "conv7_2_mbox_loc_flat"
  type: "Flatten"
  bottom: "conv7_2_mbox_loc_perm"
  top: "conv7_2_mbox_loc_flat"
  flatten_param {
    axis: 1
  }
}
layer {
  name: "conv7_2_mbox_conf"
  type: "Convolution"
  bottom: "conv7_2"
  top: "conv7_2_mbox_conf"
  param {
    lr_mult: 1
    decay_mult: 1
  }
  param {
    lr_mult: 2
    decay_mult: 0
  }
  convolution_param {
    num_output: 24
    pad: 1
    kernel_size: 3
    stride: 1
    weight_filler {
      type: "xavier"
    }
    bias_filler {
      type: "constant"
      value: 0
    }
  }
}
layer {
  name: "conv7_2_mbox_conf_perm"
  type: "Permute"
  bottom: "conv7_2_mbox_conf"
  top: "conv7_2_mbox_conf_perm"
  permute_param {
    order: 0
    order: 2
    order: 3
    order: 1
  }
}
layer {
  name: "conv7_2_mbox_conf_flat"
  type: "Flatten"
  bottom: "conv7_2_mbox_conf_perm"
  top: "conv7_2_mbox_conf_flat"
  flatten_param {
    axis: 1
  }
}
layer {
  name: "conv7_2_mbox_priorbox"
  type: "PriorBox"
  bottom: "conv7_2"
  bottom: "data"
  top: "conv7_2_mbox_priorbox"
  prior_box_param {
    min_size: 162
    max_size: 213
    aspect_ratio: 2
    aspect_ratio: 3
    flip: true
    clip: false
    variance: 0.1
    variance: 0.1
    variance: 0.2
    variance: 0.2
    step: 64
    offset: 0.5
  }
}
layer {
  name: "conv8_2_mbox_loc"
  type: "Convolution"
  bottom: "conv8_2"
  top: "conv8_2_mbox_loc"
  param {
    lr_mult: 1
    decay_mult: 1
  }
  param {
    lr_mult: 2
    decay_mult: 0
  }
  convolution_param {
    num_output: 16
    pad: 1
    kernel_size: 3
    stride: 1
    weight_filler {
      type: "xavier"
    }
    bias_filler {
      type: "constant"
      value: 0
    }
  }
}
layer {
  name: "conv8_2_mbox_loc_perm"
  type: "Permute"
  bottom: "conv8_2_mbox_loc"
  top: "conv8_2_mbox_loc_perm"
  permute_param {
    order: 0
    order: 2
    order: 3
    order: 1
  }
}
layer {
  name: "conv8_2_mbox_loc_flat"
  type: "Flatten"
  bottom: "conv8_2_mbox_loc_perm"
  top: "conv8_2_mbox_loc_flat"
  flatten_param {
    axis: 1
  }
}
layer {
  name: "conv8_2_mbox_conf"
  type: "Convolution"
  bottom: "conv8_2"
  top: "conv8_2_mbox_conf"
  param {
    lr_mult: 1
    decay_mult: 1
  }
  param {
    lr_mult: 2
    decay_mult: 0
  }
  convolution_param {
    num_output: 16
    pad: 1
    kernel_size: 3
    stride: 1
    weight_filler {
      type: "xavier"
    }
    bias_filler {
      type: "constant"
      value: 0
    }
  }
}
layer {
  name: "conv8_2_mbox_conf_perm"
  type: "Permute"
  bottom: "conv8_2_mbox_conf"
  top: "conv8_2_mbox_conf_perm"
  permute_param {
    order: 0
    order: 2
    order: 3
    order: 1
  }
}
layer {
  name: "conv8_2_mbox_conf_flat"
  type: "Flatten"
  bottom: "conv8_2_mbox_conf_perm"
  top: "conv8_2_mbox_conf_flat"
  flatten_param {
    axis: 1
  }
}
layer {
  name: "conv8_2_mbox_priorbox"
  type: "PriorBox"
  bottom: "conv8_2"
  bottom: "data"
  top: "conv8_2_mbox_priorbox"
  prior_box_param {
    min_size: 213
    max_size: 264
    aspect_ratio: 2
    flip: true
    clip: false
    variance: 0.1
    variance: 0.1
    variance: 0.2
    variance: 0.2
    step: 100
    offset: 0.5
  }
}
layer {
  name: "conv9_2_mbox_loc"
  type: "Convolution"
  bottom: "conv9_2"
  top: "conv9_2_mbox_loc"
  param {
    lr_mult: 1
    decay_mult: 1
  }
  param {
    lr_mult: 2
    decay_mult: 0
  }
  convolution_param {
    num_output: 16
    pad: 1
    kernel_size: 3
    stride: 1
    weight_filler {
      type: "xavier"
    }
    bias_filler {
      type: "constant"
      value: 0
    }
  }
}
layer {
  name: "conv9_2_mbox_loc_perm"
  type: "Permute"
  bottom: "conv9_2_mbox_loc"
  top: "conv9_2_mbox_loc_perm"
  permute_param {
    order: 0
    order: 2
    order: 3
    order: 1
  }
}
layer {
  name: "conv9_2_mbox_loc_flat"
  type: "Flatten"
  bottom: "conv9_2_mbox_loc_perm"
  top: "conv9_2_mbox_loc_flat"
  flatten_param {
    axis: 1
  }
}
layer {
  name: "conv9_2_mbox_conf"
  type: "Convolution"
  bottom: "conv9_2"
  top: "conv9_2_mbox_conf"
  param {
    lr_mult: 1
    decay_mult: 1
  }
  param {
    lr_mult: 2
    decay_mult: 0
  }
  convolution_param {
    num_output: 16
    pad: 1
    kernel_size: 3
    stride: 1
    weight_filler {
      type: "xavier"
    }
    bias_filler {
      type: "constant"
      value: 0
    }
  }
}
layer {
  name: "conv9_2_mbox_conf_perm"
  type: "Permute"
  bottom: "conv9_2_mbox_conf"
  top: "conv9_2_mbox_conf_perm"
  permute_param {
    order: 0
    order: 2
    order: 3
    order: 1
  }
}
layer {
  name: "conv9_2_mbox_conf_flat"
  type: "Flatten"
  bottom: "conv9_2_mbox_conf_perm"
  top: "conv9_2_mbox_conf_flat"
  flatten_param {
    axis: 1
  }
}
layer {
  name: "conv9_2_mbox_priorbox"
  type: "PriorBox"
  bottom: "conv9_2"
  bottom: "data"
  top: "conv9_2_mbox_priorbox"
  prior_box_param {
    min_size: 264
    max_size: 315
    aspect_ratio: 2
    flip: true
    clip: false
    variance: 0.1
    variance: 0.1
    variance: 0.2
    variance: 0.2
    step: 300
    offset: 0.5
  }
}
layer {
  name: "mbox_loc"
  type: "Concat"
  bottom: "conv4_3_norm_mbox_loc_flat"
  bottom: "fc7_mbox_loc_flat"
  bottom: "conv6_2_mbox_loc_flat"
  bottom: "conv7_2_mbox_loc_flat"
  bottom: "conv8_2_mbox_loc_flat"
  bottom: "conv9_2_mbox_loc_flat"
  top: "mbox_loc"
  concat_param {
    axis: 1
  }
}
layer {
  name: "mbox_conf"
  type: "Concat"
  bottom: "conv4_3_norm_mbox_conf_flat"
  bottom: "fc7_mbox_conf_flat"
  bottom: "conv6_2_mbox_conf_flat"
  bottom: "conv7_2_mbox_conf_flat"
  bottom: "conv8_2_mbox_conf_flat"
  bottom: "conv9_2_mbox_conf_flat"
  top: "mbox_conf"
  concat_param {
    axis: 1
  }
}
layer {
  name: "mbox_priorbox"
  type: "Concat"
  bottom: "conv4_3_norm_mbox_priorbox"
  bottom: "fc7_mbox_priorbox"
  bottom: "conv6_2_mbox_priorbox"
  bottom: "conv7_2_mbox_priorbox"
  bottom: "conv8_2_mbox_priorbox"
  bottom: "conv9_2_mbox_priorbox"
  top: "mbox_priorbox"
  concat_param {
    axis: 2
  }
}
layer {
  name: "mbox_conf_reshape"
  type: "Reshape"
  bottom: "mbox_conf"
  top: "mbox_conf_reshape"
  reshape_param {
    shape {
      dim: 0
      dim: -1
      dim: 4
    }
  }
}
layer {
  name: "mbox_conf_softmax"
  type: "Softmax"
  bottom: "mbox_conf_reshape"
  top: "mbox_conf_softmax"
  softmax_param {
    axis: 2
  }
}
layer {
  name: "mbox_conf_flatten"
  type: "Flatten"
  bottom: "mbox_conf_softmax"
  top: "mbox_conf_flatten"
  flatten_param {
    axis: 1
  }
}
layer {
  name: "detection_out"
  type: "DetectionOutput"
  bottom: "mbox_loc"
  bottom: "mbox_conf_flatten"
  bottom: "mbox_priorbox"
  top: "detection_out"
  include {
    phase: TEST
  }
  detection_output_param {
    num_classes: 4
    share_location: true
    background_label_id: 0
    nms_param {
      nms_threshold: 0.45
      top_k: 400
    }
    save_output_param {
      output_directory: "/home/shomeb/m/markustp/data/VOCdevkit/results/VOC2007/SSD_Colored_512x512/Main"
      output_name_prefix: "comp4_det_test_"
      output_format: "VOC"
      label_map_file: "data/ascend/labelmap.prototxt"
      name_size_file: "data/ascend/test_name_size.txt"
      num_test_image: 901
    }
    code_type: CENTER_SIZE
    keep_top_k: 200
    confidence_threshold: 0.01
  }
}
layer {
  name: "detection_eval"
  type: "DetectionEvaluate"
  bottom: "detection_out"
  bottom: "label"
  top: "detection_eval"
  include {
    phase: TEST
  }
  detection_evaluate_param {
    num_classes: 4
    background_label_id: 0
    overlap_threshold: 0.5
    evaluate_difficult_gt: false
    name_size_file: "data/ascend/test_name_size.txt"
  }
}
I0426 15:02:21.742806 20643 layer_factory.hpp:77] Creating layer data
I0426 15:02:21.743001 20643 net.cpp:100] Creating Layer data
I0426 15:02:21.743007 20643 net.cpp:408] data -> data
I0426 15:02:21.743015 20643 net.cpp:408] data -> label
I0426 15:02:21.743710 20676 db_lmdb.cpp:35] Opened lmdb /localdata/markustp/data/ascend/lmdb/ascend_test_lmdb
I0426 15:02:21.757097 20643 annotated_data_layer.cpp:62] output data size: 2,3,512,512
I0426 15:02:21.765691 20643 net.cpp:150] Setting up data
I0426 15:02:21.765712 20643 net.cpp:157] Top shape: 2 3 512 512 (1572864)
I0426 15:02:21.765717 20643 net.cpp:157] Top shape: 1 1 2 8 (16)
I0426 15:02:21.765717 20643 net.cpp:165] Memory required for data: 6291520
I0426 15:02:21.765722 20643 layer_factory.hpp:77] Creating layer data_data_0_split
I0426 15:02:21.765733 20643 net.cpp:100] Creating Layer data_data_0_split
I0426 15:02:21.765736 20643 net.cpp:434] data_data_0_split <- data
I0426 15:02:21.765743 20643 net.cpp:408] data_data_0_split -> data_data_0_split_0
I0426 15:02:21.765751 20643 net.cpp:408] data_data_0_split -> data_data_0_split_1
I0426 15:02:21.765758 20643 net.cpp:408] data_data_0_split -> data_data_0_split_2
I0426 15:02:21.765763 20643 net.cpp:408] data_data_0_split -> data_data_0_split_3
I0426 15:02:21.765766 20643 net.cpp:408] data_data_0_split -> data_data_0_split_4
I0426 15:02:21.765770 20643 net.cpp:408] data_data_0_split -> data_data_0_split_5
I0426 15:02:21.765774 20643 net.cpp:408] data_data_0_split -> data_data_0_split_6
I0426 15:02:21.765877 20643 net.cpp:150] Setting up data_data_0_split
I0426 15:02:21.765882 20643 net.cpp:157] Top shape: 2 3 512 512 (1572864)
I0426 15:02:21.765885 20643 net.cpp:157] Top shape: 2 3 512 512 (1572864)
I0426 15:02:21.765888 20643 net.cpp:157] Top shape: 2 3 512 512 (1572864)
I0426 15:02:21.765890 20643 net.cpp:157] Top shape: 2 3 512 512 (1572864)
I0426 15:02:21.765893 20643 net.cpp:157] Top shape: 2 3 512 512 (1572864)
I0426 15:02:21.765895 20643 net.cpp:157] Top shape: 2 3 512 512 (1572864)
I0426 15:02:21.765898 20643 net.cpp:157] Top shape: 2 3 512 512 (1572864)
I0426 15:02:21.765913 20643 net.cpp:165] Memory required for data: 50331712
I0426 15:02:21.765916 20643 layer_factory.hpp:77] Creating layer conv1_1
I0426 15:02:21.765926 20643 net.cpp:100] Creating Layer conv1_1
I0426 15:02:21.765929 20643 net.cpp:434] conv1_1 <- data_data_0_split_0
I0426 15:02:21.765933 20643 net.cpp:408] conv1_1 -> conv1_1
I0426 15:02:21.766886 20643 net.cpp:150] Setting up conv1_1
I0426 15:02:21.766896 20643 net.cpp:157] Top shape: 2 64 512 512 (33554432)
I0426 15:02:21.766898 20643 net.cpp:165] Memory required for data: 184549440
I0426 15:02:21.766906 20643 layer_factory.hpp:77] Creating layer relu1_1
I0426 15:02:21.766912 20643 net.cpp:100] Creating Layer relu1_1
I0426 15:02:21.766914 20643 net.cpp:434] relu1_1 <- conv1_1
I0426 15:02:21.766918 20643 net.cpp:395] relu1_1 -> conv1_1 (in-place)
I0426 15:02:21.766923 20643 net.cpp:150] Setting up relu1_1
I0426 15:02:21.766927 20643 net.cpp:157] Top shape: 2 64 512 512 (33554432)
I0426 15:02:21.766927 20643 net.cpp:165] Memory required for data: 318767168
I0426 15:02:21.766930 20643 layer_factory.hpp:77] Creating layer conv1_2
I0426 15:02:21.766937 20643 net.cpp:100] Creating Layer conv1_2
I0426 15:02:21.766939 20643 net.cpp:434] conv1_2 <- conv1_1
I0426 15:02:21.766943 20643 net.cpp:408] conv1_2 -> conv1_2
I0426 15:02:21.767391 20643 net.cpp:150] Setting up conv1_2
I0426 15:02:21.767397 20643 net.cpp:157] Top shape: 2 64 512 512 (33554432)
I0426 15:02:21.767400 20643 net.cpp:165] Memory required for data: 452984896
I0426 15:02:21.767405 20643 layer_factory.hpp:77] Creating layer relu1_2
I0426 15:02:21.767410 20643 net.cpp:100] Creating Layer relu1_2
I0426 15:02:21.767411 20643 net.cpp:434] relu1_2 <- conv1_2
I0426 15:02:21.767413 20643 net.cpp:395] relu1_2 -> conv1_2 (in-place)
I0426 15:02:21.767417 20643 net.cpp:150] Setting up relu1_2
I0426 15:02:21.767421 20643 net.cpp:157] Top shape: 2 64 512 512 (33554432)
I0426 15:02:21.767421 20643 net.cpp:165] Memory required for data: 587202624
I0426 15:02:21.767423 20643 layer_factory.hpp:77] Creating layer pool1
I0426 15:02:21.767427 20643 net.cpp:100] Creating Layer pool1
I0426 15:02:21.767429 20643 net.cpp:434] pool1 <- conv1_2
I0426 15:02:21.767431 20643 net.cpp:408] pool1 -> pool1
I0426 15:02:21.767459 20643 net.cpp:150] Setting up pool1
I0426 15:02:21.767463 20643 net.cpp:157] Top shape: 2 64 256 256 (8388608)
I0426 15:02:21.767465 20643 net.cpp:165] Memory required for data: 620757056
I0426 15:02:21.767467 20643 layer_factory.hpp:77] Creating layer conv2_1
I0426 15:02:21.767472 20643 net.cpp:100] Creating Layer conv2_1
I0426 15:02:21.767474 20643 net.cpp:434] conv2_1 <- pool1
I0426 15:02:21.767478 20643 net.cpp:408] conv2_1 -> conv2_1
I0426 15:02:21.767982 20643 net.cpp:150] Setting up conv2_1
I0426 15:02:21.767987 20643 net.cpp:157] Top shape: 2 128 256 256 (16777216)
I0426 15:02:21.767988 20643 net.cpp:165] Memory required for data: 687865920
I0426 15:02:21.767994 20643 layer_factory.hpp:77] Creating layer relu2_1
I0426 15:02:21.767999 20643 net.cpp:100] Creating Layer relu2_1
I0426 15:02:21.768002 20643 net.cpp:434] relu2_1 <- conv2_1
I0426 15:02:21.768003 20643 net.cpp:395] relu2_1 -> conv2_1 (in-place)
I0426 15:02:21.768007 20643 net.cpp:150] Setting up relu2_1
I0426 15:02:21.768010 20643 net.cpp:157] Top shape: 2 128 256 256 (16777216)
I0426 15:02:21.768012 20643 net.cpp:165] Memory required for data: 754974784
I0426 15:02:21.768013 20643 layer_factory.hpp:77] Creating layer conv2_2
I0426 15:02:21.768018 20643 net.cpp:100] Creating Layer conv2_2
I0426 15:02:21.768020 20643 net.cpp:434] conv2_2 <- conv2_1
I0426 15:02:21.768023 20643 net.cpp:408] conv2_2 -> conv2_2
I0426 15:02:21.769502 20643 net.cpp:150] Setting up conv2_2
I0426 15:02:21.769512 20643 net.cpp:157] Top shape: 2 128 256 256 (16777216)
I0426 15:02:21.769515 20643 net.cpp:165] Memory required for data: 822083648
I0426 15:02:21.769520 20643 layer_factory.hpp:77] Creating layer relu2_2
I0426 15:02:21.769523 20643 net.cpp:100] Creating Layer relu2_2
I0426 15:02:21.769526 20643 net.cpp:434] relu2_2 <- conv2_2
I0426 15:02:21.769539 20643 net.cpp:395] relu2_2 -> conv2_2 (in-place)
I0426 15:02:21.769543 20643 net.cpp:150] Setting up relu2_2
I0426 15:02:21.769546 20643 net.cpp:157] Top shape: 2 128 256 256 (16777216)
I0426 15:02:21.769548 20643 net.cpp:165] Memory required for data: 889192512
I0426 15:02:21.769551 20643 layer_factory.hpp:77] Creating layer pool2
I0426 15:02:21.769554 20643 net.cpp:100] Creating Layer pool2
I0426 15:02:21.769556 20643 net.cpp:434] pool2 <- conv2_2
I0426 15:02:21.769559 20643 net.cpp:408] pool2 -> pool2
I0426 15:02:21.769587 20643 net.cpp:150] Setting up pool2
I0426 15:02:21.769592 20643 net.cpp:157] Top shape: 2 128 128 128 (4194304)
I0426 15:02:21.769594 20643 net.cpp:165] Memory required for data: 905969728
I0426 15:02:21.769596 20643 layer_factory.hpp:77] Creating layer conv3_1
I0426 15:02:21.769601 20643 net.cpp:100] Creating Layer conv3_1
I0426 15:02:21.769603 20643 net.cpp:434] conv3_1 <- pool2
I0426 15:02:21.769608 20643 net.cpp:408] conv3_1 -> conv3_1
I0426 15:02:21.770997 20643 net.cpp:150] Setting up conv3_1
I0426 15:02:21.771001 20643 net.cpp:157] Top shape: 2 256 128 128 (8388608)
I0426 15:02:21.771004 20643 net.cpp:165] Memory required for data: 939524160
I0426 15:02:21.771009 20643 layer_factory.hpp:77] Creating layer relu3_1
I0426 15:02:21.771013 20643 net.cpp:100] Creating Layer relu3_1
I0426 15:02:21.771015 20643 net.cpp:434] relu3_1 <- conv3_1
I0426 15:02:21.771018 20643 net.cpp:395] relu3_1 -> conv3_1 (in-place)
I0426 15:02:21.771021 20643 net.cpp:150] Setting up relu3_1
I0426 15:02:21.771024 20643 net.cpp:157] Top shape: 2 256 128 128 (8388608)
I0426 15:02:21.771026 20643 net.cpp:165] Memory required for data: 973078592
I0426 15:02:21.771028 20643 layer_factory.hpp:77] Creating layer conv3_2
I0426 15:02:21.771034 20643 net.cpp:100] Creating Layer conv3_2
I0426 15:02:21.771035 20643 net.cpp:434] conv3_2 <- conv3_1
I0426 15:02:21.771039 20643 net.cpp:408] conv3_2 -> conv3_2
I0426 15:02:21.774377 20643 net.cpp:150] Setting up conv3_2
I0426 15:02:21.774389 20643 net.cpp:157] Top shape: 2 256 128 128 (8388608)
I0426 15:02:21.774391 20643 net.cpp:165] Memory required for data: 1006633024
I0426 15:02:21.774396 20643 layer_factory.hpp:77] Creating layer relu3_2
I0426 15:02:21.774400 20643 net.cpp:100] Creating Layer relu3_2
I0426 15:02:21.774402 20643 net.cpp:434] relu3_2 <- conv3_2
I0426 15:02:21.774406 20643 net.cpp:395] relu3_2 -> conv3_2 (in-place)
I0426 15:02:21.774411 20643 net.cpp:150] Setting up relu3_2
I0426 15:02:21.774413 20643 net.cpp:157] Top shape: 2 256 128 128 (8388608)
I0426 15:02:21.774415 20643 net.cpp:165] Memory required for data: 1040187456
I0426 15:02:21.774418 20643 layer_factory.hpp:77] Creating layer conv3_3
I0426 15:02:21.774425 20643 net.cpp:100] Creating Layer conv3_3
I0426 15:02:21.774426 20643 net.cpp:434] conv3_3 <- conv3_2
I0426 15:02:21.774430 20643 net.cpp:408] conv3_3 -> conv3_3
I0426 15:02:21.777757 20643 net.cpp:150] Setting up conv3_3
I0426 15:02:21.777768 20643 net.cpp:157] Top shape: 2 256 128 128 (8388608)
I0426 15:02:21.777770 20643 net.cpp:165] Memory required for data: 1073741888
I0426 15:02:21.777775 20643 layer_factory.hpp:77] Creating layer relu3_3
I0426 15:02:21.777778 20643 net.cpp:100] Creating Layer relu3_3
I0426 15:02:21.777781 20643 net.cpp:434] relu3_3 <- conv3_3
I0426 15:02:21.777784 20643 net.cpp:395] relu3_3 -> conv3_3 (in-place)
I0426 15:02:21.777789 20643 net.cpp:150] Setting up relu3_3
I0426 15:02:21.777792 20643 net.cpp:157] Top shape: 2 256 128 128 (8388608)
I0426 15:02:21.777793 20643 net.cpp:165] Memory required for data: 1107296320
I0426 15:02:21.777796 20643 layer_factory.hpp:77] Creating layer pool3
I0426 15:02:21.777798 20643 net.cpp:100] Creating Layer pool3
I0426 15:02:21.777801 20643 net.cpp:434] pool3 <- conv3_3
I0426 15:02:21.777803 20643 net.cpp:408] pool3 -> pool3
I0426 15:02:21.777830 20643 net.cpp:150] Setting up pool3
I0426 15:02:21.777835 20643 net.cpp:157] Top shape: 2 256 64 64 (2097152)
I0426 15:02:21.777837 20643 net.cpp:165] Memory required for data: 1115684928
I0426 15:02:21.777839 20643 layer_factory.hpp:77] Creating layer conv4_1
I0426 15:02:21.777855 20643 net.cpp:100] Creating Layer conv4_1
I0426 15:02:21.777858 20643 net.cpp:434] conv4_1 <- pool3
I0426 15:02:21.777863 20643 net.cpp:408] conv4_1 -> conv4_1
I0426 15:02:21.784206 20643 net.cpp:150] Setting up conv4_1
I0426 15:02:21.784224 20643 net.cpp:157] Top shape: 2 512 64 64 (4194304)
I0426 15:02:21.784226 20643 net.cpp:165] Memory required for data: 1132462144
I0426 15:02:21.784234 20643 layer_factory.hpp:77] Creating layer relu4_1
I0426 15:02:21.784240 20643 net.cpp:100] Creating Layer relu4_1
I0426 15:02:21.784243 20643 net.cpp:434] relu4_1 <- conv4_1
I0426 15:02:21.784247 20643 net.cpp:395] relu4_1 -> conv4_1 (in-place)
I0426 15:02:21.784255 20643 net.cpp:150] Setting up relu4_1
I0426 15:02:21.784256 20643 net.cpp:157] Top shape: 2 512 64 64 (4194304)
I0426 15:02:21.784258 20643 net.cpp:165] Memory required for data: 1149239360
I0426 15:02:21.784260 20643 layer_factory.hpp:77] Creating layer conv4_2
I0426 15:02:21.784267 20643 net.cpp:100] Creating Layer conv4_2
I0426 15:02:21.784270 20643 net.cpp:434] conv4_2 <- conv4_1
I0426 15:02:21.784272 20643 net.cpp:408] conv4_2 -> conv4_2
I0426 15:02:21.797456 20643 net.cpp:150] Setting up conv4_2
I0426 15:02:21.797477 20643 net.cpp:157] Top shape: 2 512 64 64 (4194304)
I0426 15:02:21.797478 20643 net.cpp:165] Memory required for data: 1166016576
I0426 15:02:21.797492 20643 layer_factory.hpp:77] Creating layer relu4_2
I0426 15:02:21.797499 20643 net.cpp:100] Creating Layer relu4_2
I0426 15:02:21.797503 20643 net.cpp:434] relu4_2 <- conv4_2
I0426 15:02:21.797508 20643 net.cpp:395] relu4_2 -> conv4_2 (in-place)
I0426 15:02:21.797514 20643 net.cpp:150] Setting up relu4_2
I0426 15:02:21.797518 20643 net.cpp:157] Top shape: 2 512 64 64 (4194304)
I0426 15:02:21.797519 20643 net.cpp:165] Memory required for data: 1182793792
I0426 15:02:21.797521 20643 layer_factory.hpp:77] Creating layer conv4_3
I0426 15:02:21.797528 20643 net.cpp:100] Creating Layer conv4_3
I0426 15:02:21.797530 20643 net.cpp:434] conv4_3 <- conv4_2
I0426 15:02:21.797534 20643 net.cpp:408] conv4_3 -> conv4_3
I0426 15:02:21.809888 20643 net.cpp:150] Setting up conv4_3
I0426 15:02:21.809911 20643 net.cpp:157] Top shape: 2 512 64 64 (4194304)
I0426 15:02:21.809912 20643 net.cpp:165] Memory required for data: 1199571008
I0426 15:02:21.809921 20643 layer_factory.hpp:77] Creating layer relu4_3
I0426 15:02:21.809927 20643 net.cpp:100] Creating Layer relu4_3
I0426 15:02:21.809931 20643 net.cpp:434] relu4_3 <- conv4_3
I0426 15:02:21.809934 20643 net.cpp:395] relu4_3 -> conv4_3 (in-place)
I0426 15:02:21.809942 20643 net.cpp:150] Setting up relu4_3
I0426 15:02:21.809943 20643 net.cpp:157] Top shape: 2 512 64 64 (4194304)
I0426 15:02:21.809945 20643 net.cpp:165] Memory required for data: 1216348224
I0426 15:02:21.809947 20643 layer_factory.hpp:77] Creating layer conv4_3_relu4_3_0_split
I0426 15:02:21.809952 20643 net.cpp:100] Creating Layer conv4_3_relu4_3_0_split
I0426 15:02:21.809952 20643 net.cpp:434] conv4_3_relu4_3_0_split <- conv4_3
I0426 15:02:21.809957 20643 net.cpp:408] conv4_3_relu4_3_0_split -> conv4_3_relu4_3_0_split_0
I0426 15:02:21.809962 20643 net.cpp:408] conv4_3_relu4_3_0_split -> conv4_3_relu4_3_0_split_1
I0426 15:02:21.809988 20643 net.cpp:150] Setting up conv4_3_relu4_3_0_split
I0426 15:02:21.809991 20643 net.cpp:157] Top shape: 2 512 64 64 (4194304)
I0426 15:02:21.809993 20643 net.cpp:157] Top shape: 2 512 64 64 (4194304)
I0426 15:02:21.809995 20643 net.cpp:165] Memory required for data: 1249902656
I0426 15:02:21.809998 20643 layer_factory.hpp:77] Creating layer pool4
I0426 15:02:21.810001 20643 net.cpp:100] Creating Layer pool4
I0426 15:02:21.810003 20643 net.cpp:434] pool4 <- conv4_3_relu4_3_0_split_0
I0426 15:02:21.810006 20643 net.cpp:408] pool4 -> pool4
I0426 15:02:21.810030 20643 net.cpp:150] Setting up pool4
I0426 15:02:21.810034 20643 net.cpp:157] Top shape: 2 512 32 32 (1048576)
I0426 15:02:21.810035 20643 net.cpp:165] Memory required for data: 1254096960
I0426 15:02:21.810036 20643 layer_factory.hpp:77] Creating layer conv5_1
I0426 15:02:21.810063 20643 net.cpp:100] Creating Layer conv5_1
I0426 15:02:21.810065 20643 net.cpp:434] conv5_1 <- pool4
I0426 15:02:21.810070 20643 net.cpp:408] conv5_1 -> conv5_1
I0426 15:02:21.822477 20643 net.cpp:150] Setting up conv5_1
I0426 15:02:21.822500 20643 net.cpp:157] Top shape: 2 512 32 32 (1048576)
I0426 15:02:21.822504 20643 net.cpp:165] Memory required for data: 1258291264
I0426 15:02:21.822510 20643 layer_factory.hpp:77] Creating layer relu5_1
I0426 15:02:21.822518 20643 net.cpp:100] Creating Layer relu5_1
I0426 15:02:21.822522 20643 net.cpp:434] relu5_1 <- conv5_1
I0426 15:02:21.822526 20643 net.cpp:395] relu5_1 -> conv5_1 (in-place)
I0426 15:02:21.822533 20643 net.cpp:150] Setting up relu5_1
I0426 15:02:21.822535 20643 net.cpp:157] Top shape: 2 512 32 32 (1048576)
I0426 15:02:21.822537 20643 net.cpp:165] Memory required for data: 1262485568
I0426 15:02:21.822540 20643 layer_factory.hpp:77] Creating layer conv5_2
I0426 15:02:21.822546 20643 net.cpp:100] Creating Layer conv5_2
I0426 15:02:21.822548 20643 net.cpp:434] conv5_2 <- conv5_1
I0426 15:02:21.822552 20643 net.cpp:408] conv5_2 -> conv5_2
I0426 15:02:21.836529 20643 net.cpp:150] Setting up conv5_2
I0426 15:02:21.836557 20643 net.cpp:157] Top shape: 2 512 32 32 (1048576)
I0426 15:02:21.836560 20643 net.cpp:165] Memory required for data: 1266679872
I0426 15:02:21.836567 20643 layer_factory.hpp:77] Creating layer relu5_2
I0426 15:02:21.836576 20643 net.cpp:100] Creating Layer relu5_2
I0426 15:02:21.836580 20643 net.cpp:434] relu5_2 <- conv5_2
I0426 15:02:21.836585 20643 net.cpp:395] relu5_2 -> conv5_2 (in-place)
I0426 15:02:21.836591 20643 net.cpp:150] Setting up relu5_2
I0426 15:02:21.836593 20643 net.cpp:157] Top shape: 2 512 32 32 (1048576)
I0426 15:02:21.836596 20643 net.cpp:165] Memory required for data: 1270874176
I0426 15:02:21.836597 20643 layer_factory.hpp:77] Creating layer conv5_3
I0426 15:02:21.836608 20643 net.cpp:100] Creating Layer conv5_3
I0426 15:02:21.836611 20643 net.cpp:434] conv5_3 <- conv5_2
I0426 15:02:21.836616 20643 net.cpp:408] conv5_3 -> conv5_3
I0426 15:02:21.849272 20643 net.cpp:150] Setting up conv5_3
I0426 15:02:21.849293 20643 net.cpp:157] Top shape: 2 512 32 32 (1048576)
I0426 15:02:21.849295 20643 net.cpp:165] Memory required for data: 1275068480
I0426 15:02:21.849301 20643 layer_factory.hpp:77] Creating layer relu5_3
I0426 15:02:21.849313 20643 net.cpp:100] Creating Layer relu5_3
I0426 15:02:21.849316 20643 net.cpp:434] relu5_3 <- conv5_3
I0426 15:02:21.849321 20643 net.cpp:395] relu5_3 -> conv5_3 (in-place)
I0426 15:02:21.849328 20643 net.cpp:150] Setting up relu5_3
I0426 15:02:21.849330 20643 net.cpp:157] Top shape: 2 512 32 32 (1048576)
I0426 15:02:21.849333 20643 net.cpp:165] Memory required for data: 1279262784
I0426 15:02:21.849334 20643 layer_factory.hpp:77] Creating layer pool5
I0426 15:02:21.849337 20643 net.cpp:100] Creating Layer pool5
I0426 15:02:21.849339 20643 net.cpp:434] pool5 <- conv5_3
I0426 15:02:21.849344 20643 net.cpp:408] pool5 -> pool5
I0426 15:02:21.849381 20643 net.cpp:150] Setting up pool5
I0426 15:02:21.849388 20643 net.cpp:157] Top shape: 2 512 32 32 (1048576)
I0426 15:02:21.849390 20643 net.cpp:165] Memory required for data: 1283457088
I0426 15:02:21.849393 20643 layer_factory.hpp:77] Creating layer fc6
I0426 15:02:21.849406 20643 net.cpp:100] Creating Layer fc6
I0426 15:02:21.849409 20643 net.cpp:434] fc6 <- pool5
I0426 15:02:21.849416 20643 net.cpp:408] fc6 -> fc6
I0426 15:02:21.875416 20643 net.cpp:150] Setting up fc6
I0426 15:02:21.875439 20643 net.cpp:157] Top shape: 2 1024 32 32 (2097152)
I0426 15:02:21.875442 20643 net.cpp:165] Memory required for data: 1291845696
I0426 15:02:21.875448 20643 layer_factory.hpp:77] Creating layer relu6
I0426 15:02:21.875457 20643 net.cpp:100] Creating Layer relu6
I0426 15:02:21.875459 20643 net.cpp:434] relu6 <- fc6
I0426 15:02:21.875464 20643 net.cpp:395] relu6 -> fc6 (in-place)
I0426 15:02:21.875471 20643 net.cpp:150] Setting up relu6
I0426 15:02:21.875474 20643 net.cpp:157] Top shape: 2 1024 32 32 (2097152)
I0426 15:02:21.875475 20643 net.cpp:165] Memory required for data: 1300234304
I0426 15:02:21.875501 20643 layer_factory.hpp:77] Creating layer fc7
I0426 15:02:21.875514 20643 net.cpp:100] Creating Layer fc7
I0426 15:02:21.875519 20643 net.cpp:434] fc7 <- fc6
I0426 15:02:21.875525 20643 net.cpp:408] fc7 -> fc7
I0426 15:02:21.881382 20643 net.cpp:150] Setting up fc7
I0426 15:02:21.881407 20643 net.cpp:157] Top shape: 2 1024 32 32 (2097152)
I0426 15:02:21.881409 20643 net.cpp:165] Memory required for data: 1308622912
I0426 15:02:21.881417 20643 layer_factory.hpp:77] Creating layer relu7
I0426 15:02:21.881425 20643 net.cpp:100] Creating Layer relu7
I0426 15:02:21.881429 20643 net.cpp:434] relu7 <- fc7
I0426 15:02:21.881435 20643 net.cpp:395] relu7 -> fc7 (in-place)
I0426 15:02:21.881443 20643 net.cpp:150] Setting up relu7
I0426 15:02:21.881444 20643 net.cpp:157] Top shape: 2 1024 32 32 (2097152)
I0426 15:02:21.881446 20643 net.cpp:165] Memory required for data: 1317011520
I0426 15:02:21.881448 20643 layer_factory.hpp:77] Creating layer fc7_relu7_0_split
I0426 15:02:21.881453 20643 net.cpp:100] Creating Layer fc7_relu7_0_split
I0426 15:02:21.881455 20643 net.cpp:434] fc7_relu7_0_split <- fc7
I0426 15:02:21.881459 20643 net.cpp:408] fc7_relu7_0_split -> fc7_relu7_0_split_0
I0426 15:02:21.881464 20643 net.cpp:408] fc7_relu7_0_split -> fc7_relu7_0_split_1
I0426 15:02:21.881475 20643 net.cpp:408] fc7_relu7_0_split -> fc7_relu7_0_split_2
I0426 15:02:21.881484 20643 net.cpp:408] fc7_relu7_0_split -> fc7_relu7_0_split_3
I0426 15:02:21.881543 20643 net.cpp:150] Setting up fc7_relu7_0_split
I0426 15:02:21.881549 20643 net.cpp:157] Top shape: 2 1024 32 32 (2097152)
I0426 15:02:21.881552 20643 net.cpp:157] Top shape: 2 1024 32 32 (2097152)
I0426 15:02:21.881556 20643 net.cpp:157] Top shape: 2 1024 32 32 (2097152)
I0426 15:02:21.881561 20643 net.cpp:157] Top shape: 2 1024 32 32 (2097152)
I0426 15:02:21.881564 20643 net.cpp:165] Memory required for data: 1350565952
I0426 15:02:21.881568 20643 layer_factory.hpp:77] Creating layer conv6_1
I0426 15:02:21.881579 20643 net.cpp:100] Creating Layer conv6_1
I0426 15:02:21.881584 20643 net.cpp:434] conv6_1 <- fc7_relu7_0_split_0
I0426 15:02:21.881592 20643 net.cpp:408] conv6_1 -> conv6_1
I0426 15:02:21.883718 20643 net.cpp:150] Setting up conv6_1
I0426 15:02:21.883744 20643 net.cpp:157] Top shape: 2 256 32 32 (524288)
I0426 15:02:21.883746 20643 net.cpp:165] Memory required for data: 1352663104
I0426 15:02:21.883755 20643 layer_factory.hpp:77] Creating layer conv6_1_relu
I0426 15:02:21.883765 20643 net.cpp:100] Creating Layer conv6_1_relu
I0426 15:02:21.883771 20643 net.cpp:434] conv6_1_relu <- conv6_1
I0426 15:02:21.883777 20643 net.cpp:395] conv6_1_relu -> conv6_1 (in-place)
I0426 15:02:21.883787 20643 net.cpp:150] Setting up conv6_1_relu
I0426 15:02:21.883793 20643 net.cpp:157] Top shape: 2 256 32 32 (524288)
I0426 15:02:21.883795 20643 net.cpp:165] Memory required for data: 1354760256
I0426 15:02:21.883798 20643 layer_factory.hpp:77] Creating layer conv6_2
I0426 15:02:21.883808 20643 net.cpp:100] Creating Layer conv6_2
I0426 15:02:21.883813 20643 net.cpp:434] conv6_2 <- conv6_1
I0426 15:02:21.883821 20643 net.cpp:408] conv6_2 -> conv6_2
I0426 15:02:21.890880 20643 net.cpp:150] Setting up conv6_2
I0426 15:02:21.890913 20643 net.cpp:157] Top shape: 2 512 16 16 (262144)
I0426 15:02:21.890918 20643 net.cpp:165] Memory required for data: 1355808832
I0426 15:02:21.890935 20643 layer_factory.hpp:77] Creating layer conv6_2_relu
I0426 15:02:21.890947 20643 net.cpp:100] Creating Layer conv6_2_relu
I0426 15:02:21.890954 20643 net.cpp:434] conv6_2_relu <- conv6_2
I0426 15:02:21.890962 20643 net.cpp:395] conv6_2_relu -> conv6_2 (in-place)
I0426 15:02:21.890974 20643 net.cpp:150] Setting up conv6_2_relu
I0426 15:02:21.890979 20643 net.cpp:157] Top shape: 2 512 16 16 (262144)
I0426 15:02:21.890983 20643 net.cpp:165] Memory required for data: 1356857408
I0426 15:02:21.890986 20643 layer_factory.hpp:77] Creating layer conv6_2_conv6_2_relu_0_split
I0426 15:02:21.890992 20643 net.cpp:100] Creating Layer conv6_2_conv6_2_relu_0_split
I0426 15:02:21.890997 20643 net.cpp:434] conv6_2_conv6_2_relu_0_split <- conv6_2
I0426 15:02:21.891022 20643 net.cpp:408] conv6_2_conv6_2_relu_0_split -> conv6_2_conv6_2_relu_0_split_0
I0426 15:02:21.891031 20643 net.cpp:408] conv6_2_conv6_2_relu_0_split -> conv6_2_conv6_2_relu_0_split_1
I0426 15:02:21.891039 20643 net.cpp:408] conv6_2_conv6_2_relu_0_split -> conv6_2_conv6_2_relu_0_split_2
I0426 15:02:21.891047 20643 net.cpp:408] conv6_2_conv6_2_relu_0_split -> conv6_2_conv6_2_relu_0_split_3
I0426 15:02:21.891109 20643 net.cpp:150] Setting up conv6_2_conv6_2_relu_0_split
I0426 15:02:21.891116 20643 net.cpp:157] Top shape: 2 512 16 16 (262144)
I0426 15:02:21.891121 20643 net.cpp:157] Top shape: 2 512 16 16 (262144)
I0426 15:02:21.891125 20643 net.cpp:157] Top shape: 2 512 16 16 (262144)
I0426 15:02:21.891134 20643 net.cpp:157] Top shape: 2 512 16 16 (262144)
I0426 15:02:21.891139 20643 net.cpp:165] Memory required for data: 1361051712
I0426 15:02:21.891141 20643 layer_factory.hpp:77] Creating layer conv7_1
I0426 15:02:21.891154 20643 net.cpp:100] Creating Layer conv7_1
I0426 15:02:21.891158 20643 net.cpp:434] conv7_1 <- conv6_2_conv6_2_relu_0_split_0
I0426 15:02:21.891165 20643 net.cpp:408] conv7_1 -> conv7_1
I0426 15:02:21.891882 20643 net.cpp:150] Setting up conv7_1
I0426 15:02:21.891897 20643 net.cpp:157] Top shape: 2 128 16 16 (65536)
I0426 15:02:21.891901 20643 net.cpp:165] Memory required for data: 1361313856
I0426 15:02:21.891908 20643 layer_factory.hpp:77] Creating layer conv7_1_relu
I0426 15:02:21.891916 20643 net.cpp:100] Creating Layer conv7_1_relu
I0426 15:02:21.891921 20643 net.cpp:434] conv7_1_relu <- conv7_1
I0426 15:02:21.891927 20643 net.cpp:395] conv7_1_relu -> conv7_1 (in-place)
I0426 15:02:21.891933 20643 net.cpp:150] Setting up conv7_1_relu
I0426 15:02:21.891939 20643 net.cpp:157] Top shape: 2 128 16 16 (65536)
I0426 15:02:21.891943 20643 net.cpp:165] Memory required for data: 1361576000
I0426 15:02:21.891947 20643 layer_factory.hpp:77] Creating layer conv7_2
I0426 15:02:21.891957 20643 net.cpp:100] Creating Layer conv7_2
I0426 15:02:21.891962 20643 net.cpp:434] conv7_2 <- conv7_1
I0426 15:02:21.891968 20643 net.cpp:408] conv7_2 -> conv7_2
I0426 15:02:21.894445 20643 net.cpp:150] Setting up conv7_2
I0426 15:02:21.894465 20643 net.cpp:157] Top shape: 2 256 8 8 (32768)
I0426 15:02:21.894467 20643 net.cpp:165] Memory required for data: 1361707072
I0426 15:02:21.894475 20643 layer_factory.hpp:77] Creating layer conv7_2_relu
I0426 15:02:21.894487 20643 net.cpp:100] Creating Layer conv7_2_relu
I0426 15:02:21.894493 20643 net.cpp:434] conv7_2_relu <- conv7_2
I0426 15:02:21.894501 20643 net.cpp:395] conv7_2_relu -> conv7_2 (in-place)
I0426 15:02:21.894512 20643 net.cpp:150] Setting up conv7_2_relu
I0426 15:02:21.894520 20643 net.cpp:157] Top shape: 2 256 8 8 (32768)
I0426 15:02:21.894523 20643 net.cpp:165] Memory required for data: 1361838144
I0426 15:02:21.894527 20643 layer_factory.hpp:77] Creating layer conv7_2_conv7_2_relu_0_split
I0426 15:02:21.894533 20643 net.cpp:100] Creating Layer conv7_2_conv7_2_relu_0_split
I0426 15:02:21.894538 20643 net.cpp:434] conv7_2_conv7_2_relu_0_split <- conv7_2
I0426 15:02:21.894544 20643 net.cpp:408] conv7_2_conv7_2_relu_0_split -> conv7_2_conv7_2_relu_0_split_0
I0426 15:02:21.894553 20643 net.cpp:408] conv7_2_conv7_2_relu_0_split -> conv7_2_conv7_2_relu_0_split_1
I0426 15:02:21.894562 20643 net.cpp:408] conv7_2_conv7_2_relu_0_split -> conv7_2_conv7_2_relu_0_split_2
I0426 15:02:21.894570 20643 net.cpp:408] conv7_2_conv7_2_relu_0_split -> conv7_2_conv7_2_relu_0_split_3
I0426 15:02:21.894623 20643 net.cpp:150] Setting up conv7_2_conv7_2_relu_0_split
I0426 15:02:21.894629 20643 net.cpp:157] Top shape: 2 256 8 8 (32768)
I0426 15:02:21.894630 20643 net.cpp:157] Top shape: 2 256 8 8 (32768)
I0426 15:02:21.894636 20643 net.cpp:157] Top shape: 2 256 8 8 (32768)
I0426 15:02:21.894641 20643 net.cpp:157] Top shape: 2 256 8 8 (32768)
I0426 15:02:21.894644 20643 net.cpp:165] Memory required for data: 1362362432
I0426 15:02:21.894647 20643 layer_factory.hpp:77] Creating layer conv8_1
I0426 15:02:21.894660 20643 net.cpp:100] Creating Layer conv8_1
I0426 15:02:21.894680 20643 net.cpp:434] conv8_1 <- conv7_2_conv7_2_relu_0_split_0
I0426 15:02:21.894685 20643 net.cpp:408] conv8_1 -> conv8_1
I0426 15:02:21.895010 20643 net.cpp:150] Setting up conv8_1
I0426 15:02:21.895017 20643 net.cpp:157] Top shape: 2 128 8 8 (16384)
I0426 15:02:21.895018 20643 net.cpp:165] Memory required for data: 1362427968
I0426 15:02:21.895025 20643 layer_factory.hpp:77] Creating layer conv8_1_relu
I0426 15:02:21.895031 20643 net.cpp:100] Creating Layer conv8_1_relu
I0426 15:02:21.895036 20643 net.cpp:434] conv8_1_relu <- conv8_1
I0426 15:02:21.895041 20643 net.cpp:395] conv8_1_relu -> conv8_1 (in-place)
I0426 15:02:21.895048 20643 net.cpp:150] Setting up conv8_1_relu
I0426 15:02:21.895054 20643 net.cpp:157] Top shape: 2 128 8 8 (16384)
I0426 15:02:21.895059 20643 net.cpp:165] Memory required for data: 1362493504
I0426 15:02:21.895062 20643 layer_factory.hpp:77] Creating layer conv8_2
I0426 15:02:21.895071 20643 net.cpp:100] Creating Layer conv8_2
I0426 15:02:21.895076 20643 net.cpp:434] conv8_2 <- conv8_1
I0426 15:02:21.895083 20643 net.cpp:408] conv8_2 -> conv8_2
I0426 15:02:21.897295 20643 net.cpp:150] Setting up conv8_2
I0426 15:02:21.897313 20643 net.cpp:157] Top shape: 2 256 6 6 (18432)
I0426 15:02:21.897316 20643 net.cpp:165] Memory required for data: 1362567232
I0426 15:02:21.897323 20643 layer_factory.hpp:77] Creating layer conv8_2_relu
I0426 15:02:21.897332 20643 net.cpp:100] Creating Layer conv8_2_relu
I0426 15:02:21.897339 20643 net.cpp:434] conv8_2_relu <- conv8_2
I0426 15:02:21.897346 20643 net.cpp:395] conv8_2_relu -> conv8_2 (in-place)
I0426 15:02:21.897356 20643 net.cpp:150] Setting up conv8_2_relu
I0426 15:02:21.897359 20643 net.cpp:157] Top shape: 2 256 6 6 (18432)
I0426 15:02:21.897362 20643 net.cpp:165] Memory required for data: 1362640960
I0426 15:02:21.897366 20643 layer_factory.hpp:77] Creating layer conv8_2_conv8_2_relu_0_split
I0426 15:02:21.897372 20643 net.cpp:100] Creating Layer conv8_2_conv8_2_relu_0_split
I0426 15:02:21.897375 20643 net.cpp:434] conv8_2_conv8_2_relu_0_split <- conv8_2
I0426 15:02:21.897378 20643 net.cpp:408] conv8_2_conv8_2_relu_0_split -> conv8_2_conv8_2_relu_0_split_0
I0426 15:02:21.897383 20643 net.cpp:408] conv8_2_conv8_2_relu_0_split -> conv8_2_conv8_2_relu_0_split_1
I0426 15:02:21.897388 20643 net.cpp:408] conv8_2_conv8_2_relu_0_split -> conv8_2_conv8_2_relu_0_split_2
I0426 15:02:21.897392 20643 net.cpp:408] conv8_2_conv8_2_relu_0_split -> conv8_2_conv8_2_relu_0_split_3
I0426 15:02:21.897449 20643 net.cpp:150] Setting up conv8_2_conv8_2_relu_0_split
I0426 15:02:21.897454 20643 net.cpp:157] Top shape: 2 256 6 6 (18432)
I0426 15:02:21.897456 20643 net.cpp:157] Top shape: 2 256 6 6 (18432)
I0426 15:02:21.897460 20643 net.cpp:157] Top shape: 2 256 6 6 (18432)
I0426 15:02:21.897465 20643 net.cpp:157] Top shape: 2 256 6 6 (18432)
I0426 15:02:21.897469 20643 net.cpp:165] Memory required for data: 1362935872
I0426 15:02:21.897474 20643 layer_factory.hpp:77] Creating layer conv9_1
I0426 15:02:21.897485 20643 net.cpp:100] Creating Layer conv9_1
I0426 15:02:21.897491 20643 net.cpp:434] conv9_1 <- conv8_2_conv8_2_relu_0_split_0
I0426 15:02:21.897500 20643 net.cpp:408] conv9_1 -> conv9_1
I0426 15:02:21.897824 20643 net.cpp:150] Setting up conv9_1
I0426 15:02:21.897830 20643 net.cpp:157] Top shape: 2 128 6 6 (9216)
I0426 15:02:21.897831 20643 net.cpp:165] Memory required for data: 1362972736
I0426 15:02:21.897837 20643 layer_factory.hpp:77] Creating layer conv9_1_relu
I0426 15:02:21.897845 20643 net.cpp:100] Creating Layer conv9_1_relu
I0426 15:02:21.897848 20643 net.cpp:434] conv9_1_relu <- conv9_1
I0426 15:02:21.897855 20643 net.cpp:395] conv9_1_relu -> conv9_1 (in-place)
I0426 15:02:21.897861 20643 net.cpp:150] Setting up conv9_1_relu
I0426 15:02:21.897867 20643 net.cpp:157] Top shape: 2 128 6 6 (9216)
I0426 15:02:21.897871 20643 net.cpp:165] Memory required for data: 1363009600
I0426 15:02:21.897874 20643 layer_factory.hpp:77] Creating layer conv9_2
I0426 15:02:21.897881 20643 net.cpp:100] Creating Layer conv9_2
I0426 15:02:21.897900 20643 net.cpp:434] conv9_2 <- conv9_1
I0426 15:02:21.897907 20643 net.cpp:408] conv9_2 -> conv9_2
I0426 15:02:21.900094 20643 net.cpp:150] Setting up conv9_2
I0426 15:02:21.900110 20643 net.cpp:157] Top shape: 2 256 4 4 (8192)
I0426 15:02:21.900112 20643 net.cpp:165] Memory required for data: 1363042368
I0426 15:02:21.900118 20643 layer_factory.hpp:77] Creating layer conv9_2_relu
I0426 15:02:21.900126 20643 net.cpp:100] Creating Layer conv9_2_relu
I0426 15:02:21.900131 20643 net.cpp:434] conv9_2_relu <- conv9_2
I0426 15:02:21.900137 20643 net.cpp:395] conv9_2_relu -> conv9_2 (in-place)
I0426 15:02:21.900146 20643 net.cpp:150] Setting up conv9_2_relu
I0426 15:02:21.900151 20643 net.cpp:157] Top shape: 2 256 4 4 (8192)
I0426 15:02:21.900154 20643 net.cpp:165] Memory required for data: 1363075136
I0426 15:02:21.900158 20643 layer_factory.hpp:77] Creating layer conv9_2_conv9_2_relu_0_split
I0426 15:02:21.900164 20643 net.cpp:100] Creating Layer conv9_2_conv9_2_relu_0_split
I0426 15:02:21.900168 20643 net.cpp:434] conv9_2_conv9_2_relu_0_split <- conv9_2
I0426 15:02:21.900174 20643 net.cpp:408] conv9_2_conv9_2_relu_0_split -> conv9_2_conv9_2_relu_0_split_0
I0426 15:02:21.900184 20643 net.cpp:408] conv9_2_conv9_2_relu_0_split -> conv9_2_conv9_2_relu_0_split_1
I0426 15:02:21.900192 20643 net.cpp:408] conv9_2_conv9_2_relu_0_split -> conv9_2_conv9_2_relu_0_split_2
I0426 15:02:21.900239 20643 net.cpp:150] Setting up conv9_2_conv9_2_relu_0_split
I0426 15:02:21.900244 20643 net.cpp:157] Top shape: 2 256 4 4 (8192)
I0426 15:02:21.900248 20643 net.cpp:157] Top shape: 2 256 4 4 (8192)
I0426 15:02:21.900251 20643 net.cpp:157] Top shape: 2 256 4 4 (8192)
I0426 15:02:21.900255 20643 net.cpp:165] Memory required for data: 1363173440
I0426 15:02:21.900259 20643 layer_factory.hpp:77] Creating layer conv4_3_norm
I0426 15:02:21.900266 20643 net.cpp:100] Creating Layer conv4_3_norm
I0426 15:02:21.900272 20643 net.cpp:434] conv4_3_norm <- conv4_3_relu4_3_0_split_1
I0426 15:02:21.900279 20643 net.cpp:408] conv4_3_norm -> conv4_3_norm
I0426 15:02:21.900401 20643 net.cpp:150] Setting up conv4_3_norm
I0426 15:02:21.900406 20643 net.cpp:157] Top shape: 2 512 64 64 (4194304)
I0426 15:02:21.900408 20643 net.cpp:165] Memory required for data: 1379950656
I0426 15:02:21.900413 20643 layer_factory.hpp:77] Creating layer conv4_3_norm_conv4_3_norm_0_split
I0426 15:02:21.900419 20643 net.cpp:100] Creating Layer conv4_3_norm_conv4_3_norm_0_split
I0426 15:02:21.900424 20643 net.cpp:434] conv4_3_norm_conv4_3_norm_0_split <- conv4_3_norm
I0426 15:02:21.900430 20643 net.cpp:408] conv4_3_norm_conv4_3_norm_0_split -> conv4_3_norm_conv4_3_norm_0_split_0
I0426 15:02:21.900439 20643 net.cpp:408] conv4_3_norm_conv4_3_norm_0_split -> conv4_3_norm_conv4_3_norm_0_split_1
I0426 15:02:21.900446 20643 net.cpp:408] conv4_3_norm_conv4_3_norm_0_split -> conv4_3_norm_conv4_3_norm_0_split_2
I0426 15:02:21.900490 20643 net.cpp:150] Setting up conv4_3_norm_conv4_3_norm_0_split
I0426 15:02:21.900496 20643 net.cpp:157] Top shape: 2 512 64 64 (4194304)
I0426 15:02:21.900497 20643 net.cpp:157] Top shape: 2 512 64 64 (4194304)
I0426 15:02:21.900501 20643 net.cpp:157] Top shape: 2 512 64 64 (4194304)
I0426 15:02:21.900506 20643 net.cpp:165] Memory required for data: 1430282304
I0426 15:02:21.900508 20643 layer_factory.hpp:77] Creating layer conv4_3_norm_mbox_loc
I0426 15:02:21.900519 20643 net.cpp:100] Creating Layer conv4_3_norm_mbox_loc
I0426 15:02:21.900524 20643 net.cpp:434] conv4_3_norm_mbox_loc <- conv4_3_norm_conv4_3_norm_0_split_0
I0426 15:02:21.900533 20643 net.cpp:408] conv4_3_norm_mbox_loc -> conv4_3_norm_mbox_loc
I0426 15:02:21.901042 20643 net.cpp:150] Setting up conv4_3_norm_mbox_loc
I0426 15:02:21.901049 20643 net.cpp:157] Top shape: 2 16 64 64 (131072)
I0426 15:02:21.901051 20643 net.cpp:165] Memory required for data: 1430806592
I0426 15:02:21.901057 20643 layer_factory.hpp:77] Creating layer conv4_3_norm_mbox_loc_perm
I0426 15:02:21.901065 20643 net.cpp:100] Creating Layer conv4_3_norm_mbox_loc_perm
I0426 15:02:21.901070 20643 net.cpp:434] conv4_3_norm_mbox_loc_perm <- conv4_3_norm_mbox_loc
I0426 15:02:21.901093 20643 net.cpp:408] conv4_3_norm_mbox_loc_perm -> conv4_3_norm_mbox_loc_perm
I0426 15:02:21.901172 20643 net.cpp:150] Setting up conv4_3_norm_mbox_loc_perm
I0426 15:02:21.901178 20643 net.cpp:157] Top shape: 2 64 64 16 (131072)
I0426 15:02:21.901180 20643 net.cpp:165] Memory required for data: 1431330880
I0426 15:02:21.901182 20643 layer_factory.hpp:77] Creating layer conv4_3_norm_mbox_loc_flat
I0426 15:02:21.901190 20643 net.cpp:100] Creating Layer conv4_3_norm_mbox_loc_flat
I0426 15:02:21.901195 20643 net.cpp:434] conv4_3_norm_mbox_loc_flat <- conv4_3_norm_mbox_loc_perm
I0426 15:02:21.901199 20643 net.cpp:408] conv4_3_norm_mbox_loc_flat -> conv4_3_norm_mbox_loc_flat
I0426 15:02:21.901233 20643 net.cpp:150] Setting up conv4_3_norm_mbox_loc_flat
I0426 15:02:21.901239 20643 net.cpp:157] Top shape: 2 65536 (131072)
I0426 15:02:21.901242 20643 net.cpp:165] Memory required for data: 1431855168
I0426 15:02:21.901243 20643 layer_factory.hpp:77] Creating layer conv4_3_norm_mbox_conf
I0426 15:02:21.901259 20643 net.cpp:100] Creating Layer conv4_3_norm_mbox_conf
I0426 15:02:21.901266 20643 net.cpp:434] conv4_3_norm_mbox_conf <- conv4_3_norm_conv4_3_norm_0_split_1
I0426 15:02:21.901271 20643 net.cpp:408] conv4_3_norm_mbox_conf -> conv4_3_norm_mbox_conf
I0426 15:02:21.901764 20643 net.cpp:150] Setting up conv4_3_norm_mbox_conf
I0426 15:02:21.901770 20643 net.cpp:157] Top shape: 2 16 64 64 (131072)
I0426 15:02:21.901774 20643 net.cpp:165] Memory required for data: 1432379456
I0426 15:02:21.901780 20643 layer_factory.hpp:77] Creating layer conv4_3_norm_mbox_conf_perm
I0426 15:02:21.901788 20643 net.cpp:100] Creating Layer conv4_3_norm_mbox_conf_perm
I0426 15:02:21.901793 20643 net.cpp:434] conv4_3_norm_mbox_conf_perm <- conv4_3_norm_mbox_conf
I0426 15:02:21.901800 20643 net.cpp:408] conv4_3_norm_mbox_conf_perm -> conv4_3_norm_mbox_conf_perm
I0426 15:02:21.901878 20643 net.cpp:150] Setting up conv4_3_norm_mbox_conf_perm
I0426 15:02:21.901882 20643 net.cpp:157] Top shape: 2 64 64 16 (131072)
I0426 15:02:21.901885 20643 net.cpp:165] Memory required for data: 1432903744
I0426 15:02:21.901887 20643 layer_factory.hpp:77] Creating layer conv4_3_norm_mbox_conf_flat
I0426 15:02:21.901892 20643 net.cpp:100] Creating Layer conv4_3_norm_mbox_conf_flat
I0426 15:02:21.901897 20643 net.cpp:434] conv4_3_norm_mbox_conf_flat <- conv4_3_norm_mbox_conf_perm
I0426 15:02:21.901902 20643 net.cpp:408] conv4_3_norm_mbox_conf_flat -> conv4_3_norm_mbox_conf_flat
I0426 15:02:21.901931 20643 net.cpp:150] Setting up conv4_3_norm_mbox_conf_flat
I0426 15:02:21.901934 20643 net.cpp:157] Top shape: 2 65536 (131072)
I0426 15:02:21.901937 20643 net.cpp:165] Memory required for data: 1433428032
I0426 15:02:21.901938 20643 layer_factory.hpp:77] Creating layer conv4_3_norm_mbox_priorbox
I0426 15:02:21.901947 20643 net.cpp:100] Creating Layer conv4_3_norm_mbox_priorbox
I0426 15:02:21.901952 20643 net.cpp:434] conv4_3_norm_mbox_priorbox <- conv4_3_norm_conv4_3_norm_0_split_2
I0426 15:02:21.901957 20643 net.cpp:434] conv4_3_norm_mbox_priorbox <- data_data_0_split_1
I0426 15:02:21.901963 20643 net.cpp:408] conv4_3_norm_mbox_priorbox -> conv4_3_norm_mbox_priorbox
I0426 15:02:21.901993 20643 net.cpp:150] Setting up conv4_3_norm_mbox_priorbox
I0426 15:02:21.901998 20643 net.cpp:157] Top shape: 1 2 65536 (131072)
I0426 15:02:21.902000 20643 net.cpp:165] Memory required for data: 1433952320
I0426 15:02:21.902003 20643 layer_factory.hpp:77] Creating layer fc7_mbox_loc
I0426 15:02:21.902011 20643 net.cpp:100] Creating Layer fc7_mbox_loc
I0426 15:02:21.902016 20643 net.cpp:434] fc7_mbox_loc <- fc7_relu7_0_split_1
I0426 15:02:21.902025 20643 net.cpp:408] fc7_mbox_loc -> fc7_mbox_loc
I0426 15:02:21.903161 20643 net.cpp:150] Setting up fc7_mbox_loc
I0426 15:02:21.903168 20643 net.cpp:157] Top shape: 2 24 32 32 (49152)
I0426 15:02:21.903170 20643 net.cpp:165] Memory required for data: 1434148928
I0426 15:02:21.903175 20643 layer_factory.hpp:77] Creating layer fc7_mbox_loc_perm
I0426 15:02:21.903182 20643 net.cpp:100] Creating Layer fc7_mbox_loc_perm
I0426 15:02:21.903199 20643 net.cpp:434] fc7_mbox_loc_perm <- fc7_mbox_loc
I0426 15:02:21.903206 20643 net.cpp:408] fc7_mbox_loc_perm -> fc7_mbox_loc_perm
I0426 15:02:21.903283 20643 net.cpp:150] Setting up fc7_mbox_loc_perm
I0426 15:02:21.903288 20643 net.cpp:157] Top shape: 2 32 32 24 (49152)
I0426 15:02:21.903291 20643 net.cpp:165] Memory required for data: 1434345536
I0426 15:02:21.903293 20643 layer_factory.hpp:77] Creating layer fc7_mbox_loc_flat
I0426 15:02:21.903300 20643 net.cpp:100] Creating Layer fc7_mbox_loc_flat
I0426 15:02:21.903304 20643 net.cpp:434] fc7_mbox_loc_flat <- fc7_mbox_loc_perm
I0426 15:02:21.903311 20643 net.cpp:408] fc7_mbox_loc_flat -> fc7_mbox_loc_flat
I0426 15:02:21.903337 20643 net.cpp:150] Setting up fc7_mbox_loc_flat
I0426 15:02:21.903340 20643 net.cpp:157] Top shape: 2 24576 (49152)
I0426 15:02:21.903342 20643 net.cpp:165] Memory required for data: 1434542144
I0426 15:02:21.903345 20643 layer_factory.hpp:77] Creating layer fc7_mbox_conf
I0426 15:02:21.903354 20643 net.cpp:100] Creating Layer fc7_mbox_conf
I0426 15:02:21.903359 20643 net.cpp:434] fc7_mbox_conf <- fc7_relu7_0_split_2
I0426 15:02:21.903367 20643 net.cpp:408] fc7_mbox_conf -> fc7_mbox_conf
I0426 15:02:21.904489 20643 net.cpp:150] Setting up fc7_mbox_conf
I0426 15:02:21.904494 20643 net.cpp:157] Top shape: 2 24 32 32 (49152)
I0426 15:02:21.904495 20643 net.cpp:165] Memory required for data: 1434738752
I0426 15:02:21.904500 20643 layer_factory.hpp:77] Creating layer fc7_mbox_conf_perm
I0426 15:02:21.904510 20643 net.cpp:100] Creating Layer fc7_mbox_conf_perm
I0426 15:02:21.904515 20643 net.cpp:434] fc7_mbox_conf_perm <- fc7_mbox_conf
I0426 15:02:21.904520 20643 net.cpp:408] fc7_mbox_conf_perm -> fc7_mbox_conf_perm
I0426 15:02:21.904595 20643 net.cpp:150] Setting up fc7_mbox_conf_perm
I0426 15:02:21.904602 20643 net.cpp:157] Top shape: 2 32 32 24 (49152)
I0426 15:02:21.904603 20643 net.cpp:165] Memory required for data: 1434935360
I0426 15:02:21.904605 20643 layer_factory.hpp:77] Creating layer fc7_mbox_conf_flat
I0426 15:02:21.904610 20643 net.cpp:100] Creating Layer fc7_mbox_conf_flat
I0426 15:02:21.904616 20643 net.cpp:434] fc7_mbox_conf_flat <- fc7_mbox_conf_perm
I0426 15:02:21.904621 20643 net.cpp:408] fc7_mbox_conf_flat -> fc7_mbox_conf_flat
I0426 15:02:21.904646 20643 net.cpp:150] Setting up fc7_mbox_conf_flat
I0426 15:02:21.904651 20643 net.cpp:157] Top shape: 2 24576 (49152)
I0426 15:02:21.904654 20643 net.cpp:165] Memory required for data: 1435131968
I0426 15:02:21.904655 20643 layer_factory.hpp:77] Creating layer fc7_mbox_priorbox
I0426 15:02:21.904662 20643 net.cpp:100] Creating Layer fc7_mbox_priorbox
I0426 15:02:21.904666 20643 net.cpp:434] fc7_mbox_priorbox <- fc7_relu7_0_split_3
I0426 15:02:21.904673 20643 net.cpp:434] fc7_mbox_priorbox <- data_data_0_split_2
I0426 15:02:21.904680 20643 net.cpp:408] fc7_mbox_priorbox -> fc7_mbox_priorbox
I0426 15:02:21.904707 20643 net.cpp:150] Setting up fc7_mbox_priorbox
I0426 15:02:21.904711 20643 net.cpp:157] Top shape: 1 2 24576 (49152)
I0426 15:02:21.904714 20643 net.cpp:165] Memory required for data: 1435328576
I0426 15:02:21.904716 20643 layer_factory.hpp:77] Creating layer conv6_2_mbox_loc
I0426 15:02:21.904726 20643 net.cpp:100] Creating Layer conv6_2_mbox_loc
I0426 15:02:21.904731 20643 net.cpp:434] conv6_2_mbox_loc <- conv6_2_conv6_2_relu_0_split_1
I0426 15:02:21.904742 20643 net.cpp:408] conv6_2_mbox_loc -> conv6_2_mbox_loc
I0426 15:02:21.905414 20643 net.cpp:150] Setting up conv6_2_mbox_loc
I0426 15:02:21.905421 20643 net.cpp:157] Top shape: 2 24 16 16 (12288)
I0426 15:02:21.905422 20643 net.cpp:165] Memory required for data: 1435377728
I0426 15:02:21.905428 20643 layer_factory.hpp:77] Creating layer conv6_2_mbox_loc_perm
I0426 15:02:21.905436 20643 net.cpp:100] Creating Layer conv6_2_mbox_loc_perm
I0426 15:02:21.905441 20643 net.cpp:434] conv6_2_mbox_loc_perm <- conv6_2_mbox_loc
I0426 15:02:21.905447 20643 net.cpp:408] conv6_2_mbox_loc_perm -> conv6_2_mbox_loc_perm
I0426 15:02:21.905522 20643 net.cpp:150] Setting up conv6_2_mbox_loc_perm
I0426 15:02:21.905540 20643 net.cpp:157] Top shape: 2 16 16 24 (12288)
I0426 15:02:21.905542 20643 net.cpp:165] Memory required for data: 1435426880
I0426 15:02:21.905545 20643 layer_factory.hpp:77] Creating layer conv6_2_mbox_loc_flat
I0426 15:02:21.905551 20643 net.cpp:100] Creating Layer conv6_2_mbox_loc_flat
I0426 15:02:21.905556 20643 net.cpp:434] conv6_2_mbox_loc_flat <- conv6_2_mbox_loc_perm
I0426 15:02:21.905561 20643 net.cpp:408] conv6_2_mbox_loc_flat -> conv6_2_mbox_loc_flat
I0426 15:02:21.905587 20643 net.cpp:150] Setting up conv6_2_mbox_loc_flat
I0426 15:02:21.905592 20643 net.cpp:157] Top shape: 2 6144 (12288)
I0426 15:02:21.905594 20643 net.cpp:165] Memory required for data: 1435476032
I0426 15:02:21.905596 20643 layer_factory.hpp:77] Creating layer conv6_2_mbox_conf
I0426 15:02:21.905604 20643 net.cpp:100] Creating Layer conv6_2_mbox_conf
I0426 15:02:21.905611 20643 net.cpp:434] conv6_2_mbox_conf <- conv6_2_conv6_2_relu_0_split_2
I0426 15:02:21.905617 20643 net.cpp:408] conv6_2_mbox_conf -> conv6_2_mbox_conf
I0426 15:02:21.906270 20643 net.cpp:150] Setting up conv6_2_mbox_conf
I0426 15:02:21.906276 20643 net.cpp:157] Top shape: 2 24 16 16 (12288)
I0426 15:02:21.906278 20643 net.cpp:165] Memory required for data: 1435525184
I0426 15:02:21.906283 20643 layer_factory.hpp:77] Creating layer conv6_2_mbox_conf_perm
I0426 15:02:21.906291 20643 net.cpp:100] Creating Layer conv6_2_mbox_conf_perm
I0426 15:02:21.906296 20643 net.cpp:434] conv6_2_mbox_conf_perm <- conv6_2_mbox_conf
I0426 15:02:21.906303 20643 net.cpp:408] conv6_2_mbox_conf_perm -> conv6_2_mbox_conf_perm
I0426 15:02:21.906379 20643 net.cpp:150] Setting up conv6_2_mbox_conf_perm
I0426 15:02:21.906384 20643 net.cpp:157] Top shape: 2 16 16 24 (12288)
I0426 15:02:21.906385 20643 net.cpp:165] Memory required for data: 1435574336
I0426 15:02:21.906389 20643 layer_factory.hpp:77] Creating layer conv6_2_mbox_conf_flat
I0426 15:02:21.906394 20643 net.cpp:100] Creating Layer conv6_2_mbox_conf_flat
I0426 15:02:21.906399 20643 net.cpp:434] conv6_2_mbox_conf_flat <- conv6_2_mbox_conf_perm
I0426 15:02:21.906405 20643 net.cpp:408] conv6_2_mbox_conf_flat -> conv6_2_mbox_conf_flat
I0426 15:02:21.906430 20643 net.cpp:150] Setting up conv6_2_mbox_conf_flat
I0426 15:02:21.906435 20643 net.cpp:157] Top shape: 2 6144 (12288)
I0426 15:02:21.906436 20643 net.cpp:165] Memory required for data: 1435623488
I0426 15:02:21.906438 20643 layer_factory.hpp:77] Creating layer conv6_2_mbox_priorbox
I0426 15:02:21.906446 20643 net.cpp:100] Creating Layer conv6_2_mbox_priorbox
I0426 15:02:21.906451 20643 net.cpp:434] conv6_2_mbox_priorbox <- conv6_2_conv6_2_relu_0_split_3
I0426 15:02:21.906456 20643 net.cpp:434] conv6_2_mbox_priorbox <- data_data_0_split_3
I0426 15:02:21.906464 20643 net.cpp:408] conv6_2_mbox_priorbox -> conv6_2_mbox_priorbox
I0426 15:02:21.906491 20643 net.cpp:150] Setting up conv6_2_mbox_priorbox
I0426 15:02:21.906497 20643 net.cpp:157] Top shape: 1 2 6144 (12288)
I0426 15:02:21.906497 20643 net.cpp:165] Memory required for data: 1435672640
I0426 15:02:21.906500 20643 layer_factory.hpp:77] Creating layer conv7_2_mbox_loc
I0426 15:02:21.906509 20643 net.cpp:100] Creating Layer conv7_2_mbox_loc
I0426 15:02:21.906514 20643 net.cpp:434] conv7_2_mbox_loc <- conv7_2_conv7_2_relu_0_split_1
I0426 15:02:21.906522 20643 net.cpp:408] conv7_2_mbox_loc -> conv7_2_mbox_loc
I0426 15:02:21.906944 20643 net.cpp:150] Setting up conv7_2_mbox_loc
I0426 15:02:21.906949 20643 net.cpp:157] Top shape: 2 24 8 8 (3072)
I0426 15:02:21.906951 20643 net.cpp:165] Memory required for data: 1435684928
I0426 15:02:21.906956 20643 layer_factory.hpp:77] Creating layer conv7_2_mbox_loc_perm
I0426 15:02:21.906963 20643 net.cpp:100] Creating Layer conv7_2_mbox_loc_perm
I0426 15:02:21.906970 20643 net.cpp:434] conv7_2_mbox_loc_perm <- conv7_2_mbox_loc
I0426 15:02:21.906975 20643 net.cpp:408] conv7_2_mbox_loc_perm -> conv7_2_mbox_loc_perm
I0426 15:02:21.907052 20643 net.cpp:150] Setting up conv7_2_mbox_loc_perm
I0426 15:02:21.907058 20643 net.cpp:157] Top shape: 2 8 8 24 (3072)
I0426 15:02:21.907059 20643 net.cpp:165] Memory required for data: 1435697216
I0426 15:02:21.907073 20643 layer_factory.hpp:77] Creating layer conv7_2_mbox_loc_flat
I0426 15:02:21.907079 20643 net.cpp:100] Creating Layer conv7_2_mbox_loc_flat
I0426 15:02:21.907083 20643 net.cpp:434] conv7_2_mbox_loc_flat <- conv7_2_mbox_loc_perm
I0426 15:02:21.907091 20643 net.cpp:408] conv7_2_mbox_loc_flat -> conv7_2_mbox_loc_flat
I0426 15:02:21.907117 20643 net.cpp:150] Setting up conv7_2_mbox_loc_flat
I0426 15:02:21.907121 20643 net.cpp:157] Top shape: 2 1536 (3072)
I0426 15:02:21.907124 20643 net.cpp:165] Memory required for data: 1435709504
I0426 15:02:21.907126 20643 layer_factory.hpp:77] Creating layer conv7_2_mbox_conf
I0426 15:02:21.907135 20643 net.cpp:100] Creating Layer conv7_2_mbox_conf
I0426 15:02:21.907140 20643 net.cpp:434] conv7_2_mbox_conf <- conv7_2_conv7_2_relu_0_split_2
I0426 15:02:21.907148 20643 net.cpp:408] conv7_2_mbox_conf -> conv7_2_mbox_conf
I0426 15:02:21.907564 20643 net.cpp:150] Setting up conv7_2_mbox_conf
I0426 15:02:21.907570 20643 net.cpp:157] Top shape: 2 24 8 8 (3072)
I0426 15:02:21.907572 20643 net.cpp:165] Memory required for data: 1435721792
I0426 15:02:21.907577 20643 layer_factory.hpp:77] Creating layer conv7_2_mbox_conf_perm
I0426 15:02:21.907584 20643 net.cpp:100] Creating Layer conv7_2_mbox_conf_perm
I0426 15:02:21.907589 20643 net.cpp:434] conv7_2_mbox_conf_perm <- conv7_2_mbox_conf
I0426 15:02:21.907595 20643 net.cpp:408] conv7_2_mbox_conf_perm -> conv7_2_mbox_conf_perm
I0426 15:02:21.907671 20643 net.cpp:150] Setting up conv7_2_mbox_conf_perm
I0426 15:02:21.907676 20643 net.cpp:157] Top shape: 2 8 8 24 (3072)
I0426 15:02:21.907678 20643 net.cpp:165] Memory required for data: 1435734080
I0426 15:02:21.907680 20643 layer_factory.hpp:77] Creating layer conv7_2_mbox_conf_flat
I0426 15:02:21.907686 20643 net.cpp:100] Creating Layer conv7_2_mbox_conf_flat
I0426 15:02:21.907691 20643 net.cpp:434] conv7_2_mbox_conf_flat <- conv7_2_mbox_conf_perm
I0426 15:02:21.907697 20643 net.cpp:408] conv7_2_mbox_conf_flat -> conv7_2_mbox_conf_flat
I0426 15:02:21.907721 20643 net.cpp:150] Setting up conv7_2_mbox_conf_flat
I0426 15:02:21.907727 20643 net.cpp:157] Top shape: 2 1536 (3072)
I0426 15:02:21.907728 20643 net.cpp:165] Memory required for data: 1435746368
I0426 15:02:21.907730 20643 layer_factory.hpp:77] Creating layer conv7_2_mbox_priorbox
I0426 15:02:21.907737 20643 net.cpp:100] Creating Layer conv7_2_mbox_priorbox
I0426 15:02:21.907742 20643 net.cpp:434] conv7_2_mbox_priorbox <- conv7_2_conv7_2_relu_0_split_3
I0426 15:02:21.907748 20643 net.cpp:434] conv7_2_mbox_priorbox <- data_data_0_split_4
I0426 15:02:21.907755 20643 net.cpp:408] conv7_2_mbox_priorbox -> conv7_2_mbox_priorbox
I0426 15:02:21.907783 20643 net.cpp:150] Setting up conv7_2_mbox_priorbox
I0426 15:02:21.907788 20643 net.cpp:157] Top shape: 1 2 1536 (3072)
I0426 15:02:21.907789 20643 net.cpp:165] Memory required for data: 1435758656
I0426 15:02:21.907791 20643 layer_factory.hpp:77] Creating layer conv8_2_mbox_loc
I0426 15:02:21.907800 20643 net.cpp:100] Creating Layer conv8_2_mbox_loc
I0426 15:02:21.907805 20643 net.cpp:434] conv8_2_mbox_loc <- conv8_2_conv8_2_relu_0_split_1
I0426 15:02:21.907814 20643 net.cpp:408] conv8_2_mbox_loc -> conv8_2_mbox_loc
I0426 15:02:21.908154 20643 net.cpp:150] Setting up conv8_2_mbox_loc
I0426 15:02:21.908159 20643 net.cpp:157] Top shape: 2 16 6 6 (1152)
I0426 15:02:21.908160 20643 net.cpp:165] Memory required for data: 1435763264
I0426 15:02:21.908175 20643 layer_factory.hpp:77] Creating layer conv8_2_mbox_loc_perm
I0426 15:02:21.908184 20643 net.cpp:100] Creating Layer conv8_2_mbox_loc_perm
I0426 15:02:21.908187 20643 net.cpp:434] conv8_2_mbox_loc_perm <- conv8_2_mbox_loc
I0426 15:02:21.908193 20643 net.cpp:408] conv8_2_mbox_loc_perm -> conv8_2_mbox_loc_perm
I0426 15:02:21.908274 20643 net.cpp:150] Setting up conv8_2_mbox_loc_perm
I0426 15:02:21.908279 20643 net.cpp:157] Top shape: 2 6 6 16 (1152)
I0426 15:02:21.908280 20643 net.cpp:165] Memory required for data: 1435767872
I0426 15:02:21.908282 20643 layer_factory.hpp:77] Creating layer conv8_2_mbox_loc_flat
I0426 15:02:21.908299 20643 net.cpp:100] Creating Layer conv8_2_mbox_loc_flat
I0426 15:02:21.908304 20643 net.cpp:434] conv8_2_mbox_loc_flat <- conv8_2_mbox_loc_perm
I0426 15:02:21.908310 20643 net.cpp:408] conv8_2_mbox_loc_flat -> conv8_2_mbox_loc_flat
I0426 15:02:21.908336 20643 net.cpp:150] Setting up conv8_2_mbox_loc_flat
I0426 15:02:21.908341 20643 net.cpp:157] Top shape: 2 576 (1152)
I0426 15:02:21.908342 20643 net.cpp:165] Memory required for data: 1435772480
I0426 15:02:21.908344 20643 layer_factory.hpp:77] Creating layer conv8_2_mbox_conf
I0426 15:02:21.908354 20643 net.cpp:100] Creating Layer conv8_2_mbox_conf
I0426 15:02:21.908359 20643 net.cpp:434] conv8_2_mbox_conf <- conv8_2_conv8_2_relu_0_split_2
I0426 15:02:21.908365 20643 net.cpp:408] conv8_2_mbox_conf -> conv8_2_mbox_conf
I0426 15:02:21.908700 20643 net.cpp:150] Setting up conv8_2_mbox_conf
I0426 15:02:21.908705 20643 net.cpp:157] Top shape: 2 16 6 6 (1152)
I0426 15:02:21.908707 20643 net.cpp:165] Memory required for data: 1435777088
I0426 15:02:21.908712 20643 layer_factory.hpp:77] Creating layer conv8_2_mbox_conf_perm
I0426 15:02:21.908720 20643 net.cpp:100] Creating Layer conv8_2_mbox_conf_perm
I0426 15:02:21.908725 20643 net.cpp:434] conv8_2_mbox_conf_perm <- conv8_2_mbox_conf
I0426 15:02:21.908732 20643 net.cpp:408] conv8_2_mbox_conf_perm -> conv8_2_mbox_conf_perm
I0426 15:02:21.908807 20643 net.cpp:150] Setting up conv8_2_mbox_conf_perm
I0426 15:02:21.908812 20643 net.cpp:157] Top shape: 2 6 6 16 (1152)
I0426 15:02:21.908813 20643 net.cpp:165] Memory required for data: 1435781696
I0426 15:02:21.908816 20643 layer_factory.hpp:77] Creating layer conv8_2_mbox_conf_flat
I0426 15:02:21.908821 20643 net.cpp:100] Creating Layer conv8_2_mbox_conf_flat
I0426 15:02:21.908825 20643 net.cpp:434] conv8_2_mbox_conf_flat <- conv8_2_mbox_conf_perm
I0426 15:02:21.908831 20643 net.cpp:408] conv8_2_mbox_conf_flat -> conv8_2_mbox_conf_flat
I0426 15:02:21.908865 20643 net.cpp:150] Setting up conv8_2_mbox_conf_flat
I0426 15:02:21.908870 20643 net.cpp:157] Top shape: 2 576 (1152)
I0426 15:02:21.908872 20643 net.cpp:165] Memory required for data: 1435786304
I0426 15:02:21.908874 20643 layer_factory.hpp:77] Creating layer conv8_2_mbox_priorbox
I0426 15:02:21.908881 20643 net.cpp:100] Creating Layer conv8_2_mbox_priorbox
I0426 15:02:21.908886 20643 net.cpp:434] conv8_2_mbox_priorbox <- conv8_2_conv8_2_relu_0_split_3
I0426 15:02:21.908891 20643 net.cpp:434] conv8_2_mbox_priorbox <- data_data_0_split_5
I0426 15:02:21.908898 20643 net.cpp:408] conv8_2_mbox_priorbox -> conv8_2_mbox_priorbox
I0426 15:02:21.908926 20643 net.cpp:150] Setting up conv8_2_mbox_priorbox
I0426 15:02:21.908931 20643 net.cpp:157] Top shape: 1 2 576 (1152)
I0426 15:02:21.908933 20643 net.cpp:165] Memory required for data: 1435790912
I0426 15:02:21.908936 20643 layer_factory.hpp:77] Creating layer conv9_2_mbox_loc
I0426 15:02:21.908944 20643 net.cpp:100] Creating Layer conv9_2_mbox_loc
I0426 15:02:21.908949 20643 net.cpp:434] conv9_2_mbox_loc <- conv9_2_conv9_2_relu_0_split_0
I0426 15:02:21.908957 20643 net.cpp:408] conv9_2_mbox_loc -> conv9_2_mbox_loc
I0426 15:02:21.910089 20643 net.cpp:150] Setting up conv9_2_mbox_loc
I0426 15:02:21.910099 20643 net.cpp:157] Top shape: 2 16 4 4 (512)
I0426 15:02:21.910100 20643 net.cpp:165] Memory required for data: 1435792960
I0426 15:02:21.910106 20643 layer_factory.hpp:77] Creating layer conv9_2_mbox_loc_perm
I0426 15:02:21.910115 20643 net.cpp:100] Creating Layer conv9_2_mbox_loc_perm
I0426 15:02:21.910120 20643 net.cpp:434] conv9_2_mbox_loc_perm <- conv9_2_mbox_loc
I0426 15:02:21.910127 20643 net.cpp:408] conv9_2_mbox_loc_perm -> conv9_2_mbox_loc_perm
I0426 15:02:21.910207 20643 net.cpp:150] Setting up conv9_2_mbox_loc_perm
I0426 15:02:21.910212 20643 net.cpp:157] Top shape: 2 4 4 16 (512)
I0426 15:02:21.910214 20643 net.cpp:165] Memory required for data: 1435795008
I0426 15:02:21.910218 20643 layer_factory.hpp:77] Creating layer conv9_2_mbox_loc_flat
I0426 15:02:21.910223 20643 net.cpp:100] Creating Layer conv9_2_mbox_loc_flat
I0426 15:02:21.910241 20643 net.cpp:434] conv9_2_mbox_loc_flat <- conv9_2_mbox_loc_perm
I0426 15:02:21.910248 20643 net.cpp:408] conv9_2_mbox_loc_flat -> conv9_2_mbox_loc_flat
I0426 15:02:21.910275 20643 net.cpp:150] Setting up conv9_2_mbox_loc_flat
I0426 15:02:21.910279 20643 net.cpp:157] Top shape: 2 256 (512)
I0426 15:02:21.910281 20643 net.cpp:165] Memory required for data: 1435797056
I0426 15:02:21.910284 20643 layer_factory.hpp:77] Creating layer conv9_2_mbox_conf
I0426 15:02:21.910293 20643 net.cpp:100] Creating Layer conv9_2_mbox_conf
I0426 15:02:21.910298 20643 net.cpp:434] conv9_2_mbox_conf <- conv9_2_conv9_2_relu_0_split_1
I0426 15:02:21.910305 20643 net.cpp:408] conv9_2_mbox_conf -> conv9_2_mbox_conf
I0426 15:02:21.910639 20643 net.cpp:150] Setting up conv9_2_mbox_conf
I0426 15:02:21.910643 20643 net.cpp:157] Top shape: 2 16 4 4 (512)
I0426 15:02:21.910645 20643 net.cpp:165] Memory required for data: 1435799104
I0426 15:02:21.910650 20643 layer_factory.hpp:77] Creating layer conv9_2_mbox_conf_perm
I0426 15:02:21.910658 20643 net.cpp:100] Creating Layer conv9_2_mbox_conf_perm
I0426 15:02:21.910665 20643 net.cpp:434] conv9_2_mbox_conf_perm <- conv9_2_mbox_conf
I0426 15:02:21.910671 20643 net.cpp:408] conv9_2_mbox_conf_perm -> conv9_2_mbox_conf_perm
I0426 15:02:21.910749 20643 net.cpp:150] Setting up conv9_2_mbox_conf_perm
I0426 15:02:21.910754 20643 net.cpp:157] Top shape: 2 4 4 16 (512)
I0426 15:02:21.910755 20643 net.cpp:165] Memory required for data: 1435801152
I0426 15:02:21.910758 20643 layer_factory.hpp:77] Creating layer conv9_2_mbox_conf_flat
I0426 15:02:21.910763 20643 net.cpp:100] Creating Layer conv9_2_mbox_conf_flat
I0426 15:02:21.910768 20643 net.cpp:434] conv9_2_mbox_conf_flat <- conv9_2_mbox_conf_perm
I0426 15:02:21.910774 20643 net.cpp:408] conv9_2_mbox_conf_flat -> conv9_2_mbox_conf_flat
I0426 15:02:21.910799 20643 net.cpp:150] Setting up conv9_2_mbox_conf_flat
I0426 15:02:21.910804 20643 net.cpp:157] Top shape: 2 256 (512)
I0426 15:02:21.910806 20643 net.cpp:165] Memory required for data: 1435803200
I0426 15:02:21.910809 20643 layer_factory.hpp:77] Creating layer conv9_2_mbox_priorbox
I0426 15:02:21.910815 20643 net.cpp:100] Creating Layer conv9_2_mbox_priorbox
I0426 15:02:21.910820 20643 net.cpp:434] conv9_2_mbox_priorbox <- conv9_2_conv9_2_relu_0_split_2
I0426 15:02:21.910826 20643 net.cpp:434] conv9_2_mbox_priorbox <- data_data_0_split_6
I0426 15:02:21.910835 20643 net.cpp:408] conv9_2_mbox_priorbox -> conv9_2_mbox_priorbox
I0426 15:02:21.910861 20643 net.cpp:150] Setting up conv9_2_mbox_priorbox
I0426 15:02:21.910866 20643 net.cpp:157] Top shape: 1 2 256 (512)
I0426 15:02:21.910867 20643 net.cpp:165] Memory required for data: 1435805248
I0426 15:02:21.910871 20643 layer_factory.hpp:77] Creating layer mbox_loc
I0426 15:02:21.910877 20643 net.cpp:100] Creating Layer mbox_loc
I0426 15:02:21.910883 20643 net.cpp:434] mbox_loc <- conv4_3_norm_mbox_loc_flat
I0426 15:02:21.910890 20643 net.cpp:434] mbox_loc <- fc7_mbox_loc_flat
I0426 15:02:21.910897 20643 net.cpp:434] mbox_loc <- conv6_2_mbox_loc_flat
I0426 15:02:21.910902 20643 net.cpp:434] mbox_loc <- conv7_2_mbox_loc_flat
I0426 15:02:21.910907 20643 net.cpp:434] mbox_loc <- conv8_2_mbox_loc_flat
I0426 15:02:21.910913 20643 net.cpp:434] mbox_loc <- conv9_2_mbox_loc_flat
I0426 15:02:21.910919 20643 net.cpp:408] mbox_loc -> mbox_loc
I0426 15:02:21.910948 20643 net.cpp:150] Setting up mbox_loc
I0426 15:02:21.910951 20643 net.cpp:157] Top shape: 2 98624 (197248)
I0426 15:02:21.910954 20643 net.cpp:165] Memory required for data: 1436594240
I0426 15:02:21.910957 20643 layer_factory.hpp:77] Creating layer mbox_conf
I0426 15:02:21.910964 20643 net.cpp:100] Creating Layer mbox_conf
I0426 15:02:21.910969 20643 net.cpp:434] mbox_conf <- conv4_3_norm_mbox_conf_flat
I0426 15:02:21.910974 20643 net.cpp:434] mbox_conf <- fc7_mbox_conf_flat
I0426 15:02:21.910980 20643 net.cpp:434] mbox_conf <- conv6_2_mbox_conf_flat
I0426 15:02:21.910985 20643 net.cpp:434] mbox_conf <- conv7_2_mbox_conf_flat
I0426 15:02:21.910989 20643 net.cpp:434] mbox_conf <- conv8_2_mbox_conf_flat
I0426 15:02:21.911005 20643 net.cpp:434] mbox_conf <- conv9_2_mbox_conf_flat
I0426 15:02:21.911010 20643 net.cpp:408] mbox_conf -> mbox_conf
I0426 15:02:21.911036 20643 net.cpp:150] Setting up mbox_conf
I0426 15:02:21.911041 20643 net.cpp:157] Top shape: 2 98624 (197248)
I0426 15:02:21.911043 20643 net.cpp:165] Memory required for data: 1437383232
I0426 15:02:21.911046 20643 layer_factory.hpp:77] Creating layer mbox_priorbox
I0426 15:02:21.911052 20643 net.cpp:100] Creating Layer mbox_priorbox
I0426 15:02:21.911057 20643 net.cpp:434] mbox_priorbox <- conv4_3_norm_mbox_priorbox
I0426 15:02:21.911064 20643 net.cpp:434] mbox_priorbox <- fc7_mbox_priorbox
I0426 15:02:21.911069 20643 net.cpp:434] mbox_priorbox <- conv6_2_mbox_priorbox
I0426 15:02:21.911074 20643 net.cpp:434] mbox_priorbox <- conv7_2_mbox_priorbox
I0426 15:02:21.911079 20643 net.cpp:434] mbox_priorbox <- conv8_2_mbox_priorbox
I0426 15:02:21.911084 20643 net.cpp:434] mbox_priorbox <- conv9_2_mbox_priorbox
I0426 15:02:21.911090 20643 net.cpp:408] mbox_priorbox -> mbox_priorbox
I0426 15:02:21.911115 20643 net.cpp:150] Setting up mbox_priorbox
I0426 15:02:21.911120 20643 net.cpp:157] Top shape: 1 2 98624 (197248)
I0426 15:02:21.911123 20643 net.cpp:165] Memory required for data: 1438172224
I0426 15:02:21.911124 20643 layer_factory.hpp:77] Creating layer mbox_conf_reshape
I0426 15:02:21.911134 20643 net.cpp:100] Creating Layer mbox_conf_reshape
I0426 15:02:21.911137 20643 net.cpp:434] mbox_conf_reshape <- mbox_conf
I0426 15:02:21.911145 20643 net.cpp:408] mbox_conf_reshape -> mbox_conf_reshape
I0426 15:02:21.911180 20643 net.cpp:150] Setting up mbox_conf_reshape
I0426 15:02:21.911185 20643 net.cpp:157] Top shape: 2 24656 4 (197248)
I0426 15:02:21.911186 20643 net.cpp:165] Memory required for data: 1438961216
I0426 15:02:21.911190 20643 layer_factory.hpp:77] Creating layer mbox_conf_softmax
I0426 15:02:21.911195 20643 net.cpp:100] Creating Layer mbox_conf_softmax
I0426 15:02:21.911201 20643 net.cpp:434] mbox_conf_softmax <- mbox_conf_reshape
I0426 15:02:21.911206 20643 net.cpp:408] mbox_conf_softmax -> mbox_conf_softmax
I0426 15:02:21.911260 20643 net.cpp:150] Setting up mbox_conf_softmax
I0426 15:02:21.911265 20643 net.cpp:157] Top shape: 2 24656 4 (197248)
I0426 15:02:21.911267 20643 net.cpp:165] Memory required for data: 1439750208
I0426 15:02:21.911270 20643 layer_factory.hpp:77] Creating layer mbox_conf_flatten
I0426 15:02:21.911278 20643 net.cpp:100] Creating Layer mbox_conf_flatten
I0426 15:02:21.911283 20643 net.cpp:434] mbox_conf_flatten <- mbox_conf_softmax
I0426 15:02:21.911288 20643 net.cpp:408] mbox_conf_flatten -> mbox_conf_flatten
I0426 15:02:21.911312 20643 net.cpp:150] Setting up mbox_conf_flatten
I0426 15:02:21.911317 20643 net.cpp:157] Top shape: 2 98624 (197248)
I0426 15:02:21.911319 20643 net.cpp:165] Memory required for data: 1440539200
I0426 15:02:21.911321 20643 layer_factory.hpp:77] Creating layer detection_out
I0426 15:02:21.911335 20643 net.cpp:100] Creating Layer detection_out
I0426 15:02:21.911341 20643 net.cpp:434] detection_out <- mbox_loc
I0426 15:02:21.911345 20643 net.cpp:434] detection_out <- mbox_conf_flatten
I0426 15:02:21.911350 20643 net.cpp:434] detection_out <- mbox_priorbox
I0426 15:02:21.911360 20643 net.cpp:408] detection_out -> detection_out
I0426 15:02:21.954228 20643 net.cpp:150] Setting up detection_out
I0426 15:02:21.954263 20643 net.cpp:157] Top shape: 1 1 1 7 (7)
I0426 15:02:21.954268 20643 net.cpp:165] Memory required for data: 1440539228
I0426 15:02:21.954277 20643 layer_factory.hpp:77] Creating layer detection_eval
I0426 15:02:21.954298 20643 net.cpp:100] Creating Layer detection_eval
I0426 15:02:21.954308 20643 net.cpp:434] detection_eval <- detection_out
I0426 15:02:21.954318 20643 net.cpp:434] detection_eval <- label
I0426 15:02:21.954329 20643 net.cpp:408] detection_eval -> detection_eval
I0426 15:02:21.955044 20643 net.cpp:150] Setting up detection_eval
I0426 15:02:21.955063 20643 net.cpp:157] Top shape: 1 1 4 5 (20)
I0426 15:02:21.955070 20643 net.cpp:165] Memory required for data: 1440539308
I0426 15:02:21.955077 20643 net.cpp:228] detection_eval does not need backward computation.
I0426 15:02:21.955127 20643 net.cpp:228] detection_out does not need backward computation.
I0426 15:02:21.955137 20643 net.cpp:228] mbox_conf_flatten does not need backward computation.
I0426 15:02:21.955143 20643 net.cpp:228] mbox_conf_softmax does not need backward computation.
…
